s10lre4e3CCM_MADRL_MEC/model/MAPPO/0-Actor.pth (torch, 24135 bytes, 10 tensors)

fc1.weight f4 [128, 7]
0.20359355 0.34068415 0.076416254 0.107411675 0.30302086 0.33497193 0.18203823 0.1679376
0.16765481 0.34334013 0.26040918 0.03174801 0.096086636 0.40391746 -0.14975925 0.11866764
0.1554336 0.07766688 -0.10553406 0.05720858 -0.14681508 -0.41332668 0.29749072 0.112554684
0.16089904 0.33532596 0.20464632 -0.27398217 -0.3930778 0.25823087 0.0236701 -0.3303356
0.018403964 0.20612572 0.20032173 -0.34894922 -0.08655819 0.088112466 0.40173963 0.13774312
0.041807454 0.2842628 0.017872373 0.4433257 -0.10603037 -0.11941845 0.38152817 -0.17861024
0.1198718 0.4872532 0.41155076 -0.29156664 0.3601811 0.2425132 -0.037085496 -0.00047488106
0.23164915 -0.047509167 0.35795817 0.28187913 -0.31869668 0.24278986 0.37926406 0.16440152
-0.32510737 0.23328921 -0.2946202 -0.2881365 0.13890502 0.1897149 0.07451838 0.43369833
-0.26908875 -0.27471364 -0.26043475 -0.047494754 0.48510435 0.5485467 0.26688161 0.22232588
-0.112644374 0.37309775 -0.23258038 0.3869092 -0.45838016 -0.14111017 -0.09886377 0.34010148
0.32140917 -0.19100526 0.42733908 0.62446433 -0.0059149847 0.40975934 0.08033566 -0.13472961
-0.20627455 0.3501133 0.09372537 -0.23352015 -0.18041378 -0.002204087 0.017505957 -0.045986895
-0.38655764 0.04314705 -0.35352927 -0.34063077 -0.12856016 -0.3196243 0.17252003 0.13740267
0.16265053 0.008472335 -0.23425193 -0.31950304 0.13280109 -0.145153 -0.009995971 -0.22869723
-0.071040824 0.23235705 0.532465 0.0077521964 -0.16010721 0.21900766 -0.3242261 0.21396896
0.09017946 -0.10539593 -0.27737534 -0.0017209791 0.22301997 0.14738049 -0.26602748 -0.18596505
-0.2635166 -0.25632754 -0.342269 -0.025426872 -0.16717374 0.060223233 0.0020740586 0.04097358
0.27540898 0.34620064 0.39365298 0.40192574 0.33118168 -0.2641347 0.066942476 0.3004629
-0.08202727 -0.16310382 0.48440903 -0.029847454 0.3361876 0.084820695 -0.15944918 -0.10032811
0.38781142 -0.19273835 -0.060370285 -0.1967478 -0.28655416 0.20854847 0.055113267 0.50135404
-0.07484236 -0.09655163 0.24552749 0.113172464 -0.34975025 -0.2922008 -0.004385978 -0.147311
-0.17935231 0.3431916 -0.3401166 0.1264405 -0.25567514 -0.17826077 -0.08464053 0.38567308
-0.28218246 -0.3080962 -0.15533407 0.32585984 -0.0014577693 -0.2678563 0.19121037 0.2239253
0.31287798 0.3159026 -0.2335267 -0.1093968 -0.28130838 -0.35824192 0.26934993 0.37428802
0.07687928 -0.09692148 0.18057108 0.35846213 0.08914328 0.3894133 -0.4772205 0.17403892
0.21657649 0.19915392 0.4850558 0.4627002 0.37668175 0.100260966 -0.18101367 0.12165217
-0.003147069 0.007682651 -0.364737 0.39513922 -0.012519081 0.068715766 0.115178905 0.08932079
0.047210682 0.26477098 0.33920622 0.2396757 -0.08616493 0.26606202 -0.20822188 -0.1409817
0.4168582 0.049141053 0.21383297 0.3755814 0.1715726 0.017720107 -0.03129515 -0.24673294
-0.036448807 0.22846983 -0.263384 0.10688574 -0.15701379 -0.06825075 0.14130387 -0.04819277
0.28251272 -0.41559967 -0.17299968 0.17530191 0.5137527 0.2697994 0.26118368 0.3707025
00000000: d47a 503e 276e ae3e 2080 9c3d a7fa db3d
00000010: 8d25 9b3e 7181 ab3e 3b68 3a3e d6f7 2b3e
00000020: b4ad 2b3e 47ca af3e 5a54 853e 340a 023d
00000030: 12c9 c43d 45ce ce3e 7d5a 19be 0508 f33d
00000040: fc29 1f3e d00f 9f3d 3e22 d8bd 8b53 6a3d
00000050: b156 16be 8e9f d3be b450 983e 1283 e63d
00000060: b8c2 243e d8af ab3e ce8e 513e 6447 8cbe
00000070: 7e41 c9be d636 843e cce7 c13c bf21 a9be
00000080: e9c3 963c 9f12 533e 2421 4d3e 79a9 b2be
00000090: 6c45 b1bd 4f74 b43d d1b0 cd3e 880c 0d3e
000000a0: 4b3e 2b3d e58a 913e 1569 923c 96fb e23e
000000b0: 7326 d9bd a991 f4bd a957 c33e 9ae5 36be
000000c0: 597f f53d 4079 f93e c8b6 d23e 3948 95be
000000d0: a869 b83e 6155 783e f6e6 17bd 75f9 f8b9
000000e0: 6f35 6d3e f998 42bd 4b46 b73e 7652 903e
000000f0: 362c a3be e89d 783e e62e c23e df58 283e
00000100: 7974 a6be 5ee3 6e3e 75d8 96be a186 93be
00000110: 1e3d 0e3e 9f44 423e 189d 983d b50d de3e
00000120: 00c6 89be 44a7 8cbe b457 85be dc89 42bd
00000130: 995f f83e 8e6d 0c3f b5a4 883e 65a9 633e
00000140: 18b2 e6bd ab06 bf3e 8d29 6ebe f618 c63e
00000150: ceb0 eabe 2f7f 10be 1779 cabd c821 ae3e
00000160: be8f a43e e296 43be 30cc da3e e5dc 1f3f
00000170: 7dd2 c1bb facb d13e 0687 a43d 8ff6 09be
00000180: a339 53be 0d42 b33e 16f3 bf3d e81f 6fbe
00000190: 64be 38be 7272 10bb a768 8f3c c15c 3cbd
000001a0: e2ea c5be f6ba 303d ca01 b5be 2867 aebe
000001b0: 46a5 03be cca5 a3be 17a9 303e 49b3 0c3e
000001c0: dc8d 263e 8ccf 0a3c bddf 6fbe e795 a3be
000001d0: 02fd 073e fda2 14be 24c6 23bc 9b2f 6abe
000001e0: da7d 91bd 02ef 6d3e a04f 083f 2306 fe3b
000001f0: 25f3 23be 8b43 603e f700 a6be ae1a 5b3e
00000200: 02b0 b83d d2d9 d7bd 2404 8ebe 7a92 e1ba
00000210: 595f 643e e9ea 163e c134 88be 9f6d 3ebe
00000220: a6eb 86be 5d3d 83be e23d afbe 044c d0bc
00000230: 982f 2bbe a3ac 763d eeec 073b ead3 273d
00000240: 6802 8d3e 3641 b13e e28c c93e 36c9 cd3e
00000250: a590 a93e aa3c 87be 2319 893d 46d6 993e
00000260: eafd a7bd b004 27be 7604 f83e a682 f4bc
00000270: c820 ac3e 79b6 ad3d a546 23be d378 cdbd
00000280: 388f c63e 345d 45be d546 77bd 4178 49be
00000290: 3ab7 92be bb8d 553e 73be 613d bd58 003f
000002a0: f446 99bd dcbc c5bd 8f6b 7b3e f7c6 e73d
000002b0: 7712 b3be 589b 95be 40b8 8fbb b2d8 16be
000002c0: 22a8 37be cfb6 af3e c323 aebe 9e79 013e
000002d0: dae7 82be fe89 36be 0458 adbd f176 c53e
000002e0: 387a 90be c9be 9dbe e50f 1fbe 1ad7 a63e
000002f0: 9f12 bfba 7624 89be a7cc 433e ad4c 653e
00000300: 8b31 a03e fcbd a13e a021 6fbe 6e0b e0bd
00000310: a707 90be 7c6b b7be 3ce8 893e aea2 bf3e
00000320: e272 9d3d c57e c6bd a0e7 383e 5988 b73e
00000330: c190 b63d 2e61 c73e 3f56 f4be 4237 323e
00000340: 3ac6 5d3e 01ef 4b3e 3c59 f83e 0ae7 ec3e
00000350: 6edc c03e 9f55 cd3d a65b 39be c624 f93d
00000360: 0e3f 4ebb bfbe fb3b cfbe babe b04f ca3e
00000370: d51c 4dbc daba 8c3d ebe2 eb3d d1ed b63d
00000380: fd5f 413d 1090 873e 70ac ad3e 8c6d 753e
00000390: 3d77 b0bd 4839 883e 1e38 55be 825d 10be
000003a0: 706e d53e 2148 493d 08f7 5a3e 354c c03e
000003b0: bab0 2f3e c229 913c 582f 00bd 8fa7 7cbe
000003c0: 584b 15bd fff3 693e 45da 86be e9e6 da3d
000003d0: 39c8 20be 0dc7 8bbd f6b1 103e c865 45bd
000003e0: 82a5 903e 7bc9 d4be d426 31be 5882 333e
000003f0: 4c85 033f 2623 8a3e deb9 853e b8cc bd3e

fc1.bias f4 [128]
-0.14413851 0.37433332 -0.33383855 0.007875223 0.248372 0.018824048 0.06687567 0.1442646
0.4061276 -0.027298024 0.2824149 0.12716933 0.24896847 -0.11962919 0.30337608 0.06745837
-0.06979244 0.34372544 0.5040273 0.105782956 -0.32899058 0.36727118 -0.09760147 0.2407767
-0.34698898 -0.3718299 0.31518018 -0.062294018 0.15659237 -0.13612074 -0.26479095 0.051319715
0.10620893 0.45688066 -0.29087728 -0.019414485 -0.21992223 -0.3447454 0.3764224 -0.015637936
-0.21879596 0.31209892 0.4457769 -0.16640355 -0.11463844 -0.17504889 0.33508748 -0.071652256
0.02902715 -0.31373268 -0.26813436 0.47738048 0.45384508 -0.3389514 0.46321574 -0.19322145
0.42584303 0.2549249 0.42332655 0.5377794 0.021274306 0.2630779 0.13813132 0.34910864
0.3311149 0.42804033 0.50417066 -0.27726486 -0.13320185 0.017099453 0.54133415 -0.15589868
-0.34640527 -0.019529508 -0.21497951 0.0033919169 -0.32442996 -0.2115568 -0.19390078 0.46318924
-0.25182036 0.29582924 -0.34877965 0.2043769 0.1331945 0.29937994 0.29919603 -0.15885729
-0.2181921 0.35794175 -0.15600722 -0.06524195 0.28894877 -0.3584597 0.41281796 -0.011391134
-0.17048827 -0.15269387 0.18839452 0.27877665 0.30794537 0.06807023 -0.10109104 -0.118533775
0.2962247 0.13188645 -0.31847274 -0.13915877 -0.12551184 -0.30852535 0.20467478 0.39751387
-0.24987805 0.29466188 0.16344498 0.33780402 0.3911707 -0.037799936 0.18493953 -0.31937373
0.04386506 -0.071620554 0.4398376 0.41488296 -0.09496507 0.032678936 -0.19642086 0.5295166
00000000: 0c99 13be 9ea8 bf3e e3ec aabe 1407 013c
00000010: 3b55 7e3e e434 9a3c 1cf6 883d 19ba 133e
00000020: f5ef cf3e 1ba0 dfbc b098 903e ad38 023e
00000030: 97f1 7e3e 2600 f5bd 1c54 9b3e 9d27 8a3d
00000040: 57ef 8ebd c8fc af3e ef07 013f bca4 d83d
00000050: 7471 a8be f80a bc3e 48e3 c7bd 2b8e 763e
00000060: 8aa8 b1be 7d60 bebe 4c5f a13e 0328 7fbd
00000070: c059 203e 3c63 0bbe ae92 87be 9f34 523d
00000080: 1184 d93d 43ec e93e deed 94be 200b 9fbc
00000090: 4b33 61be 7882 b0be 70ba c03e 211b 80bc
000000a0: 0c0c 60be 6ecb 9f3e df3c e43e b165 2abe
000000b0: 8fc7 eabd 0440 33be 9690 ab3e 6bbe 92bd
000000c0: 58ca ed3c 92a1 a0be e848 89be 376b f43e
000000d0: 625e e83e 0a8b adbe 9d2a ed3e d8db 45be
000000e0: 1908 da3e 8485 823e 42be d83e e9ab 093f
000000f0: 7447 ae3c 26b2 863e 4c72 0d3e 5ebe b23e
00000100: e487 a93e 1a28 db3e 5411 013f a9f5 8dbe
00000110: 1166 08be 2714 8c3c e094 0a3f e7a3 1fbe
00000120: 085c b1be 59fc 9fbc 9723 5cbe ec4a 5e3b
00000130: af1b a6be 59a2 58be ed8d 46be 2427 ed3e
00000140: 99ee 80be ee76 973e 3f93 b2be 2e48 513e
00000150: 2464 083e 5448 993e 3930 993e 7cab 22be
00000160: c06d 5fbe 2444 b73e 5bc0 1fbe 929d 85bd
00000170: 18f1 933e 0888 b7be e05c d33e e1a1 3abc
00000180: 7a94 2ebe c85b 1cbe 7eea 403e d0bb 8e3e
00000190: 04ab 9d3e 6868 8b3d d208 cfbd d6c1 f2bd
000001a0: c4aa 973e 3e0d 073e dc0e a3be a37f 0ebe
000001b0: 2d86 00be 09f7 9dbe 4496 513e f086 cb3e
000001c0: 08e0 7fbe ecdd 963e 1f5e 273e a6f4 ac3e
000001d0: 8747 c83e 1bd4 1abd ca60 3d3e f484 a3be
000001e0: d9ab 333d ccad 92bd 6532 e13e 8a6b d43e
000001f0: 0c7d c2bd 59da 053d 8d22 49be 668e 073f

fc2.weight f4 [32, 128]
-0.0013034157 -0.024365516 0.03385514 -0.09669702 0.25533947 -0.09315924 -0.014749829 -0.026967729
-0.0006433435 0.003836149 0.24895544 0.02567852 -0.1579305 -0.09837253 0.08282932 -0.02331627
-0.06712694 0.050759263 0.1477911 0.02003811 -0.16564924 0.06172468 0.020860923 0.21423268
-0.03811821 -0.072931215 0.21404722 -0.08405949 -0.034130875 0.20647752 -0.006679093 0.07998487
-0.047082383 0.0766022 -0.067730404 0.18591617 -0.12076685 0.006523184 0.22381222 0.050272852
0.060881935 0.13154373 0.17568323 -0.10209996 -0.051691256 0.30346966 0.017286204 0.010038515
-0.04471802 -0.15469301 0.13632135 0.17496099 0.23263726 -0.23121747 0.16732988 -0.0036909154
0.27481258 0.19486737 0.23454192 0.17605726 -0.22010082 0.029732227 0.05449914 0.173942
0.03146878 0.083314665 0.32824793 0.06513097 -0.025381709 -0.16428503 -0.013655179 -0.012478644
0.031525433 -0.014352341 -0.26804212 0.034628335 0.064672045 -0.059234157 0.24525347 0.13261878
0.032101244 -0.016419478 0.002867552 0.19958594 0.17020908 0.09533183 0.12870082 -0.03962128
0.056216907 0.2038202 -0.09062582 -0.048804212 0.033918668 -0.2554387 0.14798094 0.12007742
-0.26285294 -0.10061653 0.13629572 -0.07275751 -0.013397021 0.18530522 0.020185426 -0.092515364
0.04319545 -0.046412896 -0.1331217 -0.14026749 0.02762521 0.014596424 0.17307062 0.08446863
-0.15268031 0.056945674 0.08520493 0.029370673 0.011681486 -0.02406231 0.16239792 -0.037502635
-0.14655975 -0.07454967 0.119349 0.15314907 0.025086306 -0.15531828 0.03226774 0.30316716
-0.07371442 0.050653093 0.044206776 -0.09944339 0.18291196 0.006353783 0.12896562 -0.03579696
-0.0063169883 0.063274175 0.28106755 0.0143159805 0.09553376 0.08315395 0.07657406 0.019059423
-0.072491705 0.036650464 0.18579501 0.12783055 -0.07231166 -0.044842474 0.09854558 0.37608418
0.013519815 0.07014767 0.15814495 -0.15597838 0.13076775 0.084322706 -0.060995173 0.09334628
-0.046154454 0.10729621 0.06116829 0.11897614 -0.15992914 0.07721246 0.024144912 0.048911534
-0.05265411 0.18521075 0.12534784 0.010543278 -0.10654025 0.24349423 0.14282456 -0.08701311
-0.043767523 -0.0027518412 0.044548333 0.09196872 0.08147983 -0.282057 0.06965378 -0.04730184
0.32038003 0.3323809 0.23877577 0.20355524 -0.11080319 -0.057376593 0.09222718 0.22050413
0.103161186 0.14082168 0.1685198 -0.0734248 -0.016702197 -0.19256282 0.1027889 0.07247166
-0.049576875 -0.06751888 -0.19254255 0.1421678 -0.079355404 0.06426047 0.16704324 -0.021801712
0.057765655 0.038253687 0.08408876 0.12719037 -0.015344536 -0.0044480725 0.08809452 -0.12487672
0.08285503 0.09720244 -0.10040059 -0.029226743 -0.07013963 -0.12197295 0.058915723 0.19718754
-0.16411145 -0.077200666 0.17585789 -0.014939175 -0.029266872 0.0042135143 0.029403761 -0.027090289
0.020376181 -0.0700244 -0.025300391 -0.13782279 -0.017061615 -0.075313844 0.07685013 0.025616916
-0.0648942 0.118031815 0.05114501 -0.043294027 0.0389822 0.057633866 0.15397479 0.010752363
-0.099559896 -0.032840613 0.13986099 -0.0060800775 -0.042443693 -0.028901726 -0.040415738 0.21185848
00000000: 60d7 aaba 319a c7bc b0ab 0a3d 1609 c6bd
00000010: dbbb 823e 46ca bebd 44a9 71bc 6deb dcbc
00000020: 0da6 28ba e667 7b3b 2dee 7e3e c25b d23c
00000030: 88b8 21be 8977 c9bd 6ba2 a93d c301 bfbc
00000040: d979 89bd f2e8 4f3d 8d56 173e f626 a43c
00000050: f49f 29be 05d3 7c3d 87e4 aa3c d05f 5b3e
00000060: d721 1cbd f65c 95bd 322f 5b3e 6227 acbd
00000070: d1cc 0bbd d86e 533e 4bdc dabb 1ccf a33d
00000080: 75d9 40bd 9de1 9c3d 3db6 8abd cf60 3e3e
00000090: 9c54 f7bd 6fc0 d53b 082f 653e e8ea 4d3d
000000a0: 565f 793d 66b3 063e 4ee6 333e c919 d1bd
000000b0: 36ba 53bd 6060 9b3e cc9b 8d3c 9578 243c
000000c0: 3e2a 37bd d867 1ebe d397 0b3e f928 333e
000000d0: 7638 6e3e 46c4 6cbe 8658 2b3e 49e3 71bb
000000e0: 3cb4 8c3e 508b 473e c22b 703e 5b48 343e
000000f0: 1c62 61be 0091 f33c 7d3a 5f3d da1d 323e
00000100: 68e5 003d e1a0 aa3d 1d10 a83e 6363 853d
00000110: 4ded cfbc 563a 28be f9b9 5fbc 3a73 4cbc
00000120: d020 013d 1526 6bbc d13c 89be 71d6 0d3d
00000130: c772 843d 849f 72bd ba23 7b3e 38cd 073e
00000140: 987c 033d 2482 86bc 8aed 3b3b 4260 4c3e
00000150: 4a4b 2e3e 563d c33d 26ca 033e ec49 22bd
00000160: b343 663d 3eb6 503e 089a b9bd ede6 47bd
00000170: 4dee 0a3d dcc8 82be 5188 173e 26eb f53d
00000180: a994 86be 0a10 cebd 1b91 0b3e e401 95bd
00000190: 2e7f 5bbc a7c0 3d3e e85b a53c b278 bdbd
000001a0: b6ed 303d 731b 3ebd 0e51 08be 48a2 0fbe
000001b0: 444e e23c d725 6f3c 6d39 313e e4fd ac3d
000001c0: 3a58 1cbe de3f 693d ec7f ae3d c49a f03c
000001d0: b463 3f3c 521e c5bc a44b 263e 5d9c 19bd
000001e0: c213 16be 7fad 98bd 406d f43d 1cd3 1c3e
000001f0: cc81 cd3c c10b 1fbe 2e2b 043d ba38 9b3e
00000200: 96f7 96bd 9e79 4f3d 2a12 353d faa8 cbbd
00000210: 464d 3b3e 6533 d03b 900f 043e d59f 12bd
00000220: bdfe cebb e495 813d 16e8 8f3e 938d 6a3c
00000230: 34a7 c33d 9e4c aa3d dcd2 9c3d 8222 9c3c
00000240: 8876 94bd cc1e 163d 0c41 3e3e 03e6 023e
00000250: 2318 94bd beac 37bd 44d2 c93d 1b8e c03e
00000260: 3782 5d3c 95a9 8f3d c0f0 213e ccb8 1fbe
00000270: fbe7 053e 62b1 ac3d 13d6 79bd 562c bf3d
00000280: 740c 3dbd 1ebe db3d 9a8b 7a3d c3a9 f33d
00000290: 77c4 23be 9121 9e3d 8dcb c53c 7657 483d
000002a0: d6ab 57bd e3a7 3d3e 2f5b 003e b7bd 2c3c
000002b0: c631 dabd 8d56 793e 9a40 123e ee33 b2bd
000002c0: 9345 33bd 3c58 34bb 5078 363d 195a bc3d
000002d0: e6de a63d c669 90be a4a6 8e3d 93bf 41bd
000002e0: da08 a43e d42d aa3e a381 743e c970 503e
000002f0: c8ec e2bd b803 6bbd 9be1 bc3d d6cb 613e
00000300: 2c46 d33d 8f33 103e 7490 2c3e be5f 96bd
00000310: 0cd3 88bc 302f 45be fd82 d23d 066c 943d
00000320: 1f11 4bbd 5747 8abd e029 45be 7094 113e
00000330: 1685 a2bd fe9a 833d 620d 2b3e 8199 b2bc
00000340: ae9b 6c3d e6af 1c3d ba36 ac3d 313e 023e
00000350: a667 7bbc 23c1 91bb e66a b43d 5ebf ffbd
00000360: e6af a93d 1312 c73d d39e cdbd ec6c efbc
00000370: 5ea5 8fbd f4cc f9bd 9d51 713d 88eb 493e
00000380: d50c 28be 621b 9ebd 1714 343e 71c3 74bc
00000390: 14c1 efbc 8511 8a3b 28e0 f03c 74ec ddbc
000003a0: f3eb a63c f468 8fbd c442 cfbc 6b21 0dbe
000003b0: cdc4 8bbc 253e 9abd 9a63 9d3d 91da d13c
000003c0: 40e7 84bd aaba f13d 6e7d 513d 1455 31bd
000003d0: cdab 1f3d 7d11 6c3d 91ab 1d3e ae2a 303c
000003e0: 0fe6 cbbd e183 06bd b837 0f3e 633b c7bb
000003f0: 70d9 2dbd 50c3 ecbc f98a 25bd 6ef1 583e

fc2.bias f4 [32]
0.23015457 0.18719631 0.010093909 0.013921805 0.13857186 0.12942225 0.004500985 0.01666681
0.13063028 0.019972645 0.046612665 -0.09502755 0.011411237 0.10661566 -0.0959123 0.14714907
0.04695293 -0.011542605 -0.055620678 0.19362974 -0.03368609 0.062035773 0.09527342 0.058958814
-0.09204308 -0.06515474 -0.058542363 0.035305217 0.110735744 0.07824914 -0.07195639 -0.042941116
00000000: a4ad 6b3e 64b0 3f3e ec60 253c 4818 643c
00000010: c8e5 0d3e 4487 043e 007d 933b d588 883c
00000020: f2c3 053e ac9d a33c ecec 3e3d ce9d c2bd
00000030: 32f6 3a3c 5059 da3d ab6d c4bd 3fae 163e
00000040: b751 403d 321d 3dbc 82d2 63bd e046 463e
00000050: 6dfa 09bd 3919 7e3d b61e c33d cc7e 713d
00000060: 1581 bcbd d96f 85bd 1eca 6fbd 349c 103d
00000070: 6cc9 e23d 1641 a03d df5d 93bd 06e3 2fbd

discrete.weight f4 [2, 32]
0.22019501 0.39405617 0.30367956 -0.43816167 0.06333144 0.034998592 -0.0985824 -0.076481275
0.50234675 0.008584736 -0.114331104 0.067486875 -0.15586558 -0.030035103 -0.41281456 0.5956156
0.034168404 -0.4192369 0.017469084 0.3249789 -0.039403077 -0.12824748 0.0063187163 -0.38220334
0.11716322 -0.0104222465 0.0348673 0.062202223 0.6300093 0.43879214 -0.15940922 -0.26202786
-0.21770327 -0.1891501 -0.19497564 0.53760207 -0.1629416 0.028300237 -0.12842375 -0.051209517
-0.19279818 0.010523147 -0.123139486 -0.048385378 -0.15880395 -0.15350804 0.360461 -0.44765565
0.13921905 0.42974702 -0.035520952 -0.39289695 -0.02664177 0.09205268 0.05337503 0.504852
-0.06986672 -0.15342568 0.10839724 0.010779427 -0.61030877 -0.5676235 0.06647665 0.55367804
00000000: cd7a 613e bbc1 c93e e37b 9b3e ba56 e0be
00000010: eab3 813d af5a 0f3d 92e5 c9bd 37a2 9cbd
00000020: cc99 003f fea6 0c3c 6d26 eabd 8f36 8a3d
00000030: 3a9b 1fbe 2d0c f6bc 6e5c d3be 447a 183f
00000040: 2bf4 0b3d 38a6 d6be 531b 8f3c a263 a63e
00000050: 1f65 21bd 4f53 03be 3c0d cf3b 28b0 c3be
00000060: 45f3 ef3d 12c2 2abc 04d1 0e3d c2c7 7e3d
00000070: 4a48 213f 5da9 e03e 2c3c 23be 8428 86be
00000080: 9bed 5ebe 90b0 41be b2a7 47be 4aa0 093f
00000090: 2ada 26be e6d5 e73c 8481 03be 12c1 51bd
000000a0: e36c 45be 4769 2c3c 8e30 fcbd bf2f 46bd
000000b0: 819d 22be 3631 1dbe 588e b83e 1f33 e5be
000000c0: 708f 0e3e cd07 dc3e 6b7e 11bd ca29 c9be
000000d0: d73f dabc 1e86 bc3d c79f 5a3d fb3d 013f
000000e0: 4816 8fbd 9f1b 1dbe 5fff dd3d 329c 303c
000000f0: 323d 1cbf c64f 11bf e924 883d d8bd 0d3f

discrete.bias f4 [2]
0.05522534 -0.19504383
00000000: f733 623d 92b9 47be

fc3.weight f4 [2, 32]
0.015423959 -0.045964453 -0.03281659 0.049679212 -0.024894664 -0.01356979 0.0001671164 0.0035493919
0.032481585 0.0032851964 0.0012160329 0.0064123287 -0.0005798427 0.020296622 0.045485664 0.0039791903
0.0026989458 -0.027158987 -0.00095934205 0.018349294 0.00033556842 0.00077201147 0.008966709 0.0028801532
0.0019067586 0.002352945 0.0006754935 0.0052474216 0.08588573 -0.027580066 0.011334235 0.0056147836
0.014788137 -0.08835822 0.057724126 0.15339513 0.06905514 0.036208156 -0.0005558423 -0.0013628058
0.07007492 -0.00050065346 -0.0008615573 0.00014466922 0.00069446175 0.055817746 0.23113492 0.008161409
0.0015331237 0.03952303 -0.00065443176 0.03290827 0.00045965778 -0.00036169676 0.026448086 0.07026913
9.5663214e-05 -0.0050203097 0.00085238024 0.0052387184 -0.035024777 0.010623335 0.008140501 0.15300153
00000000: c6b4 7c3c 3945 3cbd b06a 06bd 6e7c 4b3d
00000010: e5ef cbbc d353 5ebc f83b 2f39 ea9c 683b
00000020: 690b 053d 734c 573b 4b63 9f3a 831e d23b
00000030: 9600 18ba 1a45 a63c 2d4f 3a3d de63 823b
00000040: cce0 303b 867c debc 5b7c 7bba 4251 963c
00000050: 3bef af39 d060 4a3a 1ae9 123c f4c0 3c3b
00000060: 34ec f93a de33 1a3b 9a13 313a 90f2 ab3b
00000070: dce4 af3d 97ef e1bc 3ab3 393c 38fc b73b
00000080: f149 723c 28f5 b4bd 2270 6c3d 9d13 1d3e
00000090: c86c 8d3d 014f 143d f2b5 11ba 2da0 b2ba
000000a0: 7183 8f3d 493e 03ba 22da 61ba 59b2 1739
000000b0: 8a0c 363a 26a1 643d a2ae 6c3e 6eb7 053c
000000c0: 18f3 c83a e7e2 213d 2c8e 2bba d2ca 063d
000000d0: 39fe f039 1ea2 bdb9 a8a9 d83c 43e9 8f3d
000000e0: cc9e c838 6981 a4bb 4572 5f3a 8ea9 ab3b
000000f0: 2476 0fbd 7f0d 2e3c bc5f 053c 6fac 1c3e

fc3.bias f4 [2]
0.014428519 0.004899848
00000000: 9865 6c3c e78e a03b

log_std.weight f4 [2, 32]
-0.1001708 -0.04952195 -0.26052788 -0.08914476 -0.18915468 -0.21451008 0.066205174 0.08166739
-0.169402 0.03659469 -0.07142553 0.10574684 0.07805088 -0.14831524 -0.062295273 0.032136016
0.15138987 -0.2004611 0.027918687 -0.26402622 -0.14022116 -0.057827424 -0.28043485 -0.1925021
-0.13066404 0.13894978 -0.014118134 0.14157805 -0.1727129 0.08025872 0.0012128849 -0.112932585
-0.46016848 -0.47297215 0.21672305 0.09449992 0.13169101 -0.15483978 -0.10001455 0.17325942
0.5637987 0.015001811 -0.16379286 -0.03253304 0.04151602 -0.038008995 0.277423 0.2072862
-0.10199525 -0.2342409 0.16685593 -0.047974993 -0.15389729 0.16071054 -0.2058394 -0.24972752
0.10528133 0.17252374 0.061763752 -0.051373694 0.24529529 0.3780458 0.04180354 0.090165466
00000000: 5926 cdbd 87d7 4abd e963 85be 8791 b6bd
00000010: c4b1 41be 88a8 5bbe 9496 873d 3c41 a73d
00000020: b877 2dbe 50e4 153d 8c47 92bd cd91 d83d
00000030: 24d9 9f3d f3df 17be 5429 7fbd 0ea1 033d
00000040: f205 1b3e ad45 4dbe bbb5 e43c 722e 87be
00000050: 2396 0fbe 73dc 6cbd 2895 8fbe 451f 45be
00000060: cbcc 05be da48 0e3e bf4f 67bc d6f9 103e
00000070: a7db 30be af5e a43d aaf9 9e3a 3349 e7bd
00000080: 349b ebbe 6829 f2be a6ec 5d3e 2d89 c13d
00000090: 02da 063e 528e 1ebe 6ed4 ccbd eb6a 313e
000000a0: 1d55 103f 28ca 753c 51b9 27be 5d41 05bd
000000b0: b40c 2a3d 52af 1bbd 630a 8e3e d542 543e
000000c0: e3e2 d0bd d9dc 6fbe 48dc 2a3e 6d81 44bd
000000d0: 4097 1dbe 4e91 243e 90c7 52be 92b8 7fbe
000000e0: bd9d d73d 10aa 303e fdfb 7c3d 396d 52bd
000000f0: b02e 7b3e 388f c13e 303a 2b3d aca8 b83d

log_std.bias f4 [2]
-0.18371059 -0.03544826
00000000: a11e 3cbe 3232 11bd
