s10lre4e3CCM_MADRL_MEC/model/MAPPO/6-Actor.pth (torch, 24135 bytes, 10 tensors)

fc1.weight f4 [128, 7]
-0.1699743 0.28272605 0.0044282745 0.09298483 0.28921282 0.17375891 0.10159651 -0.056357443
-0.15821406 -0.17756242 0.724593 0.4806176 0.18669021 0.17706344 -0.07329484 0.32334307
0.14581847 0.2727242 0.00012440915 0.2727726 0.38165182 -0.118867576 -0.07517933 -0.25876477
-0.15971673 0.06278212 0.31156817 0.4387424 -0.22396894 0.22614452 -0.22951142 0.35118943
0.25580806 0.09239152 0.34970233 -0.11688001 0.46368337 -0.1847713 -0.46968585 0.45883185
0.08111811 -0.15057045 -0.17653246 -0.11851848 -0.01697502 0.622883 0.45836243 0.22783506
0.013144465 -0.043777063 -0.19732448 0.4611248 0.42954513 0.2666913 0.101114385 -0.22200513
0.36142895 0.36889234 0.32425088 -0.020164246 0.21222124 0.2904866 0.44142216 -0.03271973
-0.14710101 -0.18449652 0.0846757 0.027805177 0.20014407 -0.22604579 -0.001727467 0.15661094
-0.1519618 0.23242117 -0.53339547 -0.25286514 0.012713034 0.01388354 0.25743544 -0.057199836
0.26070654 -0.2750394 -0.29980043 -0.25054622 -0.21968098 -0.20702359 -0.27487552 -0.35184738
-0.07504222 0.17624345 -0.33817214 0.16390386 -0.13848008 0.004174693 0.21704116 -0.18659663
0.36286864 0.048704527 0.25863558 -0.2751641 0.08530931 0.43354398 0.10268279 0.35976595
0.1201173 -0.27802932 -0.021546662 -0.2715303 -0.10338828 -0.2556795 -0.20917094 0.1671342
-0.12015892 0.1905689 0.26503193 -0.4298896 -0.28566098 0.4411376 0.36528444 0.08719003
0.17349663 0.08418611 0.41503757 0.3779185 0.23437071 -0.37114778 -0.0875374 -0.010309841
0.34157938 0.14125752 0.4318598 0.30795372 -0.3602649 0.36877078 0.031723075 0.059501875
-0.0633329 0.08060538 0.28053445 0.07517936 0.06623082 -0.01340722 0.048203208 -0.06415313
-0.0985771 -0.10991739 -0.0818383 0.34022814 0.17194945 0.045089453 0.14502789 0.19461723
0.14275709 -0.32726535 0.29643336 -0.0051588984 -0.30341095 0.054860186 -0.2989534 0.10340672
0.0890235 0.18610078 -0.2562158 -0.28350776 0.13256313 0.053493675 -0.24093436 0.3786013
0.09113332 -0.1870798 -0.10216156 0.5116889 0.035468906 -0.17268053 0.22064036 -0.2290036
0.061586916 0.26543927 0.078242786 -0.16443942 -0.12458765 0.02330341 0.033411376 0.14036913
-0.24108514 0.050510377 -0.072304405 0.10884603 0.35631308 0.022466213 -0.13139927 -0.3321389
-0.2398585 -0.08495784 0.09019694 -0.2975746 -0.13864085 0.056940507 -0.085719995 0.83339226
0.037622713 -0.14340249 0.095756516 0.11781438 -0.114928044 0.30131024 -0.32571295 -0.09412915
0.47006285 -0.13111846 0.15298013 -0.086496264 0.4360292 -0.750239 0.4593957 0.15425344
0.059909217 -0.32944208 0.02789682 -0.14829695 -0.36773837 -0.068431854 -0.2832373 0.19682482
0.2854354 -0.0001043171 -0.06877065 -0.25686044 -0.34970397 0.30899206 -0.031804994 0.0051088324
-0.26171994 0.23790525 0.5702355 0.20445125 0.31142002 0.3255633 -0.1825631 0.18870482
-0.34850574 -0.33507735 -0.32663605 -0.13365762 0.26691934 0.048834387 0.18634039 0.12631476
0.3517256 0.43355826 -0.0207799 0.26787224 -0.16858956 -0.19826771 0.41477 -0.14024627
00000000: be0d 2ebe 78c1 903e 0f1b 913b d56e be3d
00000010: b413 943e dbed 313e d511 d03d 10d7 66bd
00000020: de02 22be ecd2 35be ed7e 393f 8313 f63e
00000030: b82b 3f3e 1e50 353e 9b1b 96bd 398d a53e
00000040: 7051 153e 82a2 8b3e d473 0239 daa8 8b3e
00000050: de67 c33e d870 f3bd 9ff7 99bd d17c 84be
00000060: c88c 23be ea93 803d dd85 9f3e d8a2 e03e
00000070: 1d58 65be 6e92 673e 0b05 6bbe 1acf b33e
00000080: 46f9 823e c437 bd3d 2f0c b33e c95e efbd
00000090: e867 ed3e b034 3dbe aa7a f0be 02ec ea3e
000000a0: 4021 a63d 242f 1abe edc4 34be d1b9 f2bd
000000b0: 320f 8bbc 4375 1f3f 7bae ea3e 984d 693e
000000c0: e25b 573c 944f 33bd 6e0f 4abe 8d18 ec3e
000000d0: 57ed db3e c38b 883e 0f15 cf3d 5055 63be
000000e0: 370d b93e 75df bc3e 3604 a63e 7d2f a5bc
000000f0: 8650 593e a9ba 943e 1602 e23e 2005 06bd
00000100: a6a1 16be a8ec 3cbe 746a ad3d afc7 e33c
00000110: 91f2 4c3e 8c78 67be 2d6c e2ba 9e5e 203e
00000120: e09b 1bbe d1ff 6d3e 9b8c 08bf 8a77 81be
00000130: 544a 503c ca77 633c 94ce 833e 604a 6abd
00000140: 547b 853e f7d1 8cbe 717f 99be 9847 80be
00000150: 0df4 60be fefd 53be 7cbc 8cbe 5725 b4be
00000160: bcaf 99bd 2a79 343e e624 adbe 6ad6 273e
00000170: b9cd 0dbe ddcb 883b 0a40 5e3e 3013 3fbe
00000180: ebc9 b93e 667e 473d e26b 843e 4fe2 8cbe
00000190: a6b6 ae3d 7af9 dd3e 5b4b d23d 3e33 b83e
000001a0: 0f00 f63d dc59 8ebe a082 b0bc 0506 8bbe
000001b0: 3cbd d3bd 6ce8 82be e830 56be 3a25 2b3e
000001c0: e115 f6bd 7e24 433e 44b2 873e 7d1a dcbe
000001d0: 2842 92be cadc e13e 9006 bb3e b090 b23d
000001e0: 1aa9 313e c469 ac3d ce7f d43e 897e c13e
000001f0: e0fe 6f3e 1507 bebe cf46 b3bd 9bea 28bc
00000200: 7ee3 ae3e d0a5 103e ba1c dd3e 1cac 9d3e
00000210: a474 b8be 86cf bc3e 0ef0 013d 3db8 733d
00000220: aeb4 81bd 6f14 a53d 36a2 8f3e a3f7 993d
00000230: 06a4 873d f5a9 5bbc ba70 453d b762 83bd
00000240: cae2 c9bd 5e1c e1bd d79a a7bd 6232 ae3e
00000250: 8413 303e b8af 383d 3182 143e bd49 473e
00000260: ea2e 123e 538f a7be 1dc6 973e fa0b a9bb
00000270: ae58 9bbe 13b5 603d 6c10 99be e7c6 d33d
00000280: f451 b63d 3491 3e3e b82e 83be ee27 91be
00000290: a1be 073e 2f1c 5b3d 7fb7 76be 08d8 c13e
000002a0: 1ba4 ba3d d991 3fbe 143a d1bd 0bfe 023f
000002b0: d847 113d 2ad3 30be 8cef 613e eb7f 6abe
000002c0: 9042 7c3d a8e7 873e c13d a03d cf62 28be
000002d0: cf27 ffbd cbe6 be3c 5eda 083d edbc 0f3e
000002e0: 06df 76be f8e3 4e3d 5514 94bd abea de3d
000002f0: ab6e b63e 100b b83c 888d 06be 1c0e aabe
00000300: 779d 75be 60fe adbd 2cb9 b83d b35b 98be
00000310: def7 0dbe 733a 693d f78d afbd 3259 553f
00000320: 461a 1a3d 1ad8 12be fe1b c43d aa48 f13d
00000330: 655f ebbd 5645 9a3e d9c3 a6be c9c6 c0bd
00000340: 14ac f03e eb43 06be d3a6 1c3e f424 b1bd
00000350: 383f df3e aa0f 40bf ea35 eb3e 9df4 1d3e
00000360: 5e63 753d a2ac a8be df87 e43c 28db 17be
00000370: 3448 bcbe 0026 8cbd 7b04 91be 728c 493e
00000380: 9724 923e d1c4 dab8 a0d7 8cbd 3683 83be
00000390: 660c b3be 3534 9e3e f445 02bd fe67 a73b
000003a0: 2800 86be 6f9d 733e f4fa 113f ab5b 513e
000003b0: 7272 9f3e 3cb0 a63e d2f1 3abe d63b 413e
000003c0: 586f b2be 428f abbe d73c a7be 8bdd 08be
000003d0: a7a9 883e 9106 483d 04d0 3e3e a858 013e
000003e0: 6115 b43e 59fb dd3e 9c3a aabc 8d26 893e
000003f0: bea2 2cbe b106 4bbe bc5c d43e b89c 0fbe

fc1.bias f4 [128]
0.45778814 -0.1243096 0.116841726 0.2856482 0.059967928 0.18469608 -0.005193685 0.43749124
0.22520298 -0.36233705 0.030537058 0.3145007 -0.17230713 0.040007688 -0.13276869 -0.21139444
0.2498384 -0.2489573 -0.15233997 0.40199226 -0.03742098 0.4745722 0.22903012 0.04745514
-0.030589567 0.30442035 0.09239727 -0.22427113 0.084253795 0.19135106 0.05444971 -0.24608424
0.45495307 -0.054092117 -0.34386727 -0.33111548 0.103541575 0.22599325 0.24437058 0.33664384
-0.09599945 0.104221106 -0.2978597 0.24376303 -0.36935127 -0.20879015 0.33662298 0.24264687
0.1819785 -0.18393968 0.4559532 0.21962035 0.21204072 -0.25901306 0.33024976 0.19507484
0.3064681 -0.0016270281 0.5458481 0.3158599 -0.044569653 -0.09495396 0.18942596 0.17697419
0.11860694 -0.1856316 -0.16454431 0.07679382 0.20126195 0.25262702 -0.24393095 0.03821803
0.091068126 -0.16510756 0.40402803 0.24196209 0.37228176 0.16501439 0.3928823 0.34800062
0.06929097 0.48126972 0.27186692 0.1856378 -0.19168855 0.46667433 -0.27182955 0.34394538
0.32818443 0.2776499 0.34402794 0.45307523 -0.32006958 0.16281325 0.3678114 0.39308968
-0.18086022 -0.011493244 0.15542436 0.27252856 0.32906806 0.024437323 -0.36836475 -0.17802049
-0.18845606 -0.095060855 -0.3300432 -0.12569383 -0.22307345 0.49473232 -0.32403475 0.23103254
0.42268756 -0.23036602 0.46394917 -0.058232993 -0.039102785 0.16880903 -0.00032741536 0.52505946
-0.09600159 -0.27748528 -0.11380373 0.2817575 0.46669546 0.42196366 -0.17780074 -0.0577546
00000000: 3563 ea3e 0896 febd b74a ef3d 7b40 923e
00000010: eea0 753d f820 3d3e ca2f aabb dafe df3e
00000020: 9c9b 663e 3e84 b9be da28 fa3c 3c06 a13e
00000030: 4871 30be 1adf 233d 84f4 07be c977 58be
00000040: a3d5 7f3e aaee 7ebe 02ff 1bbe eed1 cd3e
00000050: be46 19bd 21fb f23e df86 6a3e 5260 423d
00000060: f996 fabc fcdc 9b3e c83a bd3d 55a7 65be
00000070: 418d ac3d 88f1 433e a906 5f3d 82fd 7bbe
00000080: 9cef e83e b28f 5dbd 5f0f b0be f887 a9be
00000090: 9b0d d43d c66a 673e 483c 7a3e 955c ac3e
000000a0: 5c9b c4bd e071 d53d 1181 98be 049d 793e
000000b0: 9c1b bdbe 16cd 55be d959 ac3e 6c78 783e
000000c0: 9258 3a3e af5a 3cbe b372 e93e 28e4 603e
000000d0: 3421 593e 5c9d 84be 7f16 a93e b3c1 473e
000000e0: 63e9 9c3e 0142 d5ba b3bc 0b3f 64b8 a13e
000000f0: ab8e 36bd 3977 c2bd e1f8 413e b938 353e
00000100: 32e8 f23d 3616 3ebe 4e7e 28be 1446 9d3d
00000110: 9d17 4e3e 5458 813e 09c9 79be 828a 1c3d
00000120: ed81 ba3d f511 29be c3dc ce3e e9c4 773e
00000130: b79b be3e 88f9 283e de27 c93e 232d b23e
00000140: 6de8 8d3d fc68 f63e 2432 8b3e d617 3e3e
00000150: 014a 44be f0ef ee3e 3e2d 8bbe 9c19 b03e
00000160: ca07 a83e 2128 8e3e 6e24 b03e 7af9 e73e
00000170: 29e0 a3be 84b8 263e c751 bc3e 0d43 c93e
00000180: 6c33 39be 294e 3cbc 9027 1f3e dd88 8b3e
00000190: 9c7b a83e c830 c83c 4e9a bcbe 014b 36be
000001a0: a0fa 40be 44af c2bd 6cfb a8be e2b5 00be
000001b0: 5e6d 64be 8e4d fd3e e2e7 a5be cb93 6c3e
000001c0: 816a d83e 12e5 6bbe bf8a ed3e b885 6ebd
000001d0: 3e2a 20bd 46dc 2c3e f2a8 abb9 4c6a 063f
000001e0: 7b9c c4bd 8d12 8ebe ee11 e9bd 8542 903e
000001f0: b5f2 ee3e 9f0b d83e 6611 36be 1690 6cbd

fc2.weight f4 [32, 128]
0.08933702 -0.03746007 -0.04695503 0.031737566 -0.06646492 -0.019113244 0.0381172 -0.013403367
-0.008689575 -0.05661665 0.11486628 -0.10280405 0.03357228 -0.017376803 -0.0773271 -0.06644066
0.080805264 0.041421678 -0.015393913 -0.018966326 -0.070703335 0.08242698 0.06533243 -0.037076548
0.01414875 0.013115198 -0.014522323 -0.08264588 -0.08248878 0.03430491 0.092940256 0.08413577
0.00826083 -0.08134132 -0.009895824 -0.008162895 -0.048382282 0.060007602 0.056220897 0.060595892
-0.04843718 0.00073746615 -0.04470849 -0.030389743 0.021279477 0.028426817 0.0805918 0.0011189135
0.090320505 0.05969868 0.08918592 -0.018546857 -0.032141957 -0.054725572 0.020685535 -0.07862438
0.013663506 0.075687714 0.09929007 -0.20933303 -0.02807986 -0.029928612 -0.06418176 -0.05642356
-0.015806481 -0.015801957 0.10418901 0.066767745 0.06482047 0.0039805965 0.04170544 0.04492169
0.12719974 0.048538446 0.0877363 -0.045613013 -0.06829787 -0.05834321 -0.027239216 0.095075525
0.07562393 -0.033619307 0.04580045 -0.046162937 0.035238337 0.024025187 -0.027276838 -0.033530045
0.054647334 0.09527017 -0.004880605 0.06313886 0.005412075 -0.0031753706 0.020620381 0.07187313
0.033550967 -0.02562186 0.045696247 0.072315134 -0.012599801 0.038415708 -0.0007139817 0.09845316
0.028498653 0.06239285 -0.08496805 0.11160011 0.096263096 0.023753311 -0.025009496 -0.085629
0.06365112 -0.07350834 -0.067353226 0.094162576 0.04091575 -0.057129227 -0.15720372 -0.049410604
-0.066577785 -0.04767286 -0.051907875 0.051136684 0.0659487 -0.08313969 -0.08413814 -0.026497222
-0.041516457 0.022242924 0.115804 0.07970969 0.0646532 0.20281571 -0.111131646 0.0028374349
0.12045727 -0.059878964 0.1584496 0.045237325 0.040612243 -0.04299657 0.0094498405 -0.006554402
0.0898926 -0.17282435 -0.09500011 0.11072342 0.0318054 0.013195716 -0.0054012733 -0.026547302
-0.13733432 0.0900841 0.13939683 0.020420536 -0.066981964 0.09017325 0.1829942 -0.03729607
0.09993209 -0.065903924 0.009877197 -0.08843438 0.20276058 0.22619861 0.20252097 0.16946648
-0.046158385 -0.12514658 -0.12779355 -0.12920721 -0.07308922 -0.01914009 0.2391431 0.03985206
0.06698335 0.0059456015 -0.03088502 0.0436568 -0.088627145 0.058485907 0.12941504 -0.042234696
0.12725903 -0.013463568 0.25531444 0.05893001 -0.12593023 -0.14479506 -0.032676872 0.11282509
0.054468792 0.058531884 0.2194022 0.066322744 -0.03333838 0.106532864 -0.036513172 0.18446435
-0.0028249263 -0.16479926 -0.0255645 -0.045238066 -0.02655984 -0.09022319 0.13137752 0.104481205
0.11127809 -0.024766443 -0.0986701 -0.013194439 -0.11567261 0.21551955 -0.051831257 -0.0044271606
-0.04695002 -0.030191055 -0.035574008 -0.0116704805 -0.093834974 -0.01352816 0.01712349 -0.062348492
0.22159162 0.027871108 0.048636235 0.089881435 -0.03159133 0.11325215 0.01028382 0.09331296
-0.02123619 -0.009347718 -0.07072195 0.17234477 -0.030851329 0.074724704 0.00043192774 0.11656465
0.01737538 0.052546863 0.03673905 -0.12420776 0.045301232 -0.0018082988 -0.03911427 0.15683313
0.09863512 -0.14376013 0.004586567 0.22793415 0.09279497 0.012296895 -0.032603547 0.020787243
00000000: 54f6 b63d bb6f 19bd eb53 40bd 40ff 013d
00000010: c31e 88bd 6193 9cbc c820 1c3d cc99 5bbc
00000020: b85e 0ebc dce6 67bd 033f eb3d ee8a d2bd
00000030: 1683 093d cc59 8ebc ac5d 9ebd 0a12 88bd
00000040: 3b7d a53d c7a9 293d c036 7cbc 455f 9bbc
00000050: e9cc 90bd 7acf a83d 02cd 853d 94dd 17bd
00000060: 29d0 673c 21e1 563c 0aef 6dbc 3e42 a9bd
00000070: e1ef a8bd 4e83 0c3d 7657 be3d 604f ac3d
00000080: 6f58 073c 4796 a6bd 1822 22bc aabd 05bc
00000090: 802c 46bd 88ca 753d e247 663d 6633 783d
000000a0: 1166 46bd 8452 413a 4020 37bd e9f3 f8bc
000000b0: 4c52 ae3c 5bdf e83c 500d a53d 82a8 923a
000000c0: f5f9 b83d 9a86 743d 1ca7 b63d 94ef 97bc
000000d0: 49a7 03bd ec27 60bd b674 a93c d205 a1bd
000000e0: e6dc 5f3c 2902 9b3d 9858 cb3d 665b 56be
000000f0: bc07 e6bc d92c f5bc ba71 83bd 641c 67bd
00000100: 987c 81bc 1b73 81bc 0c61 d53d 87bd 883d
00000110: 98c0 843d aa6f 823b 53d3 2a3d ceff 373d
00000120: a640 023e 40d0 463d 17af b33d b6d4 3abd
00000130: c1df 8bbd 4af9 6ebd c724 dfbc f5b6 c23d
00000140: b8e0 9a3d 66b4 09bd 4199 3b3d 5915 3dbd
00000150: 1356 103d 78d0 c43c ad73 dfbc cd56 09bd
00000160: e2d5 5f3d 021d c33d 7bed 9fbb f24e 813d
00000170: c757 b13b e119 50bb 13ec a83c 3832 933d
00000180: bd6c 093d efe4 d1bc fd2b 3b3d f519 943d
00000190: 656f 4ebc ca59 1d3d 802a 3bba cfa1 c93d
000001a0: 0276 e93c a58f 7f3d bb03 aebd 998e e43d
000001b0: 9625 c53d 4e96 c23c b7e0 ccbc 425e afbd
000001c0: 855b 823d 8a8b 96bd 7df0 89bd 4fd8 c03d
000001d0: 4697 273d 5600 6abd 03fa 20be c662 4abd
000001e0: ef59 88bd 9e44 43bd 5a9d 54bd b374 513d
000001f0: 1d10 873d 2445 aabd 9e50 acbd b410 d9bc
00000200: 290d 2abd cb36 b63c a62a ed3d d53e a33d
00000210: e668 843d ecae 4f3e fd98 e3bd 42f4 393b
00000220: 4db2 f63d a543 75bd 9d40 223e c64a 393d
00000230: 0659 263d 2c1d 30bd 81d3 1a3c 4fc6 d6bb
00000240: 9d19 b83d def8 30be 6b8f c2bd f6c2 e23d
00000250: 6146 023d d832 583c 2afd b0bb ba79 d9bc
00000260: 5ea1 0cbe 037e b83d 0bbe 0e3e f848 a73c
00000270: d72d 89bd c1ac b83d d562 3b3e c4c3 18bd
00000280: 32a9 cc3d a3f8 86bd f8d3 213c 161d b5bd
00000290: 78a0 4f3e 9ca0 673e a861 4f3e 9f88 2d3e
000002a0: 9310 3dbd 6d26 00be 50dc 02be e54e 04be
000002b0: cdaf 95bd aecb 9cbc eee1 743e ea3b 233d
000002c0: 912e 893d 52d3 c23b 9502 fdbc 79d1 323d
000002d0: 2682 b5bd eb8e 6f3d 6085 043e 4afe 2cbd
000002e0: 3150 023e 4c96 5cbc 93b8 823e 9860 713d
000002f0: dbf3 00be 2845 14be 2fd8 05bd d710 e73d
00000300: ab1a 5f3d 21bf 6f3d f8aa 603e 38d4 873d
00000310: d38d 08bd e72d da3d d68e 15bd 39e4 3c3e
00000320: 6622 39bb 23c1 28be a46c d1bc 8d4b 39bd
00000330: 0694 d9bc f0c6 b8bd d487 063e 3efa d53d
00000340: c4e5 e33d ffe2 cabc 8d13 cabd 7d2d 58bc
00000350: c3e5 ecbd 28b1 5c3e 034d 54bd b711 91bb
00000360: aa4e 40bd 3b53 f7bc 0db6 11bd 8b35 3fbc
00000370: 8d2c c0bd 37a5 5dbc 9046 8c3c 2261 7fbd
00000380: eae8 623e f351 e43c ca36 473d c213 b83d
00000390: e965 01bd bef0 e73d 787d 283c dd1a bf3d
000003a0: 85f7 adbc 2c27 19bc abd6 90bd 267b 303e
000003b0: edbb fcbc 4409 993d 5c74 e239 72b9 ee3d
000003c0: d056 8e3c 613b 573d b07b 163d a360 febd
000003d0: c98d 393d 7004 edba 4936 20bd dd98 203e
000003e0: 3601 ca3d db35 13be ea4a 963b 9267 693e
000003f0: 4a0b be3d ea78 493c 4c8b 05bd 024a aa3c

fc2.bias f4 [32]
0.039350554 0.08127085 -0.019405713 0.064900436 0.076860495 -0.06894282 -0.02948441 0.019179817
-0.062412664 -0.0771281 -0.046656802 -0.042282905 0.0051398277 -0.07489785 -0.03230517 0.024608823
-0.07409083 -0.01794309 -0.01053078 -0.010087325 0.106139034 -0.03047377 0.008862607 0.07875042
0.077203006 0.12664273 -0.029655185 0.0114694685 0.14308888 -0.035592698 0.0843917 0.09289665
00000000: 0c2e 213d 5571 a63d bbf8 9ebc 85ea 843d
00000010: 0969 9d3d e531 8dbd 4a89 f1bc fe1e 9d3c
00000020: 6ca4 7fbd 56f5 9dbd 341b 3fbd d730 2dbd
00000030: 006c a83b 0b64 99bd 6d52 04bd 7198 c93c
00000040: efbc 97bd 63fd 92bc 4b89 2cbc 4f45 25bc
00000050: 6c5f d93d 21a4 f9bc 7834 113c e647 a13d
00000060: 9c1c 9e3d a2ae 013e 6eef f2bc 70ea 3b3c
00000070: e485 123e a6c9 11bd 8ed5 ac3d 9940 be3d

discrete.weight f4 [2, 32]
-0.11067361 0.020062804 -0.03163653 0.19318025 0.013639154 0.08206569 0.01115735 0.11239862
0.02652811 0.015262618 -0.038223498 0.100766495 0.021935195 0.106004514 -0.1545245 0.1382305
-0.16520146 0.07345089 0.14121544 0.2959565 0.29441157 0.15234067 -0.08555816 -0.094237044
0.21733746 0.18153663 0.008254841 0.35563746 0.22181313 0.0721786 0.18236965 0.25188747
-0.14917769 -0.13296711 0.004727013 0.100508966 -0.30458546 0.026900917 0.08949497 -0.2853031
-0.17350677 -0.110986516 -0.029013392 -0.22550161 0.029680163 -0.17810197 -0.09651017 -0.3053526
-0.10318273 -0.085053235 -0.21446744 -0.12764241 -0.22874707 -0.15592563 -0.13049701 -0.13467513
0.0027411394 -0.089424424 0.045475423 -0.068439454 -0.043374177 -0.09701447 -0.24747601 0.023493253
00000000: d8a8 e2bd c05a a43c 4e95 01bd 0bd1 453e
00000010: c276 5f3c 0e12 a83d 51cd 363c 3f31 e63d
00000020: 7b51 d93c 0f10 7a3c 3e90 1cbd aa5e ce3d
00000030: 70b1 b33c e518 d93d ac3b 1ebe 4c8c 0d3e
00000040: 922a 29be 6c6d 963d c89a 103e 9c87 973e
00000050: 1dbd 963e 31ff 1b3e 1e39 afbd 5aff c0bd
00000060: b68d 5e3e bde4 393e 503f 073c 1d16 b63e
00000070: fb22 633e 60d2 933d 1cbf 3a3e 65f7 803e
00000080: 09c2 18be 8828 08be 0fe5 9a3b a5d7 cd3d
00000090: a0f2 9bbe 505f dc3c 2449 b73d 3f13 92be
000000a0: c2ab 31be e64c e3bd 7ead edbc e5e9 66be
000000b0: d023 f33c 5d60 36be 20a7 c5bd 2d57 9cbe
000000c0: 7851 d3bd 6430 aebd 5a9d 5bbe b1b4 02be
000000d0: ac3c 6abe f8aa 1fbe 02a1 05be 47e8 09be
000000e0: b0a4 333b 2724 b7bd 7044 3a3d fc29 8cbd
000000f0: 1fa9 31bd 86af c6bd 5a6a 7dbe ec74 c03c

discrete.bias f4 [2]
0.107133724 0.016591402
00000000: ed68 db3d b1ea 873c

fc3.weight f4 [2, 32]
0.030198509 -0.034524634 0.0062524537 0.12131361 0.013803516 -0.00062361604 0.02084615 -0.017545782
0.028865822 6.650761e-05 -0.15819429 0.08988302 0.0001711048 0.015191443 0.00020004134 -0.04581737
0.014341792 0.0012516362 -0.004504501 0.0036595482 0.019275205 -0.00059246615 0.00056428846 0.0035592709
0.029587056 0.0026075945 0.00083612953 -0.060225703 0.005630204 0.04490517 0.012886779 0.0214594
-0.0018545632 -0.06652047 0.0053951945 0.03687152 0.035011962 -0.00061250356 0.0108287595 0.053824246
-0.00965954 0.00016488787 -0.0040645064 -0.05584879 0.0007474626 0.031602018 0.00015472423 0.01473516
0.0014742814 0.0019101882 0.030921362 0.03417265 0.017395332 -9.692111e-05 -0.00046007487 0.0017779811
0.01868378 0.0046630064 0.00057428726 -0.16066898 0.019968484 -0.010527895 0.021744024 0.020667981
00000000: dd62 f73c b469 0dbd 62e1 cc3b 4573 f83d
00000010: 2428 623c 2a7a 23ba 8cc5 aa3c 2cbc 8fbc
00000020: 0478 ec3c 007a 8b38 affd 21be 9714 b83d
00000030: 986a 3339 88e5 783c 30c2 5139 ffaa 3bbd
00000040: d6f9 6a3c f10d a43a 7e9a 93bb 08d5 6f3b
00000050: 09e7 9d3c bb4f 1bba c2ec 133a a842 693b
00000060: 8e60 f23c 2de4 2a3b b42f 5b3a 3aaf 76bd
00000070: 937d b83b 7cee 373d 1223 533c a0cb af3c
00000080: d114 f3ba e23b 88bd 2cca b03b 9706 173d
00000090: b468 0f3d 6b90 20ba 1c6b 313c d076 5c3d
000000a0: 0c43 1ebc c0e5 2c39 8d2f 85bb b3c1 64bd
000000b0: 5ef1 433a 1e71 013d 783d 2239 be6b 713c
000000c0: ad3c c13a 485f fa3a cc4e fd3c 9ff8 0b3d
000000d0: a880 8e3c 2042 cbb8 3436 f1b9 250b e93a
000000e0: ba0e 993c 22cc 983b c48b 163a 6986 24be
000000f0: f294 a33c 317d 2cbc 8620 b23c e64f a93c

fc3.bias f4 [2]
0.032886937 0.010518675
00000000: 74b4 063d 8556 2c3c

log_std.weight f4 [2, 32]
0.018913101 -0.19008604 0.090344936 0.05015364 0.008131058 -0.14048535 0.12368553 -0.12007085
-0.16969863 -0.04978929 -0.17400295 0.006776653 -0.14588931 0.12599367 -0.13518888 0.049570207
0.1346322 -0.10040515 -0.0035314672 -0.04859892 -0.22035982 0.11933778 -0.10641486 -0.06294478
-0.2592112 -0.27320728 0.020482183 -0.038583286 -0.18679497 -0.12155056 0.008918254 -0.2643688
-0.39225277 -0.5123863 0.031817593 0.8318759 0.66049063 0.01699856 0.17453599 0.48516515
0.05937845 -0.004374668 0.039903022 -0.2845224 0.018291876 0.95389736 -0.03161429 0.36084926
-0.04720144 0.03939119 0.10236019 0.7770188 -0.06578337 -0.029433236 0.03822223 0.08448938
0.1178129 -0.5394895 0.05460091 -0.641584 0.36699986 -0.47538963 0.5511707 -0.3415921
00000000: a6ef 9a3c eaa5 42be c406 b93d e76d 4d3d
00000010: 2138 053c 64db 0fbe d74e fd3d b5e7 f5bd
00000020: 7ac5 2dbe dbef 4bbd d42d 32be b00e de3b
00000030: 0264 15be 7c04 013e f46e 0abe 210a 4b3d
00000040: 06dd 093e 37a1 cdbd 3070 67bb a90f 47bd
00000050: 01a6 61be 5e67 f43d 09f0 d9bd 31e9 80bd
00000060: 55b7 84be d3e1 8bbe 40ca a73c 8209 1ebd
00000070: 2e47 3fbe 80ef f8bd de1d 123c 595b 87be
00000080: 5bd5 c8be c02b 03bf 2a53 023d d2f5 543f
00000090: ea15 293f 9040 8b3c 90b9 323e 9167 f83e
000000a0: d136 733d 6059 8fbb 5a71 233d ecac 91be
000000b0: d8d8 953c 9e32 743f fc7d 01bd 3cc1 b83e
000000c0: 4c56 41bd a858 213d 38a2 d13d b4ea 463f
000000d0: 6eb9 86bd f81d f1bc ea8e 1c3d c508 ad3d
000000e0: e447 f13d fc1b 0abf 34a5 5f3d d93e 24bf
000000f0: 68e7 bb3e 4566 f3be 8619 0d3f 29e5 aebe

log_std.bias f4 [2]
-0.019151574 0.0093155345
00000000: c3e3 9cbc 2fa0 183c
