s10lre4e3CCM_MADRL_MEC/model/MAPPO/8-Actor.pth (torch, 24135 bytes, 10 tensors)

fc1.weight f4 [128, 7]
0	0x3f03665c	0.51328063
1	0xbd9be7d1	-0.07612575
2	0x3eac8840	0.336977
3	0x3ed9256e	0.4241137
4	0xbdffbedc	-0.124875754
5	0xbd909784	-0.07060149
6	0x3e5abed1	0.21361853
7	0x3effd5ce	0.49967808
8	0x3dc323b1	0.09528292
9	0x3e86281f	0.26202485
10	0xbd102444	-0.035190836
11	0x3e916daa	0.2840398
12	0x3e516f75	0.20452674
13	0x3dcc4316	0.09973733
14	0xbe8e33f2	-0.27774006
15	0xbe8dd957	-0.2770488
16	0x3d612aec	0.054972574
17	0x3e2163f5	0.15760787
18	0x3e37e3fe	0.17958066
19	0xbe186254	-0.14881259
20	0x3e5cf604	0.21578223
21	0xbebbb43f	-0.36660954
22	0xbe5ebee1	-0.21752502
23	0x3e309124	0.17242867
24	0x3ed8b772	0.42327458
25	0xbdf83f65	-0.121214665
26	0x3b3dc847	0.0028958486
27	0x3e7bf7e8	0.24606287
28	0xbe76e656	-0.24111304
29	0xbe2e1823	-0.17001395
30	0xbe9eb4a5	-0.30997196
31	0xbd4bece4	-0.049786463
32	0x3e25dd24	0.1619764
33	0xbd3cf127	-0.04612842
34	0xbe6ab7be	-0.22921655
35	0x3c91e790	0.017810613
36	0xbe3fae7c	-0.18718904
37	0xbeacb3f6	-0.3373105
38	0xbe45cd84	-0.19316679
39	0x3e5298ee	0.2056615
40	0xbcb66fc0	-0.022270083
41	0xbe9a9337	-0.3019044
42	0x3ef13dd1	0.47117475
43	0xbdaa5df7	-0.083187036
44	0xbe19d247	-0.1502162
45	0x3ec078b4	0.3759209
46	0xbd8ce0f4	-0.06878844
47	0xbb97ef68	-0.0046366937
48	0xbc37f39c	-0.011227515
49	0xbea2a162	-0.3176375
50	0xbe94f94e	-0.29096454
51	0x3ccd5553	0.0250651
52	0x3eb16bc5	0.34652534
53	0xbe85926b	-0.2608827
54	0x3dcbffd8	0.09960908
55	0x3ea8d97c	0.32978427
56	0xbea3450a	-0.3188861
57	0xbe0cc3ab	-0.13746516
58	0x3e4c25eb	0.1993634
59	0x3e6de51e	0.23231933
60	0x3e52d248	0.20588028
61	0x3e96d820	0.29461765
62	0xbdf6141a	-0.12015553
63	0x3ee432c2	0.44569975
64	0x3e6a36c3	0.22872452
65	0xbce7640c	-0.028245948
66	0x3cf6be66	0.030120086
67	0xbdb5a0e8	-0.08868581
68	0xbe00bde4	-0.12572438
69	0x3da306e2	0.07960297
70	0x3ef43c39	0.47702196
71	0x3ce3e940	0.027821183
72	0xbd218f16	-0.039443098
73	0xbd36f289	-0.044664893
74	0xbe552ec6	-0.20818624
75	0x3ea9bd90	0.33152437
76	0x3e956e1e	0.29185575
77	0xbeaad7ac	-0.3336767
78	0xbea408a0	-0.3203783
79	0x3c4e236a	0.012581686
80	0x3ee80762	0.45318133
81	0xbe1177ae	-0.1420581
82	0x3e3cc571	0.18434693
83	0xbc356c31	-0.011073158
84	0xbe1eb6c1	-0.15499403
85	0x3e46315f	0.19354771
86	0x3ebdac39	0.37045458
87	0xbea58fd7	-0.32336304
88	0xbebe12fa	-0.37123853
89	0x3e6f450a	0.2336618
90	0xbe6a30be	-0.22870156
91	0xbeb6e968	-0.3572495
92	0xbddeff67	-0.10888558
93	0x3dfab33d	0.12241218
94	0x3e460665	0.19338377
95	0x3d0ec51a	0.03485594
96	0x3e3f5f1b	0.18688624
97	0x3e733f10	0.23754525
98	0x3d4125f8	0.04715535
99	0x3e33814e	0.17529795
100	0xbe592146	-0.21204099
101	0xbc253bc0	-0.010085046
102	0xbe988b04	-0.2979356
103	0xbdd662d1	-0.104680665
104	0xbe4cea78	-0.20011318
105	0xbe8447cf	-0.25836036
106	0xbe8c7d80	-0.274395
107	0xbe6a4bf3	-0.22880535
108	0x3e0a916a	0.13532034
109	0xbe55339d	-0.2082047
110	0xbcede000	-0.029037476
111	0xbdc8d71f	-0.09806656
112	0xbe1bc5da	-0.15212193
113	0xbd0c97d3	-0.03432448
114	0x3eff014c	0.49805677
115	0xbebadae4	-0.36495125
116	0xbe89f08f	-0.26941344
117	0x3e0f5312	0.13996533
118	0xbd84fa65	-0.064930715
119	0xbece9add	-0.40352526
120	0x3e72f652	0.23726776
121	0xbd9e976a	-0.07743724
122	0x3ee179b9	0.4403818
123	0x3e27a862	0.16372827
124	0x3e7821fb	0.24231713
125	0xbea6a556	-0.32548016
126	0xbeb0982d	-0.344911
127	0x3a8f451f	0.0010930634
128	0x3dad7ad9	0.08470697
129	0x3f09d00b	0.53833073
130	0xbe94d5d8	-0.290694
131	0x3d9ee459	0.077583976
132	0x3e4f144a	0.20222583
133	0xbe47e22e	-0.19519874
134	0xbdabfc47	-0.083977275
135	0x3de4e610	0.111766934
136	0x3ef37e11	0.4755712
137	0xbe9d457f	-0.30717084
138	0x3e981eaa	0.29710895
139	0x3e0052cc	0.12531585
140	0xbd9153c3	-0.070960544
141	0xbea2d51b	-0.31803212
142	0x3e86d9f0	0.26338148
143	0xbe956642	-0.2917958
144	0xbe4c3137	-0.19940649
145	0x3d7f0dac	0.062268898
146	0x3e231a14	0.15927917
147	0xbed5cdcc	-0.41758573
148	0x3db81d49	0.08989961
149	0x3e94d3d0	0.2906785
150	0x3eb0969c	0.34489906
151	0x3e843770	0.25823545
152	0xbe846c4b	-0.2586387
153	0x3e413cc1	0.18870832
154	0xbd725171	-0.0591597
155	0xbe5a41d4	-0.21314174
156	0x3e9bcb54	0.30428565
157	0x3e24a531	0.1607864
158	0x3eb99b84	0.36251462
159	0xbe34caf4	-0.17655545
160	0x3cf42f45	0.029807696
161	0x3ef5e4ae	0.4802603
162	0xbcb1ba56	-0.021695297
163	0x3dc8fc6b	0.0981377
164	0xbebd90c6	-0.37024516
165	0xbe2685aa	-0.16261926
166	0x3dd1a444	0.10236409
167	0xbdfd669b	-0.12373086
168	0x3f079583	0.5296251
169	0x3ec5e83d	0.38653746
170	0xbe751454	-0.23933536
171	0xbd95ce73	-0.07314768
172	0xbd249b69	-0.040187273
173	0xbe1dc6e0	-0.15407896
174	0x3bfae80b	0.007657056
175	0x3d3370fa	0.043808915
176	0xbed3b454	-0.41348517
177	0x3eba8923	0.36432752
178	0x3eb8a31f	0.36061952
179	0xbe4f9753	-0.2027257
180	0x3c1bd7c7	0.009511895
181	0xbe91ce57	-0.28477737
182	0x3e51a85a	0.20474377
183	0x3e828bac	0.25497186
184	0x3e9a27b9	0.3010843
185	0xbf0a4603	-0.5401308
186	0x3e6c1171	0.23053528
187	0x3eb46d27	0.35239527
188	0xbedaaa86	-0.42708224
189	0xbe806231	-0.25074914
190	0xbe97a670	-0.2961917
191	0x3db64a8e	0.08900939
192	0xbe4b8324	-0.19874245
193	0x3e833d4f	0.25632712
194	0xbe43937a	-0.19099227
195	0xbd4f1876	-0.050560437
196	0x3e18ce6b	0.14922492
197	0x3f007d2a	0.50190985
198	0xbd616d85	-0.055036087
199	0xbea58b09	-0.32332638
200	0x3e833682	0.25627524
201	0x3e3b2bcb	0.18278424
202	0x3e905d00	0.28195953
203	0x3f0a0895	0.53919345
204	0x3ead54d5	0.33853784
205	0xbdcc2e1d	-0.09969733
206	0xbe504ffa	-0.20343009
207	0x3e57116a	0.21002737
208	0x3e63b930	0.22238612
209	0x3df5936a	0.119910076
210	0x3efeefad	0.49792233
211	0x3da6677b	0.08125206
212	0x3d9f2ecd	0.077725984
213	0x3e2e2e48	0.17009842
214	0xbda37233	-0.07980766
215	0x3eca7b33	0.3954712
216	0x3c994740	0.018710732
217	0xbec2160e	-0.3790745
218	0x3e1e816d	0.1547906
219	0x3e910610	0.28324938
220	0x3e83933f	0.25698277
221	0x3e4eda89	0.20200552
222	0x3e88476c	0.2661699
223	0x3ec1322b	0.37733588
224	0xbdc9f91c	-0.09861967
225	0x3e6c93d0	0.23103261
226	0x3ecd91c9	0.40150288
227	0x3e70c185	0.23511322
228	0x3e69e30b	0.22840516
229	0x3eb28b50	0.34871912
230	0xbc78ebc6	-0.0151929315
231	0xbcf752d8	-0.03019087
232	0x3e2ca23a	0.1685876
233	0xbcb76543	-0.022387153
234	0xbeb5900d	-0.35461465
235	0xbe88096a	-0.26569682
236	0x3eb07c48	0.3446982
237	0x3ecd2e55	0.4007441
238	0x3e8c5e8d	0.27415887
239	0x3e7007c2	0.2344046
240	0x3baccb59	0.0052732644
241	0x3dad3364	0.084570676
242	0x3e0a8234	0.13526231
243	0x3d89f2f7	0.06735795
244	0xbe8e344c	-0.27774274
245	0x3e8bfc45	0.27340904
246	0x3e6f086d	0.23343058
247	0x3e13a7f6	0.14419541
248	0xbf07726b	-0.5290896
249	0x3e65bdb4	0.22435647
250	0xbe6ab383	-0.22920041
251	0xbe02466a	-0.12722173
252	0x3e836e2e	0.25669998
253	0x3ef7bcd8	0.48386264
254	0x3e357d32	0.1772354
255	0x3d994a8b	0.07484921

fc1.bias f4 [128]
0	0xbe38a456	-0.18031439
1	0x3e61f365	0.22065504
2	0x3e5dbd0c	0.21654147
3	0x3e21a00e	0.15783712
4	0x3d1dd3a4	0.038531914
5	0xbe6c230f	-0.23060249
6	0x3e7c1a31	0.24619366
7	0x3e851aec	0.25997102
8	0x3e86eeee	0.26354164
9	0xbd10d0f8	-0.035355538
10	0xbddc0dfc	-0.10744855
11	0x3e992c0b	0.29916415
12	0x3ed28ebe	0.4112453
13	0xbc6fa213	-0.014626044
14	0xbe9cc92d	-0.30622235
15	0xbd28eae6	-0.04123964
16	0x3e872a97	0.2639968
17	0x3e953776	0.29143876
18	0x3eae2060	0.34009075
19	0x3ee3de75	0.4450566
20	0x3f053393	0.5203182
21	0xbc2655e2	-0.010152312
22	0x3ebcf9ac	0.36909235
23	0x3eca1ff1	0.39477494
24	0x3e2ef0da	0.17084065
25	0x3e1389c7	0.14408027
26	0x3e588921	0.2114606
27	0x3f0b287a	0.5435864
28	0xbde6ddcd	-0.11272774
29	0xbe1f3e59	-0.15551127
30	0xbe3e96fc	-0.18612283
31	0xbea19201	-0.31556705
32	0x3ede1869	0.43377998
33	0xbe6ecb7e	-0.23319814
34	0x3e3ba12e	0.18323204
35	0x3ed6d987	0.41962835
36	0xbbc21e56	-0.0059240265
37	0x3ebade3d	0.3649768
38	0x3e4711a0	0.19440317
39	0x3efae38c	0.4900173
40	0xbe98583e	-0.29754823
41	0x3d8e413f	0.069460385
42	0xbc2554c2	-0.010091009
43	0xbdbadcf7	-0.09124177
44	0xbeb7ccdb	-0.3589848
45	0x3e834fdc	0.25646865
46	0x3e416fa7	0.18890248
47	0xbe094b59	-0.13407649
48	0xbe5e0ee4	-0.21685368
49	0x3e6253b9	0.2210225
50	0x3d81394c	0.06309757
51	0xbe357a6b	-0.1772248
52	0x3e8e5396	0.27798146
53	0xbd012e04	-0.031538025
54	0x3e1c0ef2	0.15240076
55	0xbe44119f	-0.19147347
56	0x3da9ac44	0.0828481
57	0xbcd3a875	-0.025837163
58	0x3ea95739	0.33074358
59	0xbe03a322	-0.12855199
60	0x3d9f8470	0.07788932
61	0x3d77af9b	0.060470205
62	0x3ed81802	0.42205817
63	0x3e72f203	0.23725133
64	0xbdeac413	-0.114631794
65	0xbe90ecde	-0.28305715
66	0x3e083d2b	0.13304584
67	0xbe9bb164	-0.30408776
68	0xbd053ab0	-0.032526672
69	0xbd3a3048	-0.0454562
70	0x3e8c14bc	0.2735957
71	0x3e0fd400	0.14045715
72	0xbe0ace3c	-0.13555235
73	0x3e434236	0.19068226
74	0xbe91d492	-0.2848249
75	0xbeb850f8	-0.35999274
76	0xbea7ce09	-0.3277438
77	0xbe9700d8	-0.2949283
78	0xbe4622d2	-0.1934922
79	0x3e7a78b8	0.24460113
80	0x3e78df9a	0.24304047
81	0x3dfd4d86	0.12368302
82	0xbda41a2c	-0.080128044
83	0x3ee1ff16	0.44139928
84	0x3ecda31d	0.40163508
85	0x3dbd7051	0.09249938
86	0xbe1de47c	-0.15419191
87	0xbe5e11b1	-0.21686436
88	0xbe444de1	-0.19170333
89	0xbeb65d83	-0.3561822
90	0xbe30d2ec	-0.1726796
91	0x3eb3c55f	0.3511152
92	0xbc54af58	-0.012981258
93	0x3d73758d	0.059438277
94	0x3e579546	0.21053037
95	0x3ec70fbb	0.3887919
96	0xbe5a5afe	-0.21323773
97	0xbe66de55	-0.2254575
98	0xbe149acb	-0.14512174
99	0x3dd630aa	0.10458501
100	0xbcc337ed	-0.023830378
101	0x3e7d02ce	0.24708101
102	0x3e19a541	0.15004446
103	0xbdf6dde2	-0.120540395
104	0x3d8b0f44	0.06790021
105	0xbcf4ff0e	-0.029906776
106	0x3cbb3b77	0.022855503
107	0x3ee87c06	0.45407122
108	0xbd936713	-0.07197394
109	0x3ee2f703	0.4432908
110	0x3ede64c7	0.43436262
111	0x3e92ce7b	0.28673157
112	0x3e466440	0.1937418
113	0x3e9644ce	0.2934937
114	0x3ea42240	0.3205738
115	0xbe6dd101	-0.2322426
116	0x3f06e4fa	0.5269314
117	0xbe8fa35f	-0.2805433
118	0xbe1ee5c8	-0.15517342
119	0x3eea94ac	0.45816553
120	0x3ed18a8c	0.40926015
121	0x3eeae7c9	0.45879963
122	0xbd564337	-0.052310195
123	0xbdee32fc	-0.11630818
124	0x3e85ff1a	0.2617119
125	0x3e41016a	0.18848196
126	0x3eaf311c	0.34217155
127	0x3ec211a5	0.37904087

fc2.weight f4 [32, 128]
0	0x3e3dfbbc	0.1855306
1	0xbbf15076	-0.007364328
2	0xbe4c7e66	-0.19970092
3	0xbe2a5976	-0.16635689
4	0x3c9a630e	0.018846061
5	0x3da4a986	0.080401465
6	0x3cd791d7	0.026314659
7	0xbe48e791	-0.19619586
8	0x3c880571	0.016604157
9	0x3e7866fe	0.24258038
10	0x3d8d209e	0.06890987
11	0xbe985c26	-0.29757804
12	0x3c41b03e	0.011821805
13	0xbe54a3fa	-0.20765677
14	0x3d980327	0.07422476
15	0xbc7ef697	-0.015561721
16	0xbd915fde	-0.07098363
17	0x3c185671	0.009297953
18	0xbe04f65a	-0.129846
19	0xbd1e2fe5	-0.038619895
20	0xbe3a1d48	-0.18175232
21	0xbcbaca6e	-0.022801604
22	0xba98fc56	-0.0011671882
23	0xbd770964	-0.06031169
24	0x3e00ac26	0.1256567
25	0xbdc398db	-0.09550639
26	0xbd0e92f9	-0.034808133
27	0xbdfaa0c5	-0.122376956
28	0x3d976097	0.0739147
29	0x3e18dcb0	0.14927936
30	0x3dbc7aa7	0.092030816
31	0x3d0b7a9e	0.034052484
32	0x3db31d6f	0.087458484
33	0x3d5a0065	0.053223033
34	0x3c299d36	0.010352423
35	0x3c53ce4a	0.012927601
36	0x3e0b08ab	0.13577525
37	0xbe23fe90	-0.16015077
38	0x3d0ca406	0.034336112
39	0xbe80dc3e	-0.2516803
40	0x3d57fac6	0.05272939
41	0xbdbc1e1d	-0.09185431
42	0x3e08ff81	0.13378717
43	0xbdc1e253	-0.09466996
44	0xbcfe84af	-0.031069128
45	0xbd271207	-0.040788677
46	0xbe76df57	-0.24108635
47	0xbe36a7a9	-0.17837395
48	0x3debd883	0.11515906
49	0x3d3bbe00	0.045835495
50	0xbd2b5a00	-0.041833878
51	0x3cd37ba0	0.025815785
52	0xbe0271ec	-0.1273877
53	0xbe30e3f2	-0.17274454
54	0xbda882d6	-0.0822808
55	0x3d90bbfd	0.07067106
56	0xbccd72cc	-0.025079153
57	0x3e485653	0.1956418
58	0xbd8f35cf	-0.06992685
59	0x3e542017	0.20715366
60	0xbe05c9e5	-0.13065298
61	0xbc25d2c7	-0.010121054
62	0x3ddcd36e	0.107825145
63	0xbc51cc40	-0.012805045
64	0xbdc49b89	-0.095999785
65	0xbd14732c	-0.03624265
66	0x3d8f6f21	0.07003618
67	0x3c680c20	0.014163047
68	0x3e3a6c38	0.18205345
69	0xbc7ce91f	-0.01543644
70	0x3cbb7700	0.022883892
71	0x3dbd4b10	0.09242833
72	0x3d6d16e4	0.05788316
73	0xbe02922e	-0.12751076
74	0xbd4c61c8	-0.04989794
75	0xbd3b24d6	-0.045689426
76	0xbd580ebe	-0.052748434
77	0xbd79eb66	-0.06101551
78	0x3db57037	0.08859294
79	0xbe764b20	-0.24052095
80	0xbd99a80b	-0.07502755
81	0xbdafa51c	-0.08576414
82	0x3e322309	0.17396177
83	0xbe84dc1d	-0.25949183
84	0x3d9f1559	0.077677436
85	0x3da91512	0.08255972
86	0x3d984e44	0.07436803
87	0xbcdaa2be	-0.02668893
88	0x3e41d246	0.18927869
89	0x3e894a40	0.2681446
90	0x3d681732	0.056662746
91	0xbe8d21c8	-0.27564836
92	0x3e3129a6	0.17301044
93	0x3e089b5f	0.1334052
94	0xbdcacbb1	-0.09902132
95	0xbcc504d5	-0.024050156
96	0x3da52888	0.08064371
97	0x3d166007	0.036712673
98	0x3e427cca	0.18992916
99	0x3d9e3896	0.07725637
100	0x3da3131e	0.07962631
101	0xbdd866e5	-0.105665006
102	0xbd8f889e	-0.070084795
103	0x3e1c3056	0.15252814
104	0x3e49f9fc	0.19724268
105	0x3ded5044	0.11587575
106	0x3d0e403e	0.034729235
107	0xbe824afa	-0.25447828
108	0xbd332b13	-0.04374225
109	0x3cc4917a	0.02399515
110	0xbc530a83	-0.012880924
111	0xbd1f78aa	-0.038933434
112	0x3c8ed973	0.017437672
113	0xbdc71293	-0.097203396
114	0xbd29885d	-0.04138981
115	0x3d2a9cdc	0.0416535
116	0xbe18bd75	-0.14916022
117	0x3d5101e2	0.051027186
118	0x3e58299a	0.2110962
119	0x3df385f9	0.11890788
120	0xbe155bcc	-0.14585799
121	0xbdb17b88	-0.0866614
122	0xbdb72ef8	-0.089445055
123	0xbce99dd3	-0.02851764
124	0xbd22fda5	-0.039792676
125	0x3d8c6639	0.06855435
126	0x3daa7568	0.08323175
127	0x3c123875	0.008924593
128	0x3e10e0ae	0.14148208
129	0x3d3c1f45	0.04592826
130	0xbe14123e	-0.14460084
131	0xbe5ec894	-0.21756202
132	0x3b8a4f12	0.0042208517
133	0x3cf38b58	0.02972953
134	0x3e1f0441	0.15528966
135	0xbe2f7722	-0.1713529
136	0xbd514dec	-0.051099703
137	0x3e8fae79	0.280628
138	0x3d0e5fe9	0.034759436
139	0xbe069629	-0.13143219
140	0xbddf89ab	-0.1091493
141	0xbd616323	-0.055026185
142	0xbd315dd3	-0.04330237
143	0xbc1d8580	-0.009614348
144	0xbb5404c6	-0.0032351478
145	0xbc5cbfdb	-0.013473476
146	0x3d0a9627	0.033834603
147	0xbcff0905	-0.03113223
148	0xbdf45178	-0.119296014
149	0xbdc12447	-0.094307475
150	0xbc927775	-0.017879227
151	0x3da9569a	0.08268471
152	0x3dbb81a7	0.091555886
153	0xbdaf6dda	-0.085658744
154	0x3dc5b298	0.09653205
155	0xbe30bd6d	-0.1725976
156	0x3e3dc061	0.18530418
157	0x3e3d77c3	0.18502717
158	0x3e57af8e	0.21063063
159	0x3dd0dba6	0.101981446
160	0x3d66d690	0.056356966
161	0xbd2d75ac	-0.04234855
162	0x3d30072d	0.042975593
163	0x3debf016	0.11520402
164	0x3e00b2b4	0.1256817
165	0x3b35407d	0.0027656846
166	0xbe42ac5f	-0.19011067
167	0xbe107ab0	-0.14109302
168	0xbd410412	-0.047123022
169	0x3c3d86d6	0.011567792
170	0xbc3b9fab	-0.011451642
171	0x3d785392	0.060626574
172	0x3d945dda	0.07244463
173	0x3d6f4a25	0.05842032
174	0xbe61b1b3	-0.22040443
175	0xbd63caf4	-0.055613473
176	0x3cd54553	0.026034033
177	0x3d0d14e9	0.03444377
178	0x3e066b9b	0.13126986
179	0x3d43ffe1	0.047851447
180	0xbe637b47	-0.22214995
181	0xbd8cf137	-0.068819456
182	0xbd472cde	-0.048626773
183	0xbd9a2d4e	-0.075281724
184	0x3d022837	0.031776633
185	0x3e358b3f	0.177289
186	0xbd7b5de4	-0.061368838
187	0x3dc7f515	0.097635426
188	0xbe47bea7	-0.19506322
189	0x3d8aed76	0.06783573
190	0x3bc8ffed	0.0061340244
191	0xbe1e6351	-0.15467574
192	0x3db98d62	0.0906017
193	0xbd0337f2	-0.032035775
194	0x3cdcc684	0.026950128
195	0xbda34b45	-0.07973341
196	0x3dd10242	0.10205509
197	0xbd4ebd0b	-0.050473254
198	0x3dfadf4e	0.12249623
199	0x3de6d355	0.11270777
200	0x3c2cd193	0.010548013
201	0xbd34654a	-0.04404191
202	0xbda7c308	-0.08191496
203	0x3cddf7d0	0.027095705
204	0xbd5ccc37	-0.053905692
205	0xbd84dd88	-0.06487566
206	0xbcd4fc9d	-0.025999362
207	0xbe642dfa	-0.22283164
208	0xbbbb4247	-0.005714688
209	0xbccd42cb	-0.025056263
210	0x3e80df2d	0.2517027
211	0xbdd5bc6f	-0.104363315
212	0x3e162c1d	0.14665265
213	0x3dc20b00	0.09474754
214	0x3e31506c	0.17315835
215	0xbc6215d2	-0.013799148
216	0x3e28af7d	0.16473193
217	0x3e68933a	0.22712412
218	0xbd8f9009	-0.070098944
219	0xbe274310	-0.16334176
220	0x3e0266e5	0.12734564
221	0x3dd22fae	0.102630004
222	0xbd8a2c5a	-0.06746741
223	0xbd380062	-0.04492224
224	0x3d879a24	0.06621197
225	0x3e1e7a85	0.15476425
226	0x3e0f5109	0.13995756
227	0xbcfd1f6b	-0.03089877
228	0x3d933533	0.07187881
229	0xbd002ffa	-0.031295754
230	0xbae3fd8d	-0.001739429
231	0x3e18f00b	0.14935319
232	0x3c060f03	0.00818229
233	0xbc6f57d8	-0.014608346
234	0x3dc89454	0.09793916
235	0xbe3a3b5c	-0.18186706
236	0x3e10b413	0.14131193
237	0x3ca1c00b	0.019744894
238	0x3c92c7a7	0.017917467
239	0x3c3ec6fc	0.011644121
240	0xbe24fec3	-0.16112809
241	0xbd4741bc	-0.048646674
242	0x3e170b1f	0.14750336
243	0xbc7d57e6	-0.015462851
244	0xbe1313ea	-0.14363065
245	0x3d51c50a	0.0512133
246	0x3e60659a	0.21913758
247	0xbc91ede9	-0.01781364
248	0xbd843391	-0.06455148
249	0xbdb20586	-0.0869246
250	0xbe1782c9	-0.14795984
251	0xbd86bed4	-0.06579366
252	0x3e0a8f00	0.13531113
253	0xbde64859	-0.11244268
254	0x3dacaf56	0.0843188
255	0xbd7fe5fe	-0.062475197

fc2.bias f4 [32]
0	0x3cae46f8	0.021274075
1	0x3d2662b3	0.04062147
2	0x3e06ecfc	0.1317634
3	0xbabc9481	-0.0014387519
4	0x3daba114	0.083803326
5	0x3de83938	0.113390386
6	0xbcb6f777	-0.022334797
7	0x3e2b4a44	0.16727549
8	0x3d5f7001	0.054550175
9	0x3df1ed6f	0.11812865
10	0xbd24d661	-0.04024351
11	0x3d62f7bc	0.05541204
12	0x3e4d4e9c	0.20049518
13	0xbd9fd42f	-0.07804143
14	0x3cfcfa9f	0.030881224
15	0x3df43823	0.1192477
16	0x3d91ca9c	0.07118723
17	0x3ce113e7	0.02747531
18	0xbe02c0e0	-0.12768888
19	0x3df01a0b	0.11723717
20	0x3d908e33	0.07058372
21	0x3df954e0	0.12174392
22	0xbd88b61c	-0.066753596
23	0x3d2ec6a8	0.042669922
24	0xbd823ec1	-0.063596256
25	0xbdb1b481	-0.086770065
26	0x3d716a3b	0.0589392
27	0x3e185f54	0.14880115
28	0xbd91c849	-0.071182795
29	0x3d57d2d3	0.052691292
30	0xbc75c910	-0.01500155
31	0xbc4b4dfc	-0.01240873

discrete.weight f4 [2, 32]
0	0xbeda2e20	-0.42613316
1	0xbeb83574	-0.35978281
2	0x3ed1264f	0.4084954
3	0xbe90576a	-0.28191692
4	0x3da6b5ea	0.08140166
5	0x3be13a99	0.0068734405
6	0x3d83dfc5	0.06439165
7	0x3e49a22e	0.19690773
8	0x3d8eb0cc	0.06967315
9	0x3ebc4d5c	0.3677777
10	0x3ee5fe64	0.44920647
11	0xbeba435c	-0.36379516
12	0x3ed9f1a9	0.42567185
13	0xbd72fe2d	-0.059324432
14	0x3d2a7c38	0.04162237
15	0xbe13a389	-0.14417852
16	0x3e768043	0.24072365
17	0xbdee7dfb	-0.116451226
18	0xbe8c3f4e	-0.27392048
19	0xbe695634	-0.2278679
20	0xbd459820	-0.04824078
21	0x3e274f2d	0.16338797
22	0x3c79a2c3	0.015236559
23	0x3ec73d1f	0.3891382
24	0xbf0009b3	-0.500148
25	0xbed4b964	-0.41547692
26	0x3d924373	0.07141771
27	0xbe492d34	-0.1964615
28	0xbdd8577b	-0.105635606
29	0x3d40b339	0.04704592
30	0xbdde9c2c	-0.10869631
31	0x3d81b6be	0.063336834
32	0x3ed719ec	0.42011964
33	0x3ebc146f	0.3673434
34	0xbef2b50e	-0.4740376
35	0x3ec55f39	0.38549212
36	0x3de58081	0.11206151
37	0xbdde1eff	-0.10845756
38	0x3df794d3	0.12088933
39	0xbed61bf7	-0.4181821
40	0xbe5b7f5f	-0.21435307
41	0xbe48859a	-0.19582215
42	0xbefff87a	-0.4999426
43	0x3ebcf66c	0.36906755
44	0xbecb47d4	-0.39703238
45	0xbe056aa7	-0.13028966
46	0x3c57b8c0	0.013166606
47	0x3d623d44	0.05523421
48	0xbecbab39	-0.3977907
49	0x3e33f9d3	0.17575769
50	0x3e95dc13	0.29269466
51	0x3e69fd20	0.22850466
52	0xbe803ee1	-0.25047973
53	0xbe86670b	-0.2625049
54	0xbdc27127	-0.09494238
55	0xbec5b69d	-0.38615885
56	0x3e8d8ac9	0.27644947
57	0x3e3d2238	0.18470085
58	0xbe2bd103	-0.1677895
59	0xbc19b2e2	-0.009381028
60	0x3e0ec18e	0.13941023
61	0x3df5a3aa	0.11994107
62	0xbdafe0d0	-0.085878015
63	0x3e2ca2ef	0.16859029

discrete.bias f4 [2]
0	0x3e6d99cc	0.232032
1	0x3d7664f3	0.060154866

fc3.weight f4 [2, 32]
0	0x3c31df7f	0.010856508
1	0xbd3aed18	-0.045636266
2	0xbcfba92d	-0.030720318
3	0x3c8ec2c2	0.017426852
4	0x39b47f14	0.00034426956
5	0xb9ffae1f	-0.0004876712
6	0x3b109b31	0.0022065158
7	0x3cc2b322	0.023767058
8	0x3dc28924	0.09498814
9	0x3c643b34	0.013930131
10	0xbb8ddb2f	-0.0043291072
11	0x3d4be40e	0.049778037
12	0xbbd1277a	-0.00638288
13	0x3acff6ea	0.0015866433
14	0xb9ec5efb	-0.00045084194
15	0x3ce14624	0.027499266
16	0xbc4f601a	-0.01265719
17	0x3c2b90a7	0.0104714995
18	0x3ccb361c	0.024806075
19	0x3bab5a49	0.0052292687
20	0x3add2dea	0.0016874645
21	0x3bda9231	0.0066702594
22	0x3b98898b	0.0046550683
23	0xbcb1c804	-0.02170182
24	0xbc03b080	-0.008037686
25	0xbca8c20a	-0.020600338
26	0x3aa26e78	0.0012392541
27	0x389be8f4	7.434367e-05
28	0x3b11c370	0.0022241734
29	0x3beb2014	0.007175455
30	0xbbefab34	-0.00731411
31	0x3b14dbe7	0.002271408
32	0x3d7dacfb	0.061932545
33	0x3d33e0ef	0.043915685
34	0x3c2d0063	0.010559174
35	0x3dbfe50a	0.093698576
36	0xba41ab9a	-0.00073879363
37	0x3d4a00e3	0.049317252
38	0x3ac72839	0.0015194482
39	0x3b365246	0.0027820035
40	0x3e7608b3	0.24026756
41	0x3ce89671	0.028392049
42	0xbc3d2ad4	-0.011545856
43	0x3d4674f7	0.04845139
44	0xbbd4f0ce	-0.0064984327
45	0x3a9d24f5	0.0011989163
46	0xb80aa1f0	-3.305258e-05
47	0x3bbb743a	0.0057206424
48	0x3c56e66b	0.013116459
49	0x3ced2cc8	0.028952017
50	0x3e1ef3b5	0.15522654
51	0x3cd3033b	0.025758376
52	0x3de8f172	0.11374177
53	0x3c828b95	0.015935699
54	0x3975aad3	0.00023428658
55	0x3cb3f62f	0.021967975
56	0x3dc48cb6	0.09597151
57	0x3d819cc6	0.0632873
58	0x3b7ebd3f	0.0038870124
59	0x3cca7207	0.024712576
60	0xbb778a6f	-0.0037771722
61	0x3cdf9398	0.027292058
62	0x3bd97d9f	0.0066372897
63	0x3c372282	0.011177661

fc3.bias f4 [2]
0	0x3c7f7922	0.015592845
1	0x3c8bead7	0.017079754

log_std.weight f4 [2, 32]
0	0x3c9feedc	0.019523077
1	0x3cee5dde	0.029097494
2	0xbc04431b	-0.00807264
3	0xbda36844	-0.079788715
4	0x3e15f3ca	0.1464378
5	0xbe8bb54c	-0.27286756
6	0xbdedaa95	-0.116048016
7	0xbde1d277	-0.11026471
8	0xbd9a938a	-0.07547672
9	0xbe82c16b	-0.2553819
10	0x3d9f7b85	0.07787231
11	0x3d54dab3	0.05196638
12	0xbcf5619d	-0.029953772
13	0xbe154414	-0.14576751
14	0xbdb1406f	-0.08654868
15	0xbdd78dd4	-0.105250984
16	0xbde339e8	-0.11095029
17	0xbe7b319e	-0.24530646
18	0xbada31d4	-0.001664693
19	0xbe73a993	-0.23795156
20	0xbe243064	-0.16034085
21	0xbe00842d	-0.12550421
22	0xbdd864b9	-0.10566086
23	0xbe024c13	-0.12724333
24	0xbdb2faed	-0.087392665
25	0xbe2eafc4	-0.17059237
26	0xbe1fa76a	-0.15591207
27	0xbe757e53	-0.2397397
28	0x3d7a6eca	0.061140813
29	0xbe76c82d	-0.24099799
30	0x3e0eb9aa	0.13938013
31	0x3dfe47ab	0.12416013
32	0xbdc94454	-0.09827486
33	0xbe1aa257	-0.1510099
34	0x3eb467b9	0.35235384
35	0x3e6729c7	0.2257453
36	0xbc56f700	-0.013120413
37	0xbc3fc603	-0.0117049245
38	0x3e0c9498	0.13728559
39	0xbe6169a6	-0.22012958
40	0x3f4d62fe	0.80229175
41	0xbdcc8132	-0.099855796
42	0x3ef3903c	0.4757098
43	0x3c2fa2f4	0.010720003
44	0xbe9f3442	-0.31094557
45	0x3dee799d	0.1164429
46	0x3ddc6ca3	0.10762908
47	0xbeb53712	-0.35393578
48	0x3f0d024e	0.5508164
49	0xbea59c2f	-0.3234572
50	0x3ef3305f	0.47497842
51	0xbeba24a1	-0.3635607
52	0x3ed9a726	0.42510337
53	0xbdcb5380	-0.09928036
54	0xbdfe0705	-0.124036826
55	0x3f0ad136	0.5422548
56	0x3e2d9b86	0.16953859
57	0xbd84d75e	-0.064863905
58	0x3df666f3	0.12031355
59	0xbec36402	-0.38162237
60	0x3d9c1938	0.076219976
61	0xbeaab86d	-0.3334383
62	0x3daae2a7	0.08344012
63	0xbb8d5b8f	-0.004313893

log_std.bias f4 [2]
0	0xbe16fb25	-0.14744242
1	0xbe50b13e	-0.20380113
