s10lre4e3CCM_MADRL_MEC/model/50-400-8-10-40/MAPPO/3-Actor.pth (torch, 24135 bytes, 10 tensors)

fc1.weight f4 [128, 7]
000000 b2 65 99 3e 6b a4 61 be 18 3e 5d be 7e 20 21 3e
       0.299604 -0.22035377 -0.21605718 0.15735051
000010 99 3d ae 3e 92 e6 26 bd 18 67 39 be bd 50 79 be
       0.3403137 -0.040747233 -0.18105733 -0.24347205
000020 2e a1 b4 3e 4f bb 4d 3e 84 29 ae be fc 41 2a 3e
       0.3527922 0.20090984 -0.3401605 0.16626734
000030 9e 96 d6 be 81 99 80 3e ac 1a 83 3e 23 4b 71 3e
       -0.41911787 0.25117114 0.25606287 0.23563819
000040 e8 82 b4 bd a4 42 72 3e d0 18 3e be 0d db ab 3e
       -0.08814031 0.23658234 -0.18564153 0.3356556
000050 1e 9f d9 3e 34 13 81 3e ca 69 dc 3e c3 25 60 be
       0.4250421 0.25209963 0.4304946 -0.21889405
000060 ae 3e f6 3e 2f 68 e5 bb b2 1d bf 3d 9c 67 d9 3b
       0.48094696 -0.007000945 0.09331836 0.0066346657
000070 f2 74 d0 bd d6 bb b5 3e 1b 97 34 be c8 f3 15 3e
       -0.101785555 0.3549487 -0.17635767 0.14643776
000080 85 7e 15 bf ff ef 72 3e 1b c0 9a be b6 0e 16 bd
       -0.5839618 0.23724364 -0.3022469 -0.036635123
000090 a9 ee 83 bd cc 42 05 3d 2e 2b 80 be 7e e8 08 be
       -0.06442005 0.032534406 -0.25032943 -0.13369939
0000a0 25 db 9d 3e 4f 78 da bd 44 94 d8 3e fd 94 be be
       0.30831257 -0.10667478 0.42300618 -0.37223044
0000b0 88 5e c2 3d 77 89 21 bd 20 ea 53 be 9c b9 7f 3e
       0.09490687 -0.039437737 -0.2069478 0.24973148
0000c0 be 3f ad be 2b 9d 32 3e 71 29 a7 3e 56 7a 0a 3e
       -0.33837694 0.17442767 0.32648805 0.1352323
0000d0 93 28 92 3e 93 d2 c7 bd cd 86 7d 3d ea 66 a6 3d
       0.2854658 -0.09756961 0.061896134 0.08125098
0000e0 be cb b0 bd d1 50 52 3d 5d fa cb 3d 00 3f 53 3e
       -0.08632611 0.051346604 0.099598624 0.20629501
0000f0 80 35 25 3e e2 38 2d 3e 3a 2e a3 3d 38 a4 bd bc
       0.1613369 0.1691623 0.079678014 -0.023149595
000100 16 01 1c bd 53 c5 94 3e b4 da 05 3f a8 55 3a 3e
       -0.038086973 0.29056796 0.5228684 0.18196738
000110 a4 3f 66 3d e5 a0 9f 3e ba e5 83 be 26 7a a2 3e
       0.056213036 0.3117744 -0.25761205 0.31733817
000120 da fb 72 3d 4b 90 cc 3e d3 af 0b 3e c4 81 64 be
       0.059322216 0.39953837 0.1364129 -0.22315127
000130 e3 2e c6 3e e4 86 96 be fd 76 53 be ac 3a e9 bd
       0.38707647 -0.29399788 -0.20650859 -0.11388144
000140 e9 97 7d be 87 2e 6b bd 38 09 c8 bd 76 c1 29 3e
       -0.2476498 -0.05741742 -0.09767383 0.16577706
000150 14 c2 ad 3e 0f 21 da bd 69 79 87 be 38 ba a7 be
       0.33937132 -0.10650837 -0.26459816 -0.3275926
000160 a7 23 85 3e c1 76 0e bd ca 06 ae 3e 33 b7 f7 bd
       0.26003763 -0.03478122 0.33989555 -0.12095489
000170 ba 88 c7 be 06 14 19 3e 4e d3 55 be 5f a1 49 3e
       -0.38971502 0.14949045 -0.20881388 0.19690464
000180 9c 5f f7 3d e8 90 35 3e d4 9c ae 3e 7e 34 d1 3e
       0.12078783 0.17731059 0.34104025 0.4086036
000190 b0 09 31 be f0 ea a3 be c9 82 82 3e f4 5d 94 3d
       -0.17288852 -0.3201518 0.25490406 0.07244483
0001a0 3e 2b 15 be b2 f4 07 bf 41 cd a5 3d 57 ee 71 be
       -0.14567277 -0.5310775 0.0809579 -0.23626076
0001b0 78 bc 94 3e cb 60 9f 3d 80 8e c3 be b2 39 c5 3e
       0.2905004 0.07782134 -0.38194656 0.3852058
0001c0 c0 e8 c1 3e ec 72 68 3e 3f d3 fc be 73 b6 3e bd
       0.37872887 0.22700089 -0.49379918 -0.046560716
0001d0 2c e7 04 3a 28 a8 01 bf b9 80 56 3e ae a6 0a 3f
       0.00050698477 -0.5064721 0.20947541 0.54160583
0001e0 f0 f2 59 bb b4 ac 11 3e 85 87 91 be eb a8 00 bd
       -0.0033256374 0.14226037 -0.28423706 -0.031411093
0001f0 d3 bb e4 3e 37 4f 90 be 5f 42 ac be 9c 43 39 be
       0.44674549 -0.28185436 -0.33644387 -0.18092197
000200 e0 aa 5e 3b a6 03 a8 bd 60 fb 51 be f1 39 1a be
       0.003397636 -0.08203821 -0.20506048 -0.15061165
000210 e1 63 d9 3e 07 e2 a5 be f1 9e ca 3d f4 5a 3c bd
       0.42459014 -0.32399008 0.09893597 -0.045985177
000220 02 de f6 be 1e 69 6a bb ca f0 e1 be ab 4a ce 3e
       -0.48216254 -0.003576822 -0.4412902 0.40291342
000230 20 c2 e4 3e 5b 96 ac 3e d5 62 66 be e0 00 94 be
       0.44679356 0.33708462 -0.22498639 -0.28906918
000240 52 8d c7 bd 56 bb 12 3e a5 8d fc 3c 10 aa ca 3c
       -0.097437516 0.14329275 0.03082926 0.024739295
000250 5d 52 a8 3e 7d 33 48 bc 22 6e 73 3e cb fa af 3e
       0.32875338 -0.012219307 0.23772481 0.34371027
000260 56 c3 02 3e c9 c6 6d be 8e a0 5f bd 48 61 32 3e
       0.12769827 -0.23220362 -0.054596476 0.17419922
000270 f7 2f 2e be 3c a8 86 be b5 58 14 3e bb 31 93 be
       -0.17010485 -0.26300228 0.14486964 -0.2874888
000280 66 16 a9 3e 0c f0 d2 3e 5e b1 b0 be 70 80 46 bc
       0.330249 0.41198766 -0.3451032 -0.012115583
000290 cb 32 11 bf 66 72 c4 3d 04 18 18 3b 78 b2 fe 3e
       -0.5671813 0.09592132 0.0023207674 0.49745536
0002a0 bf 43 11 bf 2a 0c 2c be 7e f6 de bd 81 d3 eb 3e
       -0.56744 -0.16801515 -0.108868584 0.46059802
0002b0 e6 be 83 be b2 9a 81 be bf 2f 84 3e da ce b7 be
       -0.2573158 -0.25313336 0.25817677 -0.35900003
0002c0 20 84 c4 3c 94 4e 06 be 5e 53 9b be 05 e7 61 be
       0.023988783 -0.13115913 -0.30337042 -0.22060783
0002d0 30 8f a7 bd 37 3f 5a be 7a 38 e7 be 2f 41 39 be
       -0.08181608 -0.21313177 -0.45160276 -0.18091272
0002e0 d8 96 93 3d 29 ef cf 3e 58 2f e0 bd 31 cb 6c 3e
       0.072065055 0.40612152 -0.1094653 0.23124386
0002f0 4c 05 b0 3e 4c 92 6b 3e 4f 8d 19 3e 96 7a 03 bd
       0.3437904 0.23005027 0.14995311 -0.03209933
000300 9d 08 19 3e 30 38 87 3d 78 7a 0a be 27 e6 03 be
       0.14944692 0.06602514 -0.1352328 -0.12880765
000310 ba fe 18 be da d5 ab bd dd 05 a6 be 0a d0 95 be
       -0.1494092 -0.08390398 -0.32426348 -0.29260284
000320 60 0b c4 3d 1a d0 33 3e 5c c1 92 be e2 53 c1 be
       0.09572482 0.17559853 -0.28663146 -0.3775931
000330 4d a2 9a be c1 cc 8b be 1b 13 f7 bd fc 64 53 3e
       -0.3020195 -0.27304652 -0.12064191 0.20643991
000340 14 e8 9b 3e a5 bc 84 3e 14 c5 07 3f 21 40 de 3d
       0.304505 0.25925174 0.5303509 0.10852075
000350 4c 12 88 be b2 9f 61 3e d0 92 04 3f 0f c7 6b bd
       -0.2657646 0.22033575 0.5178652 -0.057562884
000360 68 3d 87 bd 22 99 b2 bd 7c dc 1f bb b8 a7 1b 3e
       -0.06603509 -0.08720614 -0.0024392894 0.15200698
000370 56 90 7f 3e 73 12 be 3e 63 c4 a9 3d 3a 0a a4 3e
       0.24957404 0.3712345 0.08289411 0.32039052
000380 3e ca d0 3e cc 80 dc 3e 89 30 3c 3e 04 0b e8 3e
       0.407793 0.43067014 0.1837789 0.45320904
000390 b8 97 cf 3e b5 ff 5a bd d8 46 87 3e 2c 97 18 3e
       0.4054544 -0.053466517 0.26421237 0.14901417
0003a0 08 04 7a be 01 3a f7 3e de 26 63 be 60 c3 87 be
       -0.244156 0.4828644 -0.22182795 -0.26516247
0003b0 64 a1 a1 3e 32 f3 56 be b8 70 b5 be 7e bf 01 3e
       0.31568444 -0.20991209 -0.3543756 0.12670705
0003c0 e5 49 cc 3e 33 49 38 be 1c 26 0c bf 8f f1 33 be
       0.39900127 -0.17996673 -0.5474565 -0.17572616
0003d0 ac 82 81 bd d1 63 34 3e d3 d6 99 3e af ea 1b 3d
       -0.06323752 0.17616202 0.3004671 0.03806561
0003e0 12 1b 69 3e a1 d5 ed 3e cf 74 63 3e f6 38 ae bd
       0.22764233 0.46452048 0.22212528 -0.08506958
0003f0 14 33 c9 3e 2c 19 e4 3e 0c 49 3b be c7 67 38 3e
       0.39296782 0.44550455 -0.18289584 0.18008338

fc1.bias f4 [128]
000000 ad 55 cb 3e 80 02 73 3c 1e cc bc be b3 a4 14 be
       0.39713803 0.014832139 -0.3687448 -0.14515953
000010 38 09 8f bd 69 17 f9 bd 8c 3f f1 bd ef e0 0b be
       -0.0698418 -0.12162668 -0.11779699 -0.13660024
000020 97 eb e1 3e 7f 5a 12 be 0c 56 84 3e c0 56 3e 3c
       0.44125053 -0.14292334 0.258469 0.0116173625
000030 de 00 85 3d 5e 34 1b 3e 0e bf 59 3e 34 62 82 bd
       0.06494306 0.15156695 0.21264288 -0.06366387
000040 fe d6 09 be 00 3c 83 bd 46 44 04 3f 77 0b d8 3e
       -0.1346092 -0.064079285 0.51666677 0.42196247
000050 be 28 2d 3e 96 d2 83 bd 38 2d 01 3e d9 2b 66 bd
       0.16910073 -0.064366505 0.12614906 -0.05619416
000060 82 fe c3 3d dc 5b d7 3d d3 d0 72 be 46 f2 91 3d
       0.09570028 0.10515568 -0.23712473 0.07126288
000070 39 df 2c be d2 42 b5 3e 85 86 88 bd cf 61 e8 3e
       -0.16882028 0.35402542 -0.066662826 0.45387122
000080 51 04 c5 bd c2 08 7a 3e dd 8e da 3e 8c 46 a7 be
       -0.09619964 0.24417403 0.4268712 -0.3267101
000090 e2 57 d3 bd 09 aa b2 be ed cd e0 3e 0e 73 1e 3e
       -0.10319497 -0.34895352 0.4390711 0.15473577
0000a0 e0 c8 ae bd 11 d2 3e 3e 27 8b 84 be 25 9e 0a 3e
       -0.085344076 0.18634821 -0.25887415 0.1353689
0000b0 1a d3 35 3d 70 97 b7 be 3e 3c 7a be 35 ce d9 3e
       0.044390775 -0.35857725 -0.24437043 0.42540136
0000c0 b9 ac b9 bc 7e b5 9b 3e 19 e1 a3 3e 3d 5e 69 3e
       -0.022665368 0.30411905 0.32007673 0.22789855
0000d0 ea ca 41 bc 7a 63 97 3e 29 fe 92 be 1d 62 ef 3e
       -0.011828164 0.29568082 -0.28709534 0.46754542
0000e0 6d 6f 65 3e aa 21 95 3e 02 ce 01 be 14 95 94 be
       0.22405787 0.29127246 -0.12676242 -0.29019988
0000f0 cb 80 c8 3e 8c f5 27 be bb 88 c6 3e 69 fa b5 be
       0.3916076 -0.16402262 0.38776192 -0.3554261
000100 ad c0 6b be 63 ee f9 3e d5 81 db 3e 22 a1 31 be
       -0.23022719 0.48814687 0.4287249 -0.17346624
000110 1f 73 1d be dc f3 15 be 21 2f e2 3e 2c 00 9e 3e
       -0.15375946 -0.14643806 0.44176582 0.30859506
000120 1e a5 51 be c6 40 47 3d 50 c6 e2 bd 90 c5 e3 bd
       -0.20473143 0.048645757 -0.11072981 -0.111216664
000130 6a a6 86 3e 9c c3 b2 3d 52 a0 af 3e 8c e7 97 be
       0.2629884 0.08728716 0.34302002 -0.29668844
000140 67 d8 08 3f c0 1d 8d be 2f 6d b3 3d 48 3a eb 3e
       0.53455204 -0.2756176 0.087610595 0.45942903
000150 3e 3c 31 be f6 cf 18 3e 41 f2 85 3d 48 fa a0 3e
       -0.17308137 0.14923081 0.06540347 0.3144095
000160 7d f2 b6 be 20 14 4e be b7 8c d0 bc 25 77 f5 3e
       -0.3573188 -0.20124865 -0.025457723 0.47942463
000170 9b e1 40 be 08 98 59 be 6c 14 94 bd ee b2 56 3e
       -0.18836062 -0.21249402 -0.07230458 0.20966694
000180 9d eb ca bd 6c 9f f1 bd 3b b2 8b be 92 1e 32 bd
       -0.09908221 -0.117979854 -0.27284417 -0.043486185
000190 ca 18 67 be a8 ae 49 3e 1b b9 39 bc fc f7 a3 be
       -0.2256805 0.19695532 -0.0113356365 -0.32025135
0001a0 77 f7 e6 3e df 61 4f be 55 24 72 3e 3f 62 3c be
       0.45110676 -0.20252179 0.23646672 -0.18396853
0001b0 cd ff 99 be 89 45 9b bd 78 cf 27 bd cb 1b ce 3e
       -0.30077973 -0.07581622 -0.040969342 0.4025558
0001c0 bb 4e 3c bc ac f4 6f 3d 97 57 f3 3e 29 89 19 3d
       -0.01149338 0.058582947 0.47527763 0.03748432
0001d0 6d e5 8f be 03 62 94 3c f7 7b b1 be b2 78 90 bd
       -0.28104725 0.018113142 -0.3466489 -0.07054271
0001e0 cc 57 85 be da 4c 95 3c ce 17 41 bd e9 02 73 3e
       -0.26043546 0.018225122 -0.047141843 0.23731579
0001f0 c3 56 52 3e 58 3a 86 bc b4 bb 2a be 5c 86 d1 3d
       0.2054091 -0.016385242 -0.16673166 0.10230705

fc2.weight f4 [32, 128]
000000 8d 8a 36 3e 6c 58 a3 3e 21 79 ed bd f4 79 dc bd
       0.1782629 0.31903398 -0.11595369 -0.10765448
000010 a9 2a c8 3e a7 b7 50 bd e4 20 48 be e2 bb ef bd
       0.39095047 -0.050956395 -0.19543797 -0.11705758
000020 78 d0 91 3d 0b 38 7f bd 7f 84 aa 3c 56 05 54 3d
       0.071198404 -0.062309306 0.020815132 0.0517629
000030 89 1e 44 3e b6 1e b0 3e 74 70 24 3e a9 08 9a 3e
       0.19152273 0.3439843 0.16058522 0.30084732
000040 ca 32 91 be 3b 83 2e 3e 1f 60 85 3e 9a 92 7c 3e
       -0.2835906 0.17042248 0.26049897 0.24665299
000050 49 10 a8 3d c4 bf c8 bd be 77 5f 3e d4 57 a8 3e
       0.08206231 -0.098022014 0.21823022 0.32879508
000060 18 df 65 3e 6c f0 95 3c 19 99 a5 be a3 57 9d bc
       0.22448385 0.018303119 -0.32343367 -0.019206828
000070 5f fd 4b 3d 5d b5 89 3e 8a ce 8e bd 72 bf 82 3c
       0.04980218 0.26896182 -0.06972988 0.015960429
000080 11 ef de bc 7e 54 b1 3e 67 c2 ea 3e 74 e5 25 be
       -0.027213605 0.34634775 0.45851442 -0.1620081
000090 0d e0 cc bd d4 b3 82 bc 3d 13 92 3d d0 c0 0e 3d
       -0.10003672 -0.01595489 0.07132576 0.03485185
0000a0 e8 f4 83 3c 2c cb 0b 3e d4 82 28 be ad 49 2d be
       0.016107991 0.13651723 -0.16456157 -0.16922636
0000b0 85 00 9c 3e 67 e3 0d bd 88 e1 8b 3e 87 19 87 3e
       0.30469146 -0.034640696 0.27320504 0.26386663
0000c0 b5 44 cb be 6c b6 57 3e 12 9a eb 3c a5 cb ee 3e
       -0.39700857 0.21065682 0.02875999 0.46639743
0000d0 e9 cc 2c bd 33 f9 8c 3e 6f 2a 5a 3c 09 bf 68 3e
       -0.042187605 0.27533874 0.013315781 0.22729124
0000e0 7f 6e 0b 3d e4 0b ec 3d 70 82 2c bd f7 26 8d be
       0.034040924 0.115257055 -0.042116582 -0.2756879
0000f0 04 50 2a 3e 49 4e 4c bd 7a cf a8 3e c0 f1 a0 3a
       0.16632086 -0.049879346 0.32970792 0.0012279078
000100 ff 47 81 be 2b 7e 44 3e 50 ce bf 3e d2 33 35 3e
       -0.2525024 0.19188754 0.3746209 0.17695549
000110 6d 2e 50 3d fa 61 8f 3e 5d 7a 11 3e fb 31 11 3e
       0.050825525 0.28004438 0.14206834 0.14179222
000120 78 e1 72 bb 32 13 89 bd a3 bc 43 be 9c a1 70 be
       -0.003706066 -0.06693114 -0.19114928 -0.23499149
000130 a8 da 21 3e 91 6f 52 3e b4 c6 ae 3e ea 67 04 be
       0.15806067 0.20550372 0.34135973 -0.12930265
000140 23 a4 1c 3e 13 ac b1 bc e9 4b a8 be 70 1f b8 3e
       0.15296988 -0.021688497 -0.32870415 0.35961485
000150 78 7e d3 3d 1c f6 58 bd 5f 6e 9f 3c e8 d6 98 3c
       0.103268564 -0.052969083 0.019461809 0.018657163
000160 89 62 17 bd b8 9f ca bc 90 21 d8 bc f9 5d fc 3d
       -0.036959205 -0.024734363 -0.026383191 0.12322611
000170 c4 5a d3 3e f0 a3 9a 3c c1 d5 20 bd c2 1f a6 3d
       0.41280186 0.018877 -0.03926635 0.08111526
000180 0d 44 92 3e ec 5e e6 3c 00 7b fd 3b 30 0c 10 be
       0.28567544 0.028121434 0.00773561 -0.14067149
000190 b2 28 c2 3b 4d 6a b0 bd ea 03 65 3d 9b e0 7c be
       0.0059252614 -0.08614025 0.055911936 -0.24695055
0001a0 60 b7 a3 3e b6 d3 1f be 51 98 31 3e fb dc 8a bd
       0.31975842 -0.15608105 0.1734326 -0.0678043
0001b0 e4 77 3e 3e c2 2a 41 bd 03 e1 3a 3c fa 00 c5 3d
       0.18600422 -0.047159918 0.011406186 0.09619327
0001c0 bb 88 d0 3e a8 ac aa bd 62 d4 f6 3a c5 92 ca 3e
       0.40729317 -0.08333713 0.0018831606 0.395651
0001d0 f9 1b 87 3d 5a b4 25 3c c4 11 95 bd 6a d9 f7 bc
       0.06597132 0.0101138 -0.07278779 -0.030255038
0001e0 a0 a8 d5 bb 63 c9 18 3d 2e fb 5f 3c d3 47 a6 3e
       -0.006520346 0.037301432 0.013670726 0.32476673
0001f0 4c 21 5c 3e 44 bb a4 3e 8e 68 c7 bd 0e 7e 88 3e
       0.21497077 0.32174122 -0.09736739 0.26658672
000200 ca 56 84 3d a3 f4 00 bd 63 e4 21 bd c8 b3 1e bd
       0.06461866 -0.031483304 -0.039524447 -0.03874567
000210 e4 16 05 3d f8 3d 77 bd 8c e1 81 bd 18 f3 eb bc
       0.032492533 -0.060361832 -0.06341848 -0.02880244
000220 a5 3f d0 3a 2c 9b d5 bc ac 9e 27 3a de a2 a8 bd
       0.0015888108 -0.026074968 0.00063941884 -0.082341895
000230 17 b6 67 bc 00 0a 7f bc 0c 73 a5 3d c3 91 33 bd
       -0.014142535 -0.015566349 0.08078584 -0.04384018
000240 40 49 79 3b ec 7c 9e 3c cf fc 80 bd 5f 2c 09 bd
       0.0038038045 0.019346677 -0.062982194 -0.03348958
000250 78 d4 4c 3c 52 37 82 bd 1e c8 5f 3d 84 a5 97 bc
       0.012501828 -0.06358208 0.054634206 -0.018511541
000260 e7 22 a2 bd bc c5 95 3d e0 94 4a bd 0e d0 4d bc
       -0.07916813 0.073131055 -0.049458385 -0.012561811
000270 92 21 71 3d 32 eb 4f bd 7d 3a 46 bd f8 08 a1 3c
       0.058869906 -0.05076141 -0.048395623 0.019657597
000280 14 87 8d bd 7c 72 c1 bc e6 53 ea bb 48 ac 43 bd
       -0.0691053 -0.02361416 -0.0071511148 -0.047771722
000290 ce 36 ae bd ba 90 1e 3d 02 52 44 3d 80 2b 76 bd
       -0.08506547 0.03871224 0.04792977 -0.06010008
0002a0 33 ec 6a 3d 46 0c 8c bd f6 1b e5 bc 8a 97 2c 3d
       0.057354163 -0.068382785 -0.027967434 0.042136706
0002b0 bf 7b 08 bd 95 5d a9 3d 39 10 69 3d 46 d4 aa bd
       -0.03332114 0.082698025 0.056900237 -0.08341269
0002c0 d8 5b 55 3b fc 1f 47 bd d7 48 56 3d f8 89 27 3c
       0.0032555964 -0.048614487 0.05231556 0.010225765
0002d0 bc 2b e3 3c 70 fb db bc c7 10 47 bd 64 42 ec bc
       0.027730815 -0.026853293 -0.048599984 -0.028840251
0002e0 b6 fb e5 bc d5 dd 10 bd 61 b0 d5 3c b1 63 5f bd
       -0.028074127 -0.035367806 0.02608508 -0.054538433
0002f0 60 eb 9c 3d 1d ab dd 3c 98 f3 c6 bc 42 32 6b 3d
       0.07662082 0.027059132 -0.024286076 0.057420976
000300 b0 d1 b4 3c 3c 8b 99 39 23 64 9e bd 9e 96 41 bd
       0.022072643 0.00029286172 -0.07733943 -0.04726278
000310 42 a8 8d 3d b6 ef 60 3d d3 73 d2 3c c8 3d 72 3c
       0.06916858 0.054916106 0.025689995 0.014785238
000320 4d ad d3 3c bc cf 4f bd 44 d6 e1 bc 2c da 8f bd
       0.025839472 -0.05073522 -0.02756799 -0.07024035
000330 3c 24 76 bd 36 00 13 bd 0d c2 cc bc 86 c4 e8 bc
       -0.06009315 -0.035888873 -0.024994874 -0.028414022
000340 e5 39 87 bd 37 29 5c bc 5e a3 f0 bc 39 2f ac bd
       -0.066028394 -0.013437561 -0.029374775 -0.084074445
000350 35 9e 92 3d e2 53 9e 3d 69 8e 74 3c 54 bb 9c 3d
       0.07159082 0.07730843 0.014926531 0.076529175
000360 20 d0 32 bb 5d 84 8e 3d ac ac 14 3c c3 74 0b bd
       -0.0027284697 0.0695884 0.009074371 -0.0340469
000370 3e 56 5f 3d c3 bb ea 3c 19 ca 07 bd 18 d3 0d bc
       0.054525606 0.028653985 -0.03315172 -0.008656286
000380 9e 9e 72 3d 21 9a a9 bd 92 35 a3 bd 43 bb 77 3d
       0.0592333 -0.08281351 -0.07969202 0.06048132
000390 5a 00 50 3d 26 37 0e bd 77 e7 14 bd 70 e2 9a 3b
       0.050781585 -0.034720562 -0.036353555 0.0047267005
0003a0 0e 6e b4 bd 33 8e e9 3c e0 49 81 bd 78 39 0a 3d
       -0.08810054 0.028510189 -0.06312919 0.033746213
0003b0 d2 2d 59 bd 77 42 5d bd 2d 8d 01 bd 24 1b 6a bc
       -0.053022213 -0.054018464 -0.031628776 -0.014288697
0003c0 41 45 a5 bd 65 84 05 bc 7e 45 82 3d f6 22 70 3d
       -0.0806985 -0.008149241 0.06360911 0.05862709
0003d0 a0 cf 9b bd db 32 fc bc 57 85 87 3d 09 f0 64 bd
       -0.07607961 -0.030785969 0.066172294 -0.055892978
0003e0 1c cc 98 3d c3 a7 b0 bc d0 99 e2 bc e0 ba 14 bc
       0.07460806 -0.02156437 -0.027661234 -0.009077758
0003f0 06 61 b0 3d c8 8d b3 bc d9 ef 5c 3d f0 ce c7 3b
       0.08612256 -0.021918193 0.053939674 0.006097667

fc2.bias f4 [32]
000000 ce 0c 35 3e ed c1 8f bd 6c 1b 59 bd 32 e9 ab bd
       0.17680666 -0.0701941 -0.053004667 -0.08394088
000010 ee 10 2e 3e d3 26 c9 bd ad 83 6c 3e f9 44 ea 3a
       0.16998646 -0.09821858 0.23097105 0.0017873339
000020 47 af 1c 3e 27 1b 31 bd 34 5b 38 bc d6 c5 82 bd
       0.15301238 -0.043238785 -0.011252213 -0.063853905
000030 43 08 8d 3d 22 ad 48 bd b7 32 98 bb 59 80 18 bc
       0.068863414 -0.048993237 -0.0046447176 -0.009307944
000040 d0 ae df bd 37 1d 27 3d 45 7c 35 3d 59 db 1c 3e
       -0.10922015 0.040799346 0.044307966 0.1531805
000050 70 de b0 bd 82 2c d1 3d cc 25 30 3d 3f a0 62 3d
       -0.086361766 0.10213567 0.043004796 0.055328604
000060 18 92 a1 bd 58 f1 89 3d 96 61 35 3d a3 66 87 bd
       -0.07889193 0.06735486 0.04428252 -0.06611373
000070 a0 65 48 bb c6 f1 b3 bd e3 ea 71 3e c0 12 13 3c
       -0.0030578151 -0.08786349 0.23624758 0.008976638

discrete.weight f4 [2, 32]
000000 04 a9 15 3f ad b9 69 bd ac dc 7e be 3e f4 2a be
       0.5846102 -0.05706184 -0.24888867 -0.16694734
000010 c8 8d 08 3f fb d7 aa be 46 92 2a 3f 44 5c f7 be
       0.5334134 -0.33367905 0.66629446 -0.4831258
000020 9c ba 00 3f 92 ce 1b be 08 09 d2 be d9 3c ab be
       0.50284743 -0.15215519 -0.41022515 -0.3344486
000030 bf 73 53 be 6a 48 a4 3d ce 7f c7 be 64 86 ec be
       -0.20649622 0.080216244 -0.38964695 -0.46196282
000040 c3 d2 ec be cc 11 b0 be 19 87 26 be fc b6 ae 3d
       -0.46254548 -0.34388578 -0.16262473 0.08530995
000050 93 18 b6 be d2 05 12 3f 3b d4 b6 bd 2a fb 01 3e
       -0.35565624 0.5704013 -0.089271985 0.12693468
000060 3c c6 55 3d d7 69 bc be e0 bc ef bc 50 81 c6 be
       0.052191004 -0.367995 -0.029264867 -0.38770533
000070 6c be 2b 3e cf 71 1d be f6 d7 dd 3e fd 8b a1 be
       0.16771859 -0.15375446 0.43328828 -0.31552115
000080 82 bd c6 be 22 a5 99 3d 56 c2 ca 3e 83 bb b4 3e
       -0.38816458 0.075022 0.39601392 0.3529931
000090 62 e3 17 bf 79 f1 b3 3e e2 88 29 bf 54 da f5 3e
       -0.59331334 0.35145167 -0.6622449 0.48018134
0000a0 1f 89 2a bf 2d 97 e1 3d ac e3 d8 3e cc a4 f9 3e
       -0.6661548 0.110151626 0.423612 0.48758543
0000b0 c8 de a5 3e a2 be 91 bd 6b 22 62 3e 89 7d b0 3e
       0.3239653 -0.071164384 0.22083442 0.34470776
0000c0 c8 b7 95 3e 1f 62 42 3e 6b a8 9e 3e a3 31 9d bd
       0.29241776 0.18982743 0.30987868 -0.07675483
0000d0 f5 5a b7 3e 34 1f fa be 50 60 01 be e9 4c 96 bd
       0.35811582 -0.4885193 -0.12634397 -0.07338888
0000e0 30 0d b5 bd e4 7c 3f 3e fd e5 25 be c7 fd 8b 3e
       -0.08840406 0.18699986 -0.16201015 0.27342054
0000f0 7a a8 c9 3d ea 55 29 be ce 33 05 bf bc 60 d0 3e
       0.098465875 -0.1653668 -0.5203217 0.40698802

discrete.bias f4 [2]
000000 49 76 48 3e e3 24 50 be
       0.19576372 -0.20326571

fc3.weight f4 [2, 32]
000000 13 93 00 3d bc d0 8f bb 07 75 c7 bc 9b b1 43 bc
       0.03139026 -0.0043888967 -0.024347795 -0.0119442
000010 65 ee b0 3b 79 90 19 b9 12 37 93 3c d0 73 88 3a
       0.0053995126 -0.00014645037 0.017970596 0.0010410491
000020 51 f3 a7 3c 32 f4 7d bb f3 54 d1 bc 1b c1 d8 ba
       0.020501764 -0.0038750288 -0.025553202 -0.0016537042
000030 04 4c f5 ba 3e a8 fc bb 2c f7 07 3a ba 80 63 bc
       -0.0018714671 -0.0077104857 0.0005186673 -0.013885671
000040 d9 a4 32 bc 0b 3b ca 3c ed ab 4a 3c 3b 53 d1 bc
       -0.010903561 0.024686357 0.012370092 -0.025552383
000050 0e 83 3a 3b 50 fd 6e bc 79 f8 08 3c ae 8e 13 3b
       0.0028459462 -0.014586762 0.008360022 0.0022515464
000060 0d 46 4b ba a6 42 e8 3c 18 c7 32 3a 50 47 26 3d
       -0.0007754274 0.028352093 0.00068198284 0.040595353
000070 61 64 42 3a 16 a9 97 39 fb 6f fd 3b 67 4d 07 3c
       0.00074154703 0.00028926943 0.0077342964 0.0082582
000080 c8 f8 a2 bc 63 d6 1b bb 67 f1 d5 bc 38 ea 7f bd
       -0.019894019 -0.0023778907 -0.026116086 -0.062479228
000090 d0 5b 16 bc 4c bc 14 3d 97 78 1a bd c2 27 15 3d
       -0.009177163 0.036312386 -0.03771266 0.03641487
0000a0 93 1d 1a bd 3f 8d bd ba 05 b6 30 3d ad 25 b9 3c
       -0.03762586 -0.001446165 0.043142337 0.022600973
0000b0 b4 57 9d 3c d2 df 9c ba cb 79 8e 3c cc cb 2f 3d
       0.01920686 -0.0011968559 0.01739206 0.042918965
0000c0 50 6c 40 3d 43 5f 60 bd 10 18 21 3c 21 4b a0 3c
       0.046978295 -0.05477835 0.009832397 0.019567074
0000d0 5a 0d 09 3d 0b 60 09 bd 3a e7 41 3a 12 19 bd bc
       0.03346 -0.03353886 0.0007396821 -0.023083244
0000e0 27 cc e4 39 a1 19 9b bc 2d 2b c6 b9 d6 20 1d 3d
       0.00043639654 -0.01893312 -0.0003779767 0.038361393
0000f0 0f 97 53 ba 00 f7 ef 39 67 14 f2 ba 1b 01 3b 3c
       -0.0008071521 0.00045769662 -0.0018469215 0.011413838

fc3.bias f4 [2]
000000 ca 98 c1 3c 5b 32 6d ba
       0.023632426 -0.0009048336

log_std.weight f4 [2, 32]
000000 f8 6f dd bd 31 c3 e8 3d f9 15 f8 3d f7 fd e6 bc
       -0.10812372 0.11365355 0.12113566 -0.028197272
000010 4c 4d 76 be 6b aa 22 be dd 69 2e be 28 b3 24 3d
       -0.24052924 -0.15885322 -0.17032571 0.04020992
000020 0d 24 59 be 66 f1 a9 bd 01 27 e4 bb 97 dd 8f bc
       -0.21205159 -0.08297996 -0.0069626574 -0.017561717
000030 82 40 02 be 8e b7 07 be 2b 07 15 be 53 3c e1 bd
       -0.1271992 -0.13253614 -0.14553516 -0.10997834
000040 35 fb fb bc 10 50 1c bd 17 e4 28 be f2 e3 8f be
       -0.030759433 -0.03816229 -0.1649326 -0.28103596
000050 ce 68 9e bd fe 6f 07 be 78 75 2a 3d 0c 5b 34 be
       -0.07734834 -0.13226315 0.041615933 -0.17612857
000060 c5 a4 14 be fa 46 da bd ba 2e f6 bd e8 e7 10 bd
       -0.1451598 -0.10658069 -0.12020631 -0.035377413
000070 df 28 ae bd 6f 37 17 3e e0 74 15 be 24 66 6e bd
       -0.08503889 0.1476724 -0.14595366 -0.058202878
000080 42 27 17 bf 0b d2 b6 3c 36 d6 6a 3f 24 d0 78 3f
       -0.5904428 0.022316953 0.9173311 0.971926
000090 a8 c8 56 be a8 bc fb 3e f3 f7 99 be 47 79 3a 3f
       -0.20974982 0.4916737 -0.30071983 0.72841305
0000a0 33 e3 fb bd 3c a0 70 bd c3 4e 9b 3e b1 5a 3a 3f
       -0.12299194 -0.05874656 0.30333528 0.72794634
0000b0 d4 5c 96 3d 3b c6 f4 3d e2 d0 1b 3e f0 7a 41 3e
       0.07341924 0.11951872 0.15216401 0.18894553
0000c0 d0 58 d8 3e 5e 38 68 3f 02 2a 2b 3d 60 7c 4f be
       0.4225526 0.9071101 0.04178811 -0.20262289
0000d0 5c 1b a3 3d b4 b7 0a bf 88 a6 9b 3d 0b e8 05 3f
       0.07964203 -0.5418656 0.07600123 0.52307194
0000e0 86 7f bf bd 78 27 16 3f af bd cf 3d c3 07 b5 3e
       -0.09350495 0.58653975 0.10143601 0.35357484
0000f0 a1 a7 a6 bd 38 b4 8b bc 9d 35 ad be 23 ca 06 3f
       -0.081374414 -0.017053708 -0.33829966 0.52652186

log_std.bias f4 [2]
000000 b1 99 cf bb 8a c1 47 bd
       -0.00633546 -0.048768558
