s10lre4e3CCM_MADRL_MEC/model/50-400-8-10-40/HYASP_RMAPPO_15/1-Actor.pth (torch, 161391 bytes, 18 tensors)

fc1.weight f4 [256, 7]
000000 76 41 41 bd 81 e6 3d 3e 45 ec 3d be e1 f7 8c bd
       -0.04718157 0.18544962 -0.18547161 -0.06883217
000010 87 af c9 be 12 98 6b 3e 71 e1 a4 3d 42 c0 33 3d
       -0.3939173 0.23007229 0.08050812 0.043884523
000020 e2 3a d4 3d 69 90 df be 03 e5 8f 3c 95 0c b4 3e
       0.103627935 -0.43664864 0.017565256 0.3516585
000030 91 1f 60 be cd 35 70 be 6e e8 3e 3e 5e 53 3b 3e
       -0.21887042 -0.23458023 0.18643352 0.18293521
000040 c9 ad 25 3e b2 98 31 be 16 a7 05 3e bc c3 ab 3d
       0.16179575 -0.17343405 0.1305202 0.08386943
000050 49 bd 2f 3e 64 30 93 bd 0b ec ef bd f8 31 a2 be
       0.1716205 -0.07186964 -0.117149435 -0.31678748
000060 31 fe 7d be cb e6 50 be ff 9b e7 3a 16 29 0a 3e
       -0.24803998 -0.2040054 0.0017670392 0.13492236
000070 b4 f7 ce 3d 98 b6 8d be c2 3d 28 3e 5f 9f 64 be
       0.10105839 -0.2767837 0.16429809 -0.2232642
000080 44 48 b7 bd dc ac 9c bd 39 15 14 be 24 b4 15 3e
       -0.089493304 -0.07650158 -0.14461221 0.146195
000090 7c df bf bd 4c dc c4 3d 88 7a 6a 3e 00 96 8a 3e
       -0.09368798 0.09612331 0.22898304 0.27067566
0000a0 30 6f 1e 3d 00 da 73 3e bd f5 97 3e 48 87 9c bd
       0.038680255 0.23813629 0.2967967 -0.0764299
0000b0 f9 b0 59 3e ff e1 82 3e 78 ce 22 be 76 24 03 bf
       0.21258916 0.25563046 -0.15899074 -0.5122751
0000c0 b8 e7 9a 3c e2 12 8d be 3d 1d ef 3e 34 08 fe 3d
       0.01890932 -0.2755347 0.46701995 0.12403908
0000d0 9f 95 ce bc 52 d8 04 bf 4a 21 96 3e 82 e7 8b bd
       -0.02521783 -0.5189258 0.29322273 -0.06831266
0000e0 10 a3 b1 3e ca 9d 9d 3d 39 fa 83 3e 49 26 b6 3e
       0.3469472 0.076961115 0.25776842 0.35576084
0000f0 18 7b 39 3e 79 2a af bd eb 97 20 3e ec d4 f6 bd
       0.18113363 -0.08553023 0.15682952 -0.120523304
000100 cb 5d 8a 3e c7 4f 3b be c8 08 58 3e aa c1 af 3d
       0.27024683 -0.18292151 0.210971 0.0858186
000110 a4 07 21 be 22 e9 75 3e cb 30 8c 3e b7 50 c9 3c
       -0.15725571 0.24014714 0.27380976 0.02457462
000120 4e 33 a4 bd a9 0c b0 3e 2d a3 14 3d ac 91 26 be
       -0.08017598 0.3438466 0.03628843 -0.16266507
000130 aa ad a6 3d 87 59 a3 3e 82 78 d8 be e6 bf 04 be
       0.081385925 0.3190424 -0.4227944 -0.12963828
000140 0a 9e d3 be 49 c2 db 3e d5 52 21 be 1c 24 19 be
       -0.41331512 0.42921665 -0.15754254 -0.14955181
000150 41 93 dd 3d b2 43 3c 3d c6 af 80 3e 80 fd 47 be
       0.10819102 0.045962997 0.25134104 -0.19530296
000160 ba 1b a4 3e 10 38 d1 3e 3e bd 8d be 3e 1f 9a 3e
       0.32052404 0.40863085 -0.27683443 0.3010196
000170 de 14 96 be e1 2f 9a be 9b 40 4a bf ce 6b 84 be
       -0.29312795 -0.30114654 -0.7900483 -0.25863498
000180 36 20 9e 3c 44 0b c2 be 21 dd 94 3d 1f df 58 be
       0.019302469 -0.3789922 0.072687395 -0.21178864
000190 f3 a3 9b 3e f3 df 35 bf 0e a8 3a be a1 ff c8 3e
       0.3039852 -0.71044844 -0.1822817 0.3925753
0001a0 6b ca 54 3e bb c7 fa be f9 92 67 be d3 27 d0 be
       0.20780341 -0.48980507 -0.2261466 -0.40655383
0001b0 82 2b 83 be 74 78 4f 3d a6 bc 0d 3f 82 cf 4e 3e
       -0.2561913 0.050651982 0.5536598 0.20196345
0001c0 d8 02 bd be f8 ac 25 bd 1b 98 1d 3e ec fc d9 3e
       -0.36916232 -0.04044816 0.15390055 0.42575777
0001d0 96 f1 50 3e a7 8a 64 3d 79 e6 71 3e 12 09 12 3e
       0.20404658 0.05579629 0.23623075 0.14261273
0001e0 bd 91 b1 be d2 b7 1b 3e 21 5c c0 bd c7 f8 7d bc
       -0.34681502 0.1520684 -0.09392572 -0.015501208
0001f0 ea 68 bf 3e a6 c5 e5 3e 3e ca da be b0 22 32 bd
       0.3738473 0.44877356 -0.42732424 -0.04349011
000200 2c da 02 bf 63 11 8e bd 55 52 e3 3d ca ba 14 3f
       -0.51114154 -0.0693691 0.11099688 0.5809752
000210 05 95 f3 3d 60 db 77 be 71 e2 f2 3d 43 19 42 be
       0.118936576 -0.24204779 0.118595965 -0.18954949
000220 e4 e6 a7 3e 0c 22 17 be 84 de 68 bd 29 72 08 3e
       0.32793343 -0.14759082 -0.056852832 0.13324799
000230 06 9a cb 3e 0e 9d a9 be e2 bd a4 bd b4 ff 9c be
       0.39765948 -0.33127636 -0.0804403 -0.30663836
000240 0d a0 be 3e cf 57 c0 be ef 15 71 3e 0c 29 95 3e
       0.37231484 -0.37566993 0.23543523 0.2913288
000250 df 04 c4 be 08 05 dc bd 00 25 82 be be e8 ab 3e
       -0.38284966 -0.10743147 -0.25418854 0.33576006
000260 01 da 10 be 4e f2 c9 3b 8b 11 e5 3d a0 41 21 3e
       -0.14145662 0.006162918 0.11184987 0.1574769
000270 d3 23 9f be 3c 03 03 3e 5e 2e b7 3c 39 6e fd bd
       -0.3108202 0.12794203 0.022360977 -0.12374539
000280 ea 6a 2d be b0 dd b1 bd f0 b9 34 be 52 ee c5 bd
       -0.16935316 -0.08684862 -0.17649055 -0.096645966
000290 6e ea 53 be be 81 b9 3e 2e 9f fa 3d 2a 31 11 3f
       -0.20694897 0.36231798 0.12237392 0.56715643
0002a0 cd fd b4 3e fd d1 6a 3e fe 6b fa 3d 3e f9 65 be
       0.35349885 0.22931667 0.12227629 -0.2245836
0002b0 00 c7 94 3e 56 51 e9 3e 2f 5e 3e be d6 72 d5 be
       0.29058075 0.45569867 -0.18590616 -0.41689175
0002c0 b5 84 85 3e 4d 6c e0 3d 26 b4 c6 3e 7c 75 8b 3e
       0.2607781 0.10958157 0.38809317 0.2723807
0002d0 4f df 25 3a 7b 89 05 bf 5a a2 f7 3e 97 d2 5f be
       0.0006327526 -0.52162904 0.48366052 -0.21857677
0002e0 c7 f6 98 be 0a ca a2 bd cc 13 e8 be f7 8e 90 3e
       -0.29875776 -0.07948692 -0.45327604 0.28234074
0002f0 a4 cc 4d 3d c7 df bc be bf 84 14 3f d6 92 f9 3e
       0.05024399 -0.3688948 0.58015054 0.4874484
000300 bc cd 81 be ae 1f e1 bd 9e 15 e4 3d 27 0e 9b bd
       -0.25352275 -0.109923705 0.11136936 -0.07571059
000310 ab d0 ca bd c2 b6 e7 3e 70 1f 56 be 19 7c 8d 3e
       -0.099030815 0.4525662 -0.2091043 0.27633741
000320 ba 98 1a bf 08 da 05 3d e8 20 da bd 6b 4f 93 3e
       -0.6038929 0.032678634 -0.106508076 0.2877153
000330 f3 1a fc 3d 5f 89 c4 3e 5b 74 61 3e 89 52 d3 bd
       0.12309828 0.38386056 0.22017042 -0.10318477
000340 f5 14 da bd d8 a3 bd bd 41 e7 53 3e e4 fd 4c 3e
       -0.106485285 -0.09259766 0.20693685 0.20018727
000350 e9 9a 92 3e 76 63 bc 3e 4d 3a a5 bd 3b 4c 55 3e
       0.28633812 0.36794633 -0.080677606 0.20829861
000360 44 06 1b be 6b 0d 1b be 55 27 7d 3d 71 28 30 be
       -0.15139109 -0.15141837 0.061805088 -0.17202927
000370 a7 18 b4 3e 88 81 b6 3e 6f 19 c5 be 5b 3c 44 3e
       0.35175058 0.356457 -0.38495967 0.19163649
000380 40 40 cc bd c5 8e 03 3c 56 3e 24 3c ca 29 d6 be
       -0.09973192 0.008029644 0.010024628 -0.41828758
000390 58 cc 91 3e 14 03 ae 3d 0e 94 c8 be e6 3c 54 bf
       0.28476214 0.08496681 -0.39175457 -0.82905424
0003a0 35 c9 c2 3e 20 f0 9d be 05 e1 ce 3d c4 ec 22 3e
       0.38044134 -0.30847263 0.10101513 0.15910631
0003b0 07 5e cc be 8a c4 84 3e 6f 93 70 be a5 91 2e 3e
       -0.39915487 0.25931197 -0.23493741 0.17047746
0003c0 79 34 12 bc 22 89 c7 3e f9 13 9c 3e ad ac 38 bd
       -0.008923643 0.38971812 0.30483988 -0.04508655
0003d0 85 98 5c 3e 19 a8 c2 be 6b cd 50 be a6 46 06 be
       0.21542557 -0.38018873 -0.2039086 -0.13112888
0003e0 3f 87 85 3e 06 7b 51 3e df 50 71 3e 82 aa db 3d
       0.26079747 0.20457086 0.23566006 0.10725881
0003f0 f6 ae a2 bc 82 32 79 3d 26 b2 9c 3e df 87 46 3e
       -0.019858819 0.060839184 0.30604666 0.19387768

fc1.bias f4 [256]
000000 19 36 a2 3e f2 ad 93 3e 9c ae d9 3c e4 a3 21 be
       0.31681898 0.28843647 0.026572518 -0.15785176
000010 40 65 97 be d5 27 6b be e6 17 cb bc 70 16 ed bd
       -0.29569435 -0.22964413 -0.02479167 -0.11576545
000020 82 dc b9 3d d7 00 00 3e 31 1e 90 be 63 9c 32 3e
       0.09075262 0.1250032 -0.28148034 0.1744247
000030 1d f8 74 3b 38 bb 10 3f de bf a4 3c f2 f0 cd 3d
       0.0037379332 0.56535673 0.02011102 0.10055722
000040 4a 8f 1c be c4 11 92 be 7c f9 04 bd 8b f3 6d 3d
       -0.15289035 -0.2852918 -0.03246449 0.05809359
000050 3f e6 23 3c 0c 76 66 3e b1 f7 9c 3e 84 64 7f bd
       0.010003625 0.22505969 0.30657724 -0.06235172
000060 e6 50 ed be 8b 69 5a be b3 4b ae 3d 7e 7d 78 be
       -0.46350783 -0.21329324 0.08510532 -0.24266621
000070 ed 07 09 be 8f 83 33 be c8 71 5a 3e 14 f4 ab bc
       -0.1338193 -0.17530654 0.21332467 -0.020990409
000080 2c 3a 7a be 08 14 0a 3e e1 21 8c be ba 82 7c bb
       -0.24436253 0.13484204 -0.27369598 -0.0038530068
000090 6b 65 42 3e 8a 43 88 3e 3b 4c aa bc 1c 64 03 3d
       0.18984 0.26614028 -0.020788303 0.032077894
0000a0 02 d7 c2 3e 79 d8 33 3e df a0 7e 3e b7 1b 51 be
       0.38054663 0.17563047 0.24866055 -0.20420729
0000b0 6f 60 d5 bd 60 cf fc 3d 03 d7 3c be 7e 2e 2a bd
       -0.10418784 0.12344241 -0.18441395 -0.041548245
0000c0 e0 f4 0b 3e cb fc 5a be 81 d4 c5 3e bb 1a d0 bd
       0.13667631 -0.21385495 0.3863869 -0.101613484
0000d0 b4 7f 9e be 0c e3 99 3e 31 41 a3 3e 46 b8 e4 3e
       -0.30956805 0.30056036 0.31885675 0.4467184
0000e0 42 f9 d8 3d cc ba a3 be 0c 42 46 3d 47 3d 4d 3d
       0.10594417 -0.31978452 0.04840283 0.050107267
0000f0 61 ea 7a 3e 9b a8 e2 be 8c 1f 99 be 08 95 3e 3e
       0.24503471 -0.4426926 -0.2990688 0.18611538
000100 58 33 96 be 1e 35 54 be fe b6 5d 3d ea 40 9b bd
       -0.29336047 -0.20723388 0.054129593 -0.07580741
000110 23 76 8a bd 6d 02 bb be b2 da d7 be a0 13 48 3e
       -0.06760814 -0.36525288 -0.4215904 0.19538736
000120 06 dd ad 3e 24 80 01 bd 5a cb 0b be c3 c8 f6 bd
       0.3395769 -0.031616345 -0.13651791 -0.12050011
000130 1c 33 1f 3e 10 e1 20 be 10 3f 9d bd 85 44 98 3e
       0.1554684 -0.15710855 -0.07678044 0.29739776
000140 90 8e 1b be 7e 3c be be 73 e7 49 3c 0f 30 5f bd
       -0.15191102 -0.37155527 0.012323248 -0.05448919
000150 18 f6 cf 3e 78 9a 06 bc 86 e8 65 3c 25 36 31 be
       0.40617442 -0.008215539 0.014032489 -0.17305811
000160 6d 5a 87 3e 5a d0 51 3d bf a3 89 be 3f 36 0a be
       0.26436177 0.05122409 -0.2688274 -0.13497256
000170 38 37 6e bd 8e 77 9d be 12 2b 53 be 63 b2 fe 3d
       -0.05815813 -0.30755275 -0.20621899 0.12436368
000180 ce a1 d1 3e 96 aa 9b 3e 4a 4e 4e be b8 bb 5b 3e
       0.4094376 0.30403584 -0.20147052 0.21458328
000190 82 fa 5e be 7a 17 a0 3e 29 87 91 3e 85 d7 87 be
       -0.21775249 0.3126791 0.28423432 -0.26531616
0001a0 4b af 81 be 26 f4 e1 3c 93 12 17 bd 50 60 4e be
       -0.2532905 0.02758224 -0.036882948 -0.20153928
0001b0 67 7f bc be 69 43 a2 be 47 fd cc be 4c 11 7a 3e
       -0.3681595 -0.31692055 -0.40036985 0.2442066
0001c0 e1 01 7d be ab 81 13 bb bd 14 b4 3e 7d 9d 59 3e
       -0.24707748 -0.0022507708 0.35172072 0.21251483
0001d0 ff b9 32 3e 86 b2 b2 be 3f 4a 67 3e e3 ec d4 be
       0.17453764 -0.34901828 0.22586916 -0.4158698
0001e0 03 1a e3 3d be f7 fa 3e cd a6 ba 3d 98 59 8b 3e
       0.11088946 0.49017137 0.09113846 0.27216792
0001f0 0b 6a f8 bd de 2f 36 3e 89 b2 ba 3e 91 63 5e be
       -0.12129601 0.17791697 0.36464337 -0.21717669
000200 1b bf 2a be 77 0b d5 bc 25 05 b9 be e1 35 c1 3d
       -0.16674463 -0.026006443 -0.36136737 0.09434105
000210 41 4a b7 bd f0 76 99 3e b4 89 85 be ae 0c fd bd
       -0.0894971 0.29973555 -0.26081622 -0.12355934
000220 88 cf b6 be 33 08 c2 bd 62 d7 0e be 5d 00 b9 be
       -0.3570521 -0.0947422 -0.1394935 -0.3613309
000230 8b 90 95 bd c8 62 64 3e 40 52 ef 3d 0e 0b 8d 3d
       -0.0730296 0.22303307 0.1168561 0.06886874
000240 f0 6a d1 3d e2 81 41 3e 96 93 5a 3e 93 84 5d be
       0.10225475 0.18897203 0.21345362 -0.21632604
000250 06 46 44 be 20 bf 20 bc f3 4c 8a 3d c6 7c a0 be
       -0.19167337 -0.009811193 0.06752958 -0.31345195
000260 82 e3 75 be e8 dd bb 3e 3a fb b7 3e 9f c8 a9 be
       -0.24012569 0.3669274 0.35933858 -0.33160874
000270 9a 04 76 be c6 b2 ba 3e 77 4b b3 be 4c 82 33 bd
       -0.24025193 0.36464518 -0.35018513 -0.043825433
000280 3b 72 20 be 75 6b d6 3e 55 ef 8d 3e 83 98 41 3e
       -0.15668575 0.41878858 0.27721658 0.18905835
000290 1c d4 4f bd 69 98 12 be 07 bf 73 bc 22 43 cc 3e
       -0.050739393 -0.14315952 -0.014877087 0.39894968
0002a0 a7 cb 85 3e ac ce 4e bd f9 61 cb 3c 88 df b7 bd
       0.26131937 -0.050490066 0.02482699 -0.08978182
0002b0 8e ec 6f be 52 91 b3 bd 6c 95 b4 3c 15 ed 1b be
       -0.23430082 -0.08767952 0.022043906 -0.15227158
0002c0 b5 8c 14 be 17 0c 63 bd 63 4a 51 be 73 45 4e be
       -0.145068 -0.05543145 -0.20438533 -0.2014368
0002d0 d1 8c c8 bd 3d 77 23 be a5 e3 b8 be 0a 25 8c be
       -0.097924836 -0.15963455 -0.3611118 -0.2737201
0002e0 39 e2 9a 3e a9 7d 9a 3c 28 7a 09 3e 3f 3b b4 be
       0.3025072 0.018858748 0.13425505 -0.3520145
0002f0 42 24 97 3e 4e 31 21 bd 34 cd 97 bd 6c da 52 be
       0.2951985 -0.03935366 -0.07412186 -0.20591134
000300 a5 4a c3 be 63 a7 8b 3b 6e ab 6c be ca f9 0a 3d
       -0.38142887 0.0042618974 -0.2311227 0.033929624
000310 25 f8 82 3e f0 09 8e be a1 01 10 be c9 e9 ae 3d
       0.25579944 -0.27741957 -0.14063121 0.08540685
000320 23 ee 99 be 16 c1 e1 3d 11 97 73 be da c0 9b 3e
       -0.30064496 0.11023156 -0.23788096 0.30420572
000330 1a 4d 8b 3e 19 c3 ba 3e f6 3b b1 3d 42 b7 e8 3d
       0.2720726 0.36476973 0.08654015 0.11363079
000340 01 b0 a9 3e 44 55 cd bd c2 7d 8d 3e 2c 0a c6 be
       0.33142093 -0.10026029 0.27635008 -0.38679636
000350 54 02 07 be 7a 16 6a 3e ed d4 09 be 33 df cf be
       -0.13184482 0.22860137 -0.13460131 -0.40599975
000360 64 91 60 3e 0b fd 1d 3e de a3 33 be 84 16 6a be
       0.21930462 0.1542856 -0.17542979 -0.22860152
000370 6c df 22 be 36 f3 1e 3e 42 cc c1 36 24 ea b7 be
       -0.15905541 0.15522465 5.775627e-06 -0.35920823
000380 38 5c f1 bd 5f 34 92 be 82 32 f2 bd d2 88 ea 3d
       -0.117851675 -0.2855558 -0.1182604 0.11451878
000390 34 18 9c 3d 57 63 b1 3d b1 67 47 be 55 a3 c3 3e
       0.07621804 0.08661526 -0.19473149 0.3821055
0003a0 ca 33 9a 3e 42 f9 40 bd b3 e6 17 3f 1c ac 3b 3d
       0.30117637 -0.04711271 0.59336394 0.045818433
0003b0 1e d4 c8 be 96 99 c7 be e2 50 d7 bd 18 03 bd 3e
       -0.39224333 -0.38984364 -0.10513474 0.36916423
0003c0 23 d9 a5 be 3a e7 4c 3e be 7d a1 3e 2c 21 28 3e
       -0.32392225 0.20010081 0.31541246 0.16418904
0003d0 f1 f6 6b 3e 62 10 70 3e 1e b8 50 be 35 df 59 3e
       0.2304342 0.2344375 -0.20382735 0.21276553
0003e0 19 de 08 be 72 4b 11 bd 35 2b 98 be 59 5e 35 be
       -0.13365974 -0.03547234 -0.29720464 -0.17711772
0003f0 5b b3 eb bd 77 96 90 be 87 29 82 be 5a ab 16 be
       -0.11508819 -0.28239796 -0.25422308 -0.14713803

ln1.alpha f4 [256]
000000 00 00 80 3f 00 00 80 3f 00 00 80 3f 00 00 80 3f
       1.0 1.0 1.0 1.0
000010 00 00 80 3f 00 00 80 3f 00 00 80 3f 00 00 80 3f
       1.0 1.0 1.0 1.0
000020 00 00 80 3f 00 00 80 3f 00 00 80 3f 00 00 80 3f
       1.0 1.0 1.0 1.0
000030 00 00 80 3f 00 00 80 3f 00 00 80 3f 00 00 80 3f
       1.0 1.0 1.0 1.0
000040 00 00 80 3f 00 00 80 3f 00 00 80 3f 00 00 80 3f
       1.0 1.0 1.0 1.0
000050 00 00 80 3f 00 00 80 3f 00 00 80 3f 00 00 80 3f
       1.0 1.0 1.0 1.0
000060 00 00 80 3f 00 00 80 3f 00 00 80 3f 00 00 80 3f
       1.0 1.0 1.0 1.0
000070 00 00 80 3f 00 00 80 3f 00 00 80 3f 00 00 80 3f
       1.0 1.0 1.0 1.0
000080 00 00 80 3f 00 00 80 3f 00 00 80 3f 00 00 80 3f
       1.0 1.0 1.0 1.0
000090 00 00 80 3f 00 00 80 3f 00 00 80 3f 00 00 80 3f
       1.0 1.0 1.0 1.0
0000a0 00 00 80 3f 00 00 80 3f 00 00 80 3f 00 00 80 3f
       1.0 1.0 1.0 1.0
0000b0 00 00 80 3f 00 00 80 3f 00 00 80 3f 00 00 80 3f
       1.0 1.0 1.0 1.0
0000c0 00 00 80 3f 00 00 80 3f 00 00 80 3f 00 00 80 3f
       1.0 1.0 1.0 1.0
0000d0 00 00 80 3f 00 00 80 3f 00 00 80 3f 00 00 80 3f
       1.0 1.0 1.0 1.0
0000e0 00 00 80 3f 00 00 80 3f 00 00 80 3f 00 00 80 3f
       1.0 1.0 1.0 1.0
0000f0 00 00 80 3f 00 00 80 3f 00 00 80 3f 00 00 80 3f
       1.0 1.0 1.0 1.0
000100 00 00 80 3f 00 00 80 3f 00 00 80 3f 00 00 80 3f
       1.0 1.0 1.0 1.0
000110 00 00 80 3f 00 00 80 3f 00 00 80 3f 00 00 80 3f
       1.0 1.0 1.0 1.0
000120 00 00 80 3f 00 00 80 3f 00 00 80 3f 00 00 80 3f
       1.0 1.0 1.0 1.0
000130 00 00 80 3f 00 00 80 3f 00 00 80 3f 00 00 80 3f
       1.0 1.0 1.0 1.0
000140 00 00 80 3f 00 00 80 3f 00 00 80 3f 00 00 80 3f
       1.0 1.0 1.0 1.0
000150 00 00 80 3f 00 00 80 3f 00 00 80 3f 00 00 80 3f
       1.0 1.0 1.0 1.0
000160 00 00 80 3f 00 00 80 3f 00 00 80 3f 00 00 80 3f
       1.0 1.0 1.0 1.0
000170 00 00 80 3f 00 00 80 3f 00 00 80 3f 00 00 80 3f
       1.0 1.0 1.0 1.0
000180 00 00 80 3f 00 00 80 3f 00 00 80 3f 00 00 80 3f
       1.0 1.0 1.0 1.0
000190 00 00 80 3f 00 00 80 3f 00 00 80 3f 00 00 80 3f
       1.0 1.0 1.0 1.0
0001a0 00 00 80 3f 00 00 80 3f 00 00 80 3f 00 00 80 3f
       1.0 1.0 1.0 1.0
0001b0 00 00 80 3f 00 00 80 3f 00 00 80 3f 00 00 80 3f
       1.0 1.0 1.0 1.0
0001c0 00 00 80 3f 00 00 80 3f 00 00 80 3f 00 00 80 3f
       1.0 1.0 1.0 1.0
0001d0 00 00 80 3f 00 00 80 3f 00 00 80 3f 00 00 80 3f
       1.0 1.0 1.0 1.0
0001e0 00 00 80 3f 00 00 80 3f 00 00 80 3f 00 00 80 3f
       1.0 1.0 1.0 1.0
0001f0 00 00 80 3f 00 00 80 3f 00 00 80 3f 00 00 80 3f
       1.0 1.0 1.0 1.0
000200 00 00 80 3f 00 00 80 3f 00 00 80 3f 00 00 80 3f
       1.0 1.0 1.0 1.0
000210 00 00 80 3f 00 00 80 3f 00 00 80 3f 00 00 80 3f
       1.0 1.0 1.0 1.0
000220 00 00 80 3f 00 00 80 3f 00 00 80 3f 00 00 80 3f
       1.0 1.0 1.0 1.0
000230 00 00 80 3f 00 00 80 3f 00 00 80 3f 00 00 80 3f
       1.0 1.0 1.0 1.0
000240 00 00 80 3f 00 00 80 3f 00 00 80 3f 00 00 80 3f
       1.0 1.0 1.0 1.0
000250 00 00 80 3f 00 00 80 3f 00 00 80 3f 00 00 80 3f
       1.0 1.0 1.0 1.0
000260 00 00 80 3f 00 00 80 3f 00 00 80 3f 00 00 80 3f
       1.0 1.0 1.0 1.0
000270 00 00 80 3f 00 00 80 3f 00 00 80 3f 00 00 80 3f
       1.0 1.0 1.0 1.0
000280 00 00 80 3f 00 00 80 3f 00 00 80 3f 00 00 80 3f
       1.0 1.0 1.0 1.0
000290 00 00 80 3f 00 00 80 3f 00 00 80 3f 00 00 80 3f
       1.0 1.0 1.0 1.0
0002a0 00 00 80 3f 00 00 80 3f 00 00 80 3f 00 00 80 3f
       1.0 1.0 1.0 1.0
0002b0 00 00 80 3f 00 00 80 3f 00 00 80 3f 00 00 80 3f
       1.0 1.0 1.0 1.0
0002c0 00 00 80 3f 00 00 80 3f 00 00 80 3f 00 00 80 3f
       1.0 1.0 1.0 1.0
0002d0 00 00 80 3f 00 00 80 3f 00 00 80 3f 00 00 80 3f
       1.0 1.0 1.0 1.0
0002e0 00 00 80 3f 00 00 80 3f 00 00 80 3f 00 00 80 3f
       1.0 1.0 1.0 1.0
0002f0 00 00 80 3f 00 00 80 3f 00 00 80 3f 00 00 80 3f
       1.0 1.0 1.0 1.0
000300 00 00 80 3f 00 00 80 3f 00 00 80 3f 00 00 80 3f
       1.0 1.0 1.0 1.0
000310 00 00 80 3f 00 00 80 3f 00 00 80 3f 00 00 80 3f
       1.0 1.0 1.0 1.0
000320 00 00 80 3f 00 00 80 3f 00 00 80 3f 00 00 80 3f
       1.0 1.0 1.0 1.0
000330 00 00 80 3f 00 00 80 3f 00 00 80 3f 00 00 80 3f
       1.0 1.0 1.0 1.0
000340 00 00 80 3f 00 00 80 3f 00 00 80 3f 00 00 80 3f
       1.0 1.0 1.0 1.0
000350 00 00 80 3f 00 00 80 3f 00 00 80 3f 00 00 80 3f
       1.0 1.0 1.0 1.0
000360 00 00 80 3f 00 00 80 3f 00 00 80 3f 00 00 80 3f
       1.0 1.0 1.0 1.0
000370 00 00 80 3f 00 00 80 3f 00 00 80 3f 00 00 80 3f
       1.0 1.0 1.0 1.0
000380 00 00 80 3f 00 00 80 3f 00 00 80 3f 00 00 80 3f
       1.0 1.0 1.0 1.0
000390 00 00 80 3f 00 00 80 3f 00 00 80 3f 00 00 80 3f
       1.0 1.0 1.0 1.0
0003a0 00 00 80 3f 00 00 80 3f 00 00 80 3f 00 00 80 3f
       1.0 1.0 1.0 1.0
0003b0 00 00 80 3f 00 00 80 3f 00 00 80 3f 00 00 80 3f
       1.0 1.0 1.0 1.0
0003c0 00 00 80 3f 00 00 80 3f 00 00 80 3f 00 00 80 3f
       1.0 1.0 1.0 1.0
0003d0 00 00 80 3f 00 00 80 3f 00 00 80 3f 00 00 80 3f
       1.0 1.0 1.0 1.0
0003e0 00 00 80 3f 00 00 80 3f 00 00 80 3f 00 00 80 3f
       1.0 1.0 1.0 1.0
0003f0 00 00 80 3f 00 00 80 3f 00 00 80 3f 00 00 80 3f
       1.0 1.0 1.0 1.0

ln1.bias f4 [256]
000000 00 00 00 00 00 00 00 00 00 00 00 00 00 00 00 00
       0.0 0.0 0.0 0.0
000010 00 00 00 00 00 00 00 00 00 00 00 00 00 00 00 00
       0.0 0.0 0.0 0.0
000020 00 00 00 00 00 00 00 00 00 00 00 00 00 00 00 00
       0.0 0.0 0.0 0.0
000030 00 00 00 00 00 00 00 00 00 00 00 00 00 00 00 00
       0.0 0.0 0.0 0.0
000040 00 00 00 00 00 00 00 00 00 00 00 00 00 00 00 00
       0.0 0.0 0.0 0.0
000050 00 00 00 00 00 00 00 00 00 00 00 00 00 00 00 00
       0.0 0.0 0.0 0.0
000060 00 00 00 00 00 00 00 00 00 00 00 00 00 00 00 00
       0.0 0.0 0.0 0.0
000070 00 00 00 00 00 00 00 00 00 00 00 00 00 00 00 00
       0.0 0.0 0.0 0.0
000080 00 00 00 00 00 00 00 00 00 00 00 00 00 00 00 00
       0.0 0.0 0.0 0.0
000090 00 00 00 00 00 00 00 00 00 00 00 00 00 00 00 00
       0.0 0.0 0.0 0.0
0000a0 00 00 00 00 00 00 00 00 00 00 00 00 00 00 00 00
       0.0 0.0 0.0 0.0
0000b0 00 00 00 00 00 00 00 00 00 00 00 00 00 00 00 00
       0.0 0.0 0.0 0.0
0000c0 00 00 00 00 00 00 00 00 00 00 00 00 00 00 00 00
       0.0 0.0 0.0 0.0
0000d0 00 00 00 00 00 00 00 00 00 00 00 00 00 00 00 00
       0.0 0.0 0.0 0.0
0000e0 00 00 00 00 00 00 00 00 00 00 00 00 00 00 00 00
       0.0 0.0 0.0 0.0
0000f0 00 00 00 00 00 00 00 00 00 00 00 00 00 00 00 00
       0.0 0.0 0.0 0.0
000100 00 00 00 00 00 00 00 00 00 00 00 00 00 00 00 00
       0.0 0.0 0.0 0.0
000110 00 00 00 00 00 00 00 00 00 00 00 00 00 00 00 00
       0.0 0.0 0.0 0.0
000120 00 00 00 00 00 00 00 00 00 00 00 00 00 00 00 00
       0.0 0.0 0.0 0.0
000130 00 00 00 00 00 00 00 00 00 00 00 00 00 00 00 00
       0.0 0.0 0.0 0.0
000140 00 00 00 00 00 00 00 00 00 00 00 00 00 00 00 00
       0.0 0.0 0.0 0.0
000150 00 00 00 00 00 00 00 00 00 00 00 00 00 00 00 00
       0.0 0.0 0.0 0.0
000160 00 00 00 00 00 00 00 00 00 00 00 00 00 00 00 00
       0.0 0.0 0.0 0.0
000170 00 00 00 00 00 00 00 00 00 00 00 00 00 00 00 00
       0.0 0.0 0.0 0.0
000180 00 00 00 00 00 00 00 00 00 00 00 00 00 00 00 00
       0.0 0.0 0.0 0.0
000190 00 00 00 00 00 00 00 00 00 00 00 00 00 00 00 00
       0.0 0.0 0.0 0.0
0001a0 00 00 00 00 00 00 00 00 00 00 00 00 00 00 00 00
       0.0 0.0 0.0 0.0
0001b0 00 00 00 00 00 00 00 00 00 00 00 00 00 00 00 00
       0.0 0.0 0.0 0.0
0001c0 00 00 00 00 00 00 00 00 00 00 00 00 00 00 00 00
       0.0 0.0 0.0 0.0
0001d0 00 00 00 00 00 00 00 00 00 00 00 00 00 00 00 00
       0.0 0.0 0.0 0.0
0001e0 00 00 00 00 00 00 00 00 00 00 00 00 00 00 00 00
       0.0 0.0 0.0 0.0
0001f0 00 00 00 00 00 00 00 00 00 00 00 00 00 00 00 00
       0.0 0.0 0.0 0.0
000200 00 00 00 00 00 00 00 00 00 00 00 00 00 00 00 00
       0.0 0.0 0.0 0.0
000210 00 00 00 00 00 00 00 00 00 00 00 00 00 00 00 00
       0.0 0.0 0.0 0.0
000220 00 00 00 00 00 00 00 00 00 00 00 00 00 00 00 00
       0.0 0.0 0.0 0.0
000230 00 00 00 00 00 00 00 00 00 00 00 00 00 00 00 00
       0.0 0.0 0.0 0.0
000240 00 00 00 00 00 00 00 00 00 00 00 00 00 00 00 00
       0.0 0.0 0.0 0.0
000250 00 00 00 00 00 00 00 00 00 00 00 00 00 00 00 00
       0.0 0.0 0.0 0.0
000260 00 00 00 00 00 00 00 00 00 00 00 00 00 00 00 00
       0.0 0.0 0.0 0.0
000270 00 00 00 00 00 00 00 00 00 00 00 00 00 00 00 00
       0.0 0.0 0.0 0.0
000280 00 00 00 00 00 00 00 00 00 00 00 00 00 00 00 00
       0.0 0.0 0.0 0.0
000290 00 00 00 00 00 00 00 00 00 00 00 00 00 00 00 00
       0.0 0.0 0.0 0.0
0002a0 00 00 00 00 00 00 00 00 00 00 00 00 00 00 00 00
       0.0 0.0 0.0 0.0
0002b0 00 00 00 00 00 00 00 00 00 00 00 00 00 00 00 00
       0.0 0.0 0.0 0.0
0002c0 00 00 00 00 00 00 00 00 00 00 00 00 00 00 00 00
       0.0 0.0 0.0 0.0
0002d0 00 00 00 00 00 00 00 00 00 00 00 00 00 00 00 00
       0.0 0.0 0.0 0.0
0002e0 00 00 00 00 00 00 00 00 00 00 00 00 00 00 00 00
       0.0 0.0 0.0 0.0
0002f0 00 00 00 00 00 00 00 00 00 00 00 00 00 00 00 00
       0.0 0.0 0.0 0.0
000300 00 00 00 00 00 00 00 00 00 00 00 00 00 00 00 00
       0.0 0.0 0.0 0.0
000310 00 00 00 00 00 00 00 00 00 00 00 00 00 00 00 00
       0.0 0.0 0.0 0.0
000320 00 00 00 00 00 00 00 00 00 00 00 00 00 00 00 00
       0.0 0.0 0.0 0.0
000330 00 00 00 00 00 00 00 00 00 00 00 00 00 00 00 00
       0.0 0.0 0.0 0.0
000340 00 00 00 00 00 00 00 00 00 00 00 00 00 00 00 00
       0.0 0.0 0.0 0.0
000350 00 00 00 00 00 00 00 00 00 00 00 00 00 00 00 00
       0.0 0.0 0.0 0.0
000360 00 00 00 00 00 00 00 00 00 00 00 00 00 00 00 00
       0.0 0.0 0.0 0.0
000370 00 00 00 00 00 00 00 00 00 00 00 00 00 00 00 00
       0.0 0.0 0.0 0.0
000380 00 00 00 00 00 00 00 00 00 00 00 00 00 00 00 00
       0.0 0.0 0.0 0.0
000390 00 00 00 00 00 00 00 00 00 00 00 00 00 00 00 00
       0.0 0.0 0.0 0.0
0003a0 00 00 00 00 00 00 00 00 00 00 00 00 00 00 00 00
       0.0 0.0 0.0 0.0
0003b0 00 00 00 00 00 00 00 00 00 00 00 00 00 00 00 00
       0.0 0.0 0.0 0.0
0003c0 00 00 00 00 00 00 00 00 00 00 00 00 00 00 00 00
       0.0 0.0 0.0 0.0
0003d0 00 00 00 00 00 00 00 00 00 00 00 00 00 00 00 00
       0.0 0.0 0.0 0.0
0003e0 00 00 00 00 00 00 00 00 00 00 00 00 00 00 00 00
       0.0 0.0 0.0 0.0
0003f0 00 00 00 00 00 00 00 00 00 00 00 00 00 00 00 00
       0.0 0.0 0.0 0.0

fc2.weight f4 [128, 256]
000000 8e de 19 3c 26 28 e5 bc 78 f8 5b bd 3c c1 23 3d
       0.00939144 -0.027973246 -0.053703755 0.039979205
000010 ee 5f 77 3d ef 01 76 bd a4 43 b2 bd 3f c4 b8 bc
       0.06039422 -0.060060438 -0.08704308 -0.022554515
000020 a9 0d ba bd 22 21 43 bd 77 2f 22 bd ad fe 85 bd
       -0.09084637 -0.04763902 -0.039596047 -0.06542716
000030 30 18 91 3c a1 62 29 3c 23 b8 08 bc 38 61 db bb
       0.017711729 0.010338456 -0.008344683 -0.006694939
000040 b7 a3 bb 3a b2 5b 0f 3d ce 59 54 bc aa 06 76 bc
       0.0014315759 0.034999557 -0.012960864 -0.015016237
000050 d6 91 67 bb 74 c3 f6 bc 40 47 de bc 35 fd 8e 3d
       -0.0035334728 -0.030122496 -0.027133584 0.06981889
000060 21 32 af bc d6 cf 06 bd e2 33 05 3d f6 f8 ad 3d
       -0.021386208 -0.03291305 0.032520182 0.08494751
000070 14 a5 03 be 27 13 a0 bd be 89 a0 3c 30 d8 d0 bd
       -0.12855941 -0.07816153 0.01959693 -0.101974845
000080 53 1c 52 bd 58 86 61 bc b6 84 89 bd 30 49 49 3c
       -0.051296543 -0.01376494 -0.06714766 0.012285516
000090 89 28 86 bd 31 f6 94 bd 0a 0e 78 bd f5 de b5 ba
       -0.065507 -0.0727352 -0.060560264 -0.001387565
0000a0 e2 df 8a 3d 18 23 a3 3d 5b a5 f0 3c 72 09 12 bd
       0.067809835 0.07965678 0.029375723 -0.03565354
0000b0 78 c3 a2 3d de af 69 3d d2 bf 17 3d a6 5b 05 bd
       0.07947439 0.057052486 0.03704817 -0.032558106
0000c0 87 55 6c bc 7b e6 d0 bc ab 13 b7 bc 09 ac dc 3c
       -0.014424688 -0.025500527 -0.022348246 0.026937502
0000d0 88 c3 04 3c f6 d6 3d bd 59 b6 ac bc 1b 80 1e bd
       0.008103259 -0.04634758 -0.021083044 -0.03869639
0000e0 5f 77 90 bd a4 1e 23 bd 1d ee 12 bd e3 46 a6 bc
       -0.07054018 -0.039824143 -0.035871614 -0.020297473
0000f0 e1 ac 3f bd 96 3c 31 3c eb 33 6b 3d b8 cb 5c bd
       -0.04679573 0.0108176675 0.05742256 -0.05390522
000100 e0 29 eb 3b 37 5e d4 3c f4 27 51 bc be be 72 3d
       0.0071766227 0.025923831 -0.012765873 0.059263937
000110 9b b9 fb bc a4 86 bd 3c 85 d5 0e 3d 76 2f 13 3b
       -0.030728152 0.02313549 0.034871597 0.002245871
000120 b2 fc bb 3c 32 61 8a bd e2 f1 25 bd 9c a8 4f 3d
       0.022947643 -0.0675682 -0.04051388 0.050697908
000130 ac a7 8f 3c 9a 8b ea bc d4 36 b5 bc c9 1f 35 3d
       0.017536007 -0.02863102 -0.02212087 0.044219766
000140 83 e3 be bd f2 ce 38 3d 12 d5 d3 bc 23 e0 9a bd
       -0.09320738 0.045119233 -0.025858436 -0.07562282
000150 4d 7e af bd 88 2e 91 3c 7e 9c aa bb 46 ed 7f bd
       -0.08569012 0.017722383 -0.0052066436 -0.06248214
000160 fc c4 f4 bb 98 ab 8a bd 38 4e 9d bc f0 90 df ba
       -0.0074697714 -0.0677101 -0.019202337 -0.0017056745
000170 3e 14 d7 bb 17 20 b7 3c 03 ab c0 3b c7 7e 19 bc
       -0.0065636924 0.022354169 0.005879761 -0.009368605
000180 03 8b e0 3c 86 b2 98 bd 50 d6 7d 3d d5 89 32 bd
       0.027410036 -0.07455926 0.061971962 -0.043588478
000190 d9 21 b2 bd b4 96 13 3d 33 31 a3 bc ca 4b 89 3c
       -0.08697862 0.036032394 -0.019920921 0.016759772
0001a0 4f 76 97 3c ed 1f 84 bd 9d b5 20 bd fa a1 e7 bc
       0.018489031 -0.06451402 -0.0392357 -0.028275479
0001b0 0b f9 32 bd 93 1b fc bc 50 54 5a ba aa 92 67 bd
       -0.043694537 -0.030774867 -0.00083286036 -0.056536354
0001c0 bd fd a6 3c 7a 70 41 bd 4c 9f e8 bc 6c 01 73 bd
       0.020384664 -0.047226407 -0.028396271 -0.059327528
0001d0 7e 5f ce bd c0 73 33 bc 82 67 a9 3c be 16 5c bd
       -0.100768074 -0.01095289 0.02067924 -0.053732626
0001e0 d0 59 02 bd 8e eb 2a 3d 23 e6 99 bd 36 d9 9c 3c
       -0.031823933 0.04172855 -0.07514598 0.019146543
0001f0 a1 14 b1 bc 8c fb e5 3c 18 b5 77 bd d0 ea 02 3d
       -0.021616282 0.028074048 -0.06047544 0.031962216
000200 36 63 74 3d 82 0d 60 bc 1e f8 1e 3d 8a 45 80 3d
       0.059664927 -0.0136750955 0.03881084 0.062632635
000210 b8 5e 1f 3c 78 af d9 bc 56 18 4a 3d 1a 1d 40 bc
       0.009727173 -0.026572928 0.049339615 -0.011725688
000220 bc ed 57 bd 2f 3e d9 3c e0 a3 c3 3c a7 90 75 bd
       -0.052716956 0.02651891 0.023881853 -0.059952404
000230 98 06 db bc 1c c4 04 bd 5e 50 09 be 6a d1 ca bd
       -0.026736543 -0.032413587 -0.13409564 -0.09903224
000240 2d 85 50 3d 7a 10 60 bb 2e 1b c7 bd 80 f4 52 bc
       0.050908256 -0.0034189508 -0.09721981 -0.012875676
000250 75 92 c1 3c 48 51 1f 3d 86 db 24 3d 39 26 44 bd
       0.023629406 0.038895875 0.040248416 -0.047888014
000260 12 6f 8f 3b 15 93 91 bd 37 20 b5 bb 9e 4f 07 bd
       0.0043772543 -0.07108132 -0.005527522 -0.033034913
000270 71 eb 91 3c 86 76 86 bd 04 06 e3 bc bf d2 7a bc
       0.017812463 -0.06565575 -0.02771283 -0.015309035
000280 e0 f9 0a bd 8e 4b 57 bc f0 8a ae 3c 64 98 4d bc
       -0.033929706 -0.013140572 0.021306485 -0.01254854
000290 30 43 b5 3b 61 ce e4 3d 9e df c4 bc 86 c2 60 bd
       0.005531691 0.11172176 -0.02403241 -0.054873012
0002a0 fb 53 b3 bc c6 e9 83 bd 1f f2 46 bd 05 88 a2 bd
       -0.021890631 -0.06441073 -0.04857075 -0.079361
0002b0 95 3f 3f bd 38 59 72 3d ec c1 fd bc 53 7c b5 bd
       -0.046691496 0.059167117 -0.030976258 -0.088616036
0002c0 04 a5 72 bd 1a 61 6a bc c4 bd 0e bc af 3c 5d bd
       -0.059239402 -0.014305377 -0.008712236 -0.05401295
0002d0 b5 27 9e bd 5a f5 f2 bd 5f df 1b bd 8e da 40 bd
       -0.07722417 -0.11863203 -0.03805482 -0.04708343
0002e0 2a 27 62 bc 5c 31 fb bd ad c8 64 3d df 4b af bc
       -0.013803283 -0.12265274 0.05585544 -0.021398483
0002f0 5a ab 97 3d be cf 81 bd 84 cd 1e bd 21 66 4e bd
       0.074057296 -0.06338452 -0.038770214 -0.050390366
000300 e8 ac 14 3d cf 25 f7 bc 92 32 0c 3d f9 00 2e bd
       0.03629771 -0.030169396 0.034227915 -0.042481396
000310 8d e7 3a bd 80 fa b7 3b 87 00 49 3c 2d 5c 8b bd
       -0.04563098 0.0056145787 0.012268192 -0.068046905
000320 a2 30 88 3c 8d 37 a7 bc 0a 4d 2a bd 67 8e 8f bc
       0.016624752 -0.02041223 -0.041577376 -0.017523957
000330 67 19 41 3c 08 cc 9d bc 87 b8 bd bd a4 d0 86 bc
       0.011785842 -0.019262329 -0.092637114 -0.01645691
000340 43 2e b4 bd 10 ff 9d 3b 91 9f e3 3a 48 d1 bf 3c
       -0.08797886 0.0048216656 0.001736628 0.023415223
000350 2f 43 88 3d f2 4e 7c bd 84 6f 47 bc 1d e6 9f bd
       0.06653439 -0.061598726 -0.0121725835 -0.078075625
000360 09 6f 76 3c d1 96 a9 bd ea 3b 47 bc 13 f3 e5 3c
       0.015041121 -0.08280719 -0.012160281 0.028070008
000370 be 96 22 3d 41 dd a2 bd 3a 43 8d bc e2 26 47 bd
       0.03969454 -0.07952357 -0.01724397 -0.048621066
000380 a5 db a4 bd a1 5b 42 3c 39 e7 9b bb 8f 5d a2 bd
       -0.08049706 0.011862666 -0.0047577885 -0.07928001
000390 17 26 b1 bd 9e 90 2f bd 80 31 5a 3d 81 0e be bb
       -0.08649843 -0.042862527 0.053269863 -0.005800069
0003a0 69 82 4e 3c c6 29 6e bd 31 c9 e7 bc d8 cd 3a 3d
       0.012604334 -0.058145307 -0.028294178 0.045606464
0003b0 15 db 8d bc 64 ab 6c bd a6 47 27 bd d6 5b ed bc
       -0.01731638 -0.05778064 -0.040839814 -0.028974455
0003c0 eb 0e 15 bd 7a 1c 0d bd 5d b3 0b 3d 09 c9 76 3c
       -0.03639118 -0.034450985 0.0341066 0.015062579
0003d0 38 56 06 3c f7 71 0f bd 4b 65 02 bd 4d d1 93 bc
       0.008199267 -0.035020795 -0.03183488 -0.018044138
0003e0 0c e1 85 3d 8a 83 94 bd 29 14 98 bc 77 1d 91 bc
       0.06537065 -0.072516516 -0.0185643 -0.017714245
0003f0 a2 bb 9e 3d 6e 37 2c 3d d1 97 28 bd 1a 27 22 3d
       0.07750632 0.04204505 -0.04116041 0.03958807

fc2.bias f4 [128]
000000 66 12 b6 3c ff 79 36 bd 2a 52 27 3d aa 54 80 3d
       0.02222557 -0.04454994 0.040849842 0.062661484
000010 bb 3d 95 3d 7e 6c 03 3b a9 0a cf 3d a9 8a e1 3d
       0.07287165 0.002005368 0.10109455 0.110127755
000020 bb 23 c7 3c 5b 23 48 3b 5e bc c8 bd da 77 52 bd
       0.02430903 0.0030538652 -0.09801553 -0.05138383
000030 62 85 67 bc 97 92 47 3d 0d 46 ae 3b 1b 30 bc 3d
       -0.014130922 0.048723783 0.0053184093 0.09188863
000040 1c 05 de bd 2a 0c 5a bd c5 56 2a bd 04 e1 95 3d
       -0.10840818 -0.053234257 -0.041586656 0.07318309
000050 5d 5d 8e bd 4f 55 73 3d dd c6 e3 3c d9 0b 91 bc
       -0.069514014 0.05940753 0.027804786 -0.017705845
000060 5d f7 62 3d 52 f9 64 3d c3 1b 3f bd 9e 0b 1e 3d
       0.055411685 0.055901833 -0.046657335 0.038585298
000070 3e c1 6d bd 53 42 da 3d 8d 1d 3a 3d 5e a2 15 bd
       -0.05804562 0.106571816 0.045438338 -0.0365318
000080 ea 01 49 3d 88 6a 05 3c 3f 99 a2 bd 5a 32 95 bc
       0.04907409 0.008143075 -0.079393856 -0.018212486
000090 7f 99 94 bb b6 c9 5b bd 01 6f ab bd 6f 90 4e bd
       -0.0045348997 -0.053659163 -0.08370782 -0.05043071
0000a0 a9 75 9e 3d 34 66 fd bc 7a 39 27 3d 0b a1 30 bd
       0.07737286 -0.030932523 0.0408263 -0.043122333
0000b0 ed e9 0c 3d ca b3 0b 3e d4 04 7f bd 69 68 24 bd
       0.034402777 0.13642803 -0.062260464 -0.040138636
0000c0 6a b3 7c bb 52 82 70 bd 70 6e 52 bd 6e af 1d 3c
       -0.0038559088 -0.058718033 -0.051374853 0.009624345
0000d0 14 06 88 bd fa f1 71 bd 54 19 28 3d a4 dc 8a bc
       -0.06641784 -0.059068657 0.04103978 -0.016950913
0000e0 e3 6a c1 3d 54 d4 20 3d 29 66 ac 3b ae 8f 1b 3d
       0.09444215 0.039264992 0.005261202 0.03797882
0000f0 6d 1f bd bd e3 af 92 bc 79 17 c8 bd 1a 53 89 bd
       -0.092345096 -0.017906135 -0.09770102 -0.067053035
000100 ce 7c f0 3c 45 13 99 bc 6f c3 b1 bd a4 81 10 3d
       0.029356387 -0.018685946 -0.08679854 0.035279885
000110 e7 f8 e8 3d 9c ae 61 3c 0f 47 1b bb 5e 7a d8 3d
       0.11375599 0.01377454 -0.0023693477 0.10570215
000120 65 c7 88 bd 17 1b 0c 3c e7 db 62 3c 70 79 47 bd
       -0.066786565 0.008551381 0.013846374 -0.048699796
000130 82 11 57 bc 50 cf 09 3c 1d 9f d5 3c f3 d2 3b be
       -0.013126733 0.008411244 0.026076848 -0.1834219
000140 a6 13 1b 3d d8 f3 2f bc 27 50 c7 3c 50 12 79 bd
       0.037860535 -0.010739289 0.024330212 -0.06080848
000150 97 ec a1 bc fb b0 92 bc 25 92 fb 3d 09 72 25 bd
       -0.019766135 -0.017906656 0.12283734 -0.040391956
000160 b5 ee 33 bc ec c9 65 3b fa 5e 84 bd b5 47 7e 3b
       -0.010982205 0.0035062982 -0.06463428 0.0038800065
000170 0c 04 e6 3d f5 46 ab bb 22 f7 e0 3b 22 45 c1 3d
       0.11231241 -0.0052269646 0.006865398 0.09437014
000180 09 36 05 bc 1e 18 46 bd 18 37 00 bd 96 f3 e4 3c
       -0.008130559 -0.048362844 -0.03130254 0.027948182
000190 ca 77 82 bc 86 7d fa 3d 36 dd b8 3d 71 9f 3f 3d
       -0.01592626 0.12230973 0.09026568 0.046782915
0001a0 af c8 a3 bd 18 9b 41 bd 70 04 88 bb bc cd ca 3c
       -0.07997262 -0.04726705 -0.0041509196 0.024756305
0001b0 dc 34 99 3c 93 d2 0a 3d 98 9a 76 bd c8 df f4 38
       0.018701963 0.033892225 -0.060206026 0.00011676509
0001c0 9c 19 28 3d ec d7 bf 3d 81 a3 3f bd 2b 37 86 bd
       0.041040048 0.09367356 -0.04678679 -0.06553491
0001d0 d4 d4 50 bc c9 7c 5d 3c 55 b2 4b bd e6 13 85 bd
       -0.012746055 0.013518521 -0.049730618 -0.06497936
0001e0 0b 12 03 3c fa 0f 78 bc 79 31 8d bd 2a 46 2a 3d
       0.007999907 -0.015140528 -0.06894202 0.04157082
0001f0 a8 42 5f bd 98 e4 68 bc 44 ad 27 3d 43 9c f8 3b
       -0.054506928 -0.014214657 0.040936723 0.007586987

ln2.alpha f4 [128]
000000 00 00 80 3f 00 00 80 3f 00 00 80 3f 00 00 80 3f
       1.0 1.0 1.0 1.0
000010 00 00 80 3f 00 00 80 3f 00 00 80 3f 00 00 80 3f
       1.0 1.0 1.0 1.0
000020 00 00 80 3f 00 00 80 3f 00 00 80 3f 00 00 80 3f
       1.0 1.0 1.0 1.0
000030 00 00 80 3f 00 00 80 3f 00 00 80 3f 00 00 80 3f
       1.0 1.0 1.0 1.0
000040 00 00 80 3f 00 00 80 3f 00 00 80 3f 00 00 80 3f
       1.0 1.0 1.0 1.0
000050 00 00 80 3f 00 00 80 3f 00 00 80 3f 00 00 80 3f
       1.0 1.0 1.0 1.0
000060 00 00 80 3f 00 00 80 3f 00 00 80 3f 00 00 80 3f
       1.0 1.0 1.0 1.0
000070 00 00 80 3f 00 00 80 3f 00 00 80 3f 00 00 80 3f
       1.0 1.0 1.0 1.0
000080 00 00 80 3f 00 00 80 3f 00 00 80 3f 00 00 80 3f
       1.0 1.0 1.0 1.0
000090 00 00 80 3f 00 00 80 3f 00 00 80 3f 00 00 80 3f
       1.0 1.0 1.0 1.0
0000a0 00 00 80 3f 00 00 80 3f 00 00 80 3f 00 00 80 3f
       1.0 1.0 1.0 1.0
0000b0 00 00 80 3f 00 00 80 3f 00 00 80 3f 00 00 80 3f
       1.0 1.0 1.0 1.0
0000c0 00 00 80 3f 00 00 80 3f 00 00 80 3f 00 00 80 3f
       1.0 1.0 1.0 1.0
0000d0 00 00 80 3f 00 00 80 3f 00 00 80 3f 00 00 80 3f
       1.0 1.0 1.0 1.0
0000e0 00 00 80 3f 00 00 80 3f 00 00 80 3f 00 00 80 3f
       1.0 1.0 1.0 1.0
0000f0 00 00 80 3f 00 00 80 3f 00 00 80 3f 00 00 80 3f
       1.0 1.0 1.0 1.0
000100 00 00 80 3f 00 00 80 3f 00 00 80 3f 00 00 80 3f
       1.0 1.0 1.0 1.0
000110 00 00 80 3f 00 00 80 3f 00 00 80 3f 00 00 80 3f
       1.0 1.0 1.0 1.0
000120 00 00 80 3f 00 00 80 3f 00 00 80 3f 00 00 80 3f
       1.0 1.0 1.0 1.0
000130 00 00 80 3f 00 00 80 3f 00 00 80 3f 00 00 80 3f
       1.0 1.0 1.0 1.0
000140 00 00 80 3f 00 00 80 3f 00 00 80 3f 00 00 80 3f
       1.0 1.0 1.0 1.0
000150 00 00 80 3f 00 00 80 3f 00 00 80 3f 00 00 80 3f
       1.0 1.0 1.0 1.0
000160 00 00 80 3f 00 00 80 3f 00 00 80 3f 00 00 80 3f
       1.0 1.0 1.0 1.0
000170 00 00 80 3f 00 00 80 3f 00 00 80 3f 00 00 80 3f
       1.0 1.0 1.0 1.0
000180 00 00 80 3f 00 00 80 3f 00 00 80 3f 00 00 80 3f
       1.0 1.0 1.0 1.0
000190 00 00 80 3f 00 00 80 3f 00 00 80 3f 00 00 80 3f
       1.0 1.0 1.0 1.0
0001a0 00 00 80 3f 00 00 80 3f 00 00 80 3f 00 00 80 3f
       1.0 1.0 1.0 1.0
0001b0 00 00 80 3f 00 00 80 3f 00 00 80 3f 00 00 80 3f
       1.0 1.0 1.0 1.0
0001c0 00 00 80 3f 00 00 80 3f 00 00 80 3f 00 00 80 3f
       1.0 1.0 1.0 1.0
0001d0 00 00 80 3f 00 00 80 3f 00 00 80 3f 00 00 80 3f
       1.0 1.0 1.0 1.0
0001e0 00 00 80 3f 00 00 80 3f 00 00 80 3f 00 00 80 3f
       1.0 1.0 1.0 1.0
0001f0 00 00 80 3f 00 00 80 3f 00 00 80 3f 00 00 80 3f
       1.0 1.0 1.0 1.0

ln2.bias f4 [128]
000000 00 00 00 00 00 00 00 00 00 00 00 00 00 00 00 00
       0.0 0.0 0.0 0.0
000010 00 00 00 00 00 00 00 00 00 00 00 00 00 00 00 00
       0.0 0.0 0.0 0.0
000020 00 00 00 00 00 00 00 00 00 00 00 00 00 00 00 00
       0.0 0.0 0.0 0.0
000030 00 00 00 00 00 00 00 00 00 00 00 00 00 00 00 00
       0.0 0.0 0.0 0.0
000040 00 00 00 00 00 00 00 00 00 00 00 00 00 00 00 00
       0.0 0.0 0.0 0.0
000050 00 00 00 00 00 00 00 00 00 00 00 00 00 00 00 00
       0.0 0.0 0.0 0.0
000060 00 00 00 00 00 00 00 00 00 00 00 00 00 00 00 00
       0.0 0.0 0.0 0.0
000070 00 00 00 00 00 00 00 00 00 00 00 00 00 00 00 00
       0.0 0.0 0.0 0.0
000080 00 00 00 00 00 00 00 00 00 00 00 00 00 00 00 00
       0.0 0.0 0.0 0.0
000090 00 00 00 00 00 00 00 00 00 00 00 00 00 00 00 00
       0.0 0.0 0.0 0.0
0000a0 00 00 00 00 00 00 00 00 00 00 00 00 00 00 00 00
       0.0 0.0 0.0 0.0
0000b0 00 00 00 00 00 00 00 00 00 00 00 00 00 00 00 00
       0.0 0.0 0.0 0.0
0000c0 00 00 00 00 00 00 00 00 00 00 00 00 00 00 00 00
       0.0 0.0 0.0 0.0
0000d0 00 00 00 00 00 00 00 00 00 00 00 00 00 00 00 00
       0.0 0.0 0.0 0.0
0000e0 00 00 00 00 00 00 00 00 00 00 00 00 00 00 00 00
       0.0 0.0 0.0 0.0
0000f0 00 00 00 00 00 00 00 00 00 00 00 00 00 00 00 00
       0.0 0.0 0.0 0.0
000100 00 00 00 00 00 00 00 00 00 00 00 00 00 00 00 00
       0.0 0.0 0.0 0.0
000110 00 00 00 00 00 00 00 00 00 00 00 00 00 00 00 00
       0.0 0.0 0.0 0.0
000120 00 00 00 00 00 00 00 00 00 00 00 00 00 00 00 00
       0.0 0.0 0.0 0.0
000130 00 00 00 00 00 00 00 00 00 00 00 00 00 00 00 00
       0.0 0.0 0.0 0.0
000140 00 00 00 00 00 00 00 00 00 00 00 00 00 00 00 00
       0.0 0.0 0.0 0.0
000150 00 00 00 00 00 00 00 00 00 00 00 00 00 00 00 00
       0.0 0.0 0.0 0.0
000160 00 00 00 00 00 00 00 00 00 00 00 00 00 00 00 00
       0.0 0.0 0.0 0.0
000170 00 00 00 00 00 00 00 00 00 00 00 00 00 00 00 00
       0.0 0.0 0.0 0.0
000180 00 00 00 00 00 00 00 00 00 00 00 00 00 00 00 00
       0.0 0.0 0.0 0.0
000190 00 00 00 00 00 00 00 00 00 00 00 00 00 00 00 00
       0.0 0.0 0.0 0.0
0001a0 00 00 00 00 00 00 00 00 00 00 00 00 00 00 00 00
       0.0 0.0 0.0 0.0
0001b0 00 00 00 00 00 00 00 00 00 00 00 00 00 00 00 00
       0.0 0.0 0.0 0.0
0001c0 00 00 00 00 00 00 00 00 00 00 00 00 00 00 00 00
       0.0 0.0 0.0 0.0
0001d0 00 00 00 00 00 00 00 00 00 00 00 00 00 00 00 00
       0.0 0.0 0.0 0.0
0001e0 00 00 00 00 00 00 00 00 00 00 00 00 00 00 00 00
       0.0 0.0 0.0 0.0
0001f0 00 00 00 00 00 00 00 00 00 00 00 00 00 00 00 00
       0.0 0.0 0.0 0.0

discrete_action.weight f4 [2, 128]
000000 79 74 12 3d 48 b9 ff bc 13 39 02 c0 12 de 08 40
       0.03575561 -0.031216279 -2.0347335 2.138554
000010 75 33 81 bf d6 fc cb bf ac d2 52 3f 5a 50 5b 40
       -1.0093828 -1.5936534 0.8235271 3.4267793
000020 1b 8f 8f 40 4c ec 39 be e5 c3 b8 3c 28 17 95 bd
       4.486219 -0.18156546 0.022554347 -0.07279807
000030 5b ab 01 3c dc 41 bb bc e4 99 8b bf 34 aa 36 3d
       0.0079143895 -0.022858553 -1.0906339 0.044595912
000040 32 50 8e 40 c6 77 ca bf 83 11 2f bd a8 74 50 bf
       4.4472895 -1.5817802 -0.04274131 -0.81428003
000050 5d 30 70 3d 45 7c 1b c0 5e ab fc bc e8 09 b5 bc
       0.058639873 -2.4294598 -0.030843433 -0.02209945
000060 25 09 54 bf c6 be d2 bf a1 27 23 3a 7a 01 47 ba
       -0.82826453 -1.646447 0.0006223862 -0.00075914676
000070 3c bb 52 3c 24 89 17 40 7a f1 ab bf 78 90 26 39
       0.012862023 2.3677454 -1.3433068 0.00015884812
000080 31 5d 05 c0 b2 dc 10 3a cf fd 0f c0 ea 26 cd ba
       -2.083813 0.000552605 -2.2498662 -0.0015651856
000090 82 33 8b bd b2 b1 02 bd 66 fd 90 bd c8 fe 6f b9
       -0.06796934 -0.031907745 -0.07079582 -0.0002288773
0000a0 6f 57 af bf 7f 96 12 bc 72 2a 6a 3a c2 56 54 c0
       -1.3698558 -0.008947014 0.00089327164 -3.3177953
0000b0 ba c2 88 3c 30 cd 2c bf 1f 5c d0 39 b2 e8 c0 3c
       0.016694415 -0.6750059 0.00039741487 0.023548458
0000c0 3e 01 1a bd 73 e2 93 bc da d0 92 3c de 78 16 bd
       -0.03759884 -0.018052315 0.017921854 -0.03673636
0000d0 79 50 1d 3c 72 51 c0 3b 7e b0 80 bc 9c 8b 4f 3d
       0.009601706 0.005869084 -0.015709158 0.05067025
0000e0 8f 68 4f bf 1c 3d 09 40 ae 12 f5 bf 5f 40 0d bc
       -0.8101892 2.1443548 -1.9146326 -0.008621304
0000f0 f2 36 13 40 7c 4f 65 bc 39 b8 e8 bf 15 0b 05 3c
       2.3002286 -0.013996001 -1.818122 0.008120318
000100 8f b0 ff bf 9d cf 1f 40 93 13 87 bd 7a 52 c6 bb
       -1.9975756 2.4970467 -0.0659553 -0.0060523124
000110 5f b1 f7 bf bf 2b 38 3b 89 1f b0 bf 1a 72 78 bf
       -1.9351004 0.0028102247 -1.3759624 -0.97049105
000120 ef a9 e4 bb e8 23 a5 3d cf bd 52 ba 6d 80 92 39
       -0.0069782655 0.08063489 -0.0008039148 0.00027942975
000130 1c 33 df bb 1f 37 36 ba 20 9b e6 bb 48 4b 2d c0
       -0.0068115126 -0.00069509627 -0.0070375353 -2.7077198
000140 6c b1 c0 bf 86 bc fa bc c4 11 06 40 ba a5 07 bd
       -1.5054145 -0.030607473 2.0948343 -0.033117034
000150 0c 77 76 3b 53 f4 1c 3d f4 c1 db 3f fa 4b 33 3d
       0.0037607579 0.038318943 1.7168565 0.04377363
000160 89 f2 9f 3b 62 45 78 bf 88 75 c7 bb 80 ab 9c 38
       0.0048812074 -0.9698087 -0.006087009 7.470604e-05
000170 16 34 4b 40 be 57 2c 40 ae 09 09 c0 d9 e3 48 bf
       3.175054 2.6928554 -2.1412158 -0.7847267
000180 10 bb a6 3c 5e e2 e8 bb a2 3c 25 bf 0e 01 53 3f
       0.02035287 -0.007107063 -0.64545643 0.82423484
000190 b1 e6 65 ba 6b 76 2e 40 de 3e 25 40 d4 1a 0e c0
       -0.00087700324 2.7259777 2.581962 -2.2203875
0001a0 8e 23 cd bd f3 1d 92 3b 39 e0 33 40 ac c9 33 bd
       -0.10016547 0.0044591366 2.8105605 -0.0438935
0001b0 32 2b e2 3f 40 ce 77 3d 8a 06 50 bd a5 01 bf 3f
       1.7669432 0.06049943 -0.050787486 1.4922377
0001c0 a9 1a a9 3f 1b 5a 2c bf 88 be 30 3d d1 5c 4d 40
       1.3211261 -0.6732499 0.043150455 3.20879
0001d0 d5 e7 a9 3d 83 49 1a bc 94 47 d0 bf 86 76 ff ba
       0.082961716 -0.009416941 -1.6271844 -0.0019490279
0001e0 fe af 78 bc 3e 0f b8 bf cd 65 93 bb e3 6e 21 3d
       -0.015178679 -1.4379652 -0.0044982196 0.03941239
0001f0 87 b0 1d 37 87 50 e7 bc cb 57 30 40 fc 72 ab 3d
       9.39903e-06 -0.02823664 2.7553585 0.08371541
000200 65 ae 14 bd 10 1f ff 3c 7d 33 02 40 bb f1 08 c0
       -0.036299128 0.031142741 2.0343926 -2.139754
000210 40 18 81 3f ce 0b cc 3f 2f c9 52 bf b9 47 5b c0
       1.0085526 1.5941103 -0.8233823 -3.4262526
000220 b6 98 8f c0 a0 98 39 3e eb 6c b4 bc 50 cc 94 3d
       -4.4873915 0.18124628 -0.022024592 0.07265532
000230 75 2c 02 bc d2 a7 af 3c ce 91 8b 3f 23 68 38 bd
       -0.00794517 0.021442328 1.0903871 -0.045021188
000240 71 44 8e c0 e1 6f ca 3f f5 0e 2e 3d 37 9d 50 3f
       -4.4458547 1.5815393 0.042494733 0.8148989
000250 51 c1 6d bd d9 88 1b 40 fa 55 03 3d be 99 a9 3c
       -0.05804569 2.4302275 0.032064416 0.020703193
000260 89 46 54 3f 3a de d2 3f 51 c1 90 ba 73 5b 93 3a
       0.8292013 1.6474068 -0.0011043941 0.0011242464
000270 3c e0 5a bc f9 88 17 c0 c1 d6 ab 3f ee ba 06 3a
       -0.013359126 -2.3677351 1.3424913 0.0005139549
000280 3e 55 05 40 45 ce b7 39 93 07 10 40 3c 63 04 3b
       2.0833278 0.00035058163 2.2504623 0.002020075
000290 39 b1 8d 3d 5e c6 05 3d 16 b7 8d 3d 06 3e a9 b9
       0.06918568 0.03265988 0.069196865 -0.00032280403
0002a0 83 39 af 3f 07 b5 05 3c ae 98 1c 3a 64 55 54 40
       1.3689426 0.008160836 0.0005973679 3.3177118
0002b0 0c 47 80 bc b1 de 2c 3f 44 66 69 3a b8 43 ce bc
       -0.015658878 0.675273 0.00089034834 -0.025178775
0002c0 14 e3 1b 3d 69 dc 94 3c a4 c9 93 bc 30 1f 19 3d
       0.038058355 0.018171506 -0.018040486 0.03738326
0002d0 5d 7c 12 bc aa 81 df bb 0c c3 80 3c 3c 65 53 bd
       -0.008940783 -0.006820877 0.015718006 -0.051610216
0002e0 4d d7 4f 3f fc 43 09 c0 ce 0b f5 3f 05 d4 0a 3c
       0.811879 -2.1447744 1.9144228 0.008473401
0002f0 f6 43 13 c0 86 47 54 3c a4 a3 e8 3f 83 e4 e3 bb
       -2.301023 0.012956506 1.8174939 -0.006954731
000300 f0 b2 ff 3f 29 ee 1f c0 70 65 86 3d 96 c3 d4 3b
       1.9976482 -2.4989111 0.065623164 0.006493042
000310 50 99 f7 3f df 36 0b bb 61 06 b0 3f a6 47 78 3f
       1.9343662 -0.0021242423 1.3751947 0.96984327
000320 a0 af 07 3c 44 2c a5 bd f1 61 c6 39 f1 0d 90 ba
       0.008281618 -0.080650836 0.00037838475 -0.0010990483
000330 c8 df c2 3b 7a a9 c7 b9 5d 66 bc 3b f4 3d 2d 40
       0.005947087 -0.00038082508 0.0057495073 2.7069063
000340 02 cb c0 3f 3c 1b fa 3c bd 17 06 c0 9c e2 06 3d
       1.5061953 0.030530564 -2.0951989 0.032930955
000350 d0 0a 6f bb 49 a1 1f bd 92 e8 db bf 58 cc 36 bd
       -0.003647495 -0.038972173 -1.718035 -0.04462847
000360 61 f1 be bb 41 01 78 3f 5f 88 93 3b fc d7 dd 39
       -0.0058271145 0.96876913 0.0045023407 0.00042313326
000370 b4 36 4b c0 db 4e 2c c0 15 0a 09 40 5c 13 49 3f
       -3.1752138 -2.692313 2.1412404 0.78545165
000380 93 f6 a5 bc 24 5c e5 3b 59 2d 25 3f a1 08 53 bf
       -0.020259177 0.0069995094 0.6452232 -0.8243504
000390 d3 b8 19 ba 27 6a 2e c0 ab 38 25 c0 a9 0e 0e 40
       -0.0005864028 -2.725229 -2.5815837 2.2196448
0003a0 68 e7 ca 3d 8b bd 85 bb 76 e3 33 c0 76 e1 2e 3d
       0.099074185 -0.004081433 -2.810758 0.042695485
0003b0 be 17 e2 bf 90 b0 77 bd 9a 82 4b 3d 52 f1 be bf
       -1.7663496 -0.060471117 0.0496851 -1.4917395
0003c0 6e 24 a9 bf 3a 6e 2c 3f e2 31 31 bd 82 70 4d c0
       -1.3214242 0.6735569 -0.043260463 -3.209992
0003d0 1f c0 aa bd 25 cb 2d 3c 00 54 d0 3f 5f ea 1f 3b
       -0.083374254 0.010607515 1.6275635 0.002440117
0003e0 01 6f 81 3c f9 0a b8 3f b3 92 ad 3b ba 9b 23 bd
       0.015800001 1.4378349 0.005297029 -0.039943434
0003f0 92 77 c5 ba 9f 02 eb 3c be 5e 30 c0 6e 15 ab bd
       -0.0015065542 0.028687773 -2.7557826 -0.08353697

discrete_action.bias f4 [2]
000000 c4 98 81 be 16 b0 81 3e
       -0.25311863 0.25329655
