s10lre4e3CCM_MADRL_MEC/model/50-800-16-20-80/MATD3/1-Actor.pth (torch, 23375 bytes, 7 tensors)

fc1.weight f4 [128, 7]
0	0xbe6420f9	-0.22278203
1	0xbd9720ff	-0.073793404
2	0x3e3cab6f	0.18424772
3	0xbc517f16	-0.012786647
4	0xbcfe87de	-0.031070646
5	0x3eb23b23	0.34810743
6	0xbd64483e	-0.055732958
7	0x3de71bbd	0.112845875
8	0xbe86cef1	-0.2632976
9	0xbde667f5	-0.11250297
10	0xbe9203e5	-0.28518596
11	0x3e9798d1	0.29608777
12	0x3df85eb8	0.12127441
13	0xbd3a9311	-0.04555041
14	0xbdd87a71	-0.10570229
15	0x3e05cbba	0.13065997
16	0xbe5f92a4	-0.21833283
17	0xbe922d90	-0.28550386
18	0xbe54c43f	-0.20777987
19	0xbe8937f8	-0.26800513
20	0x3e39d4a2	0.18147519
21	0xbe4f3122	-0.20233586
22	0x3d4de659	0.050268505
23	0x3db39ac9	0.08769757
24	0x3e3dbdd5	0.18529446
25	0xbdf06d93	-0.117396496
26	0xbd3f4497	-0.04669627
27	0x3eacbcd5	0.33737817
28	0x3dec5bdb	0.115409575
29	0x3ea7bfe6	0.32763594
30	0xbe8094fa	-0.2511366
31	0xbebce902	-0.3689652
32	0x3e2ae85c	0.166902
33	0xbb517a60	-0.003196381
34	0xbe88837b	-0.26662812
35	0x3deda5d1	0.116038926
36	0xbeae90c1	-0.34094813
37	0x3e07f0d0	0.13275456
38	0x3dcca390	0.099921346
39	0x3e1a68e8	0.15079081
40	0x3e5ab4f1	0.21358086
41	0x3dba4aea	0.0909632
42	0xbeb74663	-0.35795888
43	0x3d728758	0.059211105
44	0xbdb4c304	-0.08826259
45	0xbe310eab	-0.17290752
46	0x3e895969	0.26826027
47	0x3e0743f3	0.13209514
48	0xbe72634b	-0.2367069
49	0xbe3ebc57	-0.18626533
50	0x3eacc443	0.33743486
51	0x3ea69e43	0.3254262
52	0xbea47e10	-0.32127428
53	0x3e21862b	0.15773837
54	0x3deedea4	0.11663559
55	0x3e9e864e	0.3096184
56	0xbd091b57	-0.03347334
57	0x3e33f848	0.1757518
58	0xbe609c4c	-0.21934623
59	0xbe838c0c	-0.25692785
60	0xbe933e87	-0.28758642
61	0x3e9fd818	0.31219554
62	0xbcdb9fad	-0.026809538
63	0x3e17b228	0.14814055
64	0xbe4df52f	-0.20113061
65	0xbd2a5192	-0.041581698
66	0xbe8e857c	-0.27836215
67	0x3c8d4f38	0.017249689
68	0x3c022d8b	0.007945429
69	0x3dfd7647	0.12376075
70	0xbe744ea2	-0.23858121
71	0x3e354b7c	0.17704576
72	0x3eb3a947	0.35090086
73	0x3d13056f	0.035893854
74	0x3e627c0b	0.22117631
75	0x3dd0aa3b	0.10188719
76	0xbe0f073f	-0.13967608
77	0x3eaf1dd1	0.34202436
78	0x3dfc7e1c	0.12328741
79	0xbe931f45	-0.28734794
80	0x3e9b7e75	0.30369917
81	0x3bda6f95	0.0066661336
82	0x3e39f9a6	0.1816164
83	0x3d559fdb	0.052154403
84	0x3dbbdf9f	0.09173512
85	0x3d2d6913	0.042336535
86	0xbd3bbf3c	-0.045836672
87	0x3eb2ad77	0.34897968
88	0xbe90be0f	-0.28270003
89	0xbe43a413	-0.19105558
90	0x3c389c96	0.011267802
91	0xbe9e9de0	-0.30979824
92	0xbd149e3e	-0.036283724
93	0xbe962880	-0.29327774
94	0xbe14e260	-0.1453948
95	0xbe4c6ae4	-0.1996265
96	0xbd4b168d	-0.049582053
97	0xbde1097c	-0.10988137
98	0xbebf1f3e	-0.37328523
99	0x3ea8d7ed	0.32977238
100	0x3d1adcf2	0.037808366
101	0xbe6df6f7	-0.23238741
102	0xbcb966ac	-0.022631966
103	0x3d833720	0.06406999
104	0xbe0cdaa4	-0.1375528
105	0x3d90b6fa	0.0706615
106	0xbdd2f15f	-0.10299944
107	0xbe9588ca	-0.29205924
108	0xbe2aff47	-0.16698943
109	0xbec1325c	-0.37733734
110	0xbe7c233b	-0.24622814
111	0xbe6b5e98	-0.22985303
112	0xbd5279c3	-0.051385652
113	0x3e3bb8a2	0.1833215
114	0xbe3e27f0	-0.18569922
115	0xbc445420	-0.011982948
116	0xbea0f07e	-0.3143348
117	0xbd1a4446	-0.037662767
118	0x3ec13679	0.37736872
119	0x3cac5455	0.021036306
120	0xbe25d663	-0.16195063
121	0x3cd8dbfb	0.026472082
122	0x3e836f34	0.2567078
123	0x3e997e72	0.29979283
124	0x3e4583c6	0.19288549
125	0x3da44f2d	0.08022914
126	0xbe6a1556	-0.22859702
127	0xbe7657da	-0.2405695
128	0xbe8a9e77	-0.27074024
129	0xbeba7620	-0.36418247
130	0x3d44c40e	0.048038535
131	0xbdad96c6	-0.084760234
132	0x3d807b0c	0.06273469
133	0x3e63b41d	0.22236677
134	0xbc957405	-0.018243799
135	0x3eafba29	0.34321716
136	0x3e971cda	0.295142
137	0x3e2f9902	0.17148212
138	0x3ec3afd7	0.38220093
139	0x3de88c9e	0.113549456
140	0xbe156551	-0.1458943
141	0x3cd8b4ff	0.026453493
142	0xbe976a41	-0.29573253
143	0xbdeccb8e	-0.115622625
144	0x3d1fd0af	0.039017376
145	0x3e398f83	0.18121152
146	0xbc1b2921	-0.009470255
147	0x3ebb906d	0.36633626
148	0xbeb0a107	-0.34497854
149	0xbe4d9399	-0.20075835
150	0xbeb0c5a4	-0.34525788
151	0x3e9ca53c	0.30594814
152	0x3d9f483e	0.07777451
153	0xbcd9409e	-0.02652007
154	0xbec11770	-0.37713194
155	0xbe8a63d5	-0.2702929
156	0x3eb01091	0.3438764
157	0xbe241fd1	-0.16027762
158	0xbd9c15cf	-0.07621347
159	0x3ea8ef4d	0.32995072
160	0xbe82a6b3	-0.25517806
161	0x3d901eef	0.0703715
162	0x3e4839c2	0.19553283
163	0xbe3553cf	-0.17707752
164	0xbe7cd598	-0.24690855
165	0xbe3a88af	-0.18216203
166	0xbd8f7ecf	-0.07006609
167	0x3e5460f7	0.20740114
168	0xbe5eb2be	-0.21747872
169	0xbe904111	-0.28174642
170	0x3eacd035	0.337526
171	0x3da1234a	0.07868059
172	0x3db8d281	0.090245254
173	0x3e15e136	0.14636692
174	0xbce09efa	-0.027419556
175	0xbe1f7208	-0.15570843
176	0x3cad8086	0.021179449
177	0xbeb53a0a	-0.35395843
178	0xbe2117d8	-0.15731752
179	0xbe650228	-0.22364104
180	0x3e92afa2	0.28649622
181	0x3ea63ede	0.3246984
182	0xbe619cbd	-0.22032447
183	0x3e328417	0.17433201
184	0x3d50f628	0.051016003
185	0x3e604e89	0.21904959
186	0xbea71d63	-0.32639608
187	0xbe8f56c5	-0.27995887
188	0xbe6d32eb	-0.23163955
189	0xbe0d6323	-0.13807349
190	0xbdad235c	-0.0845401
191	0xbe5d0744	-0.21584803
192	0x3daac856	0.08338992
193	0x3e84b36d	0.2591814
194	0xbb306076	-0.0026912964
195	0xbdcd78c9	-0.100328036
196	0x3e569cbe	0.2095823
197	0xbcf5ef3e	-0.030021306
198	0x3ea9e246	0.33180445
199	0xbdeaa05c	-0.114563674
200	0xbe81c7ca	-0.2534774
201	0x3da47640	0.08030367
202	0xbea95853	-0.330752
203	0x3e919167	0.28431246
204	0xbeb0efff	-0.34558102
205	0x3dedf246	0.116184756
206	0x3dcdc38f	0.100470655
207	0x3d6f6d97	0.058454122
208	0x3d980c0f	0.07424175
209	0xbe8f1e2b	-0.27952704
210	0xbe5d7a99	-0.21628799
211	0xbe9d5dba	-0.3073557
212	0xbe49218c	-0.19641703
213	0x3eaf11ea	0.34193355
214	0x3e0f5acf	0.13999484
215	0xbea4366b	-0.32072768
216	0x3e865e8f	0.26244017
217	0x3e9d1ca6	0.3068592
218	0xbe3d8280	-0.18506813
219	0xbde0fb8c	-0.10985479
220	0xbaec9d07	-0.0018052169
221	0x3e8fefdf	0.28112695
222	0x3d9b4f87	0.07583528
223	0x3df252c8	0.118321955
224	0x3bf60337	0.0075077075
225	0x3d091661	0.033468608
226	0xbe031e2f	-0.12804483
227	0x3e54c7a3	0.2077928
228	0x3ea1b033	0.31579742
229	0xbdebe2c2	-0.1151786
230	0xbde711cc	-0.11282691
231	0x3ec6c836	0.38824624
232	0xbe4dcb70	-0.20097136
233	0xbe4d7b71	-0.2006662
234	0x3ea450d4	0.32092917
235	0x3da279ba	0.07933374
236	0x3d147e6e	0.036253385
237	0x3e6f3d84	0.2336331
238	0xbe9f7dce	-0.3115067
239	0x3e83dc53	0.25754032
240	0x3e2cdbf6	0.16880783
241	0x3cab290a	0.020893592
242	0xbde91958	-0.11381787
243	0xbe593aaf	-0.21213792
244	0xbeaa0321	-0.33205512
245	0xbd760eb1	-0.060072605
246	0xbbc75a09	-0.006083731
247	0x3bfdd0aa	0.007745822
248	0x3eb68937	0.35651562
249	0xbea0c2b3	-0.31398544
250	0xbebcc94a	-0.3687232
251	0xbbccd06c	-0.0062504318
252	0x3e7ab0d0	0.24481511
253	0xbe2405a8	-0.16017783
254	0xbe5ce6db	-0.2157244
255	0x3eaf59cc	0.34248197

fc1.bias f4 [128]
0	0x3e84bde3	0.25926122
1	0xbe391224	-0.18073326
2	0xbe535b71	-0.20640351
3	0x3dc6bfff	0.09704589
4	0xbe15708c	-0.14593714
5	0xbebcad33	-0.3685089
6	0xbeb9f9f1	-0.36323503
7	0xbe93040e	-0.2871403
8	0xbdb08624	-0.08619335
9	0xbea7d27d	-0.32777777
10	0xbe0014f9	-0.12508
11	0x3cea3734	0.028590776
12	0x3e3b4b4f	0.18290447
13	0x3e56d42a	0.20979372
14	0x3deeb503	0.11655619
15	0xbda481d5	-0.08032576
16	0x3d125db1	0.035733882
17	0x3e4a563e	0.19759461
18	0x3e604d01	0.21904375
19	0xbebc71fa	-0.36805707
20	0xbe6660fe	-0.22497937
21	0xbe7a364e	-0.24434778
22	0xbd086aaa	-0.033304848
23	0xbd291098	-0.04127559
24	0x3e2001dd	0.15625711
25	0x3d261875	0.040550668
26	0x3e628c28	0.22123778
27	0xbea68aa6	-0.32527655
28	0xbec3d16b	-0.3824571
29	0x3d82b2f1	0.063817866
30	0x3e34090d	0.17581578
31	0xbe621fc7	-0.22082435
32	0xbe28534a	-0.16438022
33	0xbea6d678	-0.32585502
34	0x3e97ee16	0.29673833
35	0x3dad4413	0.0846025
36	0x3e830cbc	0.25595653
37	0x3e016365	0.12635572
38	0x3eb72a59	0.35774496
39	0x3e9fbc19	0.31198195
40	0x3e20da96	0.15708384
41	0xbe108890	-0.14114594
42	0xbc515309	-0.012776145
43	0xbca274b0	-0.019831032
44	0xbe906ffb	-0.28210434
45	0x3c0001f4	0.007812966
46	0x3ea8e779	0.329891
47	0x3b3a70c0	0.0028448552
48	0x3e08a275	0.13343222
49	0xbdffc460	-0.124886274
50	0xbe193019	-0.14959754
51	0xbda9318d	-0.08261404
52	0x3ea6386b	0.32464918
53	0xbe8de00f	-0.27710006
54	0xbd66e752	-0.056372948
55	0xbe338c0d	-0.17533894
56	0x3e4d5660	0.2005248
57	0xbeac87c6	-0.33697337
58	0xbd7a5d6f	-0.06112426
59	0x3e83b681	0.25725177
60	0x3d73f005	0.059555072
61	0xbe9cc688	-0.30620217
62	0xbe86b148	-0.2630713
63	0xbeabcd35	-0.33554998
64	0xbe3f6349	-0.18690218
65	0xbe9a6784	-0.301571
66	0xbc9e1a63	-0.019299692
67	0xbe05e660	-0.13076162
68	0xbe5d321c	-0.21601146
69	0x3e9d8445	0.30764976
70	0x3da51ad9	0.080617614
71	0xbeab1a69	-0.33418587
72	0x3eaf7744	0.3427068
73	0x3e2a2f0a	0.16619506
74	0xbebfb093	-0.37439403
75	0xbea623ed	-0.32449284
76	0xbeb04088	-0.34424233
77	0xbe95f3c5	-0.29287544
78	0xbe96b9d8	-0.29438663
79	0xbe8383c5	-0.2568647
80	0xbeac77fd	-0.33685294
81	0xbd3371a5	-0.04380955
82	0xbe972b8f	-0.2952542
83	0xbdbe7dc8	-0.093013346
84	0x3e7d102a	0.24713197
85	0xbda3b91e	-0.07994293
86	0xbebe935b	-0.37221798
87	0xbeacf18b	-0.33778033
88	0x3d6ae488	0.05734685
89	0x3e93e8bc	0.288885
90	0x3d2dc916	0.0424281
91	0x3e57a7bc	0.2106008
92	0x3e5ed206	0.21759805
93	0x3e10313c	0.14081281
94	0xbe9a1252	-0.30092102
95	0x3cbe8563	0.023256963
96	0xbe991537	-0.29898998
97	0x3e43a17a	0.19104567
98	0x3e85580e	0.26043743
99	0xbe90b30e	-0.28261608
100	0xbdb55b07	-0.08855253
101	0x3dafe2e8	0.08588201
102	0xbebc0141	-0.36719707
103	0x3e7b9183	0.24567227
104	0x3ea68407	0.32522604
105	0x3dbe0efc	0.09280202
106	0x3eb8c6e8	0.36089253
107	0xbd1f7567	-0.038930323
108	0xbeb9232c	-0.36159647
109	0xbea34a7a	-0.3189276
110	0x3d8b8bf2	0.06813802
111	0x3e4179ae	0.18894073
112	0xbeb23f16	-0.34813756
113	0xbec08016	-0.37597722
114	0xbe6b84a4	-0.22999817
115	0x3e43e517	0.1913036
116	0xbe6271ee	-0.22113773
117	0xbdc393d8	-0.09549683
118	0xbd3234d2	-0.043507405
119	0xbc56d908	-0.013113268
120	0xbe8d11fa	-0.27552778
121	0xbeb6148d	-0.35562554
122	0x3eb21769	0.34783486
123	0x3e730b63	0.23734812
124	0xbe9ccfc9	-0.30627277
125	0xbdcd7a79	-0.100331254
126	0xbe6f9cfa	-0.23399726
127	0xbd1ff5db	-0.039052825

fc2.weight f4 [32, 128]
0	0x3d4f8e84	0.050673023
1	0x3d9ea8fa	0.077470735
2	0x3d5b86cc	0.05359535
3	0xbd96b607	-0.07358938
4	0xbbe4ccd9	-0.0069824276
5	0x3cf787cf	0.030216126
6	0x3d4f145d	0.05055653
7	0x3cbf43c1	0.023347737
8	0xbc1ace0c	-0.0094485395
9	0x3d9c71cd	0.07638893
10	0xbd2ef69a	-0.042715646
11	0x3c8205b9	0.01587187
12	0xbcc9d085	-0.024635563
13	0x3c9385b5	0.018008092
14	0xbce6639d	-0.028123671
15	0x3d56e1f2	0.052461572
16	0x3d1e58cd	0.038658906
17	0xbd37e918	-0.04490003
18	0x3d783e64	0.060606375
19	0x3d9b2304	0.07575038
20	0xbce5c10d	-0.028046155
21	0xbd1575cd	-0.036489297
22	0x3cae3130	0.021263689
23	0xbbe82b28	-0.0070852228
24	0xbdbd0466	-0.092293546
25	0x3b7f76b4	0.0038980665
26	0x3d011e5f	0.031523105
27	0xbd2306d7	-0.039801445
28	0xbc154873	-0.0091115115
29	0x3d96ca4d	0.073628046
30	0xbd6ee859	-0.058327053
31	0x3da65d23	0.08123233
32	0xbd58e3cb	-0.052951615
33	0x3d823d0e	0.063593015
34	0xbde1b0e7	-0.110200696
35	0x3c0d580b	0.008626948
36	0xbd85a94c	-0.065264314
37	0x3d899cdb	0.06719371
38	0x3d3f4074	0.046692327
39	0x3d31215b	0.0432447
40	0xbd916b5f	-0.071005575
41	0xbcce15a0	-0.025156796
42	0x3c3ed564	0.011647556
43	0x3d7f6782	0.062354572
44	0xbd9fef7f	-0.07809352
45	0xbd1e00b6	-0.038574897
46	0xbd9a1d8d	-0.075251676
47	0x3d7dc932	0.061959453
48	0x3d37d4e5	0.044880766
49	0x3d28c876	0.0412068
50	0x3d38bd42	0.045102365
51	0xbd971d31	-0.07378615
52	0xbd044acf	-0.032297906
53	0xbcd89c17	-0.026441617
54	0x3d882d3c	0.06649253
55	0x3ca76b50	0.020436913
56	0x3d94eab6	0.0727133
57	0xbd9a9828	-0.07548553
58	0x3ba1de7d	0.0049398527
59	0xbd1fb36c	-0.03898947
60	0xbd4193f1	-0.04726023
61	0x3cabaa26	0.020955157
62	0x3d52c2f6	0.05145546
63	0xbd12ab6c	-0.035808012
64	0xbcb01bbd	-0.021497602
65	0xbca627be	-0.020282622
66	0x3c291cb7	0.010321788
67	0x3d5c1ef6	0.053740464
68	0xbc823bc8	-0.015897647
69	0xbbb51b6a	-0.0055269497
70	0xbd559c72	-0.05215115
71	0xbd776945	-0.060403127
72	0x3da5ebdd	0.08101628
73	0x3d9a4322	0.07532336
74	0xbdad81cf	-0.08472025
75	0xbd32d6c8	-0.043661863
76	0x3da7bf05	0.08190731
77	0xbda35dbd	-0.079768635
78	0x3d3490d1	0.04408342
79	0x3d85cfbe	0.06533764
80	0xbc93224c	-0.01796069
81	0x3cad8e4b	0.021186015
82	0x3d1aee81	0.03782511
83	0xbd1fb092	-0.03898675
84	0x3cb31e55	0.02186505
85	0xbcc367e3	-0.023853248
86	0x3d4c2ffc	0.04985045
87	0x3dca0968	0.09865075
88	0xbd30ba71	-0.043146554
89	0x3d8317b3	0.06401005
90	0xbd9360d7	-0.07196205
91	0x3d890967	0.066912465
92	0xbc19c8a3	-0.009386214
93	0xbd010fab	-0.031509083
94	0x3cd24049	0.02566542
95	0xbd35a7dc	-0.044349536
96	0x3d9103f5	0.07080833
97	0x3b8f95b0	0.004381858
98	0x3d09f5ec	0.033681795
99	0xbcf032ea	-0.029321153
100	0x3d3ac211	0.045595232
101	0x3cd3826a	0.025819022
102	0xbd91f72f	-0.07127225
103	0xbd52104e	-0.05128508
104	0xbdab56a6	-0.08366136
105	0x3ce4b7b4	0.027919628
106	0xbd2385e1	-0.0399226
107	0x3d67fceb	0.056637686
108	0xbd70f7b3	-0.058829974
109	0x3b6d4881	0.0036206546
110	0x3cbd1e76	0.023085814
111	0x3d49bf24	0.04925455
112	0x3d904614	0.07044616
113	0x3c84c6e8	0.016208127
114	0x3cf59db9	0.029982435
115	0x3dd6d10e	0.10489093
116	0x3dbdbc48	0.092644274
117	0x3d0b66d1	0.0340336
118	0xbd7c0799	-0.061530683
119	0xbd52ac80	-0.05143404
120	0x3cd4d14f	0.025978712
121	0x3d550073	0.05200238
122	0xbd84c684	-0.06483176
123	0x3d3652d3	0.04451258
124	0x3cbe95e8	0.02326484
125	0xbc2ea820	-0.010660201
126	0xbd19928c	-0.037493274
127	0x3b05d47c	0.002042084
128	0xbd15af57	-0.03654417
129	0x3daf41ca	0.0855747
130	0xbd05c90d	-0.03266244
131	0xbcfd4479	-0.03091644
132	0x3d80a51f	0.06281494
133	0x3d92cac9	0.071675844
134	0x3d9b5ed6	0.07586448
135	0xbdab9edd	-0.0837991
136	0xbda9a067	-0.082825474
137	0xbd8a9013	-0.06765761
138	0x3cd6037e	0.026124712
139	0xbd540f3c	-0.05177234
140	0xbd3ffc29	-0.046871338
141	0xbda1c8c9	-0.07899625
142	0xbded1074	-0.11575404
143	0xbd277d94	-0.040891245
144	0x3db53a66	0.08849029
145	0x3d9b8b9b	0.07594987
146	0x3bf4b623	0.0074680015
147	0xbd98643c	-0.07440993
148	0x3d5e7790	0.054313242
149	0x3d2ac08e	0.04168754
150	0x3d53dadf	0.051722404
151	0xbcb928cb	-0.02260246
152	0xbc391dd8	-0.011298619
153	0xbc5187fd	-0.01278877
154	0x3c9174da	0.017755914
155	0x3d7624d9	0.060093734
156	0x3d447769	0.04796544
157	0x3c9c630d	0.0190902
158	0xbd79d9e3	-0.06099881
159	0xbd4bb928	-0.049737126
160	0xbd165de0	-0.03671062
161	0x3d347d63	0.04406489
162	0xbdce334d	-0.100683786
163	0x3dbca8b5	0.09211866
164	0x3c148e85	0.009067182
165	0x3de2ca98	0.11073798
166	0x3cecf0dd	0.028923446
167	0x3d67d649	0.056600843
168	0x3d5d5eac	0.054045364
169	0xbc0f5d0b	-0.0087502105
170	0x3c4d5093	0.012531417
171	0xbd6fb4b3	-0.058521938
172	0x3d83cc26	0.064354226
173	0xbd462bbe	-0.04838156
174	0xbd8af6dc	-0.06785366
175	0xbd10eecb	-0.03538398
176	0x3d539d4f	0.051663693
177	0xbb759692	-0.003747378
178	0xbd6e2e17	-0.058149423
179	0x3cb82c03	0.022481924
180	0x3d8622b8	0.06549591
181	0xbd439eb6	-0.04775878
182	0xbd1d8a65	-0.03846206
183	0xbd22efc4	-0.03977944
184	0x3dc834fe	0.097757325
185	0x3d044a8e	0.032297663
186	0xbcc7aade	-0.024373468
187	0xbd5d2c9a	-0.053997613
188	0x3cee1900	0.029064655
189	0xbcbe61b4	-0.023239948
190	0xbd9d48c9	-0.07679898
191	0xbcc1fdbe	-0.023680564
192	0x3d06f514	0.03294857
193	0x3d8e76ef	0.069562785
194	0xbe00676d	-0.12539454
195	0xbd52e171	-0.05148453
196	0x3d21bdd0	0.03948766
197	0xbd8f596c	-0.06999478
198	0x3cdb2a69	0.026753621
199	0xbda47c6b	-0.08031543
200	0x3d3a3603	0.045461666
201	0x3d87c8a5	0.06630067
202	0xbc8db4ca	-0.017298121
203	0x3dd1bf5b	0.10241576
204	0x3cbe4ccc	0.023229979
205	0xbd1391fb	-0.03602789
206	0x3dab4e5a	0.08364554
207	0x3d71a6cb	0.058996957
208	0x3d04955b	0.032369
209	0x3d4c4f9f	0.04988062
210	0xbcd0d7da	-0.025493551
211	0x3d62200f	0.055206355
212	0xbd69540d	-0.056964923
213	0x3c89a70f	0.016803293
214	0xbcca8c5c	-0.024725132
215	0x3deab657	0.1146056
216	0x3d8303f3	0.06397238
217	0x3d9beaba	0.0761313
218	0x3d6fd07d	0.05854844
219	0x3c9b043b	0.018922916
220	0x3d09e4f2	0.033665605
221	0x3d572c2b	0.052532356
222	0x3d8356bb	0.06413027
223	0x3d76ed77	0.060285058
224	0x3d6c7175	0.05772539
225	0xbd16b0a2	-0.036789544
226	0xbd9f059d	-0.077647425
227	0x3c7f8ab7	0.015597037
228	0x3d9eef1f	0.077604525
229	0x3d308b1f	0.043101426
230	0xbc5e89e4	-0.01358268
231	0x3da1494d	0.07875309
232	0xbc659ba7	-0.014014161
233	0x3d54489f	0.05182707
234	0x3c89ff44	0.016845353
235	0x3d40216d	0.046906877
236	0x3d83dfcd	0.06439171
237	0xbcd07224	-0.025445051
238	0xbd68e6ae	-0.05686062
239	0x3b76aa17	0.0037638003
240	0x3d954cfe	0.07290076
241	0x3d9802ac	0.074223846
242	0xbd09fae7	-0.033686545
243	0xbc4f3479	-0.012646788
244	0x3db3788d	0.087632276
245	0x3ce5f08e	0.028068807
246	0xbda1bffd	-0.07897947
247	0xbd5a90c1	-0.053360704
248	0xbca8c4ee	-0.020601716
249	0xbd510a64	-0.0510353
250	0xbc5dffe9	-0.013549783
251	0xbd6f3242	-0.05839754
252	0xbc6cb899	-0.014448308
253	0x3d9b3247	0.07577949
254	0xbdc83631	-0.09775961
255	0x3daacb0d	0.0833951

fc2.bias f4 [32]
0	0x3cc7d490	0.02439335
1	0x3cae1e86	0.02125479
2	0xbd4ebd3f	-0.050473448
3	0x3da837ff	0.082138054
4	0x3cf3a469	0.029741483
5	0xbc2d4f49	-0.010577985
6	0xbc6322a1	-0.013863237
7	0xbd7a226a	-0.061067976
8	0xbd0a3d36	-0.03374978
9	0x3d74e758	0.05979094
10	0x3d9fb6a7	0.0779851
11	0xbc8c7a50	-0.017148167
12	0x3ae7b567	0.0017677963
13	0xbc63c32f	-0.013901516
14	0xbd11e606	-0.035619758
15	0xbd149e0c	-0.036283538
16	0x3d05ffe4	0.03271474
17	0xbd0cafa5	-0.034347195
18	0x3d6f83a3	0.058475148
19	0x3d9f57c0	0.07780409
20	0x3d92d09e	0.07168697
21	0xbd686eed	-0.056746412
22	0xbd3a5698	-0.04549274
23	0x3ca9f0e9	0.020744758
24	0xbc91e186	-0.017807733
25	0xbd8fb93a	-0.07017751
26	0xbda3a109	-0.079896994
27	0xbd52bddc	-0.051450595
28	0xbd182c12	-0.037151404
29	0x3db5c60e	0.088756666
30	0x3da5cb37	0.08095401
31	0x3c19f571	0.009396897

action1.weight f4 [1, 32]
0	0x3d82caef	0.06386363
1	0x3d818c27	0.0632556
2	0xbd747554	-0.059682205
3	0xbd8696ea	-0.06571753
4	0xbd05a80a	-0.032630958
5	0x3d8c227c	0.06842515
6	0x3d4fbf72	0.050719686
7	0xbd72214c	-0.059113786
8	0xbd797593	-0.060903143
9	0x3d24fc44	0.04027964
10	0xbd8ef77c	-0.06980798
11	0x3d5d00b2	0.05395574
12	0xbd7f6d51	-0.06236011
13	0x3d74344b	0.059620183
14	0x3d19bfb5	0.03753634
15	0x3d7d0d95	0.06178053
16	0xbd48c8b7	-0.04901954
17	0x3d860cc8	0.065454066
18	0x3d5a77d6	0.05333694
19	0x3d80948d	0.06278334
20	0x3d835025	0.06411771
21	0xbd80005f	-0.06250071
22	0xbd781f9c	-0.06057702
23	0xbd564f73	-0.052321862
24	0xbc897f84	-0.016784437
25	0xbd921e9a	-0.07134743
26	0xbd8ff451	-0.070290215
27	0x3d6ac46e	0.057316236
28	0xbd8c4e26	-0.06850843
29	0xbd66a983	-0.056314003
30	0x3d63ffa3	0.055663716
31	0x3d2e87c2	0.042609937

action2.weight f4 [2, 32]
0	0xbc764559	-0.015031182
1	0xbc8405dc	-0.016116075
2	0xb95acca2	-0.00020866332
3	0x3a378503	0.0007000716
4	0x3c12212a	0.00891904
5	0x3d0469f1	0.032327596
6	0xbc598836	-0.013277104
7	0x3bdcfc47	0.006743941
8	0x3c96c3d7	0.01840393
9	0xbc2e19eb	-0.0106262965
10	0x3b31e0e6	0.0027142107
11	0xbc4c551b	-0.012471463
12	0x3c36f899	0.011167669
13	0xbc2ac94a	-0.010423968
14	0x3d2a3b23	0.041560303
15	0xbc821cc8	-0.015882865
16	0x3c390cbc	0.01129454
17	0x3c8e87d6	0.017398756
18	0xbc84fd11	-0.016233953
19	0xbcad2abd	-0.021138543
20	0xbc2fa74e	-0.010721041
21	0x3c65c8d7	0.014024935
22	0x3bb95f57	0.0056571173
23	0x3bf9e1d2	0.007625797
24	0x3c9c55da	0.019083906
25	0x3c7b1c5f	0.015326588
26	0x3c4f50e9	0.012653568
27	0xbc616a47	-0.013758249
28	0xbbf53299	-0.0074828384
29	0x3c5e54b4	0.0135699995
30	0xbc67f751	-0.014158086
31	0xbc55bcf0	-0.0130455345
32	0x3a6ff80e	0.00091540895
33	0x3b587a14	0.0033031749
34	0x3bbe76ff	0.0058125253
35	0x3bfbe49a	0.0076871635
36	0xbbf93c9d	-0.0076061026
37	0xbcef9e67	-0.029250337
38	0x3bfa191f	0.007632389
39	0x3a725e15	0.00092455867
40	0xbc4f7590	-0.012662306
41	0x3bfad120	0.007654324
42	0xbb86d0f2	-0.0041142637
43	0x3c1dbb7f	0.009627222
44	0xb9ca1c53	-0.00038549546
45	0x3b60c598	0.0034297463
46	0xbcaa70a6	-0.020805668
47	0x3c1857ef	0.009298309
48	0xbbc572c3	-0.0060256436
49	0xbcb85251	-0.022500189
50	0x3c129ff3	0.008949268
51	0x3b817301	0.003950477
52	0xbbd9307a	-0.0066280933
53	0xbc0dd924	-0.008657727
54	0x3bb8dc22	0.0056414763
55	0xbbecedf9	-0.007230517
56	0xbc3e8ced	-0.011630279
57	0x3bec1715	0.0072049
58	0xbaed5a12	-0.0018108508
59	0x3bfb2662	0.0076644877
60	0x3c2f263e	0.01069027
61	0xbb57e9f5	-0.0032945846
62	0x3c342ad1	0.010996536
63	0x3bae9452	0.0053277398

action2.bias f4 [2]
0	0x3bd716a7	0.0065639797
1	0xbba320ef	-0.004978291
