s10lre4e3CCM_MADRL_MEC/model/50-800-16-20-80/PDQN/0-continue_actors.pth (torch, 147199 bytes, 10 tensors)

fc1.weight f4 [256, 7]
0.0031577349 0.24391016 -0.032488585 0.27686998 -0.16372871 -0.026106894 0.30784217 0.35592523
0.29099354 0.23563918 -0.37618464 -0.08187172 0.0046925247 -0.291197 -0.1507171 -0.00074636936
0.006853789 -0.055133164 -0.064930916 0.23073629 0.31188193 0.283291 0.054207116 0.277011
0.06322995 -0.19566156 -0.23870692 0.18929389 -0.36539075 0.34501746 0.26818505 -0.10086554
-0.26882756 -0.2446832 0.010159463 -0.31537825 0.11086586 -0.11222646 -0.031256318 0.08666664
0.3233548 -0.0049630105 -0.25133932 0.00045132637 -0.036189944 -0.16019183 -0.28312957 0.12155908
0.16568705 -0.35057056 0.2970945 0.070124894 -0.32926452 -0.17537709 0.14224687 0.112051904
0.31699976 0.33231714 -0.2649446 -0.25724673 0.24570253 -0.1216149 -0.16265032 0.30848977
-0.121772885 0.07946202 0.17038152 -0.31503838 0.09765601 0.23067167 -0.14861573 0.15121642
-0.24014986 -0.093940794 -0.1431005 0.096471965 0.34224668 0.24209318 0.21242252 -0.2055447
-0.37115303 0.19155613 -0.36040586 0.048666596 -0.2542233 0.260192 -0.25383914 -0.24281164
0.13542303 -0.37644804 0.23685542 -0.30305165 -0.060388476 -0.15690683 -0.25153846 0.08507562
-0.31925875 -0.048113078 -0.3663032 -0.232681 0.11703795 0.30108598 -0.25177255 0.026434273
0.25830808 0.20503119 -0.060546786 -0.34750718 0.19785091 0.20157698 -0.1056135 0.25969437
-0.16515106 0.12358937 0.05685699 -0.03994775 -0.107045084 0.10261068 0.35646412 -0.33863816
-0.34860355 0.36660603 0.32962415 -0.35989088 0.12662908 0.2730334 0.3034396 -0.33574706
0.22308335 0.3606222 0.33149478 0.13831976 -0.32368475 -0.06873891 -0.2321319 0.20929733
0.13670948 0.0571537 -0.043105245 -0.18937698 -0.36543903 -0.3010534 0.34145752 -0.15631722
-0.32659304 -0.13375044 0.05506915 0.013990372 -0.061855197 0.16394272 -0.3585141 -0.2783973
-0.26790115 -0.056557655 -0.15159552 0.046860874 -0.118204 -0.35591394 0.36683896 -0.2934351
-0.10116345 0.3362334 0.20279494 -0.2772615 -0.031345487 -0.2449362 -0.23339808 -0.047563106
0.25400004 -0.02614528 -0.2501257 0.37550756 -0.159039 -0.33530658 -0.20392044 0.29428223
0.09607947 -0.14660864 -0.3706554 0.09007487 -0.11247939 0.26107308 0.1596438 0.10515702
0.32283804 -0.35123834 0.19154331 0.32984558 -0.08879092 0.2767215 -0.008866936 0.33636668
-0.11218491 0.1904814 0.16569832 0.13079652 -0.17758004 0.08513749 -0.14230691 -0.21152107
0.35469392 0.24488202 0.22489259 0.1682792 -0.1296215 0.13380602 -0.32288134 0.20004317
-0.010203987 0.009443194 -0.31479636 -0.36575368 -0.050836235 0.016047 0.22264901 -0.33727595
0.18969855 -0.12558353 0.20069107 0.29228845 -0.3614813 0.077022195 -0.36728883 -0.3336153
0.06453502 -0.22381246 0.0402869 -0.20375773 0.23339507 -0.037571162 0.37274793 -0.1943003
0.34931186 0.16008207 -0.121224165 0.0738042 0.3468313 0.03034392 0.12968317 0.36286756
-0.20800808 0.27177945 0.31985775 -0.12012917 -0.25928354 0.33819875 -0.2662732 0.02871415
0.20615634 0.107073784 0.29030308 -0.37788233 0.3720173 0.1907042 0.11297691 0.13009575
00000000: 00f2 4e3b 96c3 793e c012 05bd e7c1 8d3e
00000010: 80a8 27be 20de d5bc 7d9d 9d3e d53b b63e
00000020: 1bfd 943e 664b 713e 469b c0be 5cac a7bd
00000030: c0c3 993b c617 95be 9555 1abe 00a8 43ba
00000040: c095 e03b 50d3 61bd 80fa 84bd 2246 6c3e
00000050: fdae 9f3e 850b 913e 4808 5e3d 63d4 8d3e
00000060: b47e 813d 815b 48be 966f 74be 42d6 413e
00000070: 7f14 bbbe 21a6 b03e 8d4f 893e 9892 cebd
00000080: c4a3 89be 3c8e 7abe e073 263c 4279 a1be
00000090: a40d e33d fcd6 e5bd a006 00bd 487e b13d
000000a0: c38e a53e c0a0 a2bb 8caf 80be 00a0 ec39
000000b0: e83b 14bd 5409 24be 5cf6 90be f8f3 f83d
000000c0: dea9 293e fc7d b3be c51c 983e a49d 8f3d
000000d0: 5c95 a8be 0d96 33be 2aa9 113e 787b e53d
000000e0: cb4d a23e 7925 aa3e d2a6 87be d8b5 83be
000000f0: 7299 7b3e 3c11 f9bd ce8d 26be 5ff2 9d3e
00000100: 1064 f9bd fcbc a23d 7e78 2e3e b64c a1be
00000110: e0ff c73d 3235 6c3e b92e 18be 7ad8 1a3e
00000120: d8e9 75be 0864 c0bd f088 12be 1893 c53d
00000130: f53a af3e 46e7 773e 4a85 593e 4f7a 52be
00000140: c507 bebe 4a27 443e 1e87 b8be a056 473d
00000150: 8e29 82be e337 853e 34f7 81be 9da3 78be
00000160: 56ac 0a3e ccbd c0be 3a8a 723e 9629 9bbe
00000170: e859 77bd 2fac 20be a6c9 80be 203c ae3d
00000180: e275 a3be 3812 45bd 188c bbbe ee43 6ebe
00000190: 98b1 ef3d f127 9a3e 55e8 80be b08c d83c
000001a0: f540 843e b2f3 513e e8ff 77bd 76ec b1be
000001b0: 6e99 4a3e 326a 4e3e e44b d8bd a9f6 843e
000001c0: 5c1d 29be 6c1c fd3d e0e2 683d 40a0 23bd
000001d0: 743a dbbd 8c25 d23d 7782 b63e fb61 adbe
000001e0: 2a7c b2be c9b3 bb3e 7fc4 a83e 9e43 b8be
000001f0: 0eab 013e 09cb 8b3e 6f5c 9b3e 0ae7 abbe
00000200: f66f 643e 79a3 b83e afb9 a93e b2a3 0d3e
00000210: 02ba a5be fcc6 8cbd fcb3 6dbe 0a52 563e
00000220: 92fd 0b3e 001a 6a3d 208f 30bd 0aec 41be
00000230: d31a bbbe ac23 9abe 85d3 ae3e 9f11 20be
00000240: 3437 a7be e0f5 08be 3090 613d e037 653c
00000250: e05b 7dbd 9ae0 273e 298f b7be 178a 8ebe
00000260: 572a 89be 00a9 67bd db3b 1bbe 30f1 3f3d
00000270: f014 f2bd 5a3a b6be 51d2 bb3e 203d 96be
00000280: c82e cfbd c926 ac3e 7aa9 4f3e 38f5 8dbe
00000290: 2064 00bd 8ed0 7abe e8ff 6ebe 88d1 42bd
000002a0: 4b0c 823e a02e d6bc 7a10 80be 8742 c03e
000002b0: 1fdb 22be 4ead abbe 85d0 50be 29ac 963e
000002c0: 50c5 c43d 9320 16be 8bc6 bdbe 2c79 b83d
000002d0: 985b e6bd 5fab 853e aa79 233e 905c d73d
000002e0: 074b a53e 83d5 b3be ee23 443e 85e1 a83e
000002f0: 04d8 b5bd 71ae 8d3e a046 11bc 4138 ac3e
00000300: 34c1 e5bd 8e0d 433e d2ac 293e 86ef 053e
00000310: 8bd7 35be 905c ae3d e7b8 11be fb98 58be
00000320: 719a b53e 5ac2 7a3e 3e4a 663e 6251 2c3e
00000330: 80bb 04be 7204 093e b450 a5be 1ed8 4c3e
00000340: a02e 27bc a0b7 1a3c fd2c a1be 1144 bbbe
00000350: a839 50bd 0075 833c 1afe 633e 6faf acbe
00000360: 5640 423e f898 00be f681 4d3e d5a6 953e
00000370: 1414 b9be d0bd 9d3d 480d bcbe a0cf aabe
00000380: f02a 843d 182f 65be e003 253d dea5 50be
00000390: 1eff 6e3e 38e4 19bd d1d8 be3e a8f6 46be
000003a0: 01d9 b23e 8eec 233e 6044 f8bd a826 973d
000003b0: df93 b13e d093 f83c aacb 043e c7c9 b93e
000003c0: 1200 55be ad26 8b3e 65c4 a33e 4806 f6bd
000003d0: d0c0 84be 6328 ad3e f654 88be f039 eb3c
000003e0: a61a 533e 8049 db3d 9ba2 943e cb79 c1be
000003f0: 0d79 be3e f647 433e 7060 e73d d237 053e

fc1.bias f4 [256]
0.26986232 0.36900982 -0.26912147 0.15146014 -0.21122298 0.19725803 -0.08337197 0.31857756
0.24437127 -0.19291525 0.14543155 -0.34670535 0.034577012 0.056440264 0.13557145 -0.12374717
-0.29353347 0.35904375 0.33410582 -0.34908134 0.25037792 0.050151676 0.03192842 -0.2950709
-0.11588237 0.09483427 0.18894395 -0.35183787 -0.2826119 0.36004803 0.10301402 0.19516131
0.038496643 0.20987162 -0.21617861 0.003443122 -0.23747271 0.37125352 -0.09891543 0.35672018
-0.13155802 0.3073248 -0.12539336 -0.20820454 0.064441204 0.29233894 -0.059994847 0.26323345
-0.04761836 0.17981365 0.34271702 -0.13950433 -0.1912207 -0.19851343 -0.23173036 0.23741505
-0.21557395 -0.05915746 0.26060787 0.35037765 0.17499205 0.18978897 -0.2801791 0.35399207
-0.36215666 -0.20897406 -0.25128886 0.21351388 -0.13660654 0.17994282 0.24726751 -0.0019178987
0.27723733 -0.22858624 0.121350914 0.2917368 -0.03501776 -0.20776036 0.1405395 0.09369889
0.024906754 0.13773456 -0.013586372 -0.31335747 0.094251156 0.26780984 0.01864484 -0.17732872
-0.28687754 0.19334534 0.34496507 0.11034459 0.28181568 0.042360634 -0.34863794 -0.10458976
0.22906175 0.045287937 -0.006511748 0.23022804 -0.30078128 0.26147798 0.3601623 -0.039842725
0.021232069 -0.29966086 -0.16776031 0.10091686 -0.16784966 -0.28955594 0.3549014 0.03331086
0.0632253 -0.33855233 -0.15461466 0.016834885 -0.10379183 -0.21416092 0.067432076 -0.09864253
0.18702736 0.051024437 0.07636371 -0.27947783 -0.22811827 -0.25902143 0.044525564 0.22439489
-0.14283065 0.09771243 -0.27524588 0.066547304 0.27435526 0.19848493 -0.082978636 -0.25415558
0.069583535 0.060930192 0.32625774 0.21227613 -0.022387594 0.31996074 0.105261415 -0.27545425
-0.08773723 0.1263735 0.36817417 0.09532112 -0.35302216 -0.27449155 -0.35532686 0.16111627
0.24837437 0.1578317 -0.30082133 0.26980278 -0.041832685 0.18591496 -0.21135518 -0.011838049
-0.2917297 0.2218118 0.092558086 0.083954155 0.28069982 -0.36805212 -0.18352012 -0.2892751
-0.14378785 -0.10697925 -0.35624632 0.17370704 -0.11616716 -0.24060516 0.09874192 0.056557685
0.25834456 -0.08446705 0.004228711 0.023335904 0.034532726 -0.27705508 -0.36712432 -0.032339662
-0.20580633 0.3023642 0.14534733 -0.349024 -0.14540616 0.1548281 -0.08601114 0.049579114
0.12906453 0.27869877 0.3486189 0.32512096 0.32759956 0.0073619783 0.1663135 -0.3620458
0.14899978 -0.255123 -0.3103947 0.30906418 -0.07423818 0.2382299 -0.3122174 -0.36056602
-0.24033774 0.0843384 -0.055714935 0.28376052 0.23767063 -0.26638928 -0.21733734 -0.37417546
-0.2815756 -0.20262302 0.36458656 0.30024973 -0.3344815 0.35917357 -0.115285724 -0.36450076
-0.16599485 -0.04885009 -0.36230847 0.1614627 0.0918906 -0.19544068 0.26709387 0.0024683177
-0.16350946 -0.3628277 0.099778324 0.11984688 0.0990724 0.11390841 0.103417784 -0.17907792
-0.20352465 -0.32785305 -0.039002627 -0.30899495 0.047822416 -0.17381488 0.3655803 -0.20812
0.3396487 0.20662567 0.086483866 0.37558475 0.12903705 -0.2041828 -0.2882958 0.016219676
00000000: 652b 8a3e dbee bc3e 4aca 89be 5e18 1b3e
00000010: d64a 58be 02fe 493e ecbe aabd 991c a33e
00000020: 763c 7a3e 938b 45be 02ec 143e 5d83 b1be
00000030: a0a0 0d3d e82d 673d 3ed3 0a3e 286f fdbd
00000040: 054a 96be 95d4 b73e eb0f ab3e caba b2be
00000050: 8931 803e d86b 4d3d 60c7 023d 8813 97be
00000060: bc53 edbd 7838 c23d 867a 413e 1824 b4be
00000070: 82b2 90be 3758 b83e 04f9 d23d 5ed8 473e
00000080: a8ae 1d3d 96e8 563e ed5d 5dbe 00a6 613b
00000090: 0c2c 73be f114 be3e 2c94 cabd 07a4 b63e
000000a0: 25b7 06be ad59 9d3e 1e67 00be 9233 55be
000000b0: c0f9 833d 73ad 953e 28bd 75bd 89c6 863e
000000c0: 780b 43bd 1221 383e 9b78 af3e 39da 0ebe
000000d0: 5ccf 43be 1b47 4bbe b94a 6dbe ee1c 733e
000000e0: 6bbf 5cbe 184f 72bd 656e 853e b364 b33e
000000f0: 1e31 333e 0a58 423e a373 8fbe 733e b53e
00000100: 996c b9be 4cfd 55be efa8 80be 62a3 5a3e
00000110: 96e2 0bbe ee42 383e b233 7d3e 0062 fbba
00000120: 0df2 8d3e 8312 6abe d486 f83d 875e 953e
00000130: c86e 0fbd 22bf 54be 96e9 0f3e 34e5 bf3d
00000140: 4009 cc3c 4a0a 0d3e 6099 5ebc 6470 a0be
00000150: c006 c13d 5f1e 893e 10bd 983c a995 35be
00000160: 9de1 92be 52fc 453e 439f b03e 58fc e13d
00000170: 254a 903e 5882 2d3d ac80 b2be 2833 d6bd
00000180: 2a8f 6a3e d87f 393d 8060 d5bb e6c0 6b3e
00000190: 0100 9abe 71e0 853e 3167 b83e 2032 23bd
000001a0: e0ee ad3c 266d 99be 5cc9 2bbe 80ad ce3d
000001b0: c8e0 2bbe ad40 94be a3b5 b53e f870 083d
000001c0: 447c 813d bb56 adbe 4e53 1ebe 50e9 893c
000001d0: d090 d4bd 004d 5bbe d419 8a3d 1805 cabd
000001e0: 1a84 3f3e 00ff 503d 9464 9c3d b817 8fbe
000001f0: d697 69be 759e 84be 7060 363d c6c7 653e
00000200: 3342 12be 741d c83d 07ed 8cbe f449 883d
00000210: 4b78 8c3e a23f 4b3e b4f0 a9bd ae20 82be
00000220: d081 8e3d f091 793d 410b a73e ea5e 593e
00000230: 3066 b7bc e5d1 a33e 4c93 d73d 5708 8dbe
00000240: 94af b3bd 0e68 013e 5381 bc3e b837 c33d
00000250: 52bf b4be 288a 8cbe 67ed b5be aafb 243e
00000260: da55 7e3e a29e 213e 4105 9abe 9723 8a3e
00000270: c058 2bbd 7e60 3e3e 7e6d 58be 60f4 41bc
00000280: 985d 95be a222 633e 188f bd3d 28f0 ab3d
00000290: e3b7 8f3e 5471 bcbe b3ec 3bbe de1b 94be
000002a0: 1f3d 13be f017 dbbd eb65 b6be 42e0 313e
000002b0: 0ce9 edbd 3361 76be 3439 ca3d 08a9 673d
000002c0: bd45 843e 10fd acbd 0091 8a3b f02a bf3c
000002d0: 3072 0d3d 2ada 8dbe b8f7 bbbe 9876 04bd
000002e0: e5be 52be 7bcf 9a3e eed5 143e 46b3 b2be
000002f0: 5ae5 14be 428b 1e3e 9c26 b0bd 7813 4b3d
00000300: 7e29 043e 9bb1 8e3e 2d7e b23e 4176 a63e
00000310: 21bb a73e c03c f13b 164e 2a3e 115e b9be
00000320: 6693 183e 7b9f 82be 0eec 9ebe a93d 9e3e
00000330: 300a 98bd 8af2 733e f6da 9fbe 1c9c b8be
00000340: 191b 76be 9cb9 ac3d 5835 64bd 0f49 913e
00000350: ee5f 733e 2d64 88be ae8d 5ebe ed93 bfbe
00000360: ad2a 90be 697c 4fbe 17ab ba3e 55ba 993e
00000370: 2941 abbe 99e5 b73e ec1a ecbd d89f babe
00000380: 8efa 29be 0817 48bd 7f80 b9be 7a56 253e
00000390: 2431 bc3d 9a21 48be 87c0 883e 80c3 213b
000003a0: 066f 27be 8dc4 b9be 9458 cc3d 4872 f53d
000003b0: 78e6 ca3d d048 e93d b4cc d33d 3460 37be
000003c0: c468 50be 5bdc a7be 38c1 1fbd 9634 9ebe
000003d0: 70e1 433d 87fc 31be 572d bb3e 691d 55be
000003e0: 6fe6 ad3e ae95 533e 741e b13d a54c c03e
000003f0: 4a22 043e 4c15 51be 829b 93be 20df 843c

ln1.weight f4 [256]
1.0 1.0 1.0 1.0 1.0 1.0 1.0 1.0
1.0 1.0 1.0 1.0 1.0 1.0 1.0 1.0
1.0 1.0 1.0 1.0 1.0 1.0 1.0 1.0
1.0 1.0 1.0 1.0 1.0 1.0 1.0 1.0
1.0 1.0 1.0 1.0 1.0 1.0 1.0 1.0
1.0 1.0 1.0 1.0 1.0 1.0 1.0 1.0
1.0 1.0 1.0 1.0 1.0 1.0 1.0 1.0
1.0 1.0 1.0 1.0 1.0 1.0 1.0 1.0
1.0 1.0 1.0 1.0 1.0 1.0 1.0 1.0
1.0 1.0 1.0 1.0 1.0 1.0 1.0 1.0
1.0 1.0 1.0 1.0 1.0 1.0 1.0 1.0
1.0 1.0 1.0 1.0 1.0 1.0 1.0 1.0
1.0 1.0 1.0 1.0 1.0 1.0 1.0 1.0
1.0 1.0 1.0 1.0 1.0 1.0 1.0 1.0
1.0 1.0 1.0 1.0 1.0 1.0 1.0 1.0
1.0 1.0 1.0 1.0 1.0 1.0 1.0 1.0
1.0 1.0 1.0 1.0 1.0 1.0 1.0 1.0
1.0 1.0 1.0 1.0 1.0 1.0 1.0 1.0
1.0 1.0 1.0 1.0 1.0 1.0 1.0 1.0
1.0 1.0 1.0 1.0 1.0 1.0 1.0 1.0
1.0 1.0 1.0 1.0 1.0 1.0 1.0 1.0
1.0 1.0 1.0 1.0 1.0 1.0 1.0 1.0
1.0 1.0 1.0 1.0 1.0 1.0 1.0 1.0
1.0 1.0 1.0 1.0 1.0 1.0 1.0 1.0
1.0 1.0 1.0 1.0 1.0 1.0 1.0 1.0
1.0 1.0 1.0 1.0 1.0 1.0 1.0 1.0
1.0 1.0 1.0 1.0 1.0 1.0 1.0 1.0
1.0 1.0 1.0 1.0 1.0 1.0 1.0 1.0
1.0 1.0 1.0 1.0 1.0 1.0 1.0 1.0
1.0 1.0 1.0 1.0 1.0 1.0 1.0 1.0
1.0 1.0 1.0 1.0 1.0 1.0 1.0 1.0
1.0 1.0 1.0 1.0 1.0 1.0 1.0 1.0
00000000: 0000 803f 0000 803f 0000 803f 0000 803f
00000010: 0000 803f 0000 803f 0000 803f 0000 803f
00000020: 0000 803f 0000 803f 0000 803f 0000 803f
00000030: 0000 803f 0000 803f 0000 803f 0000 803f
00000040: 0000 803f 0000 803f 0000 803f 0000 803f
00000050: 0000 803f 0000 803f 0000 803f 0000 803f
00000060: 0000 803f 0000 803f 0000 803f 0000 803f
00000070: 0000 803f 0000 803f 0000 803f 0000 803f
00000080: 0000 803f 0000 803f 0000 803f 0000 803f
00000090: 0000 803f 0000 803f 0000 803f 0000 803f
000000a0: 0000 803f 0000 803f 0000 803f 0000 803f
000000b0: 0000 803f 0000 803f 0000 803f 0000 803f
000000c0: 0000 803f 0000 803f 0000 803f 0000 803f
000000d0: 0000 803f 0000 803f 0000 803f 0000 803f
000000e0: 0000 803f 0000 803f 0000 803f 0000 803f
000000f0: 0000 803f 0000 803f 0000 803f 0000 803f
00000100: 0000 803f 0000 803f 0000 803f 0000 803f
00000110: 0000 803f 0000 803f 0000 803f 0000 803f
00000120: 0000 803f 0000 803f 0000 803f 0000 803f
00000130: 0000 803f 0000 803f 0000 803f 0000 803f
00000140: 0000 803f 0000 803f 0000 803f 0000 803f
00000150: 0000 803f 0000 803f 0000 803f 0000 803f
00000160: 0000 803f 0000 803f 0000 803f 0000 803f
00000170: 0000 803f 0000 803f 0000 803f 0000 803f
00000180: 0000 803f 0000 803f 0000 803f 0000 803f
00000190: 0000 803f 0000 803f 0000 803f 0000 803f
000001a0: 0000 803f 0000 803f 0000 803f 0000 803f
000001b0: 0000 803f 0000 803f 0000 803f 0000 803f
000001c0: 0000 803f 0000 803f 0000 803f 0000 803f
000001d0: 0000 803f 0000 803f 0000 803f 0000 803f
000001e0: 0000 803f 0000 803f 0000 803f 0000 803f
000001f0: 0000 803f 0000 803f 0000 803f 0000 803f
00000200: 0000 803f 0000 803f 0000 803f 0000 803f
00000210: 0000 803f 0000 803f 0000 803f 0000 803f
00000220: 0000 803f 0000 803f 0000 803f 0000 803f
00000230: 0000 803f 0000 803f 0000 803f 0000 803f
00000240: 0000 803f 0000 803f 0000 803f 0000 803f
00000250: 0000 803f 0000 803f 0000 803f 0000 803f
00000260: 0000 803f 0000 803f 0000 803f 0000 803f
00000270: 0000 803f 0000 803f 0000 803f 0000 803f
00000280: 0000 803f 0000 803f 0000 803f 0000 803f
00000290: 0000 803f 0000 803f 0000 803f 0000 803f
000002a0: 0000 803f 0000 803f 0000 803f 0000 803f
000002b0: 0000 803f 0000 803f 0000 803f 0000 803f
000002c0: 0000 803f 0000 803f 0000 803f 0000 803f
000002d0: 0000 803f 0000 803f 0000 803f 0000 803f
000002e0: 0000 803f 0000 803f 0000 803f 0000 803f
000002f0: 0000 803f 0000 803f 0000 803f 0000 803f
00000300: 0000 803f 0000 803f 0000 803f 0000 803f
00000310: 0000 803f 0000 803f 0000 803f 0000 803f
00000320: 0000 803f 0000 803f 0000 803f 0000 803f
00000330: 0000 803f 0000 803f 0000 803f 0000 803f
00000340: 0000 803f 0000 803f 0000 803f 0000 803f
00000350: 0000 803f 0000 803f 0000 803f 0000 803f
00000360: 0000 803f 0000 803f 0000 803f 0000 803f
00000370: 0000 803f 0000 803f 0000 803f 0000 803f
00000380: 0000 803f 0000 803f 0000 803f 0000 803f
00000390: 0000 803f 0000 803f 0000 803f 0000 803f
000003a0: 0000 803f 0000 803f 0000 803f 0000 803f
000003b0: 0000 803f 0000 803f 0000 803f 0000 803f
000003c0: 0000 803f 0000 803f 0000 803f 0000 803f
000003d0: 0000 803f 0000 803f 0000 803f 0000 803f
000003e0: 0000 803f 0000 803f 0000 803f 0000 803f
000003f0: 0000 803f 0000 803f 0000 803f 0000 803f

ln1.bias f4 [256]
0.0 0.0 0.0 0.0 0.0 0.0 0.0 0.0
0.0 0.0 0.0 0.0 0.0 0.0 0.0 0.0
0.0 0.0 0.0 0.0 0.0 0.0 0.0 0.0
0.0 0.0 0.0 0.0 0.0 0.0 0.0 0.0
0.0 0.0 0.0 0.0 0.0 0.0 0.0 0.0
0.0 0.0 0.0 0.0 0.0 0.0 0.0 0.0
0.0 0.0 0.0 0.0 0.0 0.0 0.0 0.0
0.0 0.0 0.0 0.0 0.0 0.0 0.0 0.0
0.0 0.0 0.0 0.0 0.0 0.0 0.0 0.0
0.0 0.0 0.0 0.0 0.0 0.0 0.0 0.0
0.0 0.0 0.0 0.0 0.0 0.0 0.0 0.0
0.0 0.0 0.0 0.0 0.0 0.0 0.0 0.0
0.0 0.0 0.0 0.0 0.0 0.0 0.0 0.0
0.0 0.0 0.0 0.0 0.0 0.0 0.0 0.0
0.0 0.0 0.0 0.0 0.0 0.0 0.0 0.0
0.0 0.0 0.0 0.0 0.0 0.0 0.0 0.0
0.0 0.0 0.0 0.0 0.0 0.0 0.0 0.0
0.0 0.0 0.0 0.0 0.0 0.0 0.0 0.0
0.0 0.0 0.0 0.0 0.0 0.0 0.0 0.0
0.0 0.0 0.0 0.0 0.0 0.0 0.0 0.0
0.0 0.0 0.0 0.0 0.0 0.0 0.0 0.0
0.0 0.0 0.0 0.0 0.0 0.0 0.0 0.0
0.0 0.0 0.0 0.0 0.0 0.0 0.0 0.0
0.0 0.0 0.0 0.0 0.0 0.0 0.0 0.0
0.0 0.0 0.0 0.0 0.0 0.0 0.0 0.0
0.0 0.0 0.0 0.0 0.0 0.0 0.0 0.0
0.0 0.0 0.0 0.0 0.0 0.0 0.0 0.0
0.0 0.0 0.0 0.0 0.0 0.0 0.0 0.0
0.0 0.0 0.0 0.0 0.0 0.0 0.0 0.0
0.0 0.0 0.0 0.0 0.0 0.0 0.0 0.0
0.0 0.0 0.0 0.0 0.0 0.0 0.0 0.0
0.0 0.0 0.0 0.0 0.0 0.0 0.0 0.0
00000000: 0000 0000 0000 0000 0000 0000 0000 0000
00000010: 0000 0000 0000 0000 0000 0000 0000 0000
00000020: 0000 0000 0000 0000 0000 0000 0000 0000
00000030: 0000 0000 0000 0000 0000 0000 0000 0000
00000040: 0000 0000 0000 0000 0000 0000 0000 0000
00000050: 0000 0000 0000 0000 0000 0000 0000 0000
00000060: 0000 0000 0000 0000 0000 0000 0000 0000
00000070: 0000 0000 0000 0000 0000 0000 0000 0000
00000080: 0000 0000 0000 0000 0000 0000 0000 0000
00000090: 0000 0000 0000 0000 0000 0000 0000 0000
000000a0: 0000 0000 0000 0000 0000 0000 0000 0000
000000b0: 0000 0000 0000 0000 0000 0000 0000 0000
000000c0: 0000 0000 0000 0000 0000 0000 0000 0000
000000d0: 0000 0000 0000 0000 0000 0000 0000 0000
000000e0: 0000 0000 0000 0000 0000 0000 0000 0000
000000f0: 0000 0000 0000 0000 0000 0000 0000 0000
00000100: 0000 0000 0000 0000 0000 0000 0000 0000
00000110: 0000 0000 0000 0000 0000 0000 0000 0000
00000120: 0000 0000 0000 0000 0000 0000 0000 0000
00000130: 0000 0000 0000 0000 0000 0000 0000 0000
00000140: 0000 0000 0000 0000 0000 0000 0000 0000
00000150: 0000 0000 0000 0000 0000 0000 0000 0000
00000160: 0000 0000 0000 0000 0000 0000 0000 0000
00000170: 0000 0000 0000 0000 0000 0000 0000 0000
00000180: 0000 0000 0000 0000 0000 0000 0000 0000
00000190: 0000 0000 0000 0000 0000 0000 0000 0000
000001a0: 0000 0000 0000 0000 0000 0000 0000 0000
000001b0: 0000 0000 0000 0000 0000 0000 0000 0000
000001c0: 0000 0000 0000 0000 0000 0000 0000 0000
000001d0: 0000 0000 0000 0000 0000 0000 0000 0000
000001e0: 0000 0000 0000 0000 0000 0000 0000 0000
000001f0: 0000 0000 0000 0000 0000 0000 0000 0000
00000200: 0000 0000 0000 0000 0000 0000 0000 0000
00000210: 0000 0000 0000 0000 0000 0000 0000 0000
00000220: 0000 0000 0000 0000 0000 0000 0000 0000
00000230: 0000 0000 0000 0000 0000 0000 0000 0000
00000240: 0000 0000 0000 0000 0000 0000 0000 0000
00000250: 0000 0000 0000 0000 0000 0000 0000 0000
00000260: 0000 0000 0000 0000 0000 0000 0000 0000
00000270: 0000 0000 0000 0000 0000 0000 0000 0000
00000280: 0000 0000 0000 0000 0000 0000 0000 0000
00000290: 0000 0000 0000 0000 0000 0000 0000 0000
000002a0: 0000 0000 0000 0000 0000 0000 0000 0000
000002b0: 0000 0000 0000 0000 0000 0000 0000 0000
000002c0: 0000 0000 0000 0000 0000 0000 0000 0000
000002d0: 0000 0000 0000 0000 0000 0000 0000 0000
000002e0: 0000 0000 0000 0000 0000 0000 0000 0000
000002f0: 0000 0000 0000 0000 0000 0000 0000 0000
00000300: 0000 0000 0000 0000 0000 0000 0000 0000
00000310: 0000 0000 0000 0000 0000 0000 0000 0000
00000320: 0000 0000 0000 0000 0000 0000 0000 0000
00000330: 0000 0000 0000 0000 0000 0000 0000 0000
00000340: 0000 0000 0000 0000 0000 0000 0000 0000
00000350: 0000 0000 0000 0000 0000 0000 0000 0000
00000360: 0000 0000 0000 0000 0000 0000 0000 0000
00000370: 0000 0000 0000 0000 0000 0000 0000 0000
00000380: 0000 0000 0000 0000 0000 0000 0000 0000
00000390: 0000 0000 0000 0000 0000 0000 0000 0000
000003a0: 0000 0000 0000 0000 0000 0000 0000 0000
000003b0: 0000 0000 0000 0000 0000 0000 0000 0000
000003c0: 0000 0000 0000 0000 0000 0000 0000 0000
000003d0: 0000 0000 0000 0000 0000 0000 0000 0000
000003e0: 0000 0000 0000 0000 0000 0000 0000 0000
000003f0: 0000 0000 0000 0000 0000 0000 0000 0000

fc2.weight f4 [128, 256]
-0.03939808 -0.016642272 0.016073756 0.033164404 -0.013954639 0.05512692 0.046784893 0.008192882
-0.045997404 0.060148947 0.04904165 0.028352797 -0.027295314 4.8421323e-05 0.04948441 -0.015440524
0.015233606 0.05866299 -0.05968538 0.038185753 0.061440445 -0.010582127 -0.053221263 -0.029708952
-0.009261064 -0.02172611 -0.03470262 -0.035201892 -0.03322155 -0.021165349 0.018716678 -0.0011160523
0.056941725 0.05333793 0.011252716 0.04782691 -0.0021467283 -0.04670295 0.018142998 0.059531353
-0.059555024 0.054588743 0.04607021 0.03313543 0.05902029 -0.03117203 -0.028552301 -0.008626729
-0.042317152 0.019295119 0.008176193 -0.0017531067 0.051661864 0.020931527 -0.02100379 -0.053371496
0.042087317 0.04366535 0.04240697 0.0073453784 0.048654303 0.055611722 0.009706624 0.030263305
-0.004443988 0.048317596 0.045992754 0.030615166 0.008680813 -0.0585318 -0.022782028 -0.03109879
0.05509588 0.01895053 0.016051956 -0.048359074 0.038643032 0.018889897 -0.06189192 0.049322747
-0.0135413185 0.030630216 -0.03694643 -0.02980072 0.022296906 -0.043075427 0.052258387 0.006131977
-0.05333633 0.04120598 0.027245395 -0.027232997 -0.011359185 -0.02325505 0.05891817 0.019984968
0.005069211 -0.01835201 0.057099544 -0.05947893 0.054280415 0.017611414 0.002213657 -0.014922731
0.043899626 0.00597547 -0.043575957 -0.014375515 -0.04237146 0.02937977 0.005570434 -0.05832672
0.050450355 0.016794585 -0.04351875 -0.058627054 0.026059784 -0.035855055 -0.0436432 0.060944214
-0.037990376 -0.019871064 -0.019807473 0.028439537 -0.018881284 0.009075567 0.030391045 0.028437406
0.05236298 -0.04690723 -0.0066959932 -0.062468678 -0.05033443 -0.022933394 -0.007862531 -0.058365077
0.0057295784 0.031428054 -0.033019155 -0.04378222 -0.049769357 -0.024463117 0.034989916 0.019232504
-0.012529016 0.03371954 0.02079279 0.047910318 -0.05311323 -0.036581434 -0.059277743 0.02727855
-0.04450617 0.038095616 0.014800094 -0.0052232444 -0.004104458 -0.052283965 0.03695757 -0.041643478
-0.03789179 -0.039443716 -0.020358227 -0.022845455 0.012497179 0.020219192 0.06046985 -0.005295038
0.032558024 0.038331322 0.05523704 0.03909675 0.01591453 -0.0037682801 0.05236134 -0.03837339
-0.011285447 -0.020233303 -0.04394757 -0.006102234 -0.043046415 0.030753352 -0.058293708 0.060823828
0.0082004815 -0.0033437014 0.058257565 -0.042102978 0.020687297 -0.027272016 -0.051953167 0.038888887
-0.058851115 -0.028854638 0.040571548 -0.05981899 0.013714202 -0.040752634 0.012469314 -0.051899232
-0.04231076 -0.05704508 -0.043166712 0.060871854 0.050573923 0.01812157 0.045031704 0.027174585
0.057699896 -0.0152790025 -0.036060706 -0.0087140575 0.01962091 -0.051468655 -0.041242577 -0.0032411888
0.0075922683 0.02311457 0.0140699595 0.056937583 -0.009442709 0.0034150556 0.040222257 -0.027931646
-0.023842864 -0.056359112 0.013064235 0.00930956 -0.05241283 -0.0036883801 0.0563308 -0.0043539032
-0.0013598055 -0.059037365 0.05684454 -0.04117187 0.018479384 0.015959322 -0.029431798 0.053391427
0.01183302 -0.017099537 -0.049704783 -0.023219593 -0.008911774 0.062290028 -0.017939247 -0.009579033
-0.015193559 0.001752235 0.031011492 -0.043052927 -0.009289898 0.061239347 0.054073915 -0.032086797
00000000: e25f 21bd 6055 88bc 1cad 833c 66d7 073d
00000010: 00a2 64bc c4cc 613d 84a1 3f3d 703b 063c
00000020: c667 3cbd be5e 763d e6df 483d 2044 e83c
00000030: 6c9a dfbc 0018 4b38 2ab0 4a3d 40fa 7cbc
00000040: 6096 793c 9a48 703d a878 74bd aa68 1c3d
00000050: faa8 7b3d a860 2dbc 8afe 59bd 3060 f3bc
00000060: b8bb 17bc f4fa b1bc 5624 0ebd dc2f 10bd
00000070: 5213 08bd f462 adbc b853 993c 8048 92ba
00000080: ba3b 693d e078 5a3d 505d 383c 26e6 433d
00000090: 20b0 0cbb 984b 3fbd a0a0 943c 26d7 733d
000000a0: f8ef 73bd 7298 5f3d 1eb4 3c3d 04b9 073d
000000b0: 42bf 713d 7c5c ffbc 84e6 e9bc 2057 0dbc
000000c0: c054 2dbd cc10 9e3c 70f5 053c 80c8 e5ba
000000d0: 649b 533d 9878 ab3c 2410 acbc 129c 5abd
000000e0: c063 2c3d 70da 323d eeb2 2d3d 80b1 f03b
000000f0: bc49 473d 1ec9 633d 8808 1f3c c0ea f73c
00000100: e09e 91bb ace8 453d e662 3c3d a8cc fa3c
00000110: f839 0e3c 0abf 6fbd 60a1 babc e4c2 febc
00000120: 38ac 613d 243e 9b3c 647f 833c 2a14 46bd
00000130: 2848 1e3d fcbe 9a3c 6282 7dbd a606 4a3d
00000140: 68dc 5dbc 38ec fa3c 2455 17bd a420 f4bc
00000150: 00a8 b63c dc6f 30bd e40c 563d c0ee c83b
00000160: 3277 5abd 9ac7 283d bc31 df3c bc17 dfbc
00000170: e01b 3abc 6081 bebc 2e54 713d 84b7 a33c
00000180: a01b a63b f456 96bc 36e1 693d 2ea0 73bd
00000190: 2455 5e3d d045 903c 0013 113b 787e 74bc
000001a0: 18d0 333d e0cd c33b b47c 32bd 4887 6bbc
000001b0: b28d 2dbd d8ad f03c 3088 b63b 00e8 6ebd
000001c0: 08a5 4e3d cc94 893c b840 32bd ec22 70bd
000001d0: 547b d53c c0dc 12bd 36c3 32bd a4a0 793d
000001e0: cc9b 1bbd a4c8 a2bc 4843 a2bc 08fa e83c
000001f0: ecac 9abc b0b1 143c a4f6 f83c 90f5 e83c
00000200: 907a 563d cc21 40bd 106a dbbb 28df 7fbd
00000210: 7a2b 4ebd d0de bbbc d8d1 00bc 3810 6fbd
00000220: 30bf bb3b b4ba 003d 183f 07bd fc54 33bd
00000230: f4da 4bbd e066 c8bc 9651 0f3d 7c8d 9d3c
00000240: 8046 4dbc 801d 0a3d a455 aa3c 9c3d 443d
00000250: 428d 59bd 6ad6 15bd 38cd 72bd 4477 df3c
00000260: 1a4c 36bd 260a 1c3d 187c 723c c027 abbb
00000270: b07e 86bb b627 56bd d260 173d 5a92 2abd
00000280: 6c34 1bbd bc8f 21bd 4cc6 a6bc 6426 bbbc
00000290: f8c0 4c3c b8a2 a53c 3caf 773d 0082 adbb
000002a0: 905b 053d 4e01 1d3d 3c40 623d ea23 203d
000002b0: 305f 823c 40f5 76bb d878 563d 6a2d 1dbd
000002c0: 98e6 38bc 50c0 a5bc 5e02 34bd 40f5 c7bb
000002d0: 7051 30bd 74ee fb3c 62c5 6ebd 6822 793d
000002e0: 505b 063c 0022 5bbb 7c9f 6e3d 2c74 2cbd
000002f0: 6878 a93c 9069 dfbc d8cc 54bd f449 1f3d
00000300: de0d 71bd 9060 ecbc 5a2e 263d c204 75bd
00000310: 88b1 603c 3cec 26bd 184c 4c3c 4a94 54bd
00000320: 0c4e 2dbd 1aa8 69bd 94cf 30bd c454 793d
00000330: 9a26 4f3d b073 943c 2a73 383d 3c9d de3c
00000340: ba56 6c3d c854 7abc 64b4 13bd 68c5 0ebc
00000350: 08bc a03c ccd0 52bd faed 28bd 206a 54bb
00000360: 90c8 f83b c45a bd3c b085 663c 6237 693d
00000370: 98b5 1abc 20cf 5f3b 18c0 243d e8d0 e4bc
00000380: 1c52 c3bc d0d8 66bd 600b 563c 2087 183c
00000390: d6ae 56bd c0b8 71bb 20bb 663d 30ab 8ebb
000003a0: 803b b2ba 2ad1 71bd d2d5 683d d6a3 28bd
000003b0: 1462 973c 20bd 823c f41a f1bc f8b0 5a3d
000003c0: 48df 413c 5414 8cbc 3e97 4bbd 0437 bebc
000003d0: b002 12bc d423 7f3d 54f5 92bc 60f1 1cbc
000003e0: 68ee 78bc 40ab e53a d00b fe3c 4458 30bd
000003f0: a834 18bc 1cd6 7a3d 9c7c 5d3d 726d 03bd

fc2.bias f4 [128]
-0.03193245 -0.012941711 -0.050388172 -0.026579931 0.011570282 0.050237842 0.057834268 -0.033141807
-0.025861368 -0.0028246716 -0.040447295 -0.026089713 0.04229877 -0.024220228 -0.012437485 -0.026898652
0.013001122 0.031508036 0.03148531 0.023016036 -0.015067138 -0.011064447 -0.04262642 0.061994612
-0.062450193 -0.0022058412 0.0091525465 0.04499659 -0.0093250275 0.05515562 -0.055016026 0.05788192
0.018598147 0.034673482 -0.04246316 -0.061793096 0.016285047 -0.061439 -0.038030818 0.054695003
0.061843023 -0.04563696 -0.011474818 -0.044380262 0.010676838 0.012230247 0.054201633 -0.037420318
-0.04276178 0.017083876 0.003350228 0.045247294 0.021400414 -0.046024315 -0.024405457 -0.024048463
0.00086348504 -0.029979534 -0.02383712 0.025369652 0.0025949702 0.0032047108 0.053580947 0.028694838
0.022962905 -0.010875799 0.040390432 -0.052635014 0.035185754 0.0604283 -0.056266464 0.060155064
0.049903147 -0.06166117 -0.05505751 0.0024320185 -0.039346427 -0.058432855 0.04437489 -0.03330379
-0.026178017 -0.005568154 0.010830827 -0.038636588 -0.055357113 -0.061437383 0.008411482 -0.037362196
2.3253262e-05 0.017570496 -0.031999864 0.04333715 0.02827409 0.041660823 0.017181672 -0.021535054
-0.0013218746 0.022287458 0.05373442 0.043802083 -0.021760128 -0.024345614 -0.025218293 0.019893229
-0.039324418 0.036762767 -0.028176144 -0.022020482 -0.0023361072 -0.045802973 0.05777041 -0.023206607
-0.056487538 -0.036186807 -0.052405402 -0.044812478 -0.018667802 0.009833001 0.04905445 0.055980615
0.018828534 0.020026974 -0.02056992 0.05201658 0.05281288 0.032556497 -0.04489246 0.009895861
00000000: 9acb 02bd 7809 54bc d463 4ebd 28be d9bc
00000010: 4891 3d3c 32c6 4d3d a0e3 6c3d b4bf 07bd
00000020: 38db d3bc 201e 39bb 10ac 25bd 18ba d5bc
00000030: 7a41 2d3d 8069 c6bc 98c6 4bbc 905a dcbc
00000040: a802 553c 920e 013d bef6 003d 208c bc3c
00000050: 28dc 76bc a847 35bc 0a99 2ebd 10ee 7d3d
00000060: c6cb 7fbd e08f 10bb 90f4 153c 584e 383d
00000070: 00c8 18bc dcea 613d 7c58 61bd 9815 6d3d
00000080: 245b 983c c805 0e3d daed 2dbd c21a 7dbd
00000090: 3868 853c 76a7 7bbd 34c6 1bbd de07 603d
000000a0: 1c4f 7d3d d2ed 3abd e000 3cbc 14c8 35bd
000000b0: e8ed 2e3c 6061 483c 8802 5e3d 0c46 19bd
000000c0: fa26 2fbd 7cf3 8b3c 808f 5b3b 3a55 393d
000000d0: ec4f af3c fe83 3cbd f4ed c7bc 4801 c5bc
000000e0: 805b 623a a497 f5bc 1046 c3bc 04d4 cf3c
000000f0: 6010 2a3b 2006 523b b277 5b3d 7011 eb3c
00000100: b41c bc3c 6830 32bc 7070 253d d097 57bd
00000110: f01e 103d aa83 773d aa77 66bd 2865 763d
00000120: 3e67 4c3d 6c90 7cbd fc83 61bd 8062 1f3b
00000130: b829 21bd 4a57 6fbd 72c2 353d 8e69 08bd
00000140: 4873 d6bc 1075 b6bb c873 313c 6641 1ebd
00000150: 24be 62bd c4a5 7bbd 50d0 093c 1a09 19bd
00000160: 0010 c337 00f0 8f3c 4a12 03bd 4c82 313d
00000170: 109f e73c 8aa4 2a3d 94c0 8c3c 486a b0bc
00000180: c042 adba 3094 b63c a018 5c3d d069 333d
00000190: 4c42 b2bc 7470 c7bc 9896 cebc 20f7 a23c
000001a0: a412 21bd 8e94 163d a8d1 e6bc 4c64 b4bc
000001b0: 6019 19bb e69b 3bbd aaa0 6c3d c81b bebc
000001c0: 7a5f 67bd 9e38 14bd 0ca7 56bd 4a8d 37bd
000001d0: 38ed 98bc 981a 213c 52ed 483d ee4b 653d
000001e0: 4c3e 9a3c 9c0f a43c 4082 a8bc 560f 553d
000001f0: 5252 583d f659 053d 28e1 37bd 4022 223c

ln2.weight f4 [128]
1.0 1.0 1.0 1.0 1.0 1.0 1.0 1.0
1.0 1.0 1.0 1.0 1.0 1.0 1.0 1.0
1.0 1.0 1.0 1.0 1.0 1.0 1.0 1.0
1.0 1.0 1.0 1.0 1.0 1.0 1.0 1.0
1.0 1.0 1.0 1.0 1.0 1.0 1.0 1.0
1.0 1.0 1.0 1.0 1.0 1.0 1.0 1.0
1.0 1.0 1.0 1.0 1.0 1.0 1.0 1.0
1.0 1.0 1.0 1.0 1.0 1.0 1.0 1.0
1.0 1.0 1.0 1.0 1.0 1.0 1.0 1.0
1.0 1.0 1.0 1.0 1.0 1.0 1.0 1.0
1.0 1.0 1.0 1.0 1.0 1.0 1.0 1.0
1.0 1.0 1.0 1.0 1.0 1.0 1.0 1.0
1.0 1.0 1.0 1.0 1.0 1.0 1.0 1.0
1.0 1.0 1.0 1.0 1.0 1.0 1.0 1.0
1.0 1.0 1.0 1.0 1.0 1.0 1.0 1.0
1.0 1.0 1.0 1.0 1.0 1.0 1.0 1.0
00000000: 0000 803f 0000 803f 0000 803f 0000 803f
00000010: 0000 803f 0000 803f 0000 803f 0000 803f
00000020: 0000 803f 0000 803f 0000 803f 0000 803f
00000030: 0000 803f 0000 803f 0000 803f 0000 803f
00000040: 0000 803f 0000 803f 0000 803f 0000 803f
00000050: 0000 803f 0000 803f 0000 803f 0000 803f
00000060: 0000 803f 0000 803f 0000 803f 0000 803f
00000070: 0000 803f 0000 803f 0000 803f 0000 803f
00000080: 0000 803f 0000 803f 0000 803f 0000 803f
00000090: 0000 803f 0000 803f 0000 803f 0000 803f
000000a0: 0000 803f 0000 803f 0000 803f 0000 803f
000000b0: 0000 803f 0000 803f 0000 803f 0000 803f
000000c0: 0000 803f 0000 803f 0000 803f 0000 803f
000000d0: 0000 803f 0000 803f 0000 803f 0000 803f
000000e0: 0000 803f 0000 803f 0000 803f 0000 803f
000000f0: 0000 803f 0000 803f 0000 803f 0000 803f
00000100: 0000 803f 0000 803f 0000 803f 0000 803f
00000110: 0000 803f 0000 803f 0000 803f 0000 803f
00000120: 0000 803f 0000 803f 0000 803f 0000 803f
00000130: 0000 803f 0000 803f 0000 803f 0000 803f
00000140: 0000 803f 0000 803f 0000 803f 0000 803f
00000150: 0000 803f 0000 803f 0000 803f 0000 803f
00000160: 0000 803f 0000 803f 0000 803f 0000 803f
00000170: 0000 803f 0000 803f 0000 803f 0000 803f
00000180: 0000 803f 0000 803f 0000 803f 0000 803f
00000190: 0000 803f 0000 803f 0000 803f 0000 803f
000001a0: 0000 803f 0000 803f 0000 803f 0000 803f
000001b0: 0000 803f 0000 803f 0000 803f 0000 803f
000001c0: 0000 803f 0000 803f 0000 803f 0000 803f
000001d0: 0000 803f 0000 803f 0000 803f 0000 803f
000001e0: 0000 803f 0000 803f 0000 803f 0000 803f
000001f0: 0000 803f 0000 803f 0000 803f 0000 803f

ln2.bias f4 [128]
0.0 0.0 0.0 0.0 0.0 0.0 0.0 0.0
0.0 0.0 0.0 0.0 0.0 0.0 0.0 0.0
0.0 0.0 0.0 0.0 0.0 0.0 0.0 0.0
0.0 0.0 0.0 0.0 0.0 0.0 0.0 0.0
0.0 0.0 0.0 0.0 0.0 0.0 0.0 0.0
0.0 0.0 0.0 0.0 0.0 0.0 0.0 0.0
0.0 0.0 0.0 0.0 0.0 0.0 0.0 0.0
0.0 0.0 0.0 0.0 0.0 0.0 0.0 0.0
0.0 0.0 0.0 0.0 0.0 0.0 0.0 0.0
0.0 0.0 0.0 0.0 0.0 0.0 0.0 0.0
0.0 0.0 0.0 0.0 0.0 0.0 0.0 0.0
0.0 0.0 0.0 0.0 0.0 0.0 0.0 0.0
0.0 0.0 0.0 0.0 0.0 0.0 0.0 0.0
0.0 0.0 0.0 0.0 0.0 0.0 0.0 0.0
0.0 0.0 0.0 0.0 0.0 0.0 0.0 0.0
0.0 0.0 0.0 0.0 0.0 0.0 0.0 0.0
00000000: 0000 0000 0000 0000 0000 0000 0000 0000
00000010: 0000 0000 0000 0000 0000 0000 0000 0000
00000020: 0000 0000 0000 0000 0000 0000 0000 0000
00000030: 0000 0000 0000 0000 0000 0000 0000 0000
00000040: 0000 0000 0000 0000 0000 0000 0000 0000
00000050: 0000 0000 0000 0000 0000 0000 0000 0000
00000060: 0000 0000 0000 0000 0000 0000 0000 0000
00000070: 0000 0000 0000 0000 0000 0000 0000 0000
00000080: 0000 0000 0000 0000 0000 0000 0000 0000
00000090: 0000 0000 0000 0000 0000 0000 0000 0000
000000a0: 0000 0000 0000 0000 0000 0000 0000 0000
000000b0: 0000 0000 0000 0000 0000 0000 0000 0000
000000c0: 0000 0000 0000 0000 0000 0000 0000 0000
000000d0: 0000 0000 0000 0000 0000 0000 0000 0000
000000e0: 0000 0000 0000 0000 0000 0000 0000 0000
000000f0: 0000 0000 0000 0000 0000 0000 0000 0000
00000100: 0000 0000 0000 0000 0000 0000 0000 0000
00000110: 0000 0000 0000 0000 0000 0000 0000 0000
00000120: 0000 0000 0000 0000 0000 0000 0000 0000
00000130: 0000 0000 0000 0000 0000 0000 0000 0000
00000140: 0000 0000 0000 0000 0000 0000 0000 0000
00000150: 0000 0000 0000 0000 0000 0000 0000 0000
00000160: 0000 0000 0000 0000 0000 0000 0000 0000
00000170: 0000 0000 0000 0000 0000 0000 0000 0000
00000180: 0000 0000 0000 0000 0000 0000 0000 0000
00000190: 0000 0000 0000 0000 0000 0000 0000 0000
000001a0: 0000 0000 0000 0000 0000 0000 0000 0000
000001b0: 0000 0000 0000 0000 0000 0000 0000 0000
000001c0: 0000 0000 0000 0000 0000 0000 0000 0000
000001d0: 0000 0000 0000 0000 0000 0000 0000 0000
000001e0: 0000 0000 0000 0000 0000 0000 0000 0000
000001f0: 0000 0000 0000 0000 0000 0000 0000 0000

action.weight f4 [2, 128]
-4.909601e-05 -0.00048122468 -0.00088334206 0.00051208166 -0.00059929304 -0.0001809051 0.0004723256 -5.393161e-05
-3.2093434e-05 0.00053947186 0.00032073515 -0.0007667927 -0.0007282554 -0.0005752746 -0.0007049957 0.00089509215
-0.0001321492 0.0008943541 3.3929828e-05 -0.00048622553 -0.00022946228 0.00013497658 0.00021401176 -0.00084701757
3.1800126e-05 0.00053341524 -0.00054264406 0.00040109025 -0.00043584208 0.00013925566 -0.0006797988 8.720113e-05
-5.4311415e-05 0.0008437468 -0.00050304894 0.00069455896 -0.00080652215 -0.00082090107 -0.00048974884 0.0006972094
0.0004588496 0.00091283827 -0.000964125 3.4927507e-05 -0.0008378364 -0.0002887888 -0.0007288011 0.00037965365
-0.00054292526 0.00029020023 -0.0006251825 -0.0006662349 0.0007569229 -7.028913e-05 -0.0009852357 0.0004714653
0.00097135373 -0.0009649276 -0.00027625012 -0.0008471884 0.0009183029 -0.00048053567 -0.00084662635 0.0006184499
0.0009774991 -0.00042910973 -0.00083934516 -0.00081950193 0.0006944408 0.0007755881 -0.00033270923 0.00085621665
-0.000120947836 -0.000923479 -0.0004912079 0.00068542827 -0.0005433884 0.00075755 2.0307954e-05 0.00010960712
0.00024304166 -0.00020460441 0.00085580524 -0.0007655951 0.0007154852 0.000954928 -0.00070735934 -0.0001933024
-6.7865825e-05 0.0007064835 -6.3872954e-05 0.0007293619 -0.00058583147 0.00078355055 -0.0001657299 -0.0007079239
-0.0008115824 -0.0004293752 -0.00076132384 0.00037089584 0.0004169467 0.00062051404 -3.636256e-05 -0.0007446565
-0.0001612929 7.123174e-05 -0.0005593974 0.0006106071 -0.00039680104 0.00069183495 -0.00025518978 -0.0001963806
0.00084906025 -0.0009886874 -0.00061084976 4.399952e-05 -0.00076530257 -0.0006364321 -0.0003437716 -6.793346e-05
-0.0009781609 0.00014973455 0.00063626363 -0.0002784134 0.00084239535 -0.00049684255 6.6720764e-05 -0.0008797157
0.0007473751 -0.00027384725 0.0005772383 -0.0005096747 -0.0008666314 -0.00022288779 -0.00042753282 -0.0009335007
0.0007509182 -0.00032621156 0.0005119924 0.00059749116 0.00029765978 0.00061809574 -0.00075793115 -0.00035632984
-0.0006096776 0.00043205195 -0.0008438302 -0.0007547736 0.0008219916 -0.00049057143 -0.00031147304 -0.0008904696
-0.00017663313 -0.00088239735 2.5155721e-05 0.00063461065 -0.0008776689 0.00082963135 0.00011047418 -0.0005439115
0.0004478664 -0.00038017717 -0.00030677032 0.00017479714 0.0007491781 -0.00033729326 -0.00042079558 0.0004565193
-2.114242e-05 1.064851e-06 0.00019349041 -0.00021935179 0.00028798787 0.0009877436 -0.00075113826 0.0001284898
0.0009996697 -0.00016708934 -0.0004925059 -0.0005517365 -0.00028557424 -0.00056209683 -0.0008051174 -0.00055171875
0.00075851276 0.00086841045 -0.0005300156 -0.00023773458 -0.00017789664 0.0002672302 0.00016540824 -0.00056636555
0.0008972833 -0.00082145364 -3.1352043e-05 0.00018537871 0.00047953834 0.00064975454 -0.00023086404 -0.00066540245
0.0003552055 -0.0003806937 -0.0007710611 -0.0009676922 0.00031559845 -0.0008212902 -0.0009053076 0.0003825517
0.00066351914 -0.00016355148 0.00050350383 -0.0005508951 -0.0001269065 0.00066700333 -0.000515425 0.0009908719
0.00062813563 -0.0004523064 0.00016021577 -0.00017111353 -0.00076255447 0.00019857707 0.00094210776 -0.0008547602
0.00087974453 -0.00033960975 8.660951e-05 -0.0006969356 -0.0006842276 0.00078428 0.000544611 0.00015018845
-0.0003040533 -0.00042187143 -0.0008528531 0.00080437225 -0.00074170675 -0.00085083285 -0.000582853 -0.00078941335
0.00017378095 -0.00029221678 -0.00059490197 -0.0007732022 0.0007781229 -0.0008627352 0.0007094712 0.00043440226
-0.00082437147 -0.00037739123 0.0009448716 0.00010872155 0.00032371702 -0.0005972902 -0.0001041136 -0.00028838648
00000000: 70ec 4db8 e24c fcb9 1590 67ba 383d 063a
00000010: e019 1dba 58b1 3db9 78a2 f739 a034 62b8
00000020: 109c 06b8 586b 0d3a 5828 a839 9602 49ba
00000030: 65e8 3eba 06ce 16ba 76cf 38ba 9ea4 6a3a
00000040: 8891 0ab9 1673 6a3a e04f 0e38 16ec feb9
00000050: d09b 70b9 8088 0d39 5868 6039 630a 5eba
00000060: 2061 0538 e4d4 0b3a 3a40 0eba 6c49 d239
00000070: bc81 e4b9 2805 1239 8634 32ba c0df b638
00000080: 70cc 63b8 e42e 5d3a 0bdf 03ba 1013 363a
00000090: c96c 53ba bd31 57ba 7d62 00ba eec4 363a
000000a0: c091 f039 8a4b 6f3a 55bd 7cba 207f 1238
000000b0: 40a2 5bba 9468 97b9 040d 3fba 400c c739
000000c0: 1953 0eba 0426 9839 4ae3 23ba 44a6 2eba
000000d0: 3c6c 463a 3068 93b8 0623 81ba 002f f739
000000e0: 72a2 7e3a 32f3 7cba aad5 90b9 da15 5eba
000000f0: 44ba 703a 68f0 fbb9 22f0 5dba 781f 223a
00000100: 6d1f 803a 22fa e0b9 8007 5cba d8d3 56ba
00000110: 220b 363a d650 4b3a 7a6f aeb9 ba73 603a
00000120: 60a5 fdb8 a015 72ba 67c4 00ba 50ae 333a
00000130: 2e72 0eba 5296 463a 005b aa37 e0dc e538
00000140: 00d9 7e39 148b 56b9 1e58 603a 38b2 48ba
00000150: 668f 3b3a 2254 7a3a 156e 39ba 38b1 4ab9
00000160: 3053 8eb8 4e33 393a 88f3 85b8 a632 3f3a
00000170: 7c92 19ba 3067 4d3a c8c7 2db9 f893 39ba
00000180: 5fc0 54ba c41d e1b9 9493 47ba cc74 c239
00000190: a499 da39 fea9 223a 0084 18b8 0d35 43ba
000001a0: bc20 29b9 4062 9538 86a4 12ba 2611 203a
000001b0: bc09 d0b9 425c 353a feca 85b9 84eb 4db9
000001c0: 7893 5e3a d896 81ba 6f21 20ba 208c 3838
000001d0: 969e 48ba 3cd6 26ba 3e3c b4b9 8077 8eb8
000001e0: a235 80ba 1002 1d39 eeca 263a 04f8 91b9
000001f0: 32d4 5c3a 8a3e 02ba 70ec 8b38 b99c 66ba
00000200: 7eeb 433a 2893 8fb9 ce51 173a b19b 05ba
00000210: a62e 63ba fcb6 69b9 7c26 e0b9 2cb6 74ba
00000220: 44d9 443a 6007 abb9 3a37 063a f4a0 1c3a
00000230: 380f 9c39 b407 223a e6af 46ba c8d1 bab9
00000240: c5d2 1fba 0885 e239 7c34 5dba 00dc 45ba
00000250: ec7a 573a b199 00ba 344d a3b9 676e 69ba
00000260: 9836 39b9 af50 67ba 8005 d337 005c 263a
00000270: 5d13 66ba 9e7b 593a 60ae e738 4895 0eba
00000280: 9ccf ea39 8452 c7b9 04d6 a0b9 c049 3739
00000290: 7e64 443a bcd6 b0b9 3a9e dcb9 fc58 ef39
000002a0: 005b b1b7 00ec 8e35 b0e3 4a39 cc01 66b9
000002b0: 14fd 9639 2d77 813a 09e8 44ba 38bb 0639
000002c0: 5907 833a b434 2fb9 831b 01ba 69a2 10ba
000002d0: 20b9 95b9 ae59 13ba 840e 53ba 38a1 10ba
000002e0: eed6 463a 0aa6 633a bff0 0aba 6448 79b9
000002f0: c489 3ab9 081b 8c39 7071 2d39 2678 14ba
00000300: aa37 6b3a d256 57ba 0080 03b8 3862 4239
00000310: 8c6a fb39 4a54 2a3a 1814 72b9 676e 2eba
00000320: e03a ba39 d897 c7b9 0921 4aba b9ac 7dba
00000330: e876 a539 da4b 57ba 2a52 6dba 3891 c839
00000340: 04f0 2d3a 047f 2bb9 92fd 033a f269 10ba
00000350: 3412 05b9 d6d9 2e3a 961d 07ba 25e0 813a
00000360: 78a9 243a 8a23 edb9 98ff 2739 f06c 33b9
00000370: 2ae6 47ba 2039 5039 c8f7 763a fc11 60ba
00000380: a89e 663a a60d b2b9 20a2 b538 8eb2 36ba
00000390: bd5d 33ba 2498 4d3a 3ac4 0e3a e87b 1d39
000003a0: 5869 9fb9 a02e ddb9 0192 5fba 82dc 523a
000003b0: 196f 42ba 6d0a 5fba 9aca 18ba a2f0 4eba
000003c0: f838 3639 ac34 99b9 32f3 1bba b9b0 4aba
000003d0: f2fa 4b3a 2e29 62ba cefb 393a 7cc0 e339
000003e0: a21a 58ba 98dc c5b9 42b1 773a 7001 e438
000003f0: 90b8 a939 7893 1cba 9057 dab8 9432 97b9

action.bias f4 [2]
0.00040253275 0.000668262
00000000: 080b d339 4e2e 2f3a
