s10lre4e3CCM_MADRL_MEC/model/50-800-16-20-80/PDQN/0-discrete_actors.pth (torch, 145127 bytes, 6 tensors)

fc1.weight f4 [256, 9]
000000 67 62 a8 3d 19 81 83 be 42 29 29 bb ca 94 55 3e
       0.08221894 -0.2568443 -0.0025811945 0.2085754
000010 5b 2b 90 bd af 9d 5a be 1d 71 98 3e 27 0a f5 3d
       -0.070395194 -0.21349214 0.297738 0.11964827
000020 14 ca 6e be e7 da ea bc 92 26 a6 3d 38 f7 23 3e
       -0.23319274 -0.028668834 0.081128255 0.16012275
000030 5c 3b 7c 3d da 8a fb bd 79 e0 a3 be 59 1b 90 3d
       0.061580047 -0.12282343 -0.32007197 0.07036466
000040 b6 d7 96 3e d4 d6 76 be 8f 76 a9 be d1 5c 53 be
       0.2946145 -0.24105388 -0.33098266 -0.20640875
000050 13 e2 68 be 7c 8a 13 be 83 31 b4 3d 15 92 91 ba
       -0.2274249 -0.14408296 0.08798506 -0.0011106158
000060 81 58 7e be cd 3e a4 bd f0 48 4a be ac 6a 6c be
       -0.24838449 -0.08019791 -0.19754386 -0.23087567
000070 ad e0 f3 bc 57 1d 31 bd aa 99 a0 3e 10 8c 81 3e
       -0.02977022 -0.04324087 0.31367236 0.25302172
000080 bf a8 45 be 47 00 a2 be b9 02 e6 3c 0e cf 97 bd
       -0.19302653 -0.31640837 0.02807747 -0.074125394
000090 6d 96 f1 bd 7c b9 2d 3e a7 2e f2 bd 7d d9 28 3e
       -0.117962696 0.16965288 -0.118253045 0.16489215
0000a0 4d 87 72 3e 63 38 cb bd 7e ea 9d be 6b 14 43 3e
       0.23684426 -0.09922864 -0.30842966 0.19050758
0000b0 26 88 ad 3d b2 21 a6 3e 1d e8 19 3e 77 64 98 be
       0.08473234 0.32447582 0.1502995 -0.2976415
0000c0 a4 18 39 3e 2b c5 b5 bd 9e 23 0e 3e 5d c9 1f be
       0.18075806 -0.088754974 0.13880774 -0.15604158
0000d0 68 53 44 be 91 ba 70 3e 1c 86 62 3e 26 d8 03 be
       -0.19172442 0.2350867 0.22121471 -0.12875423
0000e0 0a d4 bb bd cf 5e 77 bd c5 84 5c be b0 3f 5f bd
       -0.091713026 -0.06039315 -0.21535023 -0.054504097
0000f0 c1 ca 82 be 88 52 4c be 25 b4 29 3e 92 df 9a be
       -0.25545314 -0.19953358 0.16572626 -0.30248696
000100 6b ac 6c 3e dd 2a c1 3b 17 b2 6a be cf cb 43 bd
       0.23112647 0.0058950023 -0.22919498 -0.04780179
000110 29 da 78 be 4e 49 92 bb e7 fc b7 3d b0 de a8 be
       -0.24301971 -0.004464305 0.08983784 -0.32982397
000120 98 f8 11 bd 05 77 2e 3e 17 f0 8d bd ac 0a 89 3e
       -0.035637468 0.1703759 -0.06930559 0.26765954
000130 28 c9 d0 bd 2e df 06 3d b5 1c 1f 3e 63 87 f6 bd
       -0.101946175 0.032927684 0.15538295 -0.12037542
000140 e4 9e 7c be a9 18 5b 3e 12 c4 97 3e 63 4e f1 bd
       -0.24669987 0.21396126 0.29641777 -0.11782529
000150 30 36 c9 bd d9 40 75 3d 86 f3 7c 3d e8 26 04 be
       -0.098247886 0.059876297 0.06175568 -0.12905467
000160 f5 62 3f 3e 00 87 4d be ff 32 1d 3e 9d 42 0e 3c
       0.18690093 -0.2007103 0.15351485 0.008682874
000170 58 93 83 3e 1e 95 51 3e f7 fa a7 bb 6e a5 8a be
       0.25698352 0.2046704 -0.005126353 -0.27079338
000180 e4 38 ea bd 23 44 88 3e 95 16 32 3e 8a 6f 47 bd
       -0.11436632 0.26614484 0.17391427 -0.048690356
000190 2d a8 91 be 60 90 5b be 94 40 01 be be a4 4f be
       -0.2844862 -0.21441793 -0.12622291 -0.20277688
0001a0 6c 21 1b 3e 08 dd 93 be 24 c8 2b 3d a9 a4 12 3e
       0.15149468 -0.2887957 0.041938916 0.14320625
0001b0 84 71 21 3e e7 b2 00 3e 88 22 96 be 34 90 b6 bd
       0.15765959 0.12568246 -0.2932322 -0.08914223
0001c0 69 2d c0 3d 92 54 d5 3d 6c d1 c0 3c 2f 60 97 3e
       0.09383661 0.10416521 0.02353736 0.2956557
0001d0 35 cb 93 3e aa 61 6f 3e bc 17 c2 bd ec b0 27 be
       0.28865972 0.233771 -0.09477183 -0.16376084
0001e0 e5 d8 ab 3e 92 b2 c4 3d 14 8b 3b be dd 4d 10 3c
       0.33563915 0.09604372 -0.18314773 0.008807627
0001f0 51 12 31 be 76 42 0d be 8f b0 23 3e e0 2d 8a 3e
       -0.17292143 -0.13794884 0.1598532 0.26988125
000200 ad 97 b1 3d b9 ed 3a 3e fd 0f 48 3e 24 5e 4b 3e
       0.08671508 0.18254746 0.19537349 0.1986013
000210 ae 76 83 3d aa 7a 5b 3e 77 cd f0 bd bc 2f 32 3d
       0.06419121 0.21433511 -0.11757939 0.043502554
000220 20 df 26 3e 2b a9 33 3e e8 7a 87 bd fa bf 44 3d
       0.16296053 0.17545001 -0.066152394 0.048034646
000230 d6 d2 a5 3e a8 6d 86 3e 94 41 7b 3e e6 2a 88 be
       0.32387418 0.26255536 0.24536735 -0.2659523
000240 36 df 55 be 14 61 df 3d 1a d6 ae bd e7 8b 5b 3c
       -0.2088593 0.10907188 -0.085369304 0.013400055
000250 0e c4 30 3e 4d cc 02 be bd 24 7d bd d1 f8 a4 be
       0.17262289 -0.12773247 -0.061802614 -0.32221082
000260 72 4c 9a 3e 51 e2 6a be 32 45 19 3d 44 c3 3e be
       0.30136448 -0.22937895 0.037419505 -0.18629175
000270 9d e4 9a 3e e6 24 81 3e 8c 3f 94 3e dc 06 8a be
       0.30252543 0.25223464 0.28954732 -0.26958358
000280 8e 39 9e 3e 97 ca 9b be 91 8d ac 3e 93 e3 8e bd
       0.30903286 -0.30428 0.33701757 -0.06977
000290 a3 c5 97 3e 79 26 77 be 28 53 7c 3e 39 d1 d5 3d
       0.29642972 -0.2413577 0.24641097 0.10440297
0002a0 11 42 a6 be a3 80 30 be 5b 59 39 3e 9a 2e 2d 3e
       -0.3247228 -0.17236571 0.18100493 0.16912308
0002b0 9d 53 90 3e d7 14 94 be 70 83 0c 3e 63 cb f7 3d
       0.28188792 -0.2892215 0.13722014 0.1209934
0002c0 e3 6e 03 be 4c d5 0d be 59 bc 08 be 43 ec 21 3e
       -0.12835269 -0.13850898 -0.13353099 0.15812783
0002d0 2d 36 4b 3e a1 7b 5b 3e 83 06 bd 3d 1f 19 9e be
       0.19844885 0.2143388 0.09229758 -0.3087854
0002e0 68 2d 92 3e ce ac 74 be 7e 4c 28 bd 67 f5 37 bd
       0.28550267 -0.23894045 -0.041088574 -0.04491177
0002f0 96 c5 32 3e 73 c6 12 be 17 9e af 3d 09 93 ae 3c
       0.17458186 -0.14333515 0.08575075 0.021310346
000300 f3 1f 42 3c 5a af 97 be a8 3f a5 3e b0 db 87 be
       0.011848438 -0.2962597 0.32275128 -0.26534796
000310 b5 77 2f 3e a5 0e a4 3d 7f 4e 42 bd 2e 77 9c be
       0.17135508 0.08010606 -0.04743814 -0.30559677
000320 04 a4 1d be 35 4c a7 3e 7a c7 43 3e df 06 65 be
       -0.15394598 0.3267533 0.19119063 -0.22365902
000330 34 98 3b 3e 2b 1d 11 be 1a b0 0f 3e 6d f9 58 be
       0.1831978 -0.14171283 0.14032021 -0.21188898
000340 57 2b 9f bc 80 5d a6 3e c8 b5 5c 3e 20 29 6f be
       -0.019429846 0.3249321 0.21553719 -0.23355532
000350 a6 8a 19 3e ec 5e ac 3d 32 33 27 3e d2 f3 44 3e
       0.14994296 0.084165424 0.16328123 0.19233635
000360 d4 bf 10 bc 88 58 9c be c8 ec f2 bd f1 17 69 3d
       -0.008834798 -0.30536294 -0.11861569 0.056907598
000370 ab fe 97 be 9d c2 20 bc 96 a9 a4 3e fe 5a 99 be
       -0.29686484 -0.009812024 0.32160634 -0.29952234
000380 1a ea 7b bd 68 0a 81 3e 59 ab 79 3e 63 88 bb 3d
       -0.061502554 0.25203252 0.2438177 0.09156873
000390 09 fc 09 3d 84 bb 99 3e 8e cb 0e 3d a0 b0 68 bd
       0.033687625 0.30025876 0.034862094 -0.056809068
0003a0 b5 b9 79 bc 38 cc 25 3e 5d bb 2c 3e f0 56 a5 3e
       -0.01524203 0.16191185 0.16868348 0.3229289
0003b0 82 f1 d3 3d e6 f3 64 bc cf e7 9c be 14 35 03 3e
       0.10348798 -0.013974166 -0.30645606 0.12813216
0003c0 b1 31 82 3d e2 d8 46 3d a4 ac a5 3e ec 02 47 3e
       0.06357134 0.04854668 0.32358277 0.19434708
0003d0 71 6d 56 be b3 52 99 3e e8 bc 51 be 6e 0c b4 bd
       -0.20940186 0.29945907 -0.20482218 -0.08791433
0003e0 a9 9b 4e be 4d 31 8c 3b 98 cd a2 3e aa 17 8b be
       -0.20176567 0.004278338 0.3179748 -0.27166492
0003f0 c1 21 74 3c ce c7 a3 3e e4 c7 50 3e 90 8a 96 3e
       0.014900626 0.31988376 0.20388752 0.2940259

fc1.bias f4 [256]
000000 3b 5d 99 3d 77 71 93 be 09 fc 86 3e 3f a3 e2 bd
       0.074884854 -0.28797504 0.26364163 -0.11066293
000010 01 e6 9c be 0f f1 aa 3e 22 01 7e be c5 6c c9 3c
       -0.3064423 0.33387038 -0.2480512 0.024587998
000020 80 72 98 3e eb 9c 9e be 6f 3a e9 3d 58 a5 3b 3e
       0.29774857 -0.30979094 0.113880984 0.18324792
000030 56 6b 87 be 88 0d a1 bd 01 ea 3b 3e 95 f4 2f 3e
       -0.26449078 -0.07863909 0.18350984 0.17183144
000040 84 83 ae 3d c3 87 67 3d b0 57 8d 3e 6f 07 9d be
       0.08521178 0.056525957 0.27605963 -0.30669734
000050 46 6b 85 3d d9 3e 5b be 2b 04 0e 3e d3 f7 1b be
       0.065146014 -0.21410693 0.13868777 -0.15231256
000060 46 0c 19 3e 3b 70 94 be a7 70 b9 3d 25 22 44 bd
       0.14946088 -0.28991875 0.0905469 -0.047884125
000070 89 00 3a 3e 65 6b c6 bd 12 7f b0 bd 3d 3e fb bc
       0.18164267 -0.09688453 -0.08617987 -0.030669326
000080 f3 8f 77 3e 0e 5f 8e 3e 54 cb 73 be 80 f3 24 3b
       0.24176006 0.27806896 -0.23808032 0.0025169551
000090 23 e4 d5 bd 35 38 b7 bd 84 87 5a 3c aa 8d 83 3e
       -0.10443904 -0.089462675 0.0133379735 0.2569402
0000a0 20 8a 5b bd 69 05 91 3e 2d 18 94 3d b1 0f 77 3c
       -0.053598523 0.2832444 0.07231174 0.015079425
0000b0 d2 d9 31 be 46 40 c5 bd cb 79 95 3d 54 1c 65 be
       -0.17368248 -0.096314 0.07298621 -0.22374088
0000c0 71 1d c3 3d 03 44 98 3e 93 5c 59 be 06 f7 1b 3e
       0.095271 0.2973939 -0.2122672 0.1523095
0000d0 2b 22 90 be 66 e3 98 3e 91 de 3b 3e 4c ad 92 be
       -0.28151068 0.2986099 0.18346621 -0.2864784
0000e0 6d 74 a1 bd 7f 5b 1d 3e 87 0d 83 bd c0 c6 63 3e
       -0.078835346 0.15366934 -0.063990645 0.22243786
0000f0 2b 99 84 be 09 f4 98 3e 17 60 99 be 82 09 9d 3d
       -0.25898108 0.29873684 -0.29956123 0.07667829
000100 58 19 5e 3e ac b4 40 be 1a 62 8c 3d 75 4a 78 be
       0.21689355 -0.18818921 0.06854649 -0.24247153
000110 76 59 96 3e 47 14 21 bd 01 41 97 3e 56 a5 99 3e
       0.29365128 -0.03932598 0.29541782 0.30008954
000120 27 65 74 3e c1 46 f1 bd a6 55 d2 3d 0e c6 8c be
       0.23866712 -0.11781073 0.102702424 -0.27494854
000130 7a a8 18 3d c9 0f 8a 3e 36 ad 63 3e df a6 0b 3e
       0.037270047 0.26965168 0.22234043 0.13637875
000140 81 5c ca 3d 55 a7 77 3d ea 9d a6 be f2 13 f3 3d
       0.09880925 0.060462315 -0.32542354 0.11869039
000150 a5 2c 9b 3e 58 f8 8e be 55 c4 f6 bc c6 cc 4b 3e
       0.303075 -0.27923846 -0.030122915 0.19902334
000160 8c 17 05 3e 3b 0d ad 3d d7 92 70 3e a4 4b 18 be
       0.12997264 0.08449789 0.23493515 -0.14872605
000170 69 4a 37 3e e8 c0 51 bd 7e 11 3c be 2b 11 34 bc
       0.17899479 -0.05120936 -0.18366048 -0.010990421
000180 7a 4b 00 3e b4 ad 75 be 78 ff 10 3e 69 69 3a be
       0.12528792 -0.23992044 0.14159954 -0.18204273
000190 2a cd 58 3e 93 f1 48 be a9 c6 2e 3c e5 0d 5f be
       0.21172014 -0.19623403 0.010667481 -0.21782644
0001a0 9c b5 5c 3e 4d 98 6d be 74 9a f6 bd 16 62 90 3e
       0.21553653 -0.2320263 -0.12041178 0.28199834
0001b0 e0 47 07 be 62 ab a7 3e 7e bd 19 be 9f 1e 82 3d
       -0.13211012 0.32747942 -0.15013692 0.06353497
0001c0 81 47 2c 3e 31 5d ea 3d 9e 46 97 be 9e 35 a9 3e
       0.16824152 0.11443556 -0.29546064 0.3304872
0001d0 3d 0b ee bc 74 06 88 be 71 f7 a6 3e 81 58 4d be
       -0.029058093 -0.26567423 0.32610658 -0.20053293
0001e0 a9 3a 7f 3e f9 60 d4 3d 0e 4d 5f be 8d 0e 07 be
       0.24924721 0.103700586 -0.21806738 -0.13189144
0001f0 ac c0 ec 3d 4e bc 70 bd 66 54 a4 3e f3 74 82 3e
       0.11560187 -0.05877333 0.3209564 0.2547985
000200 d8 d7 0d be 1b fe 8b be b4 e5 00 bd 0e 45 82 3e
       -0.13851869 -0.27342305 -0.031469062 0.2544331
000210 0a 6c a8 be 74 dd 9a be f2 ed 51 3e 91 f7 7e 3a
       -0.32894927 -0.3024708 0.20500925 0.00097262213
000220 2f 18 c6 3d ec f1 2a be de 21 0e 3e 01 93 8f 3e
       0.096725814 -0.16693848 0.13880107 0.28041843
000230 57 50 94 be 1b 9d 99 be ac 79 63 3e 0b 00 45 be
       -0.28967544 -0.30002674 0.22214383 -0.19238298
000240 51 d5 90 be 6c aa 13 3e 06 07 6e 3c 57 9a a3 3e
       -0.28287748 0.1442048 0.014528042 0.3195369
000250 1c 07 07 be 88 42 d1 3d 19 76 07 3e 08 90 93 be
       -0.13186306 0.10217768 0.13228644 -0.28820825
000260 fa f0 32 be 05 22 22 3e 6e d9 28 3e 27 7c 41 bd
       -0.17474738 0.1583329 0.16489193 -0.04723754
000270 57 4d 22 be ed bd 94 bd 91 d6 da bd 0b ff a7 be
       -0.15849815 -0.07262788 -0.106854565 -0.3281177
000280 1a a1 f5 bd b0 de 62 be 02 e7 6f be ce d2 8b be
       -0.11993618 -0.22155261 -0.23427966 -0.2730927
000290 43 1b c4 3d 65 fb 51 be 81 fb b8 bd 5e 19 a3 3e
       0.09575512 -0.20506056 -0.090323456 0.3185529
0002a0 95 9c 0b 3e 60 e9 11 3e 51 f4 84 3e 30 ec a5 3e
       0.1363395 0.14249182 0.2596765 0.3240676
0002b0 08 e9 1c 3e 73 83 7a 3e 98 46 75 be e6 4f b4 bc
       0.1532327 0.24464206 -0.2395271 -0.022010755
0002c0 a9 e5 d5 bb 6b 4f 59 be 02 b4 9e 3e 41 fa 0e 3e
       -0.0065276218 -0.21221702 0.3099671 0.13962652
0002d0 da a0 d6 bd a1 06 bf 3d 17 55 75 3e 85 b7 86 3e
       -0.10479899 0.09327436 0.2395824 0.2631189
0002e0 15 4c f4 3c 2f 63 fd bd bb 05 df bd 37 61 c3 3d
       0.029821435 -0.123724334 -0.10889765 0.09540027
0002f0 d7 35 23 3d ba 61 2c 3e 16 b3 04 3d f3 35 37 3e
       0.039846268 0.16834155 0.032397352 0.17891674
000300 e9 b4 15 3e c9 b3 9d 3e d3 c0 17 3e 2c 44 93 be
       0.14619793 0.30801228 0.1481965 -0.2876295
000310 8a cc 3f be 52 ff 80 be d1 03 95 be fc 20 62 3e
       -0.18730369 -0.25194794 -0.29104474 0.22082895
000320 1e db be 3d 90 4a ef bd 2f 80 13 3e 1a c0 05 be
       0.09319137 -0.116841435 0.14404367 -0.13061562
000330 aa 88 7b be ed 79 7c bd 07 b8 86 bd 8b c3 10 be
       -0.24563852 -0.061639715 -0.06578069 -0.14137094
000340 46 1b 90 3e d4 b2 0e bd 47 eb 2b be db af a2 3d
       0.28145808 -0.034838513 -0.1678897 0.07943698
000350 f3 8d 6a 3d bb e1 38 be 47 c4 36 be e7 e9 92 3e
       0.05726428 -0.1805486 -0.17848311 0.28694078
000360 79 42 3d be 6d 1f 87 3e 5d 3d 7a 3e d9 19 70 3e
       -0.18482389 0.26391163 0.2443747 0.2344736
000370 dc ef a5 be 6d db 86 3e d8 96 86 be 7f 7f 47 3e
       -0.3240956 0.26339284 -0.2628696 0.1948223
000380 e3 4a 4f 3e 16 2c 01 3e 44 a5 83 be 5f 58 52 be
       0.20243411 0.12614474 -0.25712025 -0.20541523
000390 75 6d da 3c 5c f1 9c be 75 d0 ab 3e 60 d5 48 be
       0.026663521 -0.30652893 0.33557478 -0.19612646
0003a0 43 69 12 be ba d5 13 3e 5e 8e 18 be b5 5d 8e be
       -0.14297967 0.14436999 -0.14898059 -0.27805868
0003b0 3b a8 8f bc d1 32 94 be ff 86 8b 3e af ea 6f bd
       -0.017536273 -0.2894502 0.2725143 -0.05857342
0003c0 e8 55 86 3e 7e df f1 3d 1c bb 99 be 87 0f 2b 3d
       0.26237416 0.11810206 -0.30025566 0.041762855
0003d0 86 d6 1b 3e 92 49 4a 3e 49 ec d3 3a cc d3 2b be
       0.15218553 0.19754627 0.0016168441 -0.16780013
0003e0 43 90 61 3e 2c 2c 5d be 16 05 2f be 8b 38 a8 3e
       0.22027688 -0.21598881 -0.17091784 0.3285564
0003f0 08 2d 14 3c 4e 8f b8 3d c5 40 37 3e ac 4c 8f 3e
       0.009043939 0.09011708 0.17895801 0.27988183

fc2.weight f4 [128, 256]
000000 61 fb 53 bc a2 67 04 bc b7 e2 4b 3d 0d d5 12 3d
       -0.012938351 -0.008081349 0.04977676 0.035847712
000010 48 1a 13 bd 17 d8 7e 3d b4 57 85 bd 33 b9 55 3d
       -0.035913736 0.062217798 -0.06510869 0.052178573
000020 3f cc fb 3c 8d 1a 18 bd 0e 17 3b bd db 3f 2a 3d
       0.03073704 -0.037134696 -0.045676284 0.041564804
000030 d1 8c c8 bc 69 bd 27 3d 72 ad 25 3c 81 46 9d bc
       -0.024481209 0.04095212 0.010112153 -0.019198658
000040 92 66 82 bb d2 69 4f bd 6a 57 6a bd 11 36 c2 3b
       -0.0039795125 -0.050638027 -0.05721227 0.0059268554
000050 5e 42 ee 3c ca 92 19 bd ca e5 1e bd 13 d9 66 3c
       0.02908438 -0.037493505 -0.038793363 0.01408984
000060 82 2d 88 bd bd 3f 82 3d 4c dd 1a 3d 92 dd bc bb
       -0.06649305 0.06359813 0.0378087 -0.005763718
000070 a6 1a 94 3c e6 fb ba 3c 46 9e a0 3c be d8 93 bb
       0.018079113 0.022825193 0.01960672 -0.0045119217
000080 ab a4 47 3d e2 1e 29 bd 6d 5f 4e bc c2 18 55 bd
       0.048741024 -0.041289218 -0.0125959935 -0.052025564
000090 4d 57 dd 3c 5a a4 cf 3c e4 c2 38 bd 53 ff c5 bb
       0.027019167 0.025346924 -0.045107737 -0.0060424
0000a0 58 76 60 3d 68 87 50 3d fb db 50 3d f7 d3 0e bc
       0.05480036 0.050910383 0.05099104 -0.008717529
0000b0 15 73 c5 bb ed 1d 2d bd 0b 64 25 bb c9 98 84 bd
       -0.0060256817 -0.042264868 -0.0025236632 -0.06474454
0000c0 ac 80 98 bc c5 e7 d8 bc b3 1c 9b bc 57 75 da bc
       -0.018616043 -0.026477704 -0.018934583 -0.02666728
0000d0 eb 77 55 3d 38 a4 50 3d 79 e7 76 bd 0a f7 88 3b
       0.052116316 0.05093786 -0.060279343 0.00417984
0000e0 e6 3c 05 bd 32 3b 4c bd 95 4e e3 3c 1a 10 8f 3c
       -0.03252878 -0.04986114 0.027747432 0.017463733
0000f0 0c d8 eb bc 33 4f 72 3c e6 5f 46 bd 3c 62 93 3b
       -0.028789543 0.01478939 -0.0484313 0.0044977944
000100 a5 cb b5 bb 09 bf 3b bc a7 39 58 bc d6 4a 7c bd
       -0.005547958 -0.011459121 -0.013197339 -0.061594807
000110 1c 17 de bc e7 2c d6 bc 82 75 ef bc 46 9f 28 bd
       -0.027110629 -0.026144458 -0.029230837 -0.04116752
000120 91 da 0d 3d 02 01 ec bc 2b 7e 70 bd 22 0f 17 bc
       0.03463227 -0.028809074 -0.058714073 -0.009219917
000130 1f 85 19 3d a8 0d 2f 3d 28 60 2e 3c 00 6a 1f bd
       0.03748047 0.042737633 0.010643043 -0.03891945
000140 3c 06 21 bd a3 af 0a bb c5 cc f4 bc 20 88 14 3d
       -0.039312586 -0.0021161817 -0.029882798 0.03626263
000150 80 bd fc bc 04 ff cf 3c 64 08 32 3d f4 1d c9 bc
       -0.03085208 0.025390156 0.043465033 -0.024550416
000160 a4 d9 fe bc 8c d9 ba 3c b7 f0 99 3c 42 55 5e bd
       -0.031109639 0.022808813 0.01879154 -0.054280527
000170 a8 a4 83 3c 01 97 ff 3c 8b ae 41 3d 75 5f 9a bc
       0.016069725 0.031199934 0.047285598 -0.018844346
000180 7f 91 b0 3c 91 c6 05 bc 5b f4 27 bd 8d 5e 65 bd
       0.021553753 -0.008165018 -0.04100452 -0.055998374
000190 43 64 68 bd 2e 75 3b 3d 75 e4 10 bd a6 b3 80 bd
       -0.056736242 0.045766048 -0.035374124 -0.06284265
0001a0 46 5e 94 3c dd a4 56 3d 97 f1 42 3d 23 63 39 3d
       0.01811136 0.05240332 0.04759368 0.04526056
0001b0 fc 9a 4e 3d 83 81 42 3d 52 e5 60 bd 63 a8 27 bd
       0.050440773 0.047486793 -0.054906197 -0.04093207
0001c0 21 84 4a bd 64 ea 4b bc 33 a0 91 bc 60 3b 6d 3d
       -0.049442414 -0.01244602 -0.017776584 0.057917953
0001d0 02 12 5c bd 08 f8 b9 3c 50 e9 39 bd e2 c3 16 3d
       -0.05372811 0.022701278 -0.04538852 0.036807902
0001e0 61 f5 c5 3c 14 1a 6c bc e1 75 86 3d 2b 63 69 3d
       0.024164857 -0.014410514 0.06565452 0.05697934
0001f0 8b e3 69 3c 73 17 05 3d b6 37 51 bc eb 4b 06 3d
       0.014275442 0.032493066 -0.01276963 0.032787245
000200 e7 23 6d 3d 19 ff 35 bd ac d7 9f bc 6c 7e 96 3c
       0.057895567 -0.044432733 -0.01951202 0.01837083
000210 eb a9 e9 3c e0 54 bc bc 14 e6 8f 3b e6 a0 8c 3c
       0.028523406 -0.02298969 0.004391441 0.017166566
000220 34 5d af 3c 37 55 1b 3d e4 86 13 bd 5d f0 e3 3c
       0.021406747 0.037923064 -0.036017314 0.027824575
000230 4f d4 3b bd 89 46 a5 3c 71 b1 7b 3d 77 6a a2 bc
       -0.04585677 0.020175235 0.06144852 -0.019826157
000240 44 16 0e 3c 1c 71 5f bd 99 f6 c1 3c ad 62 8a bd
       0.008672301 -0.05455123 0.023677157 -0.06757102
000250 2f cf 11 bc 2c 50 d3 3c e5 e3 c5 ba e9 f3 20 bd
       -0.008899494 0.025795065 -0.0015097825 -0.03929511
000260 72 09 26 bd dc 1e 5a 3d b1 7b 09 3d 7d 53 6f 3d
       -0.04053635 0.053252086 0.033565227 0.05842923
000270 92 20 0b bd 3e bc 68 bc 1a b1 84 bd 82 7e 18 bc
       -0.03396661 -0.014205037 -0.06479092 -0.009307506
000280 7d 29 4d bd 7b 82 6a bc f6 4a b3 bb 1b ed 5c bd
       -0.050088394 -0.0143133355 -0.0054715825 -0.05393706
000290 6f d5 3b 3d 41 ff 60 3d c5 74 12 3d 3d 30 31 bd
       0.045857843 0.05493093 0.03575589 -0.043258894
0002a0 14 c9 21 bd a0 84 26 3d 1a 13 91 3d 49 36 3c 3d
       -0.039498404 0.040653825 0.070837215 0.045950208
0002b0 28 d3 50 bd f0 b7 7f 3d 2a a9 c9 3c 0e 23 fa 3c
       -0.050982624 0.062431276 0.024616797 0.030534294
0002c0 27 d1 66 bd 75 ab 0b 3b ff e5 17 3d 46 14 60 3d
       -0.056351807 0.0021311913 0.037084576 0.054706834
0002d0 db 1a d4 3c 5e 98 37 bd 3b 26 36 3d e2 32 c6 3c
       0.025891712 -0.044823043 0.044470053 0.024194185
0002e0 ec da 4d bc 63 be 6e bb 6d 8b ed bb 51 77 45 3d
       -0.012564402 -0.0036429397 -0.007249287 0.048209492
0002f0 b6 cd b3 3c a2 40 60 3c f2 23 5d 3d a0 7c c8 ba
       0.021948677 0.013687285 0.05398936 -0.001529593
000300 23 49 80 bc 34 d5 f6 ba 58 e5 3a bd a0 66 70 bd
       -0.015659874 -0.001883185 -0.045628875 -0.05869162
000310 12 a7 96 bc 58 57 61 bc a3 04 76 bd e9 3c 04 bd
       -0.018390212 -0.0137537345 -0.060063016 -0.03228465
000320 c2 db 65 bd fe b0 49 bd 77 51 ed 3c 7b df be 3c
       -0.05611778 -0.04924106 0.02896951 0.023299923
000330 4c d0 3c bd dd 8d db bc 28 4c 4f bc f0 55 1d 3a
       -0.046097085 -0.026801044 -0.012652434 0.00060018804
000340 39 06 3c 3c 06 15 df bb 1c 5c 1d 3d af 43 35 3d
       0.011476093 -0.006807926 0.03841792 0.044254
000350 5d 03 16 bc 0a a0 00 bc 7c ec f1 bc 4d 73 54 bb
       -0.009156075 -0.007850656 -0.02953171 -0.0032417357
000360 05 e9 e6 bc fe 4c 67 bd 84 d6 56 3d c8 87 e9 3c
       -0.028187284 -0.05646991 0.05245067 0.028507128
000370 a0 b6 d8 3c cc 80 13 3d e8 4d c3 3b 2d 47 2a 3d
       0.02645427 0.036011502 0.005960215 0.041571785
000380 43 5f 0e bd 0b 27 3b ba f0 df bb bc 84 a3 96 bc
       -0.034758817 -0.0007139302 -0.02293393 -0.018388517
000390 61 55 83 3d f6 72 77 3d 9d 65 00 bd a1 96 40 3d
       0.06412769 0.06041237 -0.031346906 0.04701865
0003a0 35 3f ed 3c d2 54 3f 3d 33 d9 58 3d ab 51 a7 3c
       0.028960804 0.04671175 0.052941512 0.020424685
0003b0 d4 a1 0e bd 95 92 b5 bc 78 e9 6f bb dc d4 f2 3c
       -0.0348223 -0.022164622 -0.0036607664 0.029642515
0003c0 c5 81 0b 3c 05 30 1e bd 21 89 01 bd ad 36 c5 bc
       0.008514826 -0.038620014 -0.031624917 -0.024073923
0003d0 92 7c a7 bc e7 98 6a 3d 63 c3 23 bc 44 c3 c5 3c
       -0.020445142 0.057274725 -0.009995314 0.024140961
0003e0 94 fa fd bc 97 0c 57 3d a5 d8 35 3c b5 ca 5f bd
       -0.031003274 0.05250224 0.011099015 -0.054636676
0003f0 78 62 90 bc 85 a7 1f bd c3 71 19 bb a6 96 69 3d
       -0.017625079 -0.03897812 -0.0023413755 0.057028435

fc2.bias f4 [128]
000000 66 4c 82 3d b4 e7 22 bd 58 57 df 39 84 2f 07 3d
       0.06362228 -0.03977175 0.0004259895 0.0330043
000010 7c 9a 66 bd 21 ac 63 bd 8f 6c 38 3d 59 c1 6b bd
       -0.05629967 -0.055584077 0.045025405 -0.057557438
000020 08 5d 42 bd 90 7e 80 3d 46 1c df bc 2a ac 02 3d
       -0.047452003 0.0627414 -0.027235162 0.03190247
000030 50 67 c2 bb 01 ff 4c bd 33 7e db 3c b9 5d ad 3c
       -0.005932726 -0.05004788 0.026793575 0.021162855
000040 28 b3 4e 3d 19 8b c4 bc 0d 60 0a 3d 3f 94 9a 3c
       0.050463825 -0.023992108 0.033783007 0.018869517
000050 05 86 7e bb de 98 79 bd cd 56 83 3c d1 62 38 bd
       -0.0038837206 -0.0609368 0.0160326 -0.045016114
000060 a1 cc 7e bd 49 82 27 bc a3 a3 5c bd 8d 3b bc 3c
       -0.062206868 -0.0102239335 -0.053866994 0.022977615
000070 65 ca 7a 3d e3 41 65 bc bd c2 c2 39 4f a1 85 bc
       0.061228175 -0.013992759 0.00037147655 -0.01631227
000080 79 54 aa bc 9d 7b 14 bc 0e 9d 82 3d 75 81 25 3d
       -0.020792233 -0.009062675 0.06377612 0.040406663
000090 35 97 3d 3d 2e 23 e3 bc 3d b5 cd 3c ba 63 1a bc
       0.04628678 -0.027726736 0.025110835 -0.009423191
0000a0 93 e7 b6 ba bd dd 1e 3d 08 b3 5f bd 21 91 27 bd
       -0.0013954513 0.038785685 -0.054614097 -0.04090989
0000b0 e6 d0 30 3d 79 a8 b1 bc 41 26 0c 3b 14 7f 3f 3d
       0.04316797 -0.02168678 0.0021385106 0.04675205
0000c0 d7 78 74 3d 24 15 a8 3c 20 cd 64 3d fa 55 15 3d
       0.059685554 0.020517893 0.055859685 0.036458947
0000d0 08 d4 76 3d 6f 01 52 3c 36 94 80 bc 89 ed 39 bd
       0.060260803 0.012817725 -0.015695672 -0.045392547
0000e0 33 48 49 3c 62 b8 be ba 9a eb 1d bd f6 7f 64 bd
       0.01228528 -0.00145508 -0.038554765 -0.055786096
0000f0 bc c7 49 3d b5 cd a0 3b 05 c4 8c bc 5c 29 09 3d
       0.049262747 0.0049073347 -0.017183313 0.03348671
000100 bc 43 d0 bb 3f c7 3c bd c7 60 c6 3c ff 1a 50 bd
       -0.006355731 -0.046088453 0.024216069 -0.050806995
000110 28 65 7d 3b 7b 34 db bc d5 13 d3 3c 82 09 82 3c
       0.003866503 -0.026758423 0.025766293 0.015873674
000120 98 9c 3b bd 3b 6a b6 bc d4 a9 4d 3d cd 86 3a 3d
       -0.045803636 -0.022267452 0.05021079 0.045538712
000130 25 3b 0e bd 42 c5 ec bc 58 f7 22 bd ad 3c f6 bc
       -0.034724373 -0.028902654 -0.039786667 -0.03005823
000140 d0 28 2d bd 00 f8 7d bc 3a 0a c0 bc a5 8e 7e bd
       -0.04227525 -0.015501022 -0.023442376 -0.062147755
000150 24 3a 84 bc a3 e6 2a 3d 4c 31 bc bc fb 38 0f bd
       -0.016141005 0.04172386 -0.022972725 -0.03496645
000160 ae a4 75 3d e9 17 9e 3c dc b1 36 3d 67 5f f5 b9
       0.059971504 0.01929851 0.044603214 -0.00046801122
000170 53 0d 53 3d 20 53 1e bd c2 8d b3 bc 9c 95 04 bd
       0.05152638 -0.038653493 -0.021918181 -0.03236924
000180 ea 91 bb 3c c7 53 16 bd 02 5e 5e bd aa e0 32 bd
       0.022896726 -0.03670099 -0.05428887 -0.043671288
000190 17 b6 05 bd 26 05 1b bd ff 27 3d bd 03 8d e0 bc
       -0.032644358 -0.037846707 -0.04618072 -0.02741099
0001a0 d4 6d 6f bd d9 f7 c7 3c ab 57 83 3d 6c e7 32 3d
       -0.05845435 0.024410175 0.06413206 0.043677732
0001b0 75 df 2a bd 0b d6 c7 3c 9f d0 d5 3c d7 31 83 3d
       -0.04171701 0.024394056 0.026100455 0.064059906
0001c0 e0 fc 32 bd c2 3a 8a bc 20 ff 4e bc 61 33 f3 bc
       -0.04369819 -0.016873721 -0.012634069 -0.029687585
0001d0 f1 a9 34 bb 2f bc 51 3c 5a d3 60 3d 0e 90 34 bd
       -0.0027567113 0.012801214 0.05488906 -0.044082694
0001e0 05 f3 27 bd 70 9a a3 bc e2 56 92 bc cc 3c ce bc
       -0.041003246 -0.019971102 -0.017863695 -0.025175475
0001f0 06 83 5f 3d a0 04 e8 bc 4b 86 d9 bb 8c 8e d7 bc
       0.054568313 -0.028322518 -0.0066383234 -0.026313089

discrete.weight f4 [2, 128]
000000 4c 1a 38 bd e3 21 32 3d 71 7d 4f 3d ff d6 48 bd
       -0.044946954 0.04348935 0.05065674 -0.04903316
000010 de a4 2e 3d 89 dc 1b bb 91 2e a4 3d 57 bc 57 3d
       0.0426377 -0.0023782572 0.08016694 0.05266985
000020 65 a2 b4 3d fa 7c 88 bd 92 9f 67 bc cb 24 a9 3d
       0.08820037 -0.066644624 -0.014137166 0.08258971
000030 a4 00 1e bc 21 14 85 3d 90 76 3d 3c 8c af 7e bd
       -0.009643707 0.0649798 0.011563912 -0.062179133
000040 9c 1d fe 3c 16 10 64 3d 56 1f 11 bd 07 7a 34 bc
       0.031019978 0.055679403 -0.035430275 -0.011015422
000050 ec 3d 93 3d fb 8b 6f 3c 71 76 8a 3d a0 35 a2 3d
       0.07189545 0.014620776 0.06760872 0.079203844
000060 17 a1 6c b9 b1 99 32 bd 26 98 04 3a 36 89 20 3d
       -0.00022566725 -0.043603603 0.0005058072 0.039193355
000070 c8 37 73 3b b7 fc 9e 3d ab a6 90 3d 36 66 18 bc
       0.0037112106 0.07763045 0.070630394 -0.009301713
000080 f6 f9 62 bd d1 2b 59 bd 0d 0c 3c bc 2e ab 94 3b
       -0.055414163 -0.053020302 -0.0114774825 0.004537008
000090 68 2c 4b bb c6 d3 80 bc 9c ff 89 3d c4 93 32 3d
       -0.003100181 -0.015725981 0.06738207 0.04359795
0000a0 48 79 fc 3c 8a 35 8b bd e8 c6 9a 3d 09 40 0c bd
       0.03081955 -0.06797321 0.075574696 -0.034240756
0000b0 c6 1f 19 3d b6 e5 43 3d d0 ba 0d bd 05 6c 9a 3d
       0.037383817 0.04782649 -0.034601986 0.07540134
0000c0 15 e5 30 bd 19 21 83 3c 15 47 d5 3c 05 48 ce bc
       -0.04318722 0.016006993 0.026034871 -0.025180826
0000d0 75 86 97 bc 7d cc 1b bd 2d d8 59 3d 95 fe 88 bd
       -0.018496731 -0.038036812 0.053184677 -0.06689183
0000e0 55 e6 16 bd 75 eb 38 3d c5 11 d2 3c c1 1e 9b 3d
       -0.036840755 0.045146424 0.025643239 0.07574225
0000f0 eb 19 8f bd af d8 9b 3d cf b8 f5 bc 2a 7e 30 3c
       -0.06987365 0.076096885 -0.02999535 0.010772267
000100 5f df 5f 3c 8e f5 56 bd 15 50 59 bd f6 78 94 bd
       0.013664096 -0.052480273 -0.053054888 -0.07249634
000110 5a 12 ff bc db 0b ba 3c 0a 63 09 bd 28 20 83 bd
       -0.03113668 0.022710731 -0.033541717 -0.06402618
000120 95 4e ac bc f3 0b 00 bc e4 cb 11 3d cb 5e 80 bb
       -0.021033565 -0.007815349 0.035594836 -0.00391755
000130 85 73 03 3c 8e 6d 33 3d 94 dd 12 3d ae 99 d0 3c
       0.0080231475 0.04380565 0.035855845 0.025463905
000140 14 2e 93 3d f4 73 a3 bc 79 fe 06 bd 78 1d 92 3d
       0.07186523 -0.019952752 -0.032957528 0.07134527
000150 66 4c 1a 3d 5f 9e 13 bc 7d e7 7f 3d 12 d3 8a 3c
       0.037670515 -0.009009927 0.062476624 0.01694635
000160 03 ce 09 3d d8 10 51 bd 9c b7 51 bd fe 15 8a bd
       0.033643734 -0.051041454 -0.051200494 -0.06742476
000170 89 f2 66 bd 85 b4 64 3d bd c5 5a 3d 75 20 d3 bb
       -0.056383643 0.05583622 0.053411234 -0.006443078
000180 19 b9 9c bd 5c ac 89 bd 11 3b 65 bd 0d 39 20 3d
       -0.07652492 -0.06722328 -0.055964533 0.039116908
000190 21 f4 85 3d 59 bf f4 3c 95 59 bc bc 86 3a 87 bd
       0.065407045 0.029876398 -0.022991935 -0.06602959
0001a0 4d dc 88 bc 78 e3 4d bd 9a f6 7c 3c 24 22 54 bd
       -0.01670661 -0.05026576 0.015439654 -0.05179037
0001b0 d9 d8 45 bd 9b 3b 73 bd b1 5d 1d bd a4 bb 15 3c
       -0.048302505 -0.059383016 -0.03841943 0.009138975
0001c0 5d 3f ff bb 2f bf 49 3d 45 60 34 3d 06 f9 03 3d
       -0.007789536 0.049254593 0.044037122 0.03221991
0001d0 28 67 5b bd a5 07 47 3d ec d0 71 bd b0 69 08 bd
       -0.053565174 0.048591275 -0.059037134 -0.033303916
0001e0 13 1b a4 3d 5d cb b5 3c 08 9e 87 3d 37 0d 94 3b
       0.080129765 0.022191698 0.06621939 0.004518177
0001f0 a7 76 ac ba 93 c9 a6 bc 69 42 17 3b 6a db 12 3d
       -0.001315792 -0.02035979 0.0023080355 0.03585378
000200 52 b4 8b 3c fe 90 2e 3d 8c 09 62 bd c6 96 25 bc
       0.017053757 0.042618744 -0.055184886 -0.010106748
000210 77 24 98 bb 0c 51 3d bd fa 24 b1 3c fd 92 8f 3c
       -0.004643019 -0.04621987 0.021624077 0.017526144
000220 e3 75 08 bc 7b 48 3f bc e8 3e 73 bd 7c 54 86 bd
       -0.008328888 -0.0116749955 -0.059386164 -0.06559083
000230 ad e3 2a 3d bf 52 e6 3c 23 4e 50 bd 5c d9 57 bd
       0.041721035 0.028115628 -0.050855767 -0.052697524
000240 17 c5 1f 3d 21 ef 08 3d 6c 6a 9e bd 8a 55 7a 3d
       0.03900632 0.033431176 -0.07735142 0.061116733
000250 67 59 ca bd 5a bc 94 3d b7 85 ca bc 85 f3 99 3d
       -0.098803334 0.07262488 -0.024721963 0.07517151
000260 86 90 93 bc ce 37 1b 3c 7b 1a a5 3d 4e af 9c bd
       -0.01801325 0.009473754 0.080616914 -0.07650624
000270 4b 50 6d bd e7 ee b3 bd b9 06 52 bd dc 7c 1a bd
       -0.0579379 -0.087858014 -0.051275942 -0.03771673
000280 eb d9 9e bd f5 57 02 3c 6f ba cd 3b 9a d2 91 3d
       -0.07756408 0.007955541 0.006278328 0.07120247
000290 63 d8 88 bd 05 5a 52 bd b1 31 fe bc 31 78 e6 bc
       -0.066818975 -0.05135538 -0.031029554 -0.028133484
0002a0 71 13 49 bc 19 98 99 3c 86 46 b8 bc 16 4e 2c 3d
       -0.012272702 0.018749284 -0.022494566 0.042066656
0002b0 93 d7 4c bd de d3 80 3d 6c 77 2d bd 32 61 c2 bd
       -0.050010275 0.062904105 -0.042350218 -0.09491195
0002c0 39 26 21 bd 55 aa bd bd 03 5d 88 3c 4b fa 85 bc
       -0.039343093 -0.09261004 0.016645914 -0.0163547
0002d0 aa 35 60 3c 2d df 6b 3c 50 cd ec bc 65 87 eb bc
       0.0136846695 0.014396471 -0.028906494 -0.028751085
0002e0 a8 a6 81 bd 69 88 8c 3d 06 c2 fa bc 2e ab 6a bc
       -0.06330615 0.06861956 -0.030610096 -0.014323039
0002f0 39 f7 76 3d e6 13 84 3d aa f8 89 3d ba 5f a7 3c
       0.060294364 0.06449108 0.06736882 0.020431388
000300 f4 20 d2 3a bb f6 98 3d 3f ca 80 bd 6f 06 95 bd
       0.0016031549 0.07468935 -0.062885754 -0.07276618
000310 73 31 fa bc c2 8d e8 bc fa e0 2c 3d db 4b fe 3c
       -0.030541157 -0.028387908 0.042206742 0.03104203
000320 54 b1 15 3c ec 87 cc 3c 50 86 bf 3b 41 5a b5 bc
       0.009136517 0.024967156 0.0058448687 -0.022137763
000330 7c ed 59 bc 80 38 93 3d 8b 60 14 3d 72 8d a9 bc
       -0.01330125 0.07188511 0.036224883 -0.02069733
000340 2c c4 9c bd 03 82 7b 3d fe 96 81 3d 0e 0e 87 3d
       -0.07654604 0.061403286 0.063276276 0.065944776
000350 ba 26 79 3d ee 92 b3 bd 1c 14 5d bc dd 30 4f bd
       0.06082795 -0.08768259 -0.013493564 -0.05058371
000360 e6 8c 83 bd c6 34 e5 3c 13 94 a6 3c ab cf 25 bd
       -0.064233586 0.027979266 0.02033428 -0.04048125
000370 86 3d 26 3d 6f 7b 21 3c e7 d4 68 3d 75 73 b6 bd
       0.040586017 0.009856089 0.056843664 -0.089087404
000380 f3 82 f5 3c cb 63 9f bb 61 d0 45 3d b2 97 7d bb
       0.029969668 -0.004864191 0.04829443 -0.0038695154
000390 8f 7f 96 bc 9b 9e 94 3d e3 a5 c6 3c d0 89 c3 bc
       -0.018371372 0.07256814 0.024249023 -0.023869425
0003a0 ce dc 5f 3d 9b d0 5c bd ad 50 b3 bd cf fd 40 3d
       0.054653935 -0.05390988 -0.08755622 0.04711705
0003b0 c1 92 5d 3d 57 15 9b 3c 42 ba 40 bd 96 60 00 bd
       0.054095034 0.018931074 -0.04705263 -0.03134211
0003c0 18 8b c9 bc f5 39 66 bd a0 b1 1c bd da d5 3b bd
       -0.024602458 -0.056207616 -0.038255334 -0.04585824
0003d0 dd 0d 55 3d d3 88 7a bd 9c cd 1b 3c 96 a4 aa 3d
       0.052015174 -0.061165642 0.00950947 0.083321735
0003e0 e2 81 13 3d 38 a4 54 bd 8f b3 14 3d 36 d8 76 3d
       0.036012538 -0.051914424 0.036304053 0.06026479
0003f0 c9 44 12 bc de 0a 97 3c af 13 0b bd f4 84 fc bc
       -0.0089275325 0.018437799 -0.03395432 -0.030825116

discrete.bias f4 [2]
000000 4c f3 08 3c 45 2f 07 39
       0.008358788 0.00012892213
