s10lre4e3CCM_MADRL_MEC/model/50-800-16-20-80/PDQN/6-discrete_actors.pth (torch, 145127 bytes, 6 tensors)

fc1.weight f4 [256, 9]
-0.056974802 0.08947105 -0.21818693 -0.19086327 -0.29762995 -0.24389495 -0.19907014 0.111036345
-0.20176025 0.117296875 0.07002754 -0.26281556 -0.27902895 0.28513712 -0.25107774 -0.302336
0.1291951 -0.21208896 -0.12071157 0.08253875 0.22202106 0.25123385 0.08022002 0.04749772
-0.13442092 -0.2434566 0.0076037934 -0.21978997 -0.15753625 -0.02348 -0.26905608 0.11827377
0.32228586 -0.1952232 0.19392267 0.25626892 -0.14879917 0.22258614 0.09425903 0.21799587
0.29531687 -0.2309098 -0.049826223 0.24856858 -0.16739056 -0.21354946 0.33334634 0.07752248
-0.09130353 0.09056619 -0.32301986 0.1682967 -0.11702992 -0.03912035 -0.27868468 -0.2761564
0.18136081 0.0057533053 0.22720048 -0.030137308 0.08668234 -0.2928536 -0.22581944 0.040125035
0.30912822 -0.009877875 0.22169833 -0.11205974 -0.26996994 -0.065001756 -0.30164197 0.12362328
-0.063004285 -0.20776756 -0.1757375 -0.15525885 -0.2203737 0.15307754 0.10616483 0.26812416
0.1681753 0.038585607 0.063336566 -0.14644395 0.0013516954 -0.078820504 0.28128082 0.02568773
-0.18155117 -0.010538396 0.3111634 0.21911578 -0.15326609 0.023077851 -0.3214686 0.31841284
-0.3147068 0.22435737 -0.23887175 0.1446305 0.31834254 0.12658985 0.04189334 0.0820084
0.11719534 0.1611554 0.016695574 -0.297365 -0.10158862 0.005108588 0.0479175 0.12503366
0.2380095 -0.037190337 0.07492814 -0.0009959011 -0.11002099 0.1703315 0.3004048 0.14510901
0.31900027 0.19704945 -0.04616879 -0.005977409 0.024554184 0.0031757497 -0.29793784 -0.13237016
0.0867422 0.08910415 0.19408302 -0.31534284 0.13609995 0.084934905 -0.31552345 0.018542074
0.010473367 0.11916786 -0.29123712 -0.18684956 0.31131873 -0.20669568 0.31388047 -0.2186066
-0.116090015 -0.14958438 -0.27840188 -0.19629982 -0.27113235 -0.23523235 0.0055575483 0.0059795296
0.019521935 0.17981979 -0.18230769 0.09954354 0.07555567 0.18592006 0.12010428 0.012189497
-0.18104814 0.33604264 0.18181084 -0.13014771 0.1199745 0.21533436 -0.29074022 0.30676702
0.06163359 0.21211089 0.039620776 -0.16041885 0.24782714 -0.097360775 -0.09448987 -0.07652648
-0.07987867 -0.20703839 -0.12712905 0.076983735 0.30521554 0.095339514 -0.10918415 -0.29114026
0.18425167 -0.3102191 0.31955644 0.11919949 0.07371229 0.105355084 -0.3117688 -0.33014715
0.25248381 -0.29035106 -0.056597285 0.14985183 0.11856412 0.03397786 -0.12300789 -0.07236281
-0.11175102 0.32823858 -0.011221781 -0.19723776 -0.21496853 0.06069175 0.16362359 0.054672513
0.28835902 -0.29135925 -0.33045626 0.14715986 0.25543955 0.10651762 -0.2204877 -0.32251313
0.20789732 -0.064578764 0.27521855 0.012421757 0.20077752 -0.2761235 -0.2814927 -0.14023823
0.16349818 0.25732303 0.20058142 -0.21855202 -0.0890378 -0.10254139 -0.06816103 -0.32076976
0.26554015 -0.082036376 -0.2566552 -0.029561503 -0.24365859 0.25906137 0.13933724 -0.26811612
-0.10346317 0.12371015 -0.10253922 -0.031773217 -0.1971349 0.19323857 0.0032452634 -0.2100121
-0.22116674 -0.0407967 -0.105972484 -0.17513436 0.007862206 0.23613928 0.13943748 -0.09768409
00000000: 695e 69bd 993c b73d 656c 5fbe a971 43be
00000010: f462 98be 99bf 79be 0bd9 4bbe 0667 e33d
00000020: 3d9a 4ebe 5839 f03d 996a 8f3d c38f 86be
00000030: e2dc 8ebe 7efd 913e 438d 80be c9cb 9abe
00000040: b84b 043e d92d 59be a137 f7bd 130a a93d
00000050: 7d59 633e b9a1 803e 654a a43d f88c 423d
00000060: a3a5 09be b04c 79be 3e29 f93b 9f10 61be
00000070: 2f51 21be 2159 c0bc b8c1 89be 8539 f23d
00000080: a702 a53e 97e8 47be aa93 463e ae35 833e
00000090: cf5e 18be 9fed 633e e10a c13d 4f3a 5f3e
000000a0: c633 973e 9e73 6cbe 9516 4cbd c388 7e3e
000000b0: 6e68 2bbe b6ac 5abe 5fac aa3e 1bc4 9e3d
000000c0: 58fd babd c47a b93d dc62 a5be f855 2c3e
000000d0: 62ad efbd a93c 20bd c2af 8ebe 5f64 8dbe
000000e0: a6b6 393e 3986 bc3b 3ea7 683e 84e2 f6bc
000000f0: 8386 b13d e8f0 95be 363d 67be 265a 243d
00000100: 0e46 9e3e d0d6 21bc e304 633e 947f e5bd
00000110: 8039 8abe a41f 85bd d170 9abe 342e fd3d
00000120: 6408 81bd 05c1 54be 88f4 33be 2dfc 1ebe
00000130: a5a9 61be 5cc0 1c3e f26c d93d 9247 893e
00000140: 2536 2c3e f10b 1e3d 9ab6 813d 67f5 15be
00000150: 5f2b b13a a56c a1bd 0a04 903e 136f d23c
00000160: 8de8 39be 3da9 2cbc cf50 9f3e e35f 603e
00000170: c9f1 1cbe c30d bd3c 8897 a4be 0207 a33e
00000180: 4021 a1be f0bd 653e cc9a 74be 051a 143e
00000190: cbfd a23e c5a0 013e 5a98 2b3d 05f4 a73d
000001a0: 1c04 f03d ec05 253e 28c5 883c 3a40 98be
000001b0: b20d d0bd f165 a73b 2445 443d d308 003e
000001c0: c3b8 733e e554 18bd ed73 993d e588 82ba
000001d0: af52 e1bd 616b 2e3e a8ce 993e 7597 143e
000001e0: 0154 a33e 55c7 493e 7c1b 3dbd 24de c3bb
000001f0: db25 c93c 3d20 503b 4f8b 98be 0b8c 07be
00000200: e5a5 b13d 3d7c b63d b3bd 463e 9e74 a1be
00000210: c95d 0b3e 5af2 ad3d 4a8c a1be 8ce5 973c
00000220: 7c98 2b3c 470e f43d 081d 95be 7e55 3fbe
00000230: 2b65 9f3e 08a8 53be f1b4 a03e 69da 5fbe
00000240: 9ac0 edbd a62c 19be b18a 8ebe d202 49be
00000250: dcd1 8abe c0e0 70be 181c b63b eeef c33b
00000260: 77ec 9f3c ae22 383e deae 3abe 7cdd cb3d
00000270: eebc 9a3d d461 3e3e 3cf9 f53d 75b6 473c
00000280: af64 39be c80d ac3e 9f2c 3a3e 7145 05be
00000290: 31b5 f53d 9c80 5c3e e7db 94be 9110 9d3e
000002a0: 8173 7c3d 9933 593e 6549 223d d744 24be
000002b0: 66c6 7d3e 1665 c7bd e883 c1bd eab9 9cbd
000002c0: 6e97 a3bd df01 54be 1e2e 02be a6a9 9d3d
000002d0: 3645 9c3e 5d41 c33d f19b dfbd 5610 95be
000002e0: 78ac 3c3e 0ad5 9ebe e79c a33e dd1e f43d
000002f0: 78f6 963d 68c4 d73d 29a0 9fbe 0c09 a9be
00000300: 8f45 813e e5a8 94be 8ed2 67bd c272 193e
00000310: bfd1 f23d 5e2c 0b3d 90eb fbbd f432 94bd
00000320: b8dd e4bd e30e a83e 90db 37bc b2f8 49be
00000330: b620 5cbe ea97 783d f18c 273e 49f0 5f3d
00000340: cba3 933e 0a2d 95be 9031 a9be 13b1 163e
00000350: f9c8 823e e925 da3d 87c7 61be 7120 a5be
00000360: 09e3 543e df41 84bd 72e9 8c3e a084 4b3c
00000370: 9f98 4d3e 0f60 8dbe d01f 90be 9c9a 0fbe
00000380: 116c 273e d8bf 833e 3765 4d3e 1acc 5fbe
00000390: 7359 b6bd 3801 d2bd 0398 8bbd ef3b a4be
000003a0: e1f4 873e b002 a8bd 4f68 83be f72a f2bc
000003b0: a381 79be b1a3 843e 6cae 0e3e 8446 89be
000003c0: 80e4 d3bd bf5b fd3d 1500 d2bd a224 02bd
000003d0: bbdd 49be 55e0 453e 7cae 543b 690d 57be
000003e0: 8979 62be 711a 27bd 1a08 d9bd 6c56 33be
000003f0: 7bd0 003c 7fce 713e b3c8 0e3e 990e c8bd

fc1.bias f4 [256]
-0.2406677 -0.021879064 0.00943641 0.028365867 0.1128968 -0.2692963 0.1957307 0.24312523
0.098355554 0.24539666 0.25012612 0.025813477 -0.034215618 -0.032051347 0.2336514 0.2691924
0.08971886 -0.25446233 -0.23749986 0.19756265 0.15854183 -0.28176087 0.32210562 0.06356121
-0.031177964 -0.18503785 0.13193572 0.031302173 -0.16101749 0.08404526 -0.23404275 0.018361798
0.030910818 0.34426636 -0.3310471 -0.12525956 -0.0010063256 0.26843527 -0.22430144 0.06543268
-0.31383085 -0.13794947 0.013477427 0.26834545 0.07185934 -0.20278092 0.22983882 -0.19579838
-0.15070929 0.28631702 -0.10662151 0.13595806 0.287101 -0.037511278 -0.32326868 0.22132844
-0.19394892 -0.09996486 0.28026253 0.04684795 0.2396955 0.1490312 -0.06274554 -0.04109071
-0.1438248 0.1338905 -0.14377281 0.23456545 -0.2691156 -0.13112794 -0.06602064 -0.0051100757
0.29477087 -0.025223505 -0.12329136 -0.09708224 0.14621468 -0.15006362 0.15472727 0.058379818
0.20863706 0.2017491 -0.03449151 0.315906 0.27474797 0.2260335 -0.047866885 0.0072444356
-0.3075675 -0.028715286 -0.05027747 0.022738853 -0.12503283 0.09230858 -0.09318446 0.31588575
0.08755493 -0.28465003 0.26295507 0.2761761 0.17779857 -0.27731434 -0.057901602 0.225277
0.2944756 -0.16834635 -0.11067663 0.3128958 -0.01998914 -0.23172727 0.25997207 0.057013392
-0.15277626 0.24742472 -0.07286257 -0.19153214 -0.0087302625 0.25237173 -0.055228017 0.07306805
-0.14356092 0.28121832 -0.17245771 0.07208553 -0.106335096 0.2514677 0.22162046 0.30375683
0.04235952 -0.0065986994 -0.27748626 0.25009152 0.04085062 -0.11293727 -0.021024024 -0.15160361
0.14071573 0.30254573 0.264935 -0.12713794 -0.3278144 0.022748446 -0.27069232 -0.19872692
0.0928114 0.26370788 0.2812846 -0.23706977 0.27923504 -0.04444315 0.17291531 -0.19564278
0.1436734 0.023162216 -0.26004317 -0.10693337 0.06413083 -0.30511573 -0.210187 0.02662699
-0.2217337 0.2567628 0.25361675 0.08950102 0.31818572 0.17884347 0.06405314 -0.25824887
0.11930108 0.14184086 -0.32920286 -0.19258961 0.054762665 -0.21885455 0.33155438 0.09991191
0.22320239 -0.000797173 -0.19738075 0.0992943 0.15769888 0.11835234 0.035495643 0.028078029
0.03907507 0.008796626 0.023735972 -0.11740239 -0.28867877 0.11053054 0.011304067 -0.15884586
0.105482504 -0.02269848 0.09202891 0.10554918 -0.13967812 -0.10704599 0.17524107 -0.063534215
0.095485896 0.29951185 -0.2857894 0.062314793 0.039544176 0.025837936 -0.25132984 0.18744124
0.20772034 0.22057708 0.11205621 -0.036821034 -0.07876478 0.25768676 -0.12012132 0.24657346
-0.22748119 -0.18657395 0.31575593 0.09678886 0.13432041 0.2282526 0.071392864 -0.22424978
0.2940204 -0.16787906 -0.063296005 -0.14339589 -0.09178697 -0.13424186 -0.043992527 -0.09724171
-0.11785837 0.18602046 0.076942615 0.12428542 -0.24591422 0.1437565 -0.30852935 -0.22705273
-0.22304775 0.22627176 -0.053933974 -0.3128594 0.10861374 0.0039993688 -0.31484273 -0.057586115
0.16680057 0.013785443 -0.19131911 0.24760783 0.091196045 -0.23147652 0.1166299 0.30398908
00000000: 9871 76be b93b b3bc 2c9b 1a3c 895f e83c
00000010: 7036 e73d 34e1 89be a16d 483e d2f5 783e
00000020: a36e c93d 4349 7b3e 8810 803e c976 d33c
00000030: ad25 0cbd 4648 03bd 5042 6f3e 96d3 893e
00000040: 86be b73d e348 82be 2a33 73be dd4d 4a3e
00000050: ca58 223e f642 90be 07eb a43e 612c 823d
00000060: ee68 ffbc 907a 3dbe 281a 073e b536 003d
00000070: c5e1 24be ec1f ac3d e7a8 6fbe 7b6b 963c
00000080: af38 fd3c ae43 b03e 017f a9be 0b44 00be
00000090: afe6 83ba 5970 893e 47af 65be 9201 863d
000000a0: 70ae a0be a042 0dbe 6dd0 5c3c 9364 893e
000000b0: fd2a 933d cda5 4fbe de5a 6b3e 5f7f 48be
000000c0: 8953 1abe 2598 923e 615c dabd 9738 0b3e
000000d0: e7fe 923e 6da5 19bd 7983 a5be eca3 623e
000000e0: 8c9a 46be 60ba ccbd 927e 8f3e a3e3 3f3d
000000f0: bd72 753e a39b 183e bc80 80bd bb4e 28bd
00000100: cf46 13be 971a 093e 2e39 13be ed31 703e
00000110: 85c9 89be 6746 06be d435 87bd 6c72 a7bb
00000120: 35ec 963e 86a1 cebc 2e80 fcbd 0ed3 c6bd
00000130: 4db9 153e 47aa 19be d370 1e3e ad1f 6f3d
00000140: f4a4 553e 5197 4e3e f846 0dbd 6ebe a13e
00000150: c4ab 8c3e 5375 673e 1110 44bd bb62 ed3b
00000160: 7d79 9dbe 523c ebbc c0ef 4dbd d546 ba3c
00000170: 9b08 00be 480c bd3d 7fd7 bebd c7bb a13e
00000180: 0050 b33d a6bd 91be 0ca2 863e f466 8d3e
00000190: d410 363e 25fc 8dbe 3b2a 6dbd 04af 663e
000001a0: 81c5 963e fc62 2cbe 6eaa e2bd e133 a03e
000001b0: 44c0 a3bc ea49 6dbe 0f1b 853e e086 693d
000001c0: 6171 1cbe e85c 7d3e f938 95bd 0021 44be
000001d0: 6009 0fbc de36 813e c636 62bd b4a4 953d
000001e0: a201 13be d9fb 8f3e c198 30be 94a1 933d
000001f0: 37c6 d9bd 60c0 803e 79f0 623e 0486 9b3e
00000200: 2d81 2d3d e739 d8bb ae12 8ebe ff0b 803e
00000210: fb52 273d a84b e7bd 933a acbc fa3d 1bbe
00000220: c917 103e 46e7 9a3e 8fa5 873e 7330 02be
00000230: 4ad7 a7be f35a ba3c 2f98 8abe 127f 4bbe
00000240: e713 be3d b804 873e 8904 903e 6bc2 72be
00000250: e5f7 8e3e 050a 36bd b610 313e 9556 48be
00000260: 1f1f 133e b0be bd3c 6124 85be e2ff dabd
00000270: 0657 833d 2138 9cbe 433b 57be d820 da3c
00000280: 290e 63be 6a76 833e 0eda 813e 504c b73d
00000290: 3de9 a23e be22 373e 4b2e 833d 3239 84be
000002a0: 2054 f43d bb3e 113e 478d a8be 3636 45be
000002b0: d14e 603d 681b 60be 7fc1 a93e 9e9e cc3d
000002c0: 2b8f 643e 60f9 50ba 2e1e 4abe cf5a cb3d
000002d0: d17b 213e b662 f23d e163 113d e503 e63c
000002e0: 2e0d 203d b91f 103c f171 c23c aa70 f0bd
000002f0: b4cd 93be d65d e23d b234 393c 7da8 22be
00000300: 3607 d83d 2af2 b9bc a779 bc3d 2b2a d83d
00000310: c807 0fbe ee3a dbbd 6572 333e 3a1e 82bd
00000320: 1c8e c33d 9e59 993e fd52 92be cc3d 7f3d
00000330: 13f9 213d 14aa d33c 4eae 80be 99f0 3f3e
00000340: a4b4 543e f5de 613e ba7d e53d a7d1 16bd
00000350: 6e4f a1bd 85ef 833e 2b02 f6bd c17d 7c3e
00000360: d4f0 68be 3e0d 3fbe c3aa a13e 3d39 c63d
00000370: 4a8b 093e 0dbb 693e 6c36 923d bca1 65be
00000380: d889 963e 7de8 2bbe 56a1 81bd 5fd6 12be
00000390: cffa bbbd b376 09be 8231 34bd a926 c7bd
000003a0: bb5f f1bd 267c 3e3e 1794 9d3d 5b89 fe3d
000003b0: f0d0 7bbe e734 133e 8ff7 9dbe 8380 68be
000003c0: a166 64be c9b3 673e dfe9 5cbd 1b2f a0be
000003d0: e170 de3d 230d 833b 1133 a1be 6bdf 6bbd
000003e0: c5cd 2a3e 57dc 613c 28e9 43be e88c 7d3e
000003f0: fec4 ba3d 2e08 6dbe a8db ee3d 75a4 9b3e

fc2.weight f4 [128, 256]
-0.030317638 0.009345042 0.011751338 0.018690057 -0.014128577 -0.037302814 -0.054378413 -0.014859057
-0.029477602 -0.05420566 -0.03571715 -0.04541691 0.053202987 0.020854557 -0.031401556 -0.03344456
0.060818378 -0.00063589466 -0.035953086 -0.05421826 0.047021337 -0.059008807 0.05104379 -0.046561856
-0.044967238 0.026964368 0.009330578 0.05716662 -0.038247567 -0.00982387 0.018400334 -0.02414404
-0.045759745 0.019870793 0.00034167236 6.270122e-05 0.05040952 -0.029057825 0.04451195 0.025485093
0.015703904 -0.04284994 0.04993504 -0.011079376 -0.05746621 0.05712939 -0.02244489 -0.037343703
-0.028151661 0.014172971 -0.0119980965 -0.040125746 -0.02754245 -0.033243228 0.034131877 0.04148583
0.057211503 -0.0061956407 -0.006382276 0.057674587 -0.019108595 -0.02669605 -0.023227854 -0.055956036
0.004385956 -0.018487135 0.052577503 0.016195348 0.023414817 0.010194131 -0.007954861 -0.049529538
-0.04829233 0.054856002 -0.046108324 -0.042978365 -0.030679137 0.021956952 -0.01847018 0.003169176
0.045715246 -0.030664848 -0.0035652418 -0.015855273 -0.0057456093 0.011397472 -0.017619433 -0.050786294
0.01845293 -0.059784766 0.028490996 -0.008150686 0.05684105 0.016345521 -0.00278598 -0.005590229
0.04253995 0.008797123 0.025125809 -0.047865484 0.03404501 -0.04682454 0.037657134 -0.042445675
-0.04097665 -0.05414111 -0.038673483 -0.023425959 -0.04997326 -0.02940711 -0.024999984 -0.024382187
-0.0015424311 0.009508887 0.050628696 -0.041209977 -0.03241761 -0.06248715 -0.03573585 -0.059678476
-0.06020166 -0.053674128 0.06105869 0.013640363 0.0360715 0.03405901 0.009383463 0.0031342471
0.005569281 0.063151166 0.020719884 0.05669133 -0.054580722 -0.0069647855 -0.055530977 -0.046115763
0.025920425 -0.014865248 -0.03330476 -0.035103988 0.050003305 -0.034008708 0.047733296 0.041577257
0.034276538 -0.0046470067 0.023637405 -0.016044807 0.015910195 0.027830169 -0.02069821 -0.051715996
0.053815927 -0.014621799 -0.0002930631 0.03254737 -0.006717059 -0.04894136 0.037212517 0.05703701
0.0119990315 0.01664457 -0.009793884 -0.010677497 0.025280582 -0.036912467 -0.024935253 0.03032305
0.02633055 -0.01880514 -0.056078378 -0.015546886 -0.029808499 0.00024045921 -0.045528404 -0.0015874489
-0.00802804 0.037144955 -0.040070746 0.051427398 -0.05277114 -0.030732796 0.04976636 -0.0043210215
0.019540373 0.012328556 -0.063386865 0.019322013 0.02041162 -0.049988884 0.004105367 0.052483298
-0.060913675 0.041922197 -0.00048318892 0.052008476 -0.009849892 0.02258178 0.02739302 0.054484457
-0.045650184 0.009111895 -0.042522494 -0.020833509 0.028498845 -0.014582487 -0.017414942 0.023427712
0.017112792 0.043960504 -0.025121024 -0.029983599 -0.030341284 0.002628094 0.0039744903 -0.0056193145
0.021020139 0.027980093 0.050574962 0.055083882 -0.037823856 -0.03278154 -0.0458284 -0.010380122
-0.017380157 -0.05080535 -0.041327752 -0.005556125 0.002909681 0.028689561 0.02703927 -0.038001694
0.05873189 -0.0026680073 -0.022146579 -0.036838666 -0.056306355 -0.011335849 0.04040369 -0.019070966
-0.036392573 -0.018500937 0.012738365 0.046876978 -0.011717207 -0.031924788 0.053878948 0.029338036
0.043005493 0.04341772 -0.052363165 -0.03948574 0.04532034 -0.046682686 0.045892417 -0.06475908
00000000: b25c f8bc f21b 193c af88 403c e41b 993c
00000010: 8c7b 67bc d6ca 18bd e6bb 5ebd 6773 73bc
00000020: 037b f1bc c106 5ebd 254c 12bd 1507 3abd
00000030: 60eb 593d 2dd7 aa3c eb9e 00bd 2afd 08bd
00000040: b11c 793d 2bb2 26ba 8b43 13bd f713 5ebd
00000050: 7299 403d 38b3 71bd 4b13 513d a5b7 3ebd
00000060: 912f 38bd 61e4 dc3c 48df 183c 8c27 6a3d
00000070: 7ba9 1cbd 4cf4 20bc 4cbc 963c b9c9 c5bc
00000080: 926e 3bbd 13c8 a23c 7d22 b339 767e 8338
00000090: 367a 4e3d ad0a eebc 2a52 363d 1dc6 d03c
000000a0: 79a5 803c 6b83 2fbd af88 4c3d 4586 35bc
000000b0: b061 6bbd 8200 6a3d 59de b7bc b6f5 18bd
000000c0: 509e e6bc c035 683c aa93 44bc e55a 24bd
000000d0: b4a0 e1bc 0d2a 08bd decd 0b3d 0ced 293d
000000e0: 9c56 6a3d cd04 cbbb 6922 d1bb 303c 6c3d
000000f0: a189 9cbc adb1 dabc 5748 bebc 2832 65bd
00000100: 11b8 8f3b 5572 97bc 825b 573d 1bac 843c
00000110: 6ed0 bf3c 4905 273c 1b55 02bc 7cdf 4abd
00000120: 2ece 45bd b0b0 603d 15dc 3cbd 150a 30bd
00000130: d052 fbbc 11df b33c c64e 97bc f3b1 4f3b
00000140: e93f 3b3d d934 fbbc d5a6 69bb ebe2 81bc
00000150: aa45 bcbb 76bc 3a3c a156 90bc 4a05 50bd
00000160: 992a 973c dfe0 74bd f365 e93c 748a 05bc
00000170: 29d2 683d 0be7 853c fd94 36bb 3d2e b7bb
00000180: 5f3e 2e3d cf21 103c a4d4 cd3c 990e 44bd
00000190: c872 0b3d 17cb 3fbd 5e3e 1a3d 84db 2dbd
000001a0: 22d7 27bd 12c3 5dbd 1668 1ebd cce7 bfbc
000001b0: c3b0 4cbd 2ee7 f0bc c4cc ccbc 27bd c7bc
000001c0: 662b caba 2acb 1b3c 0960 4f3d cbcb 28bd
000001d0: 54c8 04bd 87f2 7fbd c15f 12bd 6b71 74bd
000001e0: 0496 76bd 67d9 5bbd ad18 7a3d d47b 5f3c
000001f0: b6bf 133d 7681 0b3d 19bd 193c f167 4d3b
00000200: 847e b63b 6655 813d bfbc a93c 2b35 683d
00000210: 0990 5fbd db38 e4bb 7374 63bd e2e3 3cbd
00000220: 1257 d43c 5f8d 73bc 926a 08bd 33c9 0fbd
00000230: 44d0 4c3d b74c 0bbd fd83 433d ea4c 2a3d
00000240: 8e65 0c3d eb45 98bb 3ba3 c13c 6670 83bc
00000250: 1956 823c 18fc e33c 4b8f a9bc 27d4 53bd
00000260: 176e 5c3d 4590 6fbc 43a6 99b9 6450 053d
00000270: c61a dcbb bc76 48bd 276c 183d a49f 693d
00000280: 9697 443c 315a 883c 8776 20bc abf0 2ebc
00000290: 3919 cf3c 8731 17bd 0445 ccbc 0c68 f83c
000002a0: 2ab3 d73c 3d0d 9abc 71b2 65bd 5eb8 7ebc
000002b0: f430 f4bc c723 7c39 fe7b 3abd f211 d0ba
000002c0: 0a88 03bc 4f25 183d 3921 24bd 89a5 523d
000002d0: 8d26 58bd 58c3 fbbc d0d7 4b3d 5b97 8dbb
000002e0: 2213 a03c b6fd 493c f9d0 81bd 3349 9e3c
000002f0: 4536 a73c 25c1 4cbd 5186 863b baf8 563d
00000300: 9e80 79bd 9cb6 2b3d 8554 fdb9 d706 553d
00000310: 7161 21bc 6dfd b83c 5467 e03c 182b 5f3d
00000320: b0fb 3abd 0f4a 153c 112c 2ebd 09ab aabc
00000330: 6976 e93c 62eb 6ebc c8a9 8ebc 79eb bf3c
00000340: 2030 8c3c ee0f 343d 9bca cdbc 2aa0 f5bc
00000350: 498e f8bc 1a3c 2c3b 713c 823b 3a22 b8bb
00000360: 6d32 ac3c 8236 e53c b127 4f3d a39f 613d
00000370: 30ed 1abd f045 06bd 8fb6 3bbd 6311 2abc
00000380: d560 8ebc 4519 50bd 4a47 29bd 2810 b6bb
00000390: 59b0 3e3b 5f06 eb3c 7681 dd3c aaa7 1bbd
000003a0: da90 703d bcd9 2ebb be6c b5bc 24e4 16bd
000003b0: 7ea1 66bd ffb9 39bc 577e 253d b73a 9cbc
000003c0: 6110 15bd 478f 97bc 93b4 503c 1302 403d
000003d0: 87f9 3fbc 91c3 02bd 2cb0 5c3d 5256 f03c
000003e0: 8726 303d c7d6 313d c27a 56bd cdbb 21bd
000003f0: d2a1 393d 5836 3fbd b0f9 3b3d 69a0 84bd

fc2.bias f4 [128]
0.037067253 0.045223147 -0.015327684 0.015607485 -0.009050561 -0.057191912 0.013825202 0.040563878
-0.038911134 -0.0010523428 -0.06781431 -0.06167038 -0.029895922 -0.047891792 0.023207767 0.04584508
-0.0038079212 0.05008615 0.009578489 0.041265216 -0.025963867 0.015432906 -0.029194362 0.008777097
0.04336554 0.00083234475 -0.027763113 0.046138365 0.0004535227 0.020342443 -0.049807034 -0.026365306
0.03611458 -4.2290972e-05 0.041440602 0.057106864 -0.041271165 0.011516828 -0.039971177 -0.044875044
-0.0012534165 0.025180584 0.052899342 -0.050592776 -0.03694182 0.017571777 0.06732715 -0.050741233
0.010006524 -0.030077362 0.011977166 -5.6883076e-05 -0.05380431 0.06528244 0.021756627 -0.025990527
-0.02170472 0.04980385 -0.062942795 -0.040196054 0.006868979 0.009663388 0.009881535 -0.016073905
-0.055767152 -0.03256009 0.039048363 -0.023254689 -0.021184653 -0.028196823 -0.06962981 0.03603951
-0.049917914 0.030564591 0.030986749 -0.008001386 -0.030513583 -0.028566238 -0.03694353 -0.009655662
0.020301893 0.015987085 0.06504674 -0.049036395 0.012649129 0.0124073345 -0.034826193 -0.062742226
0.033370703 -0.025046732 -0.048467815 0.023410393 -0.030503862 -0.019487688 -0.045797426 -9.3623246e-05
0.05363395 0.0015246527 0.021909304 -0.04676843 -0.0329695 -0.062013876 -0.021230092 -0.040791288
0.022251617 0.0010303736 -0.036678813 0.061101425 -0.025534183 0.029226039 0.055339985 0.05010512
-0.04386972 -0.03848799 -0.017069679 0.0009270834 0.07347162 -0.036575276 -0.049561102 -0.0004487084
0.04106549 0.040327717 -0.036900047 -0.030058773 -0.010546556 0.014709841 -0.012356983 0.014663792
00000000: d5d3 173d e83b 393d f720 7bbc 89b6 7f3c
00000010: ce48 14bc 1142 6abd 1a83 623c 4f26 263d
00000020: 4861 1fbd c4ee 89ba 3be2 8abd 159a 7cbd
00000030: 4be8 f4bc 2f2a 44bd 371e be3c 0dc8 3b3d
00000040: 518e 79bb 2327 4d3d 18ef 1c3c b705 293d
00000050: 2db2 d4bc 4dda 7c3c 0429 efbc d0cd 0f3c
00000060: 11a0 313d b631 5a3a 786f e3bc 95fb 3c3d
00000070: c9c6 ed39 32a5 a63c 7602 4cbd 0efc d7bc
00000080: e2ec 133d 9661 31b8 9fbd 293d e3e8 693d
00000090: f40b 29bd 14b1 3c3c d1b8 23bd e5ce 37bd
000000a0: ae49 a4ba 8347 ce3c fbac 583d 5f3a 4fbd
000000b0: 4e50 17bd b0f2 8f3c d1e2 893d 0ad6 4fbd
000000c0: 67f2 233c cd64 f6bc e03b 443c bd95 6eb8
000000d0: e861 5cbd cdb2 853d f43a b23c 16ea d4bc
000000e0: 19ce b1bc 1fff 4b3d 27e8 80bd 9ea4 24bd
000000f0: 2c15 e13b 3053 1e3c 29e6 213c 6cad 83bc
00000100: 196c 64bd bb5d 05bd 2df1 1f3d 9e80 bebc
00000110: 708b adbc 06fd e6bc 139a 8ebd 2a9e 133d
00000120: ba76 4cbd 9862 fa3c ecd7 fd3c 3f18 03bc
00000130: 9ff7 f9bc be03 eabc 1952 17bd c832 1ebc
00000140: 2850 a63c 59f7 823c 3a37 853d 63da 48bd
00000150: 4b3e 4f3c 2248 4b3c e9a5 0ebd ff7e 80bd
00000160: b8af 083d ce2e cdbc 3086 46bd 27c7 bf3c
00000170: 3ce3 f9bc a5a4 9fbc 1596 3bbd 9957 c4b8
00000180: 46af 5b3d dbd6 c73a 247b b33c 4190 3fbd
00000190: 070b 07bd 4302 7ebd bbea adbc c414 27bd
000001a0: 0649 b63c 9a0d 873a 863c 16bd 7d45 7a3d
000001b0: 102d d1bc 726b ef3c 2eac 623d 073b 4d3d
000001c0: bcb0 33bd 95a5 1dbd b6d5 8bbc 8407 733a
000001d0: 4a78 963d f5cf 15bd 9500 4bbd 9f40 ebb9
000001e0: 4a34 283d ad2e 253d 8124 17bd d13d f6bc
000001f0: 76cb 2cbc 8c01 713c f174 4abc 6740 703c

discrete.weight f4 [2, 128]
-0.029447401 0.038006723 -0.07452718 -0.07843797 -0.013296569 -0.0056616953 -0.047628276 0.05452021
0.017061556 0.06939331 0.026625346 0.022451665 -0.07651798 0.031934608 -0.026634566 0.07540853
-0.020418255 0.054154363 0.05861274 -0.049294204 -0.045367848 0.0022107793 0.08771088 -0.004852804
-0.071370326 -0.021953901 0.02350771 -0.008245077 -0.021386253 -0.031285565 0.08399436 0.03810982
0.014043075 -0.011285345 -0.0592671 -0.048061743 0.07577649 0.04503098 -0.061442364 -0.0054477104
0.0066211484 0.017831903 0.010576387 -0.039267685 -0.076939404 -0.03499505 -0.054925762 0.04171228
-0.026512234 0.066250734 -0.0613192 -0.06017058 -0.0683259 -0.026213055 0.008161718 -0.055377968
-0.023829825 0.010958151 0.030979527 0.002238351 0.062393583 0.004210715 -0.024832113 -0.08329407
0.07521717 -0.0032159626 0.0345356 -0.040210925 0.0007769281 -0.021575605 0.006578501 -0.025295936
-0.019768624 0.058275975 -0.046536453 -0.0258716 -0.017812839 0.045692217 -0.064868614 0.049740117
-0.06653394 -0.05777916 -0.022654204 -0.05465422 0.002193315 -0.07985733 0.060146026 0.07972268
-0.010581507 0.06545837 -0.005952899 -0.05556623 -0.06776764 0.023607476 0.079253174 -0.010454506
-0.04121818 0.017621849 0.07359184 0.06380789 -0.034035202 0.027656557 -0.05035052 -0.06768967
-0.0069942926 0.08734144 0.045976847 -0.06813194 -0.023380782 0.053624943 -0.058500845 -0.043129392
0.0076812436 0.07295638 -0.03940347 0.034430515 -0.023204029 -0.025886603 0.028426757 0.05410454
0.01590838 -0.059913248 0.025134254 -0.026674598 0.06317244 0.026480397 0.012900835 -0.017125735
0.035743427 -0.009236528 -0.08695221 0.07747296 0.07810985 -0.07610848 0.010426364 0.016743893
0.077299505 -0.091030255 -0.04962909 0.02865702 -0.073767416 0.060122855 -0.0011197233 -0.049166728
0.08606783 0.016522577 -0.018234111 -0.038820293 0.07846076 -0.050379883 0.04544565 -0.04719957
0.08072537 -0.042230967 -0.0048971195 -0.095409855 0.062481128 0.086002715 0.078558385 0.008003049
-0.021997731 0.038957383 -0.0742847 -0.077196255 0.06781618 -0.023605106 0.011394256 -0.032427054
0.0674667 -0.043322474 0.0077245743 0.046572573 -0.094198376 -0.015836312 0.0535798 -0.064966194
0.03861716 0.003351245 0.057103686 -0.018721167 -0.011278071 -0.06134209 -0.036766622 0.027311113
0.024777204 0.0649689 0.017190417 0.0819731 0.019013442 0.074890584 -0.029849282 0.0517306
0.02179372 -0.049041953 0.049673688 -0.018204687 -0.020152165 0.062304128 0.008978071 0.025904458
0.09587297 0.004477337 -0.0065721623 0.01218485 -0.056622937 -0.012934351 -0.036567446 0.011678131
0.01773437 0.047703266 -0.095259085 0.00093355397 0.0526161 -0.0743841 0.029595643 0.026098805
-0.020282982 0.01652767 -0.054643027 -0.029555785 -0.0442297 0.08711523 -0.006954015 -0.043450646
-0.036688212 0.0051057767 -0.0666732 -0.05341149 0.06278011 -0.04905507 0.043208696 0.100172065
0.024077343 0.0035495968 0.084309995 -0.06514691 0.012114337 -0.088205606 0.041140288 -0.0116394665
-0.087393545 -0.086040474 -0.013313506 0.01979233 0.0040094485 0.030333657 -0.089159146 0.07018015
0.05689806 -0.030260222 -0.07936447 -0.0812217 -0.071952805 0.088789485 -0.03962368 -0.07484466
00000000: ad3b f1bc f0ac 1b3d b5a1 98bd 16a4 a0bd
00000010: dad9 59bc be85 b9bb de15 43bd 9550 5f3d
00000020: adc4 8b3c 141e 8e3d 661d da3c 8eec b73c
00000030: 75b5 9cbd ddcd 023d bc30 dabc ca6f 9a3d
00000040: 2f44 a7bc f7d0 5d3d ea13 703d b8e8 49bd
00000050: a3d3 39bd b9e2 103b c3a1 b33d 4504 9fbb
00000060: 9b2a 92bd abd8 b3bc 3e93 c03c 5c16 07bc
00000070: 3932 afbc 4b25 00bd 3c05 ac3d 0b19 1c3d
00000080: ed14 663c 2be6 38bc 0fc2 72bd 64dc 44bd
00000090: b430 9b3d 6872 383d fdaa 7bbd b582 b2bb
000000a0: 38f6 d83b 3614 923c 9548 2d3c 27d7 20bd
000000b0: 6892 9dbd f856 0fbd d6f9 60bd 7fda 2a3d
000000c0: 2f30 d9bc 77ae 873d d729 7bbd 6d75 76bd
000000d0: 73ee 8bbd c3bc d6bc bab8 053c 02d4 62bd
000000e0: c436 c3bc d189 333c c7c8 fd3c 4cb1 123b
000000f0: 6a90 7f3d 0afa 893b b76c cbbc 1596 aabd
00000100: 760b 9a3d e6c2 52bb 3475 0d3d 36b4 24bd
00000110: c3aa 4b3a 53bf b0bc 7790 d73b 6c39 cfbc
00000120: cff1 a1bc cab2 6e3d 029d 3ebd adf0 d3bc
00000130: 3bec 91bc c327 3b3d d6d9 84bd 4bbc 4b3d
00000140: f242 88bd d7a9 6cbd 4f95 b9bc 1add 5fbd
00000150: b8bd 0f3b 3d8c a3bd ae5b 763d a545 a33d
00000160: 0f5e 2dbc 0a0f 863d 8910 c3bb 6a99 63bd
00000170: c3c9 8abd 7764 c13c 7d4f a23d 6049 2bbc
00000180: 65d4 28bd b25b 903c 52b7 963d b6ad 823d
00000190: 7f68 0bbd 0190 e23c 593c 4ebd e2a0 8abd
000001a0: 6130 e5bb 12e0 b23d 3852 3c3d c288 8bbd
000001b0: 0e89 bfbc d4a5 5b3d 959e 6fbd 72a8 30bd
000001c0: f1b2 fb3b 286a 953d 8865 21bd 0307 0d3d
000001d0: 6016 bebc 2410 d4bc 3bdf e83c b99c 5d3d
000001e0: 4a52 823c 9867 75bd 5ae6 cd3c b084 dabc
000001f0: 8d60 813d 6bed d83c 065e 533c 454b 8cbc
00000200: b367 123d ce54 17bc 0014 b2bd 25aa 9e3d
00000210: 0ff8 9f3d c3de 9bbd 57d3 2a3c 7d2a 893c
00000220: 344f 9e3d 126e babd df47 4bbd 20c2 ea3c
00000230: 5f13 97bd 6243 763d aec3 92ba 0d63 49bd
00000240: 5544 b03d 5b5a 873c b45f 95bc 0702 1fbd
00000250: 09b0 a03d 235b 4ebd 3825 3a3d 5654 41bd
00000260: 5853 a53d 61fa 2cbd 0478 a0bb 3e66 c3bd
00000270: 36ec 7f3d 3122 b03d 38e3 a03d 381f 033c
00000280: 9634 b4bc c791 1f3d 9422 98bd 1219 9ebd
00000290: 36e3 8a3d 7f5f c1bc f9ae 3a3c 3bd2 04bd
000002a0: fb2b 8a3d e872 31bd 6d1e fd3b e2c2 3e3d
000002b0: 14eb c0bd 27bb 81bc 7e76 5b3d ff0c 85bd
000002c0: 072d 1e3d 90a0 5b3b 8ee5 693d 225d 99bc
000002d0: a9c7 38bc d841 7bbd 9998 16bd 8ebb df3c
000002e0: 90f9 ca3c 6a0e 853d ebd2 8c3c 83e1 a73d
000002f0: 14c2 9b3c 3c60 993d 7b86 f4bc 77e3 533d
00000300: be88 b23c 37e0 48bd a376 4b3d ff21 95bc
00000310: 2716 a5bc 9d32 7f3d c218 133c 9635 d43c
00000320: 0c59 c43d a0b6 923b 4b5b d7bb f7a2 473c
00000330: 74ed 67bd 9aea 53bc bfc7 15bd a255 3f3c
00000340: ab47 913c 8064 433d 3217 c3bd bfb9 743a
00000350: fb83 573d b156 98bd 9072 f23c 29cd d53c
00000360: 7f28 a6bc 0965 873c 5ed1 5fbd f91e f2bc
00000370: 342a 35bd 7869 b23d 82de e3bb 4ef9 31bd
00000380: 6146 16bd 5c4e a73b f58b 88bd 02c6 5abd
00000390: dc92 803d f8ed 48bd 9afb 303d 0327 cd3d
000003a0: d93d c53c 5aa0 683b b8aa ac3d be6b 85bd
000003b0: 367b 463c 24a5 b4bd b882 283d 76b3 3ebc
000003c0: 63fb b2bd fd35 b0bd e420 5abc 8623 a23c
000003d0: b161 833b 4a7e f83c 1299 b6bd 9cba 8f3d
000003e0: f10d 693d 49e4 f7bc d789 a2bd 9057 a6bd
000003f0: fe5b 93bd 43d7 b53d 714c 22bd 2848 99bd

discrete.bias f4 [2]
0.049381662 0.07465463
00000000: 6d44 4a3d 87e4 983d
