s10lre4e3CCM_MADRL_MEC/model/50-400-8-10-40/PDQN/1-continue_actors.pth (torch, 147199 bytes, 10 tensors)

fc1.weight f4 [256, 7]
0	0xbea357a2	-0.31902796
1	0xbe141b5d	-0.14463563
2	0xbc363f60	-0.011123508
3	0x3e20405a	0.15649548
4	0xbe9e9478	-0.30972648
5	0x3d71e448	0.059055597
6	0xbd573fa0	-0.052550912
7	0x3e0c1dda	0.13683262
8	0x3e77d2e6	0.24201545
9	0x3d9fbdfc	0.077999085
10	0x3d0dc8a0	0.03461516
11	0x3e30e42a	0.17274538
12	0x3e51fa96	0.20505747
13	0xbd135c20	-0.03597653
14	0xbeb0d2ef	-0.3453593
15	0xbeb23f88	-0.34814095
16	0xbe368006	-0.17822275
17	0x3e199c7a	0.15001097
18	0xbb3d3c80	-0.0028875172
19	0x3c4f6de0	0.012660474
20	0xbd9444bc	-0.072396725
21	0xbe676e2b	-0.2260062
22	0xbb69c700	-0.0035671592
23	0xbec0db4d	-0.37667313
24	0x3e244d6e	0.16045162
25	0xbbec8300	-0.007217765
26	0xbe041f58	-0.12902582
27	0x3e958d13	0.29209194
28	0xbe903784	-0.28167355
29	0x3ddac1d8	0.10681504
30	0x3db1fe84	0.08691123
31	0xbe608af9	-0.21928014
32	0xbeab7cde	-0.33493704
33	0xbe5ff403	-0.21870427
34	0xbe7df1cb	-0.24799268
35	0xbde20aac	-0.11037192
36	0xbebc6272	-0.36793858
37	0xbe765278	-0.24054897
38	0xbea2a975	-0.3176991
39	0x3e1b6c02	0.1517792
40	0x3e93d7ef	0.28875682
41	0xbe5a8cb0	-0.2134273
42	0x3debec2c	0.115196556
43	0x3e03c01e	0.12866256
44	0xbc512180	-0.012764335
45	0x3d9d59f0	0.0768317
46	0xbe74d747	-0.23910247
47	0x3e5c8f7e	0.21539113
48	0x3e48a536	0.19594273
49	0xbdf0f4cc	-0.11765441
50	0xbd7d5cf8	-0.06185624
51	0xbcb56a90	-0.02214554
52	0x3e98b80d	0.2982792
53	0xbeaa3748	-0.332453
54	0xbea6adc3	-0.32554445
55	0xbe52d024	-0.20587212
56	0x3e71ebde	0.23625132
57	0xbe9ca08d	-0.3059124
58	0x3e88f793	0.26751384
59	0x3ea999e5	0.33125225
60	0x3e900c79	0.28134516
61	0xbe89c7bc	-0.26910198
62	0x3e2f6186	0.17127046
63	0xbe762a34	-0.24039537
64	0x3bbd2ec0	0.0057733953
65	0xbdbc0828	-0.09181243
66	0x3ea525c9	0.3225539
67	0x3d652e70	0.05595249
68	0x3eaf1ddd	0.3420247
69	0x3e118322	0.1421018
70	0xbeac7208	-0.3368075
71	0xbdb8618c	-0.090029806
72	0x3d6fbe00	0.058530807
73	0x3da56a88	0.0807696
74	0xbeb54e11	-0.35411122
75	0xbd8943e0	-0.06702399
76	0x3d280390	0.041019022
77	0xbead5509	-0.3385394
78	0xbdf901d4	-0.12158552
79	0xbd439368	-0.047748
80	0x3e3d88ae	0.1850917
81	0x3cfa7570	0.030573577
82	0x3df95300	0.12174034
83	0x3eb526b5	0.35381094
84	0xbdefdd80	-0.1171217
85	0xbdcf5bb0	-0.1012491
86	0xbe8dce71	-0.27696565
87	0xbe9d6667	-0.3074219
88	0x3ea378a3	0.31927976
89	0xbe9187b6	-0.28423852
90	0xbdd3ec80	-0.10347843
91	0x3c0c3620	0.008557826
92	0xbdcaab64	-0.098959714
93	0x3eb09af7	0.3449323
94	0xbc69dc00	-0.0142736435
95	0x3eb173c1	0.34658626
96	0x3d9c68a4	0.07637146
97	0xbd9826f0	-0.07429302
98	0x3e076c7a	0.13224974
99	0x3d8952d0	0.06705248
100	0xbd9a144c	-0.075234026
101	0x3ebd3a25	0.36958423
102	0x3e668ec2	0.22515395
103	0xbebde9a8	-0.37092328
104	0x3d5e3ed0	0.05425912
105	0xbdb7ca74	-0.08974162
106	0xbe560af6	-0.20902619
107	0x3e40278a	0.18765083
108	0xbe806b2e	-0.25081772
109	0xbe5e6afd	-0.217205
110	0x3e9404b5	0.2890984
111	0xbe21c0db	-0.15796225
112	0x3ea854b3	0.3287712
113	0x3e4a5e5e	0.1976256
114	0xbe09fb58	-0.13474786
115	0xbe8feb75	-0.28109327
116	0xbdfa58a0	-0.12223935
117	0x3e7a840e	0.24464437
118	0x3eb1d675	0.3473393
119	0x3e652186	0.2237607
120	0x3e81e771	0.25371888
121	0xbe91b50b	-0.28458437
122	0xbd77bb80	-0.06048155
123	0xbe1c7da6	-0.15282306
124	0xbeb4875a	-0.35259515
125	0x3e27504a	0.16339222
126	0x3ea3140d	0.31851235
127	0x3e8da69b	0.27666172
128	0x3e802b47	0.25033018
129	0x3d043830	0.032280147
130	0xbe8365b7	-0.2566354
131	0x3d251ab8	0.040308684
132	0x3e6719da	0.22568455
133	0x3c9ecd50	0.01938501
134	0x3e21c5c6	0.15798101
135	0xbd70ea20	-0.05881703
136	0xbe0e8936	-0.1391953
137	0x3e6bad8a	0.23015419
138	0xbe80b8f0	-0.25141096
139	0x3dc72e30	0.097256064
140	0xbdacc440	-0.08435869
141	0x3e769756	0.24081168
142	0xbe2ec647	-0.17067824
143	0x3a834d00	0.0010017455
144	0xbe952fc2	-0.29138
145	0x3e52df96	0.20593104
146	0xbec092f2	-0.3761211
147	0x3d8e8f1c	0.0696089
148	0x3eb2a217	0.3488929
149	0xbe2c35fa	-0.16817465
150	0xbdec3eb0	-0.11535394
151	0x3d47ce08	0.04878047
152	0x3e65948e	0.2241995
153	0x3eadf8f9	0.33979014
154	0xbd981ca4	-0.07427338
155	0xbe8856a8	-0.26628613
156	0x3dbeb8b8	0.09312576
157	0xbe72f018	-0.23724401
158	0xbe1319a7	-0.14365254
159	0x3e3624b2	0.17787436
160	0xbcbed730	-0.023295969
161	0x3e3e6ed6	0.18596968
162	0x3ebcf50f	0.36905715
163	0xbe215531	-0.15755154
164	0x3d94005c	0.07226631
165	0xbdaef820	-0.0854342
166	0x3cf8b9d0	0.03036204
167	0x3e8c144f	0.27359244
168	0x3eb63caf	0.35593173
169	0x3d6e71e0	0.05821407
170	0xbda94cf8	-0.08266634
171	0xbeab4012	-0.3344732
172	0x3e325efe	0.17419049
173	0x3e2c3f02	0.1682091
174	0x3e1348f6	0.14383301
175	0xbe650f7f	-0.22369193
176	0xbe49f819	-0.19723548
177	0xbe9bd7b1	-0.30437997
178	0x3df07014	0.11740127
179	0x3e464a92	0.19364384
180	0xbdcf9c28	-0.10137206
181	0x3aa47900	0.0012548268
182	0x3e18f68e	0.14937803
183	0x3eb9fc83	0.36325464
184	0x3ea77429	0.3270581
185	0x3d786c50	0.06065017
186	0x3e80b3e3	0.25137243
187	0xbe8ad2be	-0.2711391
188	0x3e682c5a	0.22673169
189	0x3de68908	0.112566054
190	0xbd2b5b98	-0.041835397
191	0xbb8a5700	-0.004221797
192	0x3e97ac25	0.29623523
193	0x3e29b562	0.16573098
194	0x3e50a122	0.20373967
195	0xbdc33908	-0.09532362
196	0x3e45ec7e	0.19328496
197	0x3e8c5b4d	0.27413407
198	0x3e3b4d0e	0.18291113
199	0x3e7d43b2	0.24732855
200	0x3e80ad8b	0.25132403
201	0xbe9e2bec	-0.30892885
202	0x3d9d5b68	0.0768345
203	0xbe96226a	-0.2932313
204	0xbda98c04	-0.08278659
205	0x3e86a011	0.26293996
206	0xbe2bd97e	-0.16782185
207	0x3df9ee44	0.12203649
208	0x3dadf304	0.08493617
209	0xbe0a523d	-0.13507934
210	0xbe2517a5	-0.16122301
211	0x3d58e848	0.052955896
212	0xbe1f764a	-0.15572467
213	0xbe206814	-0.15664703
214	0x3da7e080	0.08197117
215	0x3e6b86ca	0.23000637
216	0xbe995bea	-0.29952937
217	0xbe9af2de	-0.30263418
218	0xbe8dccd9	-0.2769535
219	0x3e18b5f2	0.14913157
220	0xbe879362	-0.26479632
221	0xbc1ab980	-0.009443641
222	0x3e6d38d6	0.23166212
223	0xbe97b6a0	-0.2963152
224	0x3e08dbfa	0.13365164
225	0xbe0780d9	-0.13232745
226	0xbddebe94	-0.10876194
227	0x3e35131e	0.17683074
228	0x3eb37579	0.35050562
229	0xbd8104c0	-0.06299734
230	0x3d70f5c8	0.058828145
231	0x3eb9fc27	0.3632519
232	0x3e59ae3a	0.21257868
233	0xbe2a717b	-0.16644852
234	0x3c3a4000	0.011367798
235	0x3e0a0e46	0.13482007
236	0xbe7c2404	-0.24623114
237	0xbeb5691c	-0.35431755
238	0xbeb97575	-0.36222425
239	0x3e85ce1f	0.2613382
240	0xbe654b3a	-0.22391978
241	0xbeb730af	-0.3577933
242	0xbe4bed93	-0.19914846
243	0x3e2ec686	0.17067918
244	0xbe6f47a3	-0.23367171
245	0xbeb7ae1b	-0.3587502
246	0xbe096ff5	-0.13421614
247	0x3cfe7dd0	0.031065851
248	0x3eb2805b	0.34863552
249	0xbd85b20c	-0.065281
250	0x3e8073c9	0.25088337
251	0xbe2f0daa	-0.17095056
252	0x3eaf5133	0.34241638
253	0x3e22c85a	0.1589674
254	0x3d7e4e58	0.062086433
255	0xbd41b638	-0.047292918

fc1.bias f4 [256]
0	0x3e1126a2	0.14174893
1	0x3e3fe22a	0.18738618
2	0x3e0645a6	0.13112506
3	0x3e76f89a	0.24118271
4	0x3e18701a	0.14886513
5	0x3ebe6a09	0.37190273
6	0xbeb38b70	-0.3506732
7	0x3e44953e	0.19197556
8	0xbe5bd19b	-0.21466677
9	0xbeaaaecd	-0.33336487
10	0x3bafb900	0.00536263
11	0x3e862693	0.26201305
12	0x3e7a5c3e	0.2444925
13	0xbeaac30d	-0.33351937
14	0xbc69ff40	-0.014282048
15	0x3cecbca0	0.028898537
16	0x3e9d925b	0.30775723
17	0xbe86d94f	-0.26337668
18	0xbd2b5d98	-0.041837305
19	0x3da80e6c	0.08205876
20	0xbe19a47f	-0.15004157
21	0xbe160f21	-0.14654209
22	0xbe6d95c5	-0.23201664
23	0x3e550082	0.20800975
24	0x3e041d7a	0.1290187
25	0xbe60916c	-0.21930474
26	0xbe4207cf	-0.18948291
27	0x3df666b8	0.12031311
28	0x3ea06749	0.313288
29	0x3ebc40bd	0.3676814
30	0xbeae5a61	-0.3405333
31	0x3ea40ff7	0.3204343
32	0xbe4669f3	-0.19376354
33	0x3cd55140	0.02603972
34	0xbbb1cb40	-0.0054258406
35	0x3d9704e0	0.07373977
36	0xbd29e1f8	-0.041475266
37	0x3e695cc2	0.2278929
38	0xbd4a46e0	-0.049383998
39	0x3e0b3f96	0.13598475
40	0x3ea78173	0.3271595
41	0xbe8c8ee4	-0.27452767
42	0x3cbd7e50	0.02313152
43	0xbdc20ff0	-0.09475696
44	0x3e776a26	0.24161586
45	0x3d471b88	0.04861024
46	0xbea5cf4a	-0.32384712
47	0xbd48fb10	-0.049067557
48	0x39a53000	0.00031507015
49	0x3e1be01a	0.15222207
50	0xbdb6fa64	-0.08934477
51	0xbd99c560	-0.075083494
52	0xbeb3d38f	-0.35122344
53	0x3de74ab0	0.112935424
54	0xbbf93880	-0.0076056123
55	0xbe39c472	-0.18141344
56	0xbe8441d5	-0.25831476
57	0x3e51320e	0.2042925
58	0x3e72336a	0.23652425
59	0xbe8c128f	-0.2735791
60	0x3aa84500	0.0012837946
61	0xbeae9cd3	-0.34104022
62	0xbe19823b	-0.14991085
63	0xbd8655dc	-0.06559345
64	0x3e45b95a	0.19308987
65	0xbeb55277	-0.35414478
66	0x3e96010f	0.29297683
67	0x3e13c492	0.14430454
68	0x3e8460c1	0.25855067
69	0x3ddcb2b4	0.107762724
70	0xbd8ad008	-0.0677796
71	0xbe565774	-0.20931798
72	0x3eb3d473	0.35123023
73	0x3d0bfcd8	0.034176677
74	0xbeb05894	-0.3444258
75	0xbeb27e42	-0.34861952
76	0xbe371d1d	-0.178822
77	0xbc2dad20	-0.010600358
78	0x3d170238	0.03686735
79	0xbe0fdf90	-0.14050126
80	0xbd4b1d90	-0.04958874
81	0x3e971cf7	0.29514286
82	0x3d360e38	0.044447154
83	0x3c4311c0	0.011906087
84	0xbd40cb10	-0.047068655
85	0x3e193986	0.1496335
86	0x3e5248be	0.20535561
87	0x3e5065d2	0.20351341
88	0x3e0f5e56	0.1400083
89	0x3e5a6e7a	0.21331206
90	0xbe630b60	-0.22172308
91	0x3e14cda6	0.14531574
92	0x3e922147	0.28541014
93	0xbea872a2	-0.32899958
94	0xbd125d90	-0.03573376
95	0xbeb03324	-0.34414017
96	0xbe07c3ad	-0.13258238
97	0x3ceac070	0.028656214
98	0x3d811624	0.06303051
99	0x3ea4c237	0.32179424
100	0xbe32a07e	-0.17444035
101	0xbbe44fc0	-0.0069675148
102	0xbe0bd216	-0.1365436
103	0x3d86f578	0.06589788
104	0x3d6f2d80	0.058393
105	0xbcc8dc30	-0.024519056
106	0x3eafd55b	0.34342465
107	0xbe8d19f8	-0.27558875
108	0xbe7b2daa	-0.24529138
109	0x3c035b20	0.008017331
110	0x3e990993	0.29890117
111	0x3db8c1ac	0.09021315
112	0xbb307f80	-0.0026931465
113	0xbe9b973b	-0.30388817
114	0xbbc65580	-0.006052673
115	0x3dfc409c	0.12317011
116	0x3e2ac32a	0.16676012
117	0xbde53030	-0.11190832
118	0x3e6234b6	0.2209042
119	0xbe8d7584	-0.2762872
120	0xbe19a785	-0.1500531
121	0x3e420446	0.18946943
122	0xbc47e020	-0.012199432
123	0xbeb6c192	-0.35694557
124	0x3ea502e5	0.3222877
125	0xbced3360	-0.028955162
126	0xbe44da58	-0.19223917
127	0x3cda50b0	0.026649803
128	0xbcb56fc0	-0.022148013
129	0xbce62590	-0.028094083
130	0xbeaa4cbb	-0.33261666
131	0x3e6012e6	0.21882209
132	0xbc3f71e0	-0.011684865
133	0xbba9d480	-0.0051828027
134	0xbe70c7bf	-0.23513697
135	0x3c3a58c0	0.011373699
136	0xbdaf93a8	-0.08573085
137	0x3ebc1e95	0.36742082
138	0x3e16c98a	0.14725319
139	0x3d59d860	0.053184867
140	0xbea33de5	-0.3188316
141	0xbe89e9a9	-0.2693608
142	0xbd585608	-0.05281642
143	0x3e6b7c66	0.22996673
144	0xbebbff26	-0.367181
145	0xbec1022b	-0.37696967
146	0x3cd476b0	0.0259355
147	0x3dbe3b34	0.09288636
148	0xbe8da184	-0.2766229
149	0x3e9f5b73	0.31124458
150	0xbe9bf333	-0.30458984
151	0xbe5cc93b	-0.21561138
152	0xbe14bca3	-0.14525084
153	0xbc9ce9c0	-0.01915443
154	0xbe0ae606	-0.1356431
155	0xbe88c880	-0.2671547
156	0x3c4f6080	0.012657285
157	0x3e8fc7a3	0.28081998
158	0x3dfab684	0.12241843
159	0x3ebb954d	0.36637345
160	0x3bd7f0c0	0.006589979
161	0xbe0c2784	-0.13686949
162	0x3cafc250	0.02145496
163	0xbdc23f9c	-0.09484789
164	0xbe040f6c	-0.12896508
165	0x3e2a1d5e	0.16612765
166	0x3e7f211a	0.24914971
167	0xbe2aa0f1	-0.16662957
168	0x3e503df2	0.2033613
169	0xbe4ec0c0	-0.20190716
170	0xbd3393f8	-0.043842286
171	0x3e82fa59	0.25581625
172	0x3e7e82d6	0.24854597
173	0xbe5a6937	-0.21329199
174	0x3e9b1927	0.30292627
175	0xbebb2d11	-0.3655782
176	0xbe745eca	-0.23864284
177	0x3db89848	0.0901342
178	0x3e6bcb82	0.23026851
179	0xbdf77518	-0.12082881
180	0xbc841ed0	-0.016127974
181	0xbe895b78	-0.26827598
182	0x3c9783c0	0.01849544
183	0x3e10419a	0.14087525
184	0xbe087e24	-0.13329369
185	0x3e43a22a	0.1910483
186	0xbeb37323	-0.3504878
187	0x3e0b7fee	0.1362302
188	0x3e6fcdf2	0.23418406
189	0xbe68926a	-0.22712103
190	0xbdda9d68	-0.10674554
191	0x3bae9e80	0.0053289533
192	0x3e786472	0.24257067
193	0x3ea6e17b	0.32593903
194	0xbe18263e	-0.14858338
195	0xbe915931	-0.2838836
196	0x3e924ec5	0.2857572
197	0xbcf431b0	-0.02980885
198	0xbe6f4421	-0.23365833
199	0xbdcdceb0	-0.10049188
200	0x3ddc6654	0.10761705
201	0x3d7f8768	0.062384993
202	0xbe402497	-0.18763958
203	0x3dc0cf88	0.094145834
204	0xbd704810	-0.058662474
205	0xbeb75eba	-0.35814458
206	0x3e05685e	0.13028094
207	0xbe305b41	-0.1722231
208	0x3ebfe7e5	0.3748161
209	0x3d41ddc0	0.047330618
210	0x3e20cd9a	0.15703431
211	0x3ddafac0	0.10692358
212	0xbe8752df	-0.26430413
213	0x3a846000	0.0010099411
214	0xbd65a820	-0.05606854
215	0xbe211f10	-0.15734506
216	0xbe6a654f	-0.22890209
217	0x3d812dd4	0.06307569
218	0xbe6d0d44	-0.23149592
219	0x3ebf69e3	0.37385473
220	0x3e87cf41	0.2652531
221	0x3e9b9c5f	0.3039274
222	0x3e8f2a8d	0.2796215
223	0x3c8e8de0	0.017401636
224	0xbd17f030	-0.037094295
225	0x3dc0c144	0.094118625
226	0xbe87a21c	-0.26490867
227	0x3eac72f9	0.33681467
228	0xbd23cc00	-0.03998947
229	0x3c9333f0	0.017969102
230	0x3e040532	0.12892607
231	0xbdf26084	-0.11834815
232	0xbe92d5f9	-0.28678873
233	0x3db11d7c	0.08648202
234	0x3ea8878d	0.32915917
235	0x3d984398	0.074347675
236	0x3e7acf7a	0.24493209
237	0x3de25fa4	0.11053398
238	0xbda6d9f4	-0.0814704
239	0x3e19916a	0.14996877
240	0x3e7080ba	0.23486605
241	0x3d284640	0.04108262
242	0x3dbcd518	0.09220332
243	0x3d370f40	0.044692278
244	0x3db3d3ac	0.087806076
245	0xbe51d41f	-0.20491074
246	0x3ebaa77f	0.36455914
247	0xbe1275c8	-0.14302742
248	0xbe5f8492	-0.21827915
249	0x3e875d7d	0.26438513
250	0x3dfd72e4	0.12375429
251	0xbea45cd0	-0.3210206
252	0x3e6b5e0a	0.22985092
253	0xbe4b9ab8	-0.1988324
254	0x3e64976e	0.22323391
255	0xbdf3dbbc	-0.119071454

ln1.weight f4 [256]
0	0x3f800000	1.0
1	0x3f800000	1.0
2	0x3f800000	1.0
3	0x3f800000	1.0
4	0x3f800000	1.0
5	0x3f800000	1.0
6	0x3f800000	1.0
7	0x3f800000	1.0
8	0x3f800000	1.0
9	0x3f800000	1.0
10	0x3f800000	1.0
11	0x3f800000	1.0
12	0x3f800000	1.0
13	0x3f800000	1.0
14	0x3f800000	1.0
15	0x3f800000	1.0
16	0x3f800000	1.0
17	0x3f800000	1.0
18	0x3f800000	1.0
19	0x3f800000	1.0
20	0x3f800000	1.0
21	0x3f800000	1.0
22	0x3f800000	1.0
23	0x3f800000	1.0
24	0x3f800000	1.0
25	0x3f800000	1.0
26	0x3f800000	1.0
27	0x3f800000	1.0
28	0x3f800000	1.0
29	0x3f800000	1.0
30	0x3f800000	1.0
31	0x3f800000	1.0
32	0x3f800000	1.0
33	0x3f800000	1.0
34	0x3f800000	1.0
35	0x3f800000	1.0
36	0x3f800000	1.0
37	0x3f800000	1.0
38	0x3f800000	1.0
39	0x3f800000	1.0
40	0x3f800000	1.0
41	0x3f800000	1.0
42	0x3f800000	1.0
43	0x3f800000	1.0
44	0x3f800000	1.0
45	0x3f800000	1.0
46	0x3f800000	1.0
47	0x3f800000	1.0
48	0x3f800000	1.0
49	0x3f800000	1.0
50	0x3f800000	1.0
51	0x3f800000	1.0
52	0x3f800000	1.0
53	0x3f800000	1.0
54	0x3f800000	1.0
55	0x3f800000	1.0
56	0x3f800000	1.0
57	0x3f800000	1.0
58	0x3f800000	1.0
59	0x3f800000	1.0
60	0x3f800000	1.0
61	0x3f800000	1.0
62	0x3f800000	1.0
63	0x3f800000	1.0
64	0x3f800000	1.0
65	0x3f800000	1.0
66	0x3f800000	1.0
67	0x3f800000	1.0
68	0x3f800000	1.0
69	0x3f800000	1.0
70	0x3f800000	1.0
71	0x3f800000	1.0
72	0x3f800000	1.0
73	0x3f800000	1.0
74	0x3f800000	1.0
75	0x3f800000	1.0
76	0x3f800000	1.0
77	0x3f800000	1.0
78	0x3f800000	1.0
79	0x3f800000	1.0
80	0x3f800000	1.0
81	0x3f800000	1.0
82	0x3f800000	1.0
83	0x3f800000	1.0
84	0x3f800000	1.0
85	0x3f800000	1.0
86	0x3f800000	1.0
87	0x3f800000	1.0
88	0x3f800000	1.0
89	0x3f800000	1.0
90	0x3f800000	1.0
91	0x3f800000	1.0
92	0x3f800000	1.0
93	0x3f800000	1.0
94	0x3f800000	1.0
95	0x3f800000	1.0
96	0x3f800000	1.0
97	0x3f800000	1.0
98	0x3f800000	1.0
99	0x3f800000	1.0
100	0x3f800000	1.0
101	0x3f800000	1.0
102	0x3f800000	1.0
103	0x3f800000	1.0
104	0x3f800000	1.0
105	0x3f800000	1.0
106	0x3f800000	1.0
107	0x3f800000	1.0
108	0x3f800000	1.0
109	0x3f800000	1.0
110	0x3f800000	1.0
111	0x3f800000	1.0
112	0x3f800000	1.0
113	0x3f800000	1.0
114	0x3f800000	1.0
115	0x3f800000	1.0
116	0x3f800000	1.0
117	0x3f800000	1.0
118	0x3f800000	1.0
119	0x3f800000	1.0
120	0x3f800000	1.0
121	0x3f800000	1.0
122	0x3f800000	1.0
123	0x3f800000	1.0
124	0x3f800000	1.0
125	0x3f800000	1.0
126	0x3f800000	1.0
127	0x3f800000	1.0
128	0x3f800000	1.0
129	0x3f800000	1.0
130	0x3f800000	1.0
131	0x3f800000	1.0
132	0x3f800000	1.0
133	0x3f800000	1.0
134	0x3f800000	1.0
135	0x3f800000	1.0
136	0x3f800000	1.0
137	0x3f800000	1.0
138	0x3f800000	1.0
139	0x3f800000	1.0
140	0x3f800000	1.0
141	0x3f800000	1.0
142	0x3f800000	1.0
143	0x3f800000	1.0
144	0x3f800000	1.0
145	0x3f800000	1.0
146	0x3f800000	1.0
147	0x3f800000	1.0
148	0x3f800000	1.0
149	0x3f800000	1.0
150	0x3f800000	1.0
151	0x3f800000	1.0
152	0x3f800000	1.0
153	0x3f800000	1.0
154	0x3f800000	1.0
155	0x3f800000	1.0
156	0x3f800000	1.0
157	0x3f800000	1.0
158	0x3f800000	1.0
159	0x3f800000	1.0
160	0x3f800000	1.0
161	0x3f800000	1.0
162	0x3f800000	1.0
163	0x3f800000	1.0
164	0x3f800000	1.0
165	0x3f800000	1.0
166	0x3f800000	1.0
167	0x3f800000	1.0
168	0x3f800000	1.0
169	0x3f800000	1.0
170	0x3f800000	1.0
171	0x3f800000	1.0
172	0x3f800000	1.0
173	0x3f800000	1.0
174	0x3f800000	1.0
175	0x3f800000	1.0
176	0x3f800000	1.0
177	0x3f800000	1.0
178	0x3f800000	1.0
179	0x3f800000	1.0
180	0x3f800000	1.0
181	0x3f800000	1.0
182	0x3f800000	1.0
183	0x3f800000	1.0
184	0x3f800000	1.0
185	0x3f800000	1.0
186	0x3f800000	1.0
187	0x3f800000	1.0
188	0x3f800000	1.0
189	0x3f800000	1.0
190	0x3f800000	1.0
191	0x3f800000	1.0
192	0x3f800000	1.0
193	0x3f800000	1.0
194	0x3f800000	1.0
195	0x3f800000	1.0
196	0x3f800000	1.0
197	0x3f800000	1.0
198	0x3f800000	1.0
199	0x3f800000	1.0
200	0x3f800000	1.0
201	0x3f800000	1.0
202	0x3f800000	1.0
203	0x3f800000	1.0
204	0x3f800000	1.0
205	0x3f800000	1.0
206	0x3f800000	1.0
207	0x3f800000	1.0
208	0x3f800000	1.0
209	0x3f800000	1.0
210	0x3f800000	1.0
211	0x3f800000	1.0
212	0x3f800000	1.0
213	0x3f800000	1.0
214	0x3f800000	1.0
215	0x3f800000	1.0
216	0x3f800000	1.0
217	0x3f800000	1.0
218	0x3f800000	1.0
219	0x3f800000	1.0
220	0x3f800000	1.0
221	0x3f800000	1.0
222	0x3f800000	1.0
223	0x3f800000	1.0
224	0x3f800000	1.0
225	0x3f800000	1.0
226	0x3f800000	1.0
227	0x3f800000	1.0
228	0x3f800000	1.0
229	0x3f800000	1.0
230	0x3f800000	1.0
231	0x3f800000	1.0
232	0x3f800000	1.0
233	0x3f800000	1.0
234	0x3f800000	1.0
235	0x3f800000	1.0
236	0x3f800000	1.0
237	0x3f800000	1.0
238	0x3f800000	1.0
239	0x3f800000	1.0
240	0x3f800000	1.0
241	0x3f800000	1.0
242	0x3f800000	1.0
243	0x3f800000	1.0
244	0x3f800000	1.0
245	0x3f800000	1.0
246	0x3f800000	1.0
247	0x3f800000	1.0
248	0x3f800000	1.0
249	0x3f800000	1.0
250	0x3f800000	1.0
251	0x3f800000	1.0
252	0x3f800000	1.0
253	0x3f800000	1.0
254	0x3f800000	1.0
255	0x3f800000	1.0

ln1.bias f4 [256]
0	0x00000000	0.0
1	0x00000000	0.0
2	0x00000000	0.0
3	0x00000000	0.0
4	0x00000000	0.0
5	0x00000000	0.0
6	0x00000000	0.0
7	0x00000000	0.0
8	0x00000000	0.0
9	0x00000000	0.0
10	0x00000000	0.0
11	0x00000000	0.0
12	0x00000000	0.0
13	0x00000000	0.0
14	0x00000000	0.0
15	0x00000000	0.0
16	0x00000000	0.0
17	0x00000000	0.0
18	0x00000000	0.0
19	0x00000000	0.0
20	0x00000000	0.0
21	0x00000000	0.0
22	0x00000000	0.0
23	0x00000000	0.0
24	0x00000000	0.0
25	0x00000000	0.0
26	0x00000000	0.0
27	0x00000000	0.0
28	0x00000000	0.0
29	0x00000000	0.0
30	0x00000000	0.0
31	0x00000000	0.0
32	0x00000000	0.0
33	0x00000000	0.0
34	0x00000000	0.0
35	0x00000000	0.0
36	0x00000000	0.0
37	0x00000000	0.0
38	0x00000000	0.0
39	0x00000000	0.0
40	0x00000000	0.0
41	0x00000000	0.0
42	0x00000000	0.0
43	0x00000000	0.0
44	0x00000000	0.0
45	0x00000000	0.0
46	0x00000000	0.0
47	0x00000000	0.0
48	0x00000000	0.0
49	0x00000000	0.0
50	0x00000000	0.0
51	0x00000000	0.0
52	0x00000000	0.0
53	0x00000000	0.0
54	0x00000000	0.0
55	0x00000000	0.0
56	0x00000000	0.0
57	0x00000000	0.0
58	0x00000000	0.0
59	0x00000000	0.0
60	0x00000000	0.0
61	0x00000000	0.0
62	0x00000000	0.0
63	0x00000000	0.0
64	0x00000000	0.0
65	0x00000000	0.0
66	0x00000000	0.0
67	0x00000000	0.0
68	0x00000000	0.0
69	0x00000000	0.0
70	0x00000000	0.0
71	0x00000000	0.0
72	0x00000000	0.0
73	0x00000000	0.0
74	0x00000000	0.0
75	0x00000000	0.0
76	0x00000000	0.0
77	0x00000000	0.0
78	0x00000000	0.0
79	0x00000000	0.0
80	0x00000000	0.0
81	0x00000000	0.0
82	0x00000000	0.0
83	0x00000000	0.0
84	0x00000000	0.0
85	0x00000000	0.0
86	0x00000000	0.0
87	0x00000000	0.0
88	0x00000000	0.0
89	0x00000000	0.0
90	0x00000000	0.0
91	0x00000000	0.0
92	0x00000000	0.0
93	0x00000000	0.0
94	0x00000000	0.0
95	0x00000000	0.0
96	0x00000000	0.0
97	0x00000000	0.0
98	0x00000000	0.0
99	0x00000000	0.0
100	0x00000000	0.0
101	0x00000000	0.0
102	0x00000000	0.0
103	0x00000000	0.0
104	0x00000000	0.0
105	0x00000000	0.0
106	0x00000000	0.0
107	0x00000000	0.0
108	0x00000000	0.0
109	0x00000000	0.0
110	0x00000000	0.0
111	0x00000000	0.0
112	0x00000000	0.0
113	0x00000000	0.0
114	0x00000000	0.0
115	0x00000000	0.0
116	0x00000000	0.0
117	0x00000000	0.0
118	0x00000000	0.0
119	0x00000000	0.0
120	0x00000000	0.0
121	0x00000000	0.0
122	0x00000000	0.0
123	0x00000000	0.0
124	0x00000000	0.0
125	0x00000000	0.0
126	0x00000000	0.0
127	0x00000000	0.0
128	0x00000000	0.0
129	0x00000000	0.0
130	0x00000000	0.0
131	0x00000000	0.0
132	0x00000000	0.0
133	0x00000000	0.0
134	0x00000000	0.0
135	0x00000000	0.0
136	0x00000000	0.0
137	0x00000000	0.0
138	0x00000000	0.0
139	0x00000000	0.0
140	0x00000000	0.0
141	0x00000000	0.0
142	0x00000000	0.0
143	0x00000000	0.0
144	0x00000000	0.0
145	0x00000000	0.0
146	0x00000000	0.0
147	0x00000000	0.0
148	0x00000000	0.0
149	0x00000000	0.0
150	0x00000000	0.0
151	0x00000000	0.0
152	0x00000000	0.0
153	0x00000000	0.0
154	0x00000000	0.0
155	0x00000000	0.0
156	0x00000000	0.0
157	0x00000000	0.0
158	0x00000000	0.0
159	0x00000000	0.0
160	0x00000000	0.0
161	0x00000000	0.0
162	0x00000000	0.0
163	0x00000000	0.0
164	0x00000000	0.0
165	0x00000000	0.0
166	0x00000000	0.0
167	0x00000000	0.0
168	0x00000000	0.0
169	0x00000000	0.0
170	0x00000000	0.0
171	0x00000000	0.0
172	0x00000000	0.0
173	0x00000000	0.0
174	0x00000000	0.0
175	0x00000000	0.0
176	0x00000000	0.0
177	0x00000000	0.0
178	0x00000000	0.0
179	0x00000000	0.0
180	0x00000000	0.0
181	0x00000000	0.0
182	0x00000000	0.0
183	0x00000000	0.0
184	0x00000000	0.0
185	0x00000000	0.0
186	0x00000000	0.0
187	0x00000000	0.0
188	0x00000000	0.0
189	0x00000000	0.0
190	0x00000000	0.0
191	0x00000000	0.0
192	0x00000000	0.0
193	0x00000000	0.0
194	0x00000000	0.0
195	0x00000000	0.0
196	0x00000000	0.0
197	0x00000000	0.0
198	0x00000000	0.0
199	0x00000000	0.0
200	0x00000000	0.0
201	0x00000000	0.0
202	0x00000000	0.0
203	0x00000000	0.0
204	0x00000000	0.0
205	0x00000000	0.0
206	0x00000000	0.0
207	0x00000000	0.0
208	0x00000000	0.0
209	0x00000000	0.0
210	0x00000000	0.0
211	0x00000000	0.0
212	0x00000000	0.0
213	0x00000000	0.0
214	0x00000000	0.0
215	0x00000000	0.0
216	0x00000000	0.0
217	0x00000000	0.0
218	0x00000000	0.0
219	0x00000000	0.0
220	0x00000000	0.0
221	0x00000000	0.0
222	0x00000000	0.0
223	0x00000000	0.0
224	0x00000000	0.0
225	0x00000000	0.0
226	0x00000000	0.0
227	0x00000000	0.0
228	0x00000000	0.0
229	0x00000000	0.0
230	0x00000000	0.0
231	0x00000000	0.0
232	0x00000000	0.0
233	0x00000000	0.0
234	0x00000000	0.0
235	0x00000000	0.0
236	0x00000000	0.0
237	0x00000000	0.0
238	0x00000000	0.0
239	0x00000000	0.0
240	0x00000000	0.0
241	0x00000000	0.0
242	0x00000000	0.0
243	0x00000000	0.0
244	0x00000000	0.0
245	0x00000000	0.0
246	0x00000000	0.0
247	0x00000000	0.0
248	0x00000000	0.0
249	0x00000000	0.0
250	0x00000000	0.0
251	0x00000000	0.0
252	0x00000000	0.0
253	0x00000000	0.0
254	0x00000000	0.0
255	0x00000000	0.0

fc2.weight f4 [128, 256]
0	0x3bf20000	0.007385254
1	0xbcbdf868	-0.023189738
2	0x3c5fb0a0	0.0136529505
3	0xbd18acd4	-0.037274197
4	0xbc94047c	-0.018068545
5	0xbc2b7000	-0.010463715
6	0x3d32ce26	0.04365363
7	0xbd040fdc	-0.032241687
8	0x3c924a50	0.0178577
9	0x3c8cfd18	0.017210528
10	0xbcd0b668	-0.025477603
11	0x3d6ec61a	0.058294393
12	0x3d74b428	0.059742123
13	0x3d00d864	0.031456366
14	0x3d16a4fc	0.036778435
15	0xbd7e1c02	-0.06203843
16	0xbd287bc0	-0.041133642
17	0xbc0b5f18	-0.008506559
18	0xbd456fd4	-0.04820235
19	0xbcc7c1f8	-0.024384484
20	0xbd25ff6c	-0.040526792
21	0xbcfd55e8	-0.030924752
22	0xbbf31470	-0.007418208
23	0xbcfbbd00	-0.03072977
24	0xbc303090	-0.010753766
25	0x3bef17e0	0.0072965473
26	0x3d43c33c	0.047793612
27	0x3c85ede0	0.01634878
28	0x3c971018	0.018440291
29	0x3d2a0be6	0.041515253
30	0xbd414b52	-0.04719097
31	0xbc3281e0	-0.010895222
32	0xbd4ea8d0	-0.05045396
33	0xbd2d70b4	-0.04234381
34	0xbc8f49bc	-0.017491214
35	0xbd3adf4c	-0.04562311
36	0xbd2ca804	-0.04215242
37	0x3ad726c0	0.0016414747
38	0xbcc04e58	-0.023474857
39	0xbd27bbe2	-0.040950663
40	0x3d347984	0.0440612
41	0xbc86fdf0	-0.016478509
42	0xbb2d6980	-0.0026460588
43	0x3ce64e9c	0.028113656
44	0x3c035df8	0.008018009
45	0x3d569108	0.052384406
46	0x3d7aef42	0.06126333
47	0x3c799518	0.015233301
48	0x3cbefc68	0.023313716
49	0xbcba3a38	-0.022732839
50	0x3d737108	0.059433967
51	0xbd0b07d6	-0.03394302
52	0xbd7d4e7c	-0.061842427
53	0x3cce6168	0.025192931
54	0xbcff40d8	-0.03115885
55	0xbd24c562	-0.0402273
56	0x3d63d4c8	0.055622846
57	0x3d2b20f4	0.041779473
58	0x3b990210	0.0046694353
59	0xbd7e165a	-0.062033035
60	0xbd53d872	-0.05172009
61	0x3b134880	0.0022473633
62	0xbc94e4e0	-0.018175542
63	0x3d57e316	0.0527068
64	0xbd04db82	-0.0324359
65	0xbd42a204	-0.04751779
66	0xbd30852a	-0.043095745
67	0xbd0dc338	-0.034610003
68	0x3c79eb20	0.015253812
69	0x3c206d28	0.00979165
70	0x3d23618e	0.039887957
71	0xbd0454fe	-0.032307617
72	0xbc5e58e0	-0.013570994
73	0xbc204ea0	-0.009784371
74	0x3d20f180	0.039292812
75	0x39b22200	0.00033976138
76	0x3d147fb0	0.036254585
77	0x3c953058	0.018211529
78	0x3cd7aab8	0.026326522
79	0x3cdafc3c	0.026731603
80	0xbd248f46	-0.0401757
81	0xbcf8d3c0	-0.030374408
82	0x3c7b48f0	0.015337214
83	0xbbf69130	-0.007524632
84	0x3d4795ea	0.048726954
85	0x3cafd214	0.021462478
86	0xbc8ad590	-0.016947538
87	0x3c364dd0	0.01112695
88	0xbc7edcc0	-0.015555561
89	0x3d24ca04	0.04023172
90	0x3d77612c	0.060395405
91	0xbcffffc4	-0.031249888
92	0x3d1d85da	0.03845773
93	0xbd514586	-0.051091693
94	0xbd726d8c	-0.059186503
95	0xbd00d4e6	-0.031453036
96	0x3d2bf6b6	0.04198333
97	0x3d0cc11c	0.03436385
98	0xbc159840	-0.0091305375
99	0xbb756900	-0.0037446618
100	0x3c3ff160	0.011715263
101	0x3d55a794	0.052161768
102	0xbd733162	-0.059373267
103	0xbd6c0ae2	-0.057627566
104	0x3d6b8f8e	0.05750995
105	0x3b31ed40	0.0027149469
106	0xbc202f08	-0.009776838
107	0x3aabd140	0.0013108626
108	0x3cabc10c	0.020966075
109	0x3c568b80	0.013094783
110	0x3ac3f200	0.0014949441
111	0x3d557f9a	0.052123643
112	0xbcf6620c	-0.03007605
113	0xbc390c70	-0.011294469
114	0x3ab80040	0.001403816
115	0xbd7d21c2	-0.061799772
116	0xbd1a2b3a	-0.03763888
117	0x3d73e128	0.059540898
118	0xbd5fd7ca	-0.05464915
119	0xbd622e50	-0.05521995
120	0x3d54b4e6	0.05193033
121	0xbd3a0d1a	-0.04542265
122	0xbc7e55c0	-0.015523374
123	0x3d62c2ae	0.055361442
124	0x3ca395c8	0.019968882
125	0x3c75d6e0	0.0150048435
126	0xbca32288	-0.019913927
127	0x3c061f00	0.008186102
128	0xbd6456da	-0.05574689
129	0x3d612d96	0.054975115
130	0xbd49dd58	-0.049283355
131	0x3bb329c0	0.0054676235
132	0x3d47fb02	0.048823364
133	0x3c70a618	0.014688037
134	0xbc5f0dd0	-0.013614133
135	0x3d739842	0.059471376
136	0x3d7290d4	0.05922015
137	0x3c2301a0	0.009949118
138	0x3cf40954	0.029789604
139	0x3c4eb6c0	0.012616813
140	0xbd690cc0	-0.056896925
141	0x3c35b668	0.011090852
142	0xbc84dd94	-0.016218938
143	0xbc8a5374	-0.016885497
144	0xbd04db40	-0.032435656
145	0x3c86a1bc	0.016434543
146	0xbcbf4f34	-0.023353197
147	0xbb2958a0	-0.0025840178
148	0xbd5d63ba	-0.054050185
149	0xbbd3db60	-0.0064653605
150	0xbce54288	-0.027985826
151	0xbd510420	-0.051029325
152	0xbcc98304	-0.024598606
153	0xbd2726c4	-0.040808454
154	0xbcb923a4	-0.022600003
155	0x3c83681c	0.016040854
156	0xbd4e5c6a	-0.0503811
157	0x3d2c9b3a	0.042140223
158	0x3d5d7ecc	0.054076
159	0xbca33774	-0.019923903
160	0x3b9fd2f0	0.0048774406
161	0x3cd9e438	0.026598081
162	0xbd455a52	-0.04818184
163	0xbc7af2e0	-0.015316695
164	0xbd73619e	-0.059419267
165	0xbc7ec0d0	-0.0155489
166	0x3d30e260	0.043184638
167	0xbc2f23c8	-0.010689683
168	0x3ce32b50	0.027730614
169	0x3bc03bc0	0.0058664978
170	0x3c8f4270	0.017487735
171	0xbcbe2c3c	-0.023214452
172	0x3bdbce40	0.0067079365
173	0xb8730800	-5.7943165e-05
174	0xbce12b14	-0.027486362
175	0xbd73741c	-0.059436902
176	0x3d08ed7a	0.0334296
177	0x3d7912b4	0.060808852
178	0xbc67f538	-0.014157586
179	0x3aff2480	0.0019465834
180	0x3a74eb00	0.0009342879
181	0xbd0ba60c	-0.0340939
182	0x3c63a4e8	0.013894297
183	0x3c6b51a0	0.014362723
184	0xbd020140	-0.031739473
185	0xbc34a1a8	-0.01102487
186	0xbd328190	-0.04358059
187	0x3d57f854	0.05272706
188	0xbcd1edac	-0.025626026
189	0x3d236d6e	0.039899282
190	0x3c0ea640	0.008706629
191	0x3cdbffc8	0.026855364
192	0x3d057b04	0.03258802
193	0xbcbf42b8	-0.023347244
194	0x3c573c70	0.013136968
195	0xbcc8874c	-0.024478577
196	0x3d6a6e56	0.05723413
197	0x3d20caa4	0.039255753
198	0xbc5479b0	-0.012968466
199	0xbd71a76c	-0.058997557
200	0x3d532380	0.051547527
201	0xbc67a740	-0.014138997
202	0xbd45548e	-0.04817634
203	0xbc575820	-0.013143569
204	0xbcf9e128	-0.03050287
205	0xbd7b29aa	-0.06131903
206	0xbd546186	-0.051850818
207	0x3d78c6b0	0.06073636
208	0xbd07d830	-0.033165157
209	0x3ceecb54	0.029149689
210	0x3cc60bfc	0.024175636
211	0xbc90eac4	-0.01769007
212	0x3cc01c24	0.023450918
213	0x3d1d145a	0.038349487
214	0xbad1cc40	-0.0016006306
215	0xbd306f0c	-0.043074653
216	0x3d3f11ba	0.046647765
217	0x3b83dcc0	0.004024118
218	0xbd52312a	-0.051316418
219	0x3cf4b660	0.02987212
220	0x3c3cb7e0	0.011518449
221	0x3d51442e	0.05109041
222	0x3d750d26	0.059826992
223	0xbd2ef7d6	-0.042716824
224	0x3cf57398	0.029962346
225	0xbd7a843e	-0.061161272
226	0x3d477b1e	0.048701398
227	0xbd0944f2	-0.033513017
228	0xbcbca2b0	-0.023026794
229	0xbb509fa0	-0.0031833425
230	0x3d3cb536	0.046071254
231	0xbd56ca68	-0.052439123
232	0x3cf11798	0.029430196
233	0xbd2ab9b4	-0.041681007
234	0x3b841100	0.004030347
235	0xbcdd5e4c	-0.027022503
236	0x3c306c28	0.010767974
237	0x3d6690ae	0.05629032
238	0xbcf3a358	-0.029740974
239	0x3c08d370	0.008351192
240	0xbd550448	-0.052006036
241	0x3d463eca	0.048399724
242	0xbc17a088	-0.009254582
243	0x3d2aff88	0.0417476
244	0xbc58f9c0	-0.013243139
245	0xbd697124	-0.056992665
246	0x3d7b355e	0.06133019
247	0xbd6ab5ac	-0.057302162
248	0x3c32f150	0.010921791
249	0x3d254634	0.040350154
250	0xbcd4b654	-0.025965847
251	0xbd27e7bc	-0.040992483
252	0x3d58a0c8	0.052887708
253	0x3d169f9a	0.0367733
254	0xbc86189c	-0.016369157
255	0xbc4a0e48	-0.0123325065

fc2.bias f4 [128]
0	0xbc0db2a0	-0.008648545
1	0xbd1d3d6a	-0.038388647
2	0xbc3982a0	-0.011322647
3	0x3d0738d4	0.03301318
4	0x3d1be320	0.0380584
5	0x3bb12d10	0.005406983
6	0xbc8e1370	-0.017343253
7	0xbc80d9c4	-0.015728839
8	0xbc865918	-0.016399905
9	0x3d355e1e	0.04427921
10	0xbce4958c	-0.02790334
11	0x3ccf9b68	0.025342658
12	0x3cb5c780	0.022189856
13	0x3d494122	0.04913438
14	0x3d232c7c	0.039837345
15	0xbcf37a88	-0.029721513
16	0xbcb964bc	-0.022631042
17	0x3c16d7d8	0.009206735
18	0x3d1d1c24	0.038356915
19	0x3cb45890	0.022014886
20	0xbcd65500	-0.026163578
21	0x3cdc717c	0.026909582
22	0xbd61ad22	-0.055096753
23	0xbc9ace90	-0.018897325
24	0x3d03e1dc	0.03219782
25	0x3d7e7c86	0.062130474
26	0x3bd8c6a0	0.006615475
27	0x3d0e7848	0.034782678
28	0xbd706634	-0.05869122
29	0xbd726438	-0.059177607
30	0x3ce90ec0	0.028449416
31	0x3c62d4f0	0.013844714
32	0xbd20624a	-0.039156236
33	0x3d3174c6	0.043324254
34	0x3c9dd8e8	0.019268468
35	0xbd00df48	-0.031462938
36	0xbd77ec66	-0.06052818
37	0xbc8d0f3c	-0.017219178
38	0xbc032910	-0.0080053955
39	0x3c435578	0.011922233
40	0xbd2de2fa	-0.04245279
41	0xbcd868bc	-0.026417129
42	0xbd18f812	-0.037345953
43	0xbc9e7694	-0.019343652
44	0xbc343110	-0.010998026
45	0xbd2a6ce8	-0.041607767
46	0x3d3f28d6	0.046669804
47	0x3c45aa58	0.012064539
48	0xbd0664ee	-0.032811098
49	0x3be1a720	0.006886378
50	0xbd7204dc	-0.059086666
51	0xbb52c960	-0.0032163486
52	0xbd0fd752	-0.035117455
53	0xbd12a928	-0.03580585
54	0xbcd7b604	-0.026331909
55	0xbc6e8520	-0.014558107
56	0xbca0cec4	-0.019629844
57	0x3d351558	0.044209808
58	0xbd0ae082	-0.033905514
59	0xbd023100	-0.03178501
60	0xbd256044	-0.04037501
61	0x3ca9fcc0	0.020750403
62	0x3d110592	0.035405703
63	0xbd471f34	-0.048613742
64	0x3d5f9d52	0.05459339
65	0x3c8da72c	0.017291628
66	0xbc266940	-0.0101569295
67	0x3c7b6778	0.015344493
68	0xbc30ee88	-0.010799058
69	0x3d4fc548	0.05072525
70	0xbcea2780	-0.028583288
71	0x3b882bf0	0.0041556284
72	0xbd45d67e	-0.04830026
73	0xbbbd3a40	-0.005774766
74	0x3d2f6e00	0.042829514
75	0xbcc69a9c	-0.024243645
76	0xbd17aacc	-0.03702812
77	0xbbc0d950	-0.0058852807
78	0x3c5bfba0	0.013426691
79	0x3d2ef890	0.042717516
80	0x3d70a5d2	0.05875189
81	0x3d17f738	0.037101
82	0xbaf519c0	-0.0018699691
83	0x3c405090	0.011737958
84	0x3ca29008	0.01984407
85	0xbd10d1ee	-0.035356455
86	0x3cccccb8	0.024999961
87	0x3c96f064	0.018425174
88	0xbd6d95a8	-0.05800405
89	0xbd332230	-0.043733776
90	0x3d246738	0.0401375
91	0xbd15e7e6	-0.03659811
92	0xbd5564e0	-0.052098155
93	0xbc952788	-0.018207327
94	0xbc843fdc	-0.016143732
95	0x3d11dd8a	0.035611667
96	0xbd6fd17a	-0.05854938
97	0xbcc1c114	-0.023651637
98	0x3baa0bb0	0.0051893815
99	0xbb8ed240	-0.00435856
100	0xbc9355e0	-0.017985284
101	0xbd6c194e	-0.05764132
102	0xbce56328	-0.028001383
103	0x3d3eb91c	0.046563253
104	0xbc8d6840	-0.017261624
105	0xbd667760	-0.05626619
106	0x3c8a30e4	0.016869016
107	0x3cd70828	0.026249006
108	0x3b7fbf60	0.003902398
109	0x3d1dc86e	0.038521223
110	0x3b593880	0.003314525
111	0x3d09aff8	0.033615083
112	0x3d3cf8f4	0.046135858
113	0x3cc0d314	0.02353815
114	0x3d7faf20	0.06242287
115	0xbb3f4ee0	-0.00291913
116	0xbd34abe2	-0.044109233
117	0x3bc57380	0.0060257316
118	0xbd231d08	-0.03982261
119	0x3c196f40	0.009364903
120	0xbcad3540	-0.021143556
121	0xbc80e300	-0.015733242
122	0xbc8ae728	-0.016955927
123	0x3d1092e6	0.035296343
124	0xbd5981e6	-0.053102396
125	0xbd774c00	-0.060375214
126	0xbc5802c8	-0.013184257
127	0x3ceb4938	0.028721437

ln2.weight f4 [128]
0	0x3f800000	1.0
1	0x3f800000	1.0
2	0x3f800000	1.0
3	0x3f800000	1.0
4	0x3f800000	1.0
5	0x3f800000	1.0
6	0x3f800000	1.0
7	0x3f800000	1.0
8	0x3f800000	1.0
9	0x3f800000	1.0
10	0x3f800000	1.0
11	0x3f800000	1.0
12	0x3f800000	1.0
13	0x3f800000	1.0
14	0x3f800000	1.0
15	0x3f800000	1.0
16	0x3f800000	1.0
17	0x3f800000	1.0
18	0x3f800000	1.0
19	0x3f800000	1.0
20	0x3f800000	1.0
21	0x3f800000	1.0
22	0x3f800000	1.0
23	0x3f800000	1.0
24	0x3f800000	1.0
25	0x3f800000	1.0
26	0x3f800000	1.0
27	0x3f800000	1.0
28	0x3f800000	1.0
29	0x3f800000	1.0
30	0x3f800000	1.0
31	0x3f800000	1.0
32	0x3f800000	1.0
33	0x3f800000	1.0
34	0x3f800000	1.0
35	0x3f800000	1.0
36	0x3f800000	1.0
37	0x3f800000	1.0
38	0x3f800000	1.0
39	0x3f800000	1.0
40	0x3f800000	1.0
41	0x3f800000	1.0
42	0x3f800000	1.0
43	0x3f800000	1.0
44	0x3f800000	1.0
45	0x3f800000	1.0
46	0x3f800000	1.0
47	0x3f800000	1.0
48	0x3f800000	1.0
49	0x3f800000	1.0
50	0x3f800000	1.0
51	0x3f800000	1.0
52	0x3f800000	1.0
53	0x3f800000	1.0
54	0x3f800000	1.0
55	0x3f800000	1.0
56	0x3f800000	1.0
57	0x3f800000	1.0
58	0x3f800000	1.0
59	0x3f800000	1.0
60	0x3f800000	1.0
61	0x3f800000	1.0
62	0x3f800000	1.0
63	0x3f800000	1.0
64	0x3f800000	1.0
65	0x3f800000	1.0
66	0x3f800000	1.0
67	0x3f800000	1.0
68	0x3f800000	1.0
69	0x3f800000	1.0
70	0x3f800000	1.0
71	0x3f800000	1.0
72	0x3f800000	1.0
73	0x3f800000	1.0
74	0x3f800000	1.0
75	0x3f800000	1.0
76	0x3f800000	1.0
77	0x3f800000	1.0
78	0x3f800000	1.0
79	0x3f800000	1.0
80	0x3f800000	1.0
81	0x3f800000	1.0
82	0x3f800000	1.0
83	0x3f800000	1.0
84	0x3f800000	1.0
85	0x3f800000	1.0
86	0x3f800000	1.0
87	0x3f800000	1.0
88	0x3f800000	1.0
89	0x3f800000	1.0
90	0x3f800000	1.0
91	0x3f800000	1.0
92	0x3f800000	1.0
93	0x3f800000	1.0
94	0x3f800000	1.0
95	0x3f800000	1.0
96	0x3f800000	1.0
97	0x3f800000	1.0
98	0x3f800000	1.0
99	0x3f800000	1.0
100	0x3f800000	1.0
101	0x3f800000	1.0
102	0x3f800000	1.0
103	0x3f800000	1.0
104	0x3f800000	1.0
105	0x3f800000	1.0
106	0x3f800000	1.0
107	0x3f800000	1.0
108	0x3f800000	1.0
109	0x3f800000	1.0
110	0x3f800000	1.0
111	0x3f800000	1.0
112	0x3f800000	1.0
113	0x3f800000	1.0
114	0x3f800000	1.0
115	0x3f800000	1.0
116	0x3f800000	1.0
117	0x3f800000	1.0
118	0x3f800000	1.0
119	0x3f800000	1.0
120	0x3f800000	1.0
121	0x3f800000	1.0
122	0x3f800000	1.0
123	0x3f800000	1.0
124	0x3f800000	1.0
125	0x3f800000	1.0
126	0x3f800000	1.0
127	0x3f800000	1.0

ln2.bias f4 [128]
0	0x00000000	0.0
1	0x00000000	0.0
2	0x00000000	0.0
3	0x00000000	0.0
4	0x00000000	0.0
5	0x00000000	0.0
6	0x00000000	0.0
7	0x00000000	0.0
8	0x00000000	0.0
9	0x00000000	0.0
10	0x00000000	0.0
11	0x00000000	0.0
12	0x00000000	0.0
13	0x00000000	0.0
14	0x00000000	0.0
15	0x00000000	0.0
16	0x00000000	0.0
17	0x00000000	0.0
18	0x00000000	0.0
19	0x00000000	0.0
20	0x00000000	0.0
21	0x00000000	0.0
22	0x00000000	0.0
23	0x00000000	0.0
24	0x00000000	0.0
25	0x00000000	0.0
26	0x00000000	0.0
27	0x00000000	0.0
28	0x00000000	0.0
29	0x00000000	0.0
30	0x00000000	0.0
31	0x00000000	0.0
32	0x00000000	0.0
33	0x00000000	0.0
34	0x00000000	0.0
35	0x00000000	0.0
36	0x00000000	0.0
37	0x00000000	0.0
38	0x00000000	0.0
39	0x00000000	0.0
40	0x00000000	0.0
41	0x00000000	0.0
42	0x00000000	0.0
43	0x00000000	0.0
44	0x00000000	0.0
45	0x00000000	0.0
46	0x00000000	0.0
47	0x00000000	0.0
48	0x00000000	0.0
49	0x00000000	0.0
50	0x00000000	0.0
51	0x00000000	0.0
52	0x00000000	0.0
53	0x00000000	0.0
54	0x00000000	0.0
55	0x00000000	0.0
56	0x00000000	0.0
57	0x00000000	0.0
58	0x00000000	0.0
59	0x00000000	0.0
60	0x00000000	0.0
61	0x00000000	0.0
62	0x00000000	0.0
63	0x00000000	0.0
64	0x00000000	0.0
65	0x00000000	0.0
66	0x00000000	0.0
67	0x00000000	0.0
68	0x00000000	0.0
69	0x00000000	0.0
70	0x00000000	0.0
71	0x00000000	0.0
72	0x00000000	0.0
73	0x00000000	0.0
74	0x00000000	0.0
75	0x00000000	0.0
76	0x00000000	0.0
77	0x00000000	0.0
78	0x00000000	0.0
79	0x00000000	0.0
80	0x00000000	0.0
81	0x00000000	0.0
82	0x00000000	0.0
83	0x00000000	0.0
84	0x00000000	0.0
85	0x00000000	0.0
86	0x00000000	0.0
87	0x00000000	0.0
88	0x00000000	0.0
89	0x00000000	0.0
90	0x00000000	0.0
91	0x00000000	0.0
92	0x00000000	0.0
93	0x00000000	0.0
94	0x00000000	0.0
95	0x00000000	0.0
96	0x00000000	0.0
97	0x00000000	0.0
98	0x00000000	0.0
99	0x00000000	0.0
100	0x00000000	0.0
101	0x00000000	0.0
102	0x00000000	0.0
103	0x00000000	0.0
104	0x00000000	0.0
105	0x00000000	0.0
106	0x00000000	0.0
107	0x00000000	0.0
108	0x00000000	0.0
109	0x00000000	0.0
110	0x00000000	0.0
111	0x00000000	0.0
112	0x00000000	0.0
113	0x00000000	0.0
114	0x00000000	0.0
115	0x00000000	0.0
116	0x00000000	0.0
117	0x00000000	0.0
118	0x00000000	0.0
119	0x00000000	0.0
120	0x00000000	0.0
121	0x00000000	0.0
122	0x00000000	0.0
123	0x00000000	0.0
124	0x00000000	0.0
125	0x00000000	0.0
126	0x00000000	0.0
127	0x00000000	0.0

action.weight f4 [2, 128]
0	0xb9e49f7e	-0.0004360638
1	0xba156ffe	-0.0005700587
2	0xb8655150	-5.4673583e-05
3	0x3a2e70aa	0.00066543615
4	0xb8303dd0	-4.2019237e-05
5	0x3a6e3a12	0.00090876326
6	0x38adeba0	8.2931714e-05
7	0x3a679336	0.0008833887
8	0x39d46578	0.0004051139
9	0x3993e550	0.00028208876
10	0xb9e4b0f6	-0.00043619395
11	0xb8af20c8	-8.350756e-05
12	0x395d6ea0	0.00021117413
13	0x3a2e5a9c	0.0006651075
14	0x3a6141ee	0.0008592893
15	0x3a80f4a1	0.000983853
16	0x3a62d1e8	0.0008652494
17	0xb8f1cd80	-0.00011530053
18	0x3a1a3652	0.0005882728
19	0x39aac39c	0.00032570667
20	0x3915d698	0.0001428969
21	0xb889a020	-6.562495e-05
22	0x393d6580	0.00018062256
23	0x3742fd00	1.1622207e-05
24	0xba4f64dc	-0.00079114526
25	0x39124138	0.00013947941
26	0x39640c80	0.00021748431
27	0x3a67eb18	0.00088469824
28	0x399ffccc	0.00030515192
29	0x3910ae40	0.00013797823
30	0xba207ca0	-0.0006122086
31	0xb9a48ede	-0.00031386962
32	0xb94967a0	-0.00019207457
33	0x395b4128	0.0002090974
34	0xba42aa11	-0.00074258546
35	0x39c1cc90	0.0003696424
36	0x39b82c8c	0.00035128405
37	0x399c9038	0.0002986209
38	0x3964b548	0.00021811307
39	0x3a20c712	0.00061331794
40	0x3a805ff9	0.0009794227
41	0xba519ef8	-0.00079964055
42	0x39f6a1ec	0.00047041418
43	0x39109d58	0.00013791525
44	0xb9bc11dc	-0.0003587146
45	0xba198df4	-0.00058576395
46	0x39eb9c4c	0.00044939143
47	0x39edd17c	0.0004536024
48	0xb9cd18f6	-0.00039119244
49	0x39480a00	0.00019077212
50	0x35255800	6.1595347e-07
51	0xb88d3ce0	-6.734743e-05
52	0xba1b2360	-0.0005918052
53	0x3a178298	0.0005779653
54	0x39c96564	0.0003841325
55	0xb85c6cb0	-5.255331e-05
56	0x39c144a0	0.00036862958
57	0x39e8a680	0.0004437454
58	0xb6588c00	-3.2268e-06
59	0xba0b0b58	-0.00053041195
60	0x3a08d174	0.0005219199
61	0x38665bc0	5.4921722e-05
62	0xb951deb8	-0.00020014762
63	0x3a738ca8	0.0009290674
64	0x3a188a2c	0.0005818929
65	0x39e6e360	0.00044038426
66	0x39f4c524	0.00046686188
67	0x3982d7d8	0.00024956348
68	0x3a09cae0	0.0005256366
69	0xba6484e2	-0.0008717311
70	0xba049cda	-0.0005058773
71	0xba2f9af4	-0.000669881
72	0x3a3629a0	0.00069489516
73	0xba6b5873	-0.00089777185
74	0x3a029ccc	0.0004982471
75	0xb9b0b2bc	-0.00033702503
76	0x3a7890ac	0.0009482007
77	0xb9a2264e	-0.00030927587
78	0xb98537c8	-0.00025409297
79	0xba060a4e	-0.000511323
80	0x39a0c648	0.0003066531
81	0xba1f37bf	-0.00060736755
82	0x3a40d6a4	0.00073562027
83	0xba636482	-0.00086743396
84	0x3a5eb340	0.0008495338
85	0x39984460	0.00029042643
86	0x3a2614c4	0.0006335492
87	0x39812828	0.00024634716
88	0xba5712f8	-0.00082044257
89	0x39b39260	0.00034250598
90	0xba132c2e	-0.0005614188
91	0xba7ef180	-0.00097253174
92	0x3a6c3bbc	0.00090115867
93	0xba02590f	-0.0004972377
94	0x3a53a6be	0.0008073858
95	0x39a7e200	0.00032021105
96	0xb9f26426	-0.00046232453
97	0xb9fe3dc8	-0.00048492686
98	0x3a7d542e	0.0009663728
99	0xb986179a	-0.00025576056
100	0x3a126ade	0.00055853825
101	0x38b79fc0	8.755876e-05
102	0x3a46d79c	0.0007585229
103	0xba020cfe	-0.00049610424
104	0xba281442	-0.000641171
105	0x3a75b04a	0.00093722774
106	0xba528ae2	-0.00080315594
107	0x37e5a0c0	2.7373782e-05
108	0x3a7efb52	0.00097267807
109	0xba062fc3	-0.00051188114
110	0xba3b6630	-0.0007148711
111	0x3a3c6a64	0.00071874843
112	0xb9dab094	-0.0004171176
113	0xba1e541d	-0.00060397555
114	0x3a23b466	0.0006244838
115	0xba6ca77c	-0.00090276427
116	0x38c43880	9.356532e-05
117	0x399404a4	0.00028232217
118	0xb8c252d0	-9.266066e-05
119	0xb8c6fc28	-9.4883435e-05
120	0xb9b8d7dc	-0.00035256043
121	0x3a547d18	0.00081057986
122	0x397a6f98	0.0002388343
123	0xba1955bf	-0.0005849264
124	0x3a23ea8c	0.0006252907
125	0x3a7ec0ca	0.0009718059
126	0xb8b8be58	-8.809258e-05
127	0x3a17193e	0.0005763954
128	0x38048f80	3.1604897e-05
129	0x3a3d1cd8	0.0007214076
130	0x39bc85e8	0.00035957922
131	0xba8068e9	-0.0009796891
132	0xb9a42e00	-0.0003131479
133	0xba431a40	-0.0007442571
134	0xba4dc9b9	-0.00078501884
135	0xb84ab9c0	-4.8333546e-05
136	0x3a2c885a	0.0006581597
137	0x39b548cc	0.00034577248
138	0xb99350a0	-0.00028098095
139	0xba30ef1b	-0.00067494967
140	0x3a779502	0.0009444506
141	0xb9f3548c	-0.00046411564
142	0x389ace60	7.3817326e-05
143	0x39a98abc	0.00032337557
144	0x3a27c5ca	0.00064000173
145	0xb9b3907c	-0.0003424919
146	0xba4abffc	-0.00077342964
147	0xba2b57a0	-0.00065361895
148	0xb81ed8f0	-3.7872174e-05
149	0x39ab1860	0.00032633822
150	0x3a4e958c	0.00078805606
151	0x3a37f8a8	0.00070179487
152	0xba53ac0d	-0.0008074649
153	0xb9baa728	-0.00035601226
154	0xb9f5c24e	-0.0004687481
155	0xba7cd2f7	-0.00096444733
156	0xba328c32	-0.0006811052
157	0xba658b7e	-0.00087564427
158	0x398f6ef4	0.00027357752
159	0x3a62201a	0.00086259993
160	0x3a5249c0	0.0008021854
161	0xb9ba18ce	-0.00035495166
162	0xba3809ca	-0.00070205017
163	0x3a2411aa	0.00062587357
164	0xba782565	-0.00094660214
165	0xb8206330	-3.823935e-05
166	0xb986aa90	-0.0002568555
167	0x3a22f8e6	0.00062168983
168	0xb9c25fb2	-0.00037073862
169	0xb895bfa0	-7.1405666e-05
170	0x3a2f97ea	0.0006698357
171	0x3a5a5cc6	0.00083298644
172	0xb9db85f0	-0.00041870726
173	0xba6d6051	-0.0009055185
174	0xba03d8fa	-0.00050295854
175	0xba533d61	-0.00080581574
176	0xb870df80	-5.742861e-05
177	0xb9c6ee1a	-0.00037942902
178	0xb9cc5c36	-0.00038978615
179	0x3788ca00	1.6306527e-05
180	0x39c49d3c	0.00037501182
181	0x3a2e6e78	0.00066540344
182	0xb8b6f9f0	-8.724991e-05
183	0xba30ae1b	-0.0006739811
184	0xba3ab9d0	-0.0007123025
185	0xb9e69dc8	-0.00043986575
186	0x391ab560	0.00014754152
187	0xb9cf94c6	-0.00039592962
188	0xb937c670	-0.00017526164
189	0x3a51592c	0.0007986005
190	0xb7767200	-1.4689285e-05
191	0x39f10aec	0.0004597524
192	0x3a3099c8	0.00067367824
193	0xb9ad3702	-0.00033038115
194	0x39bb8370	0.00035765348
195	0x398971d0	0.00026215473
196	0xb8533e30	-5.0364237e-05
197	0xb9b57c2a	-0.0003461552
198	0x39170f90	0.0001440628
199	0x39ca4778	0.0003858169
200	0xba0cbf1b	-0.0005369053
201	0x397dc7a0	0.00024202326
202	0xb9fdffe0	-0.00048446562
203	0xb790e140	-1.7271028e-05
204	0xb9d022ca	-0.0003969877
205	0xb9c53f06	-0.00037621724
206	0x39c93e0c	0.00038383936
207	0xb91b2304	-0.00014794996
208	0xba03d471	-0.00050289097
209	0xba47c35f	-0.000762036
210	0xba057b83	-0.0005091952
211	0xba36ab8e	-0.00069683127
212	0x3a3518b6	0.0006908284
213	0x3a4ad0a2	0.0007736777
214	0x39d1a080	0.00039983168
215	0xb8e6b8c8	-0.00011001673
216	0xba75226f	-0.00093511393
217	0xba53bd44	-0.0008077214
218	0x39e1ff4c	0.00043105555
219	0x3a17ecba	0.0005795468
220	0x3a74edd8	0.0009343303
221	0xba3bf7e8	-0.0007170425
222	0x3a562088	0.00081682997
223	0x3a3fc09e	0.0007314774
224	0xba336de4	-0.0006844683
225	0x39eb7bec	0.00044915022
226	0xba44b2d2	-0.0007503453
227	0x3a3d846c	0.000722951
228	0x3a548660	0.00081071816
229	0xba3e0fea	-0.0007250296
230	0x39b63c98	0.0003475889
231	0xb9f595a6	-0.00046841538
232	0x3a485acc	0.00076429243
233	0x3990eb58	0.00027641165
234	0x3a40e122	0.0007357766
235	0xba378e8e	-0.00070021383
236	0xb88bfed8	-6.675505e-05
237	0xba24b532	-0.0006283104
238	0xba0d277c	-0.0005384607
239	0xb9a2f8ac	-0.00031084323
240	0xb9b89ada	-0.00035210588
241	0xb718ad80	-9.100302e-06
242	0xb9b272d6	-0.00034036365
243	0xba6ba3da	-0.00089889544
244	0x3a22326e	0.0006187324
245	0xb9da64fa	-0.00041655434
246	0xb917a7c8	-0.00014462986
247	0x38a740a0	7.975218e-05
248	0x3a576468	0.0008216561
249	0xba2bb804	-0.0006550553
250	0x3a5bdf6e	0.00083874806
251	0xba3f9d9e	-0.00073095586
252	0xb94d59f4	-0.00019583834
253	0xba23647e	-0.0006232931
254	0xb9a700d6	-0.00031853345
255	0xb9834fe4	-0.0002504579

action.bias f4 [2]
0	0x39bc8554	0.00035957491
1	0xb9a7a358	-0.00031974423
