s10lre4e3CCM_MADRL_MEC/model/50-400-8-10-40/PDQN/9-discrete_actors.pth (torch, 145127 bytes, 6 tensors)

fc1.weight f4 [256, 9]
00000000: 7f23 093e e038 2d3e dc38 2d3e 01b7 81be
00000010: 9b43 783e 9f53 06be 8b77 30be 90d1 33be
00000020: b04c a83c 72b5 173e e65d 86be a273 c2bd
00000030: d719 a9be f6c8 9ebb 204d 9a3d e030 2bbe
00000040: c3df 203d 6667 5abe 7d95 073e 5939 06be
00000050: 8d87 b53d bf4f a5bd f649 563c dd11 debd
00000060: 6060 87be 1f2c 5e3e ca13 cf3d a10a 943e
00000070: e12e e23d aab2 57be 7123 203d 6c51 073d
00000080: 81e0 62be 9a69 2b3e 74a7 cbbd 0c05 9bbc
00000090: a798 d63d 9c75 2e3d 0ba3 753e 9094 88be
000000a0: dc87 69be f220 97be a9c7 1e3e ce98 103e
000000b0: ab55 8fbe 82ad 6d3e b202 1cbe aaf0 463d
000000c0: 5c74 203e 562c 84be 2caf 46bd 211c c8bc
000000d0: 7f6d 56be fd29 9ebe 16f3 483e 8e84 a83e
000000e0: f0ad 96be 3995 0bbe 4eef a6be 6afb 9fbe
000000f0: a273 db3c a10d 4d3c 17ce 403e 98a4 3f3e
00000100: 37f6 5b3e 4943 b53d 043a 613e a925 853d
00000110: cf5d 73bd 6199 893d 0681 2abe 13a8 45be
00000120: 004c 5b3e eedc e53c 8503 913e 9b12 7fbd
00000130: 22bb 903c 8900 febc 217a 583e 37b3 36bd
00000140: e62a 9e3e b95f 893e 72a2 3f3c a5c7 84be
00000150: 7835 fdbd 8b51 3b3d b0c7 fdbd 2788 8ebe
00000160: f250 433e 4151 973e d89b 87bd 0c56 02be
00000170: 8eb2 4d3e 4e80 f83d b3d1 973e b577 363d
00000180: b5a3 23be b95d e9bc 6c7f 3abc cdcb babd
00000190: 637c a0be c50b 4bbe 22ae 543e 13c4 59bd
000001a0: f0c3 34be c78b 48be f594 063e eaf4 0c3e
000001b0: 302f 713e 3708 17be 178c 933e a59b f33d
000001c0: dbbc 89be e06e a4bd 5f04 58bd a89d 92be
000001d0: cc0c 88bd 1893 fe3d 0a22 28be c97b a6be
000001e0: 0413 03bd 3b82 35be f686 ef3b e581 43be
000001f0: 3e7a 88be 7b41 00be f281 54be 297f c7bd
00000200: fdda 0dbe 6125 383e 985e f33d 0c5f 973e
00000210: 94f9 993e 13be 1d3e 8167 903e 3350 8a3c
00000220: 95ee 4f3d 4b2a 373d d063 053e a2c9 b83d
00000230: a152 16bc c23c 913d 1a24 873e 8677 2dbd
00000240: f61d 693e 39cb d83d b932 883d 80e1 9cbc
00000250: dfdf 3d3e 8994 7cbe e012 9ebe 4f32 d93d
00000260: 4606 473e 1a25 573e cebd 823e 24e2 233c
00000270: eb43 85be 24b4 0b3e de00 92be b7ae 7c3e
00000280: a3ef 97be fe4b 00be b876 023e 7c20 f33d
00000290: 283e 7ebd d68c b1bd ade4 8a3e 36c0 b33c
000002a0: de1f 543e f884 0a3e 6c6b 923e 73f1 5f3c
000002b0: f014 2c3e c4c2 463e c0a8 28be b837 a03e
000002c0: d622 07be 226e c1bd 5773 eebd d252 c23c
000002d0: 3b61 93be 5be0 5fbe 59a9 49be 2aa4 4d3e
000002e0: 8077 f2bd 656b 703e 65fe 7b3e 09e3 24be
000002f0: 745d 99be 690b 44be c377 08bd 7aa6 303e
00000300: c70b 18bd 2d42 e53d e5af 5dbd 7901 e7bd
00000310: e3a4 e63d e8b9 7bbe 1b75 863e ceda 7abe
00000320: ffda 45be 9050 01be 679d 7e3e 8072 01bd
00000330: 8df5 7bbe c27e 333d 0505 2c3b 6663 dabd
00000340: ad77 70be 80fd 8d3d c60a 07be 49da 62be
00000350: db90 7e3e 0f2a 8b3e 7332 813e 4659 adbd
00000360: 6b12 4fbe 3697 5ebe 4dba 963e 1a3e a53e
00000370: 0425 a9be 26d6 5a3d 5f25 213e 2e54 2ebd
00000380: 09bb a7be 265a 203e 79d4 a73e 3ca7 aabd
00000390: 0722 a93e 1dd3 7b3e c239 7b3c ca0d b5bd
000003a0: 99a3 80be 0d75 84bd c723 473e f3d5 2dbc
000003b0: c1b7 a03e f63e a7be 5bbe 803d 0211 703e
000003c0: 3344 08be 6547 163e 1e17 51be 2030 7abe
000003d0: 4423 8b3e 9496 19be dbdb e5bd 351d 4e3e
000003e0: bf40 01be 062a 3a3d e5ce 583d 4d10 713d
000003f0: 8c7a f6bd 4a58 9e3e 7315 85be f446 773e
0.13392447 0.16916227 0.16916221 -0.25334933 0.2424454 -0.13117836 -0.17233102 -0.1756041
0.02054438 0.1481531 -0.26243514 -0.094947115 -0.33027527 -0.0048457338 0.07534242 -0.16717863
0.039275896 -0.21328506 0.13240619 -0.13107814 0.08863745 -0.08071851 0.013079157 -0.10843251
-0.26440716 0.21696518 0.10111196 0.2891436 0.11044098 -0.21064249 0.0390963 0.033036634
-0.22155954 0.16739503 -0.099440485 -0.018923305 0.10478335 0.04259263 0.23987977 -0.26675844
-0.22805732 -0.29517323 0.15505852 0.1412079 -0.27995047 0.23210719 -0.15235403 0.04856936
0.15669388 -0.25815076 -0.0485069 -0.024427475 -0.20940207 -0.3089141 0.1962398 0.3291363
-0.2942958 -0.13631143 -0.3260445 -0.312465 0.026788536 0.012515456 0.18828617 0.18715131
0.21480642 0.08850724 0.21994787 0.06501324 -0.059415635 0.06718708 -0.16650781 -0.19302396
0.2141571 0.028059449 0.28322998 -0.062273603 0.017667357 -0.031006115 0.21140338 -0.044604506
0.30892104 0.26830843 0.011696445 -0.25933567 -0.12363714 0.045732062 -0.12391603 -0.2783825
0.19073847 0.2955418 -0.06621522 -0.12728137 0.20087644 0.12133847 0.29652175 0.044547755
-0.15980418 -0.028487073 -0.011382919 -0.09120903 -0.313449 -0.19828708 0.20769551 -0.053165507
-0.17652869 -0.19584571 0.1314276 0.13765302 0.23553157 -0.14749227 0.28817818 0.11894921
-0.26901898 -0.0802896 -0.052738544 -0.28635907 -0.06643066 0.124304 -0.16419235 -0.32516316
-0.032000557 -0.1772546 0.00730979 -0.1909252 -0.26655763 -0.12524979 -0.20752695 -0.09741051
-0.13853069 0.17983009 0.11883277 0.29564703 0.30073225 0.15404539 0.28203967 0.016883945
0.05076464 0.044718068 0.13026357 0.090228334 -0.009174974 0.07091667 0.2639473 -0.042350315
0.22765335 0.10585637 0.066502996 -0.019150496 0.18542431 -0.24666037 -0.30873775 0.10605299
0.19435987 0.21010247 0.25535434 0.010002647 -0.2602838 0.13642937 -0.28516287 0.24676023
-0.29675016 -0.12528989 0.127406 0.1187143 -0.062070996 -0.086694404 0.2712759 0.02194224
0.20715281 0.13527286 0.2859758 0.013668406 0.16804862 0.19410235 -0.16470623 0.3129251
-0.13196883 -0.09444834 -0.11643093 0.023721132 -0.28785118 -0.21862929 -0.19693507 0.20082155
-0.11839199 0.23478468 0.24608763 -0.16102232 -0.29954112 -0.19144978 -0.03331734 0.17251006
-0.037120607 0.11194263 -0.054122824 -0.11279578 0.112619184 -0.24582636 0.2626122 -0.2449753
-0.19321822 -0.12628388 0.24864732 -0.031603336 -0.24605389 0.043822058 0.002624811 -0.1066349
-0.23483153 0.06933117 -0.13187703 -0.22153582 0.24859945 0.27180526 0.25233802 -0.08464293
-0.2022187 -0.2173737 0.2943901 0.32273942 -0.33036053 0.053426884 0.15736912 -0.04256075
-0.32759884 0.15659389 0.3277929 -0.08332679 0.33033773 0.24592252 0.015333595 -0.08840521
-0.25124815 -0.06467638 0.19447242 -0.0106100915 0.31390193 -0.32665223 0.062863074 0.23443988
-0.13307266 0.14675672 -0.20418975 -0.2443242 0.27175343 -0.14998847 -0.11223575 0.20128329
-0.12622355 0.045450233 0.052931685 0.058853436 -0.12035093 0.30926734 -0.25992927 0.2414816

fc1.bias f4 [256]
00000000: b434 9f3d 5974 0a3e df4a 543e a22d 30be
00000010: 0922 4f3e 930d d73d 1c7a f23d 1925 163e
00000020: 0f52 64be e5e0 35be 5067 653d e938 90be
00000030: 871f 7fbe 4977 a53d 4377 863e a5a6 8c3d
00000040: d134 34bd 9e71 f83d 89eb 863e 6b53 673e
00000050: 62d8 4ebd 7b83 2f3e 5185 203e f54e 123e
00000060: 2274 0dbe a660 a43e b0de 2bbd f9be 593e
00000070: d70e e43d a86b ecbc f3a3 a8bd a916 a63e
00000080: 166c 1abd e1f0 d8bd dbf7 88be 89bf 58be
00000090: 1473 133d f6c1 06be a8b8 413e a5e1 8d3d
000000a0: c817 91be 5c28 253e 27b7 973e 3be0 e9bd
000000b0: 7737 2f3e a105 71be 6780 733e 9295 c53d
000000c0: a1e5 863e 9016 9fbe 4c0b 5e3d 83fa 82be
000000d0: 953e 71be 6163 973e 5b7d 00be afa7 a5be
000000e0: a5b6 d63d 1920 2b3d aa1e 7c3d 38a1 513e
000000f0: 8339 883e 877f eabc f640 09be ee33 3ebe
00000100: 7dd6 1dbe 9dca 89bc 0a63 11be cabd 843e
00000110: d436 8ebe 0353 db3d 5279 f6bd 1b45 663e
00000120: 6289 b93c 15df 833e 7eee 39be 4ada 233e
00000130: c353 a9be f220 96be c0b8 44bd 41fc a93e
00000140: 4a95 523d 1992 87be e737 92be 3912 c33d
00000150: 7002 553e 04d7 97bc 4c6c 2cbe e78d 073e
00000160: 7a8b 2b3e 3bba 653e f77f 393e 2a5f 533e
00000170: 8e8d 8dbc afc2 b7bd c5e4 7e3e f4b2 8dbe
00000180: 7163 04be bbb3 9abd c58b 5a3e 33ee a1be
00000190: effd 8bbe d15e 093d c4b4 61bd 1af5 a2bc
000001a0: bc11 bb3d 69c6 50be 8fbf 433e 8474 a93e
000001b0: 600b 94bd 28cc a5be 9260 673e fdc8 553e
000001c0: 88d5 3abe 8204 9bbe 1efe 86be 4136 a13d
000001d0: a75a 13bd f92a 5bbe 1587 8dbe 6528 753d
000001e0: 573b 89be 8bf5 83be 39b6 dfbd e1a6 9bbe
000001f0: 688d 32bd 28bc 61be e5d1 4dbd ad27 733e
00000200: 0233 26b9 5bca 233d 2003 69be 1011 07bd
00000210: e800 c4bc 6eb8 c53d 7845 02be 2540 82be
00000220: dd7f 8fbe 720b a1be 6258 39be a755 883e
00000230: 175f 3e3e 499a 05be edff 7f3e 64d6 35be
00000240: 2094 043e 875c 433e b488 833e 3f6c 843e
00000250: 5022 4bbe d2bf 81bb e70c f33d 22b7 613e
00000260: 1165 f73d a380 353e 6cac b3bd ff81 92be
00000270: 9fad 34be f9d0 81bd 08b2 483e d7a2 9abe
00000280: 4b15 63bd a8ce 4fbd a69a a43e b6b3 99bd
00000290: 8cbf 94be 5b32 883e 53e9 8e3d c765 a2be
000002a0: 3714 dbbb 5b15 edbd b31b 2abe a76f 9d3e
000002b0: d74c a93e 16fe 15bd f797 f8bd 7b8b 803d
000002c0: 38a0 43bd 587a 90be fb80 f7bc 95f8 8ebe
000002d0: e905 21bd 05bc 623e 52f6 923e 67a8 20be
000002e0: 05c0 70bd da8c 80bd b9ce 553e bd53 6ebe
000002f0: d520 a23d 38fe 52bd 4ac6 103e db71 da3d
00000300: 8879 9ebe 17f0 633d d814 953e a9cc 303c
00000310: a3bb 66be 2e6c b3bd ecf5 a33e 02f9 a8bd
00000320: 6c0a 393e 62d4 953d 86d9 8f3e 3232 8cbe
00000330: 0ae4 543d 82b3 193e 4cbd 86be 6ffb fb3d
00000340: 1a5d 93bd 9c40 abbe 9490 85bb 9754 8d3c
00000350: 5643 18bd 29f0 5b3e 3357 47be a9b7 0c3e
00000360: 6c36 133e 7c54 a7be a0a9 21be 4d0e 853e
00000370: 465c 8e3e e1f6 8fbc 7fba 1bbe 7081 923e
00000380: 3253 82bd 1039 423e 9956 afbd 06f6 9dbd
00000390: 44be 673e 72a0 bfbd 91e0 f63c c621 393e
000003a0: 807b 3d3e ecd6 8c3d 96d0 223e 08b4 82bd
000003b0: 9c9e 783e a893 8dbe ee09 36be a5e6 d7bd
000003c0: 7b6a d63d f11f a73e 8187 d43d 2722 eb3c
000003d0: d9d0 77be 2c04 33be a205 92be a3f7 6a3d
000003e0: 3fac 88be 1363 2b3e 0c89 a33e d403 a43d
000003f0: cb9a 6a3e 6f6f a13d 21df e1bd 71c5 86be
0.07773724 0.13520946 0.20731686 -0.17204908 0.20227827 0.10500636 0.11839697 0.14662589
-0.22296928 -0.17761572 0.05600673 -0.2816842 -0.2491437 0.080793925 0.26262864 0.068677224
-0.043995682 0.12131046 0.26351574 0.22590415 -0.050499327 0.1714 0.15675856 0.14287932
-0.13813832 0.32104987 -0.04196042 0.21264257 0.11135643 -0.028859928 -0.08234396 0.32439163
-0.037700735 -0.10592819 -0.267516 -0.21166815 0.03599842 -0.13159928 0.18918097 0.06927804
-0.28338456 0.16128677 0.29631922 -0.11419722 0.17111002 -0.23537304 0.2377945 0.09647669
0.26347068 -0.310719 0.054209992 -0.2558175 -0.2355903 0.29568008 -0.1254782 -0.32354495
0.104840554 0.041778658 0.06155268 0.20471656 0.26606378 -0.028625263 -0.13403687 -0.18574497
-0.15413852 -0.016820246 -0.14197937 0.25926048 -0.27776206 0.107091926 -0.12034859 0.22487299
0.022648517 0.25756136 -0.18157384 0.1600124 -0.33071718 -0.2932201 -0.048027754 0.33200267
0.051411904 -0.2647865 -0.28558275 0.0952496 0.20801711 -0.018535145 -0.16838187 0.13237725
0.16752425 0.22434323 0.18115221 0.20641771 -0.017279413 -0.0897268 0.24891956 -0.27675593
-0.12928559 -0.07553812 0.2134238 -0.31627044 -0.27342173 0.03353769 -0.055104032 -0.019892264
0.09134242 -0.20388187 0.19116043 0.33096707 -0.07228732 -0.3238232 0.22595432 0.20877452
-0.18245518 -0.30276877 -0.2636575 0.07871676 -0.035975125 -0.21403112 -0.27642122 0.059852976
-0.26803085 -0.25773272 -0.10923428 -0.30400756 -0.043591887 -0.22044432 -0.050249 0.23745604
-0.00015849996 0.039987903 -0.22755098 -0.032975256 -0.023926213 0.09654318 -0.12721813 -0.25439563
-0.2802724 -0.31454045 -0.18100122 0.26627848 0.18590961 -0.13047136 0.24999972 -0.17757565
0.1294713 0.19078265 0.25690234 0.25863835 -0.19837308 -0.0039596343 0.11867695 0.22042516
0.12079824 0.17724852 -0.08773121 -0.28614804 -0.17644356 -0.063386865 0.19599164 -0.30202362
-0.05544023 -0.050734192 0.32149237 -0.0750498 -0.2905239 0.26600918 0.06978097 -0.31718275
-0.0066857594 -0.11576339 -0.16612129 0.30749246 0.33066437 -0.03661927 -0.1213836 0.06276604
-0.04776022 -0.2821834 -0.03021287 -0.27924028 -0.039312277 0.22142036 0.28703552 -0.1568924
-0.058776874 -0.06276865 0.2087964 -0.23274131 0.079164185 -0.051511973 0.14138141 0.106662475
-0.30952096 0.05564889 0.29117465 0.010790982 -0.22532515 -0.08760868 0.3202356 -0.082506195
0.18070382 0.073158994 0.28095645 -0.27382046 0.051975287 0.15009883 -0.26316297 0.123038165
-0.07195492 -0.3344773 -0.004076073 0.01725225 -0.03717359 0.21478333 -0.19466858 0.13741936
0.14376229 -0.32681644 -0.15787363 0.25987473 0.27804774 -0.017573776 -0.15207861 0.28614378
-0.063635245 0.1896708 -0.08561439 -0.07712941 0.22631174 -0.093567744 0.030136378 0.1807929
0.18504143 0.068769306 0.15899882 -0.063819945 0.24279255 -0.27651715 -0.17777225 -0.10542039
0.10469528 0.32641557 0.10377408 0.028702809 -0.24200763 -0.1748206 -0.28519922 0.05736507
-0.26693913 0.16737013 0.31940496 0.08008543 0.22910611 0.078825824 -0.110288866 -0.2632251

fc2.weight f4 [128, 256]
00000000: 565d 093d 3907 83bc f4a9 333d 510e ce3b
00000010: aefc aabc efc1 b7bc 955d 2c3c 8643 99bc
00000020: cb91 19bd a25e fb3c 473a 563d 95fb 383d
00000030: 99b0 22bd 60e2 55bd 73bf 25bd a1e1 4e3d
00000040: 3e9e 4d3d b6f5 acbc e8c0 363d 56ff 93bc
00000050: 536b 403d 4718 52bd 6c31 17bd 1885 1e3d
00000060: 2743 053d 7fad 27bd dcf7 5dbd e845 293d
00000070: d02b 033c ea5e 123d 9989 773b 3edb 0a3d
00000080: 6aba a2ba dc7d 27bd f659 34bd 49bf 06bd
00000090: 84b8 5bbd 4cd7 17bd 7083 5e3b 133d 1cbd
000000a0: 057c 9c3b 81de 5cbd dd1f 24bc 839e e03c
000000b0: 5fba 2cbc e288 543d 2506 2e3c 2fd1 c03b
000000c0: a177 e6ba 7e28 78bb 8310 88bc 5ce0 67bb
000000d0: a915 8d3d 3789 4abd 11e7 4f3d c17c 6cbd
000000e0: 3e0e 0cbd bae3 dbbc 9787 483d a58b 52bd
000000f0: 6043 043d b4d4 35bd ee6f 9abb dba8 db3a
00000100: f0be fd3c 4e76 22bd d994 01bd c692 26bd
00000110: dbcc 9abb 9a2b aabc 58a7 ce3c 4549 4fbd
00000120: 78b5 5f3d 5187 40bd 9843 4ebd ab70 9dbc
00000130: 6934 1cbc d5a3 15bd 4ea8 343d c534 4fbc
00000140: 93ea cd3c d0b9 4c3d 8bfe 303d f40d a53c
00000150: f11f 2dbc a464 463c 3710 70bd 2b2f ff3c
00000160: 3673 5ebd 12dc 94bd ebd0 58bd e55d 143d
00000170: cfc7 9c3c b4a0 323d ec35 3cbd dc6b c43b
00000180: 06a2 05bb 5b21 353d 60a6 55bc 935c b2bc
00000190: 99c9 543d 8dcb 0d3d fe17 5f3c b38c 84bd
000001a0: a205 913c 410a 42bd c90b 6a3d 5777 093c
000001b0: 105d debb 6653 663b a674 acbc 73cd e23c
000001c0: 7099 13bc 9e77 aabc 7e5e 693c 60e4 71bd
000001d0: 0968 78bd 231f ee3c 7eb9 43bd d36c 763c
000001e0: dd62 81bd af78 f6bb f878 77bd d1a7 5a3b
000001f0: 7ba6 173d 80ca 72bd eeed 8a3c ac01 4bbc
00000200: 6ca4 3abb f1fc e53c 8693 5bbd 0bdb 663d
00000210: 1cde 793d 165a fbbc aa52 9cbc 5b95 5abd
00000220: cd2c a3bc e5f5 013b aaa2 05bd 0133 b6bb
00000230: 3dd7 d8bc 97be d53b c354 743d 4143 673c
00000240: e404 8ebd c4fb 163d b321 60bd f04e 09bd
00000250: 4db4 78bc 1cea 143d b691 223d 25f0 d1bc
00000260: f3aa 8c3c 30bc 033d 1782 86bd d577 093d
00000270: 0f70 443d 51ce 723d b544 f93b e91b 47bd
00000280: 1448 56bd b04c 91bb 6986 063d d28f 07bd
00000290: 9bf7 c33b 941b 793d 80cd a33c 86e0 d1bb
000002a0: 4799 21bd 84c2 66bc c701 23bd eaca 62bd
000002b0: f02e 4fbd e1d6 93bc 7540 5d3d be56 493d
000002c0: 63b0 2abc df52 29bd 14b9 013d e38d a0bc
000002d0: db8c 08bd 5a4f 413d de21 a6bc d365 9cbc
000002e0: 30d9 523d c41c 52bc 64c7 253c 1bc9 04bc
000002f0: 3255 e6bc 3d68 7abd 4568 5bbd 91cf 3f3c
00000300: 5dd3 e6bc 064f b0bc 20e2 253d a325 53bc
00000310: 703f d03c 6400 013d 429c 60bd 3f70 bf3b
00000320: a348 3dbc c539 fc3c 1e81 863c ad4d 7abd
00000330: 2117 433d 2086 2e3d d107 b0bc ef16 b7bc
00000340: 849d 6a3d e871 a73a e428 0ebd 3989 e0bc
00000350: 68e4 9cbc 2678 70bb 1aff 11bd 081a 033c
00000360: e4e6 e3bb b3de 61bd 96c2 27bd 1fb2 5b3c
00000370: 51fb 45bd ab41 133d c810 5abd d97b 9f3b
00000380: d83e 5dbd 5a60 47ba 89a0 f53c 9c4d 4a3d
00000390: 99ed f3bc db57 03bd b85c d7bc 14c2 933c
000003a0: 614f 3f3c f515 ff3c 7c2a d1bc 5298 b23c
000003b0: 8fd6 eb3c 6170 3ebd c0d2 c1bc 989e 78bc
000003c0: abd2 e5bc 9f28 653d 4c2a c2ba 26cf ea3c
000003d0: 24ca 15bd ac56 9abc 0a97 3e3d 52b8 5c3d
000003e0: 26de da3b 04b1 7abd 2dfe 7b3d db0e 5cbc
000003f0: 2a65 06bd 3fa6 143c 472c 8e3b 3325 b4bc
0.033536278 -0.015994655 0.04386325 0.0062883277 -0.02087244 -0.022431342 0.010520359 -0.018708955
-0.037492555 0.030684773 0.05230167 0.045161802 -0.039719198 -0.05221784 -0.040465783 0.050508145
0.05019974 -0.021113258 0.044617563 -0.01806609 0.046977352 -0.051292684 -0.036912367 0.038701147
0.032534745 -0.040936943 -0.054191455 0.041326433 0.008006051 0.03573505 0.0037771224 0.033900492
-0.0012415175 -0.040891513 -0.044031106 -0.032897267 -0.053642765 -0.037070557 0.0033952855 -0.038144182
0.0047755265 -0.053923134 -0.010017362 0.027419334 -0.010542481 0.051888354 0.010621582 0.0058843116
-0.001758326 -0.0037865932 -0.016609436 -0.0035381531 0.06888897 -0.049447265 0.05075747 -0.057736162
-0.03419327 -0.026841987 0.048957434 -0.051402707 0.032290816 -0.044392303 -0.00471305 0.0016758697
0.030974835 -0.039663605 -0.031636093 -0.040667318 -0.0047241277 -0.020772744 0.02522628 -0.050606985
0.05461642 -0.047004048 -0.05035743 -0.019218763 -0.00953398 -0.036533196 0.04410582 -0.012646859
0.025136268 0.049981892 0.0432115 0.020148255 -0.010566697 0.0121089555 -0.058609214 0.031150421
-0.054309092 -0.072685376 -0.052933615 0.036222357 0.019138245 0.04361029 -0.04594986 0.005994303
-0.0020390763 0.044221263 -0.013040155 -0.021772658 0.05195007 0.03461795 0.01361656 -0.06472149
0.017702881 -0.04737306 0.057140145 0.008390269 -0.0067859963 0.0035144924 -0.021051716 0.027685856
-0.00900875 -0.020808991 0.01424372 -0.059055686 -0.06064609 0.029067582 -0.04778432 0.015040594
-0.06317685 -0.007521711 -0.0604181 0.0033364187 0.037024003 -0.05927515 0.016959157 -0.012390535
-0.002847935 0.028074713 -0.053607486 0.05636124 0.061002836 -0.030682605 -0.019082386 -0.053365093
-0.019918824 0.0019830402 -0.03262583 -0.0055602794 -0.026469821 0.006522964 0.059651148 0.014115156
-0.069345266 0.036861196 -0.054719638 -0.033522546 -0.015179706 0.036356077 0.039689742 -0.025627205
0.017171359 0.03216189 -0.065677814 0.033561546 0.04795843 0.05927879 0.0076070675 -0.0486106
-0.052314833 -0.0044341907 0.032843027 -0.033096142 0.0059804446 0.060817316 0.019995451 -0.006404939
-0.039452817 -0.014084462 -0.039796617 -0.055369295 -0.050581872 -0.018046798 0.05401655 0.04915499
-0.01041803 -0.041338798 0.031670645 -0.019598907 -0.033337455 0.047194816 -0.020279821 -0.019091522
0.051476657 -0.012824241 0.010118339 -0.008104588 -0.028116796 -0.061134566 -0.053566236 0.0117072025
-0.028176958 -0.021522056 0.040498853 -0.012887391 0.025420874 0.031494513 -0.05483652 0.005842238
-0.0115529625 0.030789265 0.01641899 -0.061109234 0.04762948 0.04260838 -0.021488102 -0.022349803
0.057279125 0.0012775036 -0.034706965 -0.027409183 -0.019151881 -0.0036692708 -0.035643674 0.008001812
-0.0069550145 -0.055144023 -0.040957056 0.013409167 -0.048335377 0.035951298 -0.05323866 0.0048670587
-0.05401501 -0.0007605605 0.029983776 0.04939042 -0.029776381 -0.032066207 -0.026289329 0.01803688
0.01167664 0.0311384 -0.025532953 0.021801148 0.028788833 -0.04649389 -0.023660064 -0.01517453
-0.028054556 0.055946942 -0.0014813631 0.02866323 -0.03656973 -0.018840156 0.04653076 0.05388672
0.006679314 -0.06120397 0.061521698 -0.013431276 -0.03281132 0.009072839 0.0043387744 -0.021990394

fc2.bias f4 [128]
00000000: d429 20bd c038 d23c 4505 5dbd be6b 2c3d
00000010: 00cb 68bd 5ee5 c2bc b518 793c 86eb 123c
00000020: 80af 1c3d b80c efbc 2470 0d3d d23b 413d
00000030: 8b21 ccbc bd17 4ebc c520 57bd 028f 36bd
00000040: 2747 653d 506b b3bc 78a5 7f3d 00a0 3c3d
00000050: 6267 4b3b cb7a e83c 82df d5bc 22f9 353d
00000060: 27c1 fd3c 8970 45bd 38d0 b7bb 1f67 c7bc
00000070: 067a 75bd 9385 d5bb 2cd8 08bd 64ad 69bd
00000080: 58f4 c4b9 00ef 22bd 9600 63bd e8d5 c0bc
00000090: c750 babc de9a 75bd b6c8 473d 6a1e 963b
000000a0: 1c71 0c3d faae 6dbd 9c45 1dbd 5f8c 393d
000000b0: f300 63bd e61b 0c3d a8b9 2f3c 3918 b33c
000000c0: e684 2e3d 2128 563c 2133 5b3d a15a 453c
000000d0: 9be5 92bd 1e35 ac3c 3432 5b3d f549 e9bc
000000e0: acea 2abc f6cb 8abd da34 033d ca20 4cbd
000000f0: 30b2 1f3d fea9 7c3b 3e27 493c e803 7f3d
00000100: 372f 45bd 3306 603c 92c8 3cbd 1ee1 463d
00000110: 4108 11bd 3360 8cbc 1e68 4e3d 0650 c63c
00000120: ff01 8cbc 4b85 013b c572 243d fa8c d739
00000130: 6105 3e3d 9ddf 99bc a4c0 5cbd f8f1 0ebc
00000140: 02b1 293c b9d4 81bd 70e0 633c 91ba 2a3c
00000150: e556 b1bb 9f6e 75bd 4b14 18bc 1f5d 62bd
00000160: e3dd c53c 2b01 273d 417b 5abd 7ea8 74bd
00000170: 3e3f b83a 5af9 4abd 8609 d2bc 6d5b 0f3c
00000180: 42ea 5b3d af42 b53c 7f3e f4bb 96c8 313d
00000190: de49 453d 9048 0f3d 5028 6ebd f791 26bd
000001a0: a4dc 723d 3fd7 19bd 8aaa 6ebd 021f c7bc
000001b0: ebbe 2a3d 1b0e 08bd 92af 99bc 281d 20bb
000001c0: 5f72 adba 9a02 a9bb 92b7 65bc 115e 3b3d
000001d0: 5562 96bc 1ca3 503b b45c a5bc 8ea0 1abd
000001e0: 6205 34bc 97cd 653c 3a3d 1e3d 09e3 d83c
000001f0: 61bd 0e3d d7ef bc3c a1b8 76bd f6a9 eb3c
-0.03910239 0.025661826 -0.053960104 0.04209494 -0.05683422 -0.023791011 0.0152036445 0.008967286
0.038253307 -0.02918087 0.034530774 0.04717619 -0.024918338 -0.012578902 -0.052521486 -0.044569977
0.05597606 -0.021901757 0.062413663 0.046051025 0.0031036963 0.028378865 -0.026107553 0.044427045
0.030975891 -0.048203025 -0.0056095384 -0.024341164 -0.059930824 -0.0065161674 -0.033409283 -0.057050124
-0.00037566083 -0.03977871 -0.05542048 -0.023539498 -0.022743596 -0.059962146 0.048775397 0.0045812624
0.034287557 -0.0580282 -0.038396463 0.045299884 -0.055420827 0.034206294 0.010725416 0.021862136
0.04260721 0.013071091 0.053515557 0.012045533 -0.071727 0.021021422 0.053514674 -0.028477648
-0.010431927 -0.06777184 0.032032825 -0.049835958 0.038988292 0.0038553472 0.0122774225 0.062259585
-0.04814073 0.013673353 -0.046089716 0.048554532 -0.035408262 -0.017135715 0.050392263 0.02420808
-0.017090796 0.0019763287 0.040148515 0.0004111303 0.04639185 -0.018783385 -0.053894654 -0.008724682
0.010357143 -0.06339402 0.013908491 0.010420457 -0.00541197 -0.05991995 -0.009282182 -0.05526459
0.024153655 0.0407726 -0.0533402 -0.059731 0.0014056934 -0.049554206 -0.025639307 0.008749825
0.053690203 0.022126524 -0.007453739 0.043404184 0.04816615 0.03498131 -0.058143914 -0.040666547
0.05929245 -0.03755879 -0.058268107 -0.024306778 0.04168598 -0.033216577 -0.018760476 -0.002443144
-0.0013232938 -0.005157781 -0.014020817 0.045744006 -0.018357435 0.0031835502 -0.020185806 -0.037750773
-0.0109876115 0.014026067 0.03863261 0.026475446 0.034848575 0.023063583 -0.06023467 0.028767567

discrete.weight f4 [2, 128]
00000000: a01e cebc 1a9a 37bd 7045 a73c 2498 4f3d
00000010: c8ab 913d bcc5 47bd e2da a93d a5a7 1cbc
00000020: 782f 0dbd 62cf ebbc 0657 413c 486f 3e3d
00000030: 9e6e 9a3d 73b0 cfbc 9f48 9f3d ff18 193c
00000040: 1e00 6a3c 2c0b 543c 91de 57bc 1ae0 f63c
00000050: 5c3d 74bd a383 54ba 4ae9 eebb 6b90 273d
00000060: 3bd7 14bd 92bc 79bd d105 16bd f86b d0bc
00000070: 0748 6bbd 85b0 0cbc 1d78 093c 059a a0bd
00000080: 4382 b13b d178 c53b 38c6 9fbd 8b97 893c
00000090: 54f9 dc3c f33b 97bd 05e2 b1bc 0102 913d
000000a0: 0fce f23c 0d06 203d d265 a43d 667e 56bc
000000b0: ba41 a03d 1739 9abd 9b8b 3d3c 515b c7bc
000000c0: 9a6d bf3c ef2c 34bd 28c7 973d 552b 343d
000000d0: efae 9c3c 1e7c bf3c 7aab 4b3a b675 a7bd
000000e0: b4a2 f8bc 6567 ff3c f340 7cbc c608 13bd
000000f0: acf6 26bd 89a2 cbbb fb77 9bbd c852 083d
00000100: a39c a53b 4e6d a2bd 4c17 503d 7e05 c4bc
00000110: d522 81bd bc74 473d 00fe 003d c049 6a3b
00000120: 2518 61bd b8ba 8b3d d2d4 7ebd c6fa 633d
00000130: 4864 b53c 81e9 59bd 7420 ff3c 4062 6cbc
00000140: a30a 433d 4ee1 f73b 063b 1f3d 0151 813c
00000150: 24a0 ab3c 098d bf3c 6da5 ac3d c4c0 95bd
00000160: f264 143d af5e 1b3d 882e bdbc 4f5f 153d
00000170: 7e04 79bd 3d3c 12bc 4a37 a9bd 39bf 873d
00000180: 5018 a73d ad3d 913d 3e38 1e3d 3509 073c
00000190: 0304 a73c e0f3 93bd c6e7 83bd 3edc fbbc
000001a0: 529c 993d 90c3 693d bca9 a93d b25f 1c3d
000001b0: bd1b 99bd 6960 13bc 3e17 13bc 3533 69bc
000001c0: b2d3 0a3c 3f73 4bbd a26b 63bd ddfb 20bd
000001d0: 1d9c dcbb 8821 25bd c551 063d 9463 983d
000001e0: d156 393d 694d eabc c4a5 90bd 1062 8cbd
000001f0: 5153 c6bc 8c1b a3bd a546 433d ec1e 793d
00000200: 565f 903d d9da 163d 06ef 3e3c 2dd6 393d
00000210: b0b9 3bbd 24f0 d43c f9be 093d 631b 243d
00000220: 2ef0 823c 3124 dcbc 489a 483d 1252 cfbc
00000230: 76c4 243d 811f b33c 37fd 1bbc 6280 d6ba
00000240: 323e a9bb 79a6 9abd 9146 a6bc b3e1 88bd
00000250: 9733 4abd e730 0fbd 7cff 123d 07bc 0abd
00000260: 9d79 073c 43d1 52ba d2c2 80bd 7e92 7e3d
00000270: 0236 80bd effc 9d3d 771d d9bb e80c 2dbc
00000280: d037 81bd 1839 823d 310a 54bd 8c45 eebc
00000290: c925 1fbd 70c4 af3d 2d1f 3fbd fa66 92bc
000002a0: 5571 313d 3440 6e3d a4d2 36bd ad18 89bd
000002b0: b6f9 833d f835 bd3d 1124 0b3d afda 30bd
000002c0: 816b 91bd ddc4 8ebd a825 47bd de23 043d
000002d0: c395 abbd ebe7 89bd 062a eebc 18a8 0bbd
000002e0: 4927 1f3d 00b9 83bd 4083 cc3c 7ea6 0bbd
000002f0: fb3d c53c 0f15 6fbd 8929 d33c 8ddc 4fbd
00000300: 42e0 31bd bc3c 2f3d 7584 95bd 90eb 90bd
00000310: 8b9a 8cbc 28f2 263d 6c79 75bc eb9f 03bc
00000320: e397 5abd bd9b a5bc c3dd a9bc 5c73 333d
00000330: be01 8e3c 5e16 623d dab7 8c3c c492 8e3d
00000340: 0f97 debc f170 af3d 9611 943d 8938 b9bd
00000350: 1d80 d6bd 667e 34bd 69d9 0cbd 3713 ba3d
00000360: 51cf f23c a465 a33d 9270 99bd 46af 06bd
00000370: 6ea0 813d 8ab8 1f3d 9219 913d 8691 2fbd
00000380: 36e4 543c 85eb 37bd 9412 823c 9d12 473d
00000390: be94 3dbb 1529 a1bc c468 853d 2c66 623c
000003a0: 2755 16bc 477e 69bd f1cc 72bc d97e a2bd
000003b0: f34d b4bb 48cd c6bc fdcd b7bc 18cb 753d
000003c0: c385 88bc 0675 be3d da8b 283d 5f9d 98bd
000003d0: 5b48 083d d248 b13d c176 27bd 8dae 523c
000003e0: a207 99bd e1fb 31bc 214b bb3c 6b90 0bbd
000003f0: e292 833d c0ac 5dbd 2131 a0bd 3955 07bd
-0.025161088 -0.044824697 0.020418853 0.050682202 0.07112843 -0.04877256 0.08293702 -0.009561454
-0.034469098 -0.028785411 0.011800533 0.046492845 0.0754063 -0.025352692 0.07777523 0.009344338
0.0142822545 0.012942117 -0.013175623 0.030136157 -0.05962883 -0.00081067736 -0.007290994 0.040909212
-0.036338072 -0.06097085 -0.03662664 -0.025442109 -0.057441738 -0.008587007 0.008390454 -0.07841877
0.0054171397 0.0060263653 -0.07801479 0.016795894 0.026974358 -0.07384481 -0.02171422 0.0708046
0.029639272 0.03906827 0.08027233 -0.013091659 0.07825036 -0.0753042 0.011568929 -0.024335535
0.023367692 -0.043988165 0.07411033 0.043986637 0.019126384 0.023374613 0.00077693874 -0.081767485
-0.03035102 0.031177232 -0.0153963445 -0.03589704 -0.04076259 -0.006214444 -0.07591244 0.03328207
0.005054073 -0.079310045 0.050803468 -0.0239284 -0.06305472 0.04869531 0.031492233 0.0035749525
-0.054954667 0.06822723 -0.06221468 0.055659078 0.022142544 -0.053201202 0.031143405 -0.0144277215
0.047617566 0.0075647 0.03887465 0.015785696 0.020950384 0.02338268 0.0842999 -0.07312158
0.03622908 0.037932094 -0.023093477 0.036467846 -0.0607953 -0.008925495 -0.08262499 0.0662827
0.08158934 0.07091842 0.038627855 0.008241941 0.020387655 -0.0722425 -0.06440692 -0.030744668
0.07500519 0.05707127 0.082843274 0.0381772 -0.07475994 -0.008995154 -0.008977709 -0.0142334
0.008473324 -0.049670454 -0.05552257 -0.039302696 -0.0067324773 -0.04031518 0.032792825 0.07440868
0.04524881 -0.028601365 -0.07062867 -0.068546414 -0.02420965 -0.079642385 0.047674794 0.060820505
0.07049434 0.036829803 0.011653667 0.04537027 -0.045831382 0.025993414 0.03362939 0.04006518
0.015983667 -0.026872726 0.04897526 -0.025307689 0.040226422 0.021865608 -0.00952082 -0.0016365165
-0.005164885 -0.075512834 -0.02029732 -0.06683674 -0.049365606 -0.034958746 0.03588818 -0.033870723
0.008268741 -0.00080420467 -0.06287159 0.062151425 -0.06260301 0.07714259 -0.006625827 -0.010562159
-0.063094735 0.06358546 -0.05176753 -0.029085897 -0.038854394 0.08582389 -0.04666059 -0.017871369
0.043320972 0.058166698 -0.044634476 -0.0669416 0.06444113 0.09238809 0.033969942 -0.043177303
-0.07100583 -0.069711424 -0.048619896 0.032260768 -0.08378174 -0.06733688 -0.029072773 -0.034095854
0.038855825 -0.0643177 0.024964929 -0.034094326 0.024077406 -0.058369692 0.025776641 -0.050747443
-0.04342676 0.04278253 -0.07300655 -0.0707618 -0.017163536 0.040758282 -0.0149825625 -0.008033733
-0.053367507 -0.020215863 -0.020735627 0.043811187 0.017334815 0.055197112 0.017177511 0.06961587
-0.02717164 0.08566464 0.07229917 -0.09043986 -0.104736544 -0.044065855 -0.034387026 0.09085696
0.029639872 0.07978371 -0.07492174 -0.032881998 0.06329428 0.03899435 0.07084955 -0.04286339
0.012993863 -0.044902343 0.015878 0.048601735 -0.0028927769 -0.01967291 0.06514123 0.013818305
-0.009175575 -0.057005193 -0.01481937 -0.079343505 -0.0055024563 -0.024267808 -0.02243709 0.06000814
-0.016665345 0.09299664 0.041148998 -0.07451891 0.03327213 0.086564675 -0.040884737 0.012858999
-0.07472159 -0.010863275 0.022862973 -0.034073275 0.064245 -0.054119825 -0.078218706 -0.03304026

discrete.bias f4 [2]
00000000: d181 ba3b 4607 da3b
0.005691745 0.006653699
