s10lre4e3CCM_MADRL_MEC/model/50-800-16-20-80/HYASP_RMAPPO/11-Actor.pth (torch, 168067 bytes, 18 tensors)

fc1.weight f4 [256, 7]
0	0xbe95feeb	-0.2929605
1	0x3dbac392	0.09119333
2	0x3e8f7020	0.28015232
3	0xbe327e69	-0.17431034
4	0xbe208253	-0.15674715
5	0xbe9080bf	-0.28223225
6	0x3cc417f8	0.02393721
7	0xbe7592f8	-0.23981845
8	0x3d41f118	0.047349066
9	0xbdb36738	-0.08759922
10	0xbd62c3d7	-0.05536255
11	0x3e50b42a	0.20381227
12	0xbebc89d0	-0.36823893
13	0xbe977fd4	-0.29589713
14	0x3d2208f4	0.03955932
15	0x3e3ca2e7	0.18421517
16	0xbe2897f3	-0.16464214
17	0x3e40e2d6	0.18836531
18	0x3e1db368	0.1540047
19	0x3ea4a4af	0.32156894
20	0x3cde7dda	0.02715962
21	0x3e37a108	0.17932522
22	0x3e93b13b	0.28846154
23	0x3dd94ac4	0.106099635
24	0x3e878c1a	0.26474077
25	0x3dbe7fb8	0.09301704
26	0xbea61c6c	-0.3244356
27	0x3ecb1f3a	0.3967226
28	0xbe7c8c75	-0.24662955
29	0x3e289355	0.16462453
30	0xbdfd54b1	-0.12369669
31	0xbf10be45	-0.5654033
32	0x3ea5d69e	0.32390302
33	0xbe00e43b	-0.12587063
34	0x3ec94349	0.39309147
35	0xbe4899db	-0.19589941
36	0xbe7f76f4	-0.24947721
37	0x3eca2a4d	0.39485398
38	0xbedc9ed6	-0.43089932
39	0x3e49fb81	0.19724847
40	0xbd8e9f8a	-0.069640234
41	0x3ef80a0d	0.48445168
42	0x3e3a8331	0.18214108
43	0x3ec12d40	0.37729836
44	0x3ec29f72	0.38012272
45	0x3db18b2c	0.08669123
46	0xbd8fbd52	-0.07018532
47	0x3e693492	0.2277396
48	0x3db8889f	0.090104334
49	0x3eb0fb97	0.34566948
50	0xbd5823a9	-0.052768383
51	0xbe5eed93	-0.21770315
52	0x3debf558	0.11521405
53	0x3e99e673	0.3005863
54	0x3dc3e2c7	0.09564739
55	0x3de0fd05	0.1098576
56	0xbe982301	-0.29714206
57	0x3e0d40b5	0.13794215
58	0x3d607193	0.054795813
59	0xbe1cb961	-0.15305091
60	0xbe8df9dd	-0.27729693
61	0x3e48eefe	0.19622418
62	0x3eee1e53	0.4650751
63	0xbe85015b	-0.25977597
64	0x3e531a66	0.20615539
65	0x3e025f34	0.1273163
66	0x3e4da713	0.20083265
67	0x3e59fc1c	0.21287578
68	0xbe94d724	-0.2907039
69	0x3e91ec89	0.28500775
70	0x3ea9db54	0.33175147
71	0xbf18ad71	-0.5963965
72	0xbf020d76	-0.5080179
73	0x3dbb6798	0.09150618
74	0x3e92c3ed	0.28665105
75	0x3e1fca53	0.15604524
76	0xbe71c00d	-0.23608418
77	0x3e801dae	0.25022644
78	0x3e6fd708	0.23421872
79	0xbec5b1b1	-0.3861213
80	0xbd0dd826	-0.034629963
81	0x3e94507d	0.28967658
82	0x3b2d6f44	0.0026464025
83	0x3e74d000	0.2390747
84	0x3dae515c	0.08511612
85	0xbeb9afb7	-0.36266872
86	0x3dee2de9	0.116298504
87	0xbeae1d23	-0.34006605
88	0xbe38b96e	-0.18039486
89	0xbdcf974a	-0.10136278
90	0x3de8f7d9	0.11375398
91	0xbd578b8c	-0.052623317
92	0xbdd353f7	-0.103187494
93	0x3c7281e1	0.014801473
94	0xbe73cdde	-0.23809001
95	0xbc8233f3	-0.015893912
96	0x3dbf6add	0.093465544
97	0x3d2f5deb	0.042814177
98	0xbe50430b	-0.20338075
99	0x3e9c1988	0.3048823
100	0x3e5eb336	0.21748051
101	0x3d73409b	0.059387784
102	0x3e778548	0.24171937
103	0x3d46ae15	0.04850586
104	0x3e8c1997	0.27363274
105	0x3ee6c28a	0.45070297
106	0x3e90225f	0.28151223
107	0x3ade996b	0.0016982978
108	0xbd64b490	-0.05583626
109	0xbdd618cc	-0.104539484
110	0x3c425a78	0.01186239
111	0x3e8d7279	0.27626398
112	0x3e8bd6f7	0.27312443
113	0xbeb1904d	-0.34680405
114	0x3e086409	0.1331941
115	0xbe38c895	-0.18045266
116	0xbddbae48	-0.10726601
117	0x3ec98089	0.39355877
118	0xbb9342fc	-0.004494069
119	0x3ed4990c	0.41523015
120	0x3e1f92cf	0.15583347
121	0x3eab9f33	0.33519897
122	0x3ed07912	0.4071737
123	0xbc8b7dff	-0.017027853
124	0xbe191807	-0.14950572
125	0xbdbfa7cd	-0.09358177
126	0xbd832997	-0.06404417
127	0x3ebbe380	0.36697006
128	0x3ec041d1	0.37550214
129	0x3ea2c116	0.31787938
130	0xbe89f323	-0.2694331
131	0xbe2f9a28	-0.1714865
132	0x3eeeb5c4	0.4662305
133	0x3eb3fa3b	0.35151848
134	0x3de5a9ee	0.11214052
135	0xbd189235	-0.03724881
136	0x3dacc880	0.0843668
137	0x3eb74ec5	0.35802284
138	0x3ea16579	0.3152273
139	0xbeac812e	-0.33692306
140	0x3ebc0130	0.36719656
141	0xbb94a530	-0.0045362934
142	0xbe29cf16	-0.16582903
143	0xbe928775	-0.2861897
144	0xbceb4371	-0.028718682
145	0x3df344d6	0.11878364
146	0x3ec69711	0.3878713
147	0x3edea2ee	0.4348368
148	0x3d186d34	0.03721352
149	0xbe1bbfc4	-0.15209872
150	0x3cc4c9d2	0.024022017
151	0x3e12f129	0.14349808
152	0x3eb0f9a3	0.34565458
153	0x3ed16606	0.4089815
154	0x3ecb2394	0.3967558
155	0x3e0180ae	0.12646744
156	0x3bfba92e	0.00768008
157	0x3e290cb0	0.16508746
158	0xbecc015c	-0.39844787
159	0x3e330ced	0.174854
160	0xbd0e44bf	-0.03473353
161	0xbdd1acd7	-0.10238045
162	0xbe53d394	-0.2068618
163	0x3eb89ec0	0.36058617
164	0x3bb989be	0.005662172
165	0xbe8444a6	-0.25833625
166	0xbc82bba0	-0.015958607
167	0xbeab537a	-0.33462125
168	0x3e041471	0.12898423
169	0x3e64a06e	0.22326824
170	0x3e44e6c6	0.19228658
171	0xbe5e93ca	-0.21736065
172	0xbebb37e7	-0.36566088
173	0x3d7f195f	0.062280055
174	0x3d39aa3e	0.04532837
175	0xbd988dcc	-0.074489206
176	0xbc048a02	-0.008089544
177	0x3e7fe9e0	0.2499156
178	0x3dd438e6	0.10362415
179	0xbe3719af	-0.17880891
180	0x3e920a43	0.28523454
181	0x3e11c2e5	0.14234503
182	0x3db9b14f	0.09067022
183	0x3e1da6e3	0.15395693
184	0xbedb9bc5	-0.4289228
185	0xbdd56450	-0.10419524
186	0xbf0d74fd	-0.55256635
187	0xbdef22c3	-0.11676552
188	0x3e92b254	0.2865168
189	0xbe97d441	-0.29654124
190	0xbecedd1a	-0.40403062
191	0xbec21f48	-0.3791449
192	0x3e5d3922	0.21603826
193	0xbe6c31cb	-0.2306587
194	0xbf0e8ec6	-0.55686605
195	0x3ebd51b6	0.36976403
196	0x3e838fbc	0.25695598
197	0x3db085fc	0.086193055
198	0xbbdcff8d	-0.006744331
199	0xbe4e3101	-0.20135881
200	0x3e29f023	0.16595511
201	0x3e05730d	0.1303217
202	0xbd92787e	-0.07151888
203	0x3e8db92c	0.27680337
204	0x3e86b75d	0.2631177
205	0x3e9c22cb	0.30495295
206	0xbe7e9cbf	-0.24864481
207	0xbef95fe8	-0.48705983
208	0xbe75517e	-0.23956868
209	0xbed31afa	-0.4123152
210	0xbe56ebd9	-0.20988406
211	0x3e0cddf6	0.13756546
212	0xbe646b97	-0.22306667
213	0xbd802734	-0.062574774
214	0xbd3b8d36	-0.045788966
215	0xbd8874f0	-0.06662929
216	0xbe14205e	-0.14465472
217	0x3dab1070	0.083527446
218	0x3eaf2b73	0.34212837
219	0x3dfc0adf	0.12306761
220	0x3ddd9207	0.10818868
221	0x3ea70a5b	0.32625088
222	0x3e7bfa60	0.24607229
223	0xbe30f7fe	-0.17282102
224	0xbcd7e59c	-0.026354603
225	0x3e36e895	0.1786216
226	0xbe63d025	-0.2224737
227	0x3db7a781	0.08967496
228	0x3e9aebd0	0.30258036
229	0x3e51d123	0.20489936
230	0x3de0bcce	0.10973512
231	0xbe69480c	-0.2278139
232	0xbd628181	-0.055299286
233	0x3ec4e2d1	0.38454297
234	0x3ed0a9a9	0.4075444
235	0xbe447ec8	-0.19188988
236	0x3e3b26d4	0.1827653
237	0x3eaa244c	0.33230817
238	0x3e9cc932	0.3062225
239	0xbe82004e	-0.25390857
240	0xbf1b733f	-0.60722727
241	0xbe9e8ae7	-0.3096535
242	0x3e8cde99	0.2751358
243	0x3eb09d30	0.34494925
244	0x3e3f531a	0.18684044
245	0xbc78fd00	-0.015197039
246	0x3cf262b0	0.029588073
247	0xbd46805f	-0.048462268
248	0xbeaa4d4c	-0.33262098
249	0xbebed405	-0.37271133
250	0xbd845578	-0.06461614
251	0xbdc9db83	-0.09856322
252	0x3e87cc0c	0.26522863
253	0x3d812566	0.06305961
254	0xbbb0df1c	-0.0053976905
255	0xbeb40890	-0.35162783

fc1.bias f4 [256]
0	0x3e9aeacc	0.3025726
1	0xbe36b76b	-0.17843406
2	0x3d310e22	0.04322637
3	0xbe91fc78	-0.2851293
4	0x3ded5c36	0.115898535
5	0xbd8f4a9b	-0.06996652
6	0x3d1a3a81	0.03765345
7	0x3d018da9	0.03162924
8	0x3c7eb0ab	0.015545051
9	0x3e315b36	0.1731995
10	0x3e30e9c3	0.17276673
11	0xbcbb6251	-0.02287403
12	0xbdbfdc39	-0.09368176
13	0x3e88f923	0.26752576
14	0x3e571780	0.21005058
15	0xbe6b9def	-0.23009466
16	0x3cfbc682	0.030734304
17	0xbea9030a	-0.3301013
18	0xbe768dbe	-0.24077508
19	0x3ebd0c9d	0.36923686
20	0x3e99bfe4	0.30029213
21	0xbe9202f4	-0.28517878
22	0xbe12d544	-0.14339167
23	0xbe3f2c1d	-0.18669172
24	0x3e09e6db	0.1346697
25	0xbdf04afe	-0.117330536
26	0x3e4ea2c8	0.20179284
27	0x3ea1362a	0.31486636
28	0x3eadeba5	0.33968845
29	0x3e2eaae5	0.17057379
30	0xbe9edd08	-0.31028008
31	0x3e8fc459	0.2807949
32	0x3e0b1950	0.13583875
33	0x3d83811b	0.06421109
34	0xbe2b45fe	-0.16725919
35	0xbcbdc1d0	-0.023163706
36	0x3d849cc0	0.0647521
37	0xbe011ca4	-0.12608582
38	0xbe8ce66a	-0.27519542
39	0x3bdedb9b	0.0068010814
40	0xbea0d95b	-0.3141583
41	0xbd60e3f1	-0.054904882
42	0x3dcd2fdf	0.10018896
43	0x3e72dd5e	0.23717257
44	0x3e14f26c	0.14545602
45	0x3eca4c17	0.39511177
46	0x3d503522	0.05083192
47	0xbc5124bf	-0.012765109
48	0xbe61987a	-0.22030821
49	0x3ade8704	0.0016977494
50	0x3e8b59ca	0.2721694
51	0x3d817fe4	0.06323221
52	0xbeade20e	-0.3396153
53	0x3e34b4b7	0.17647062
54	0x3f065f4c	0.5248916
55	0x3ea9e2f3	0.3318096
56	0x3e9938bf	0.29926106
57	0x3e47073a	0.1943635
58	0xbe0a1100	-0.13483047
59	0xbe5f27fc	-0.21792597
60	0x3ea08824	0.31353867
61	0xbd6452fc	-0.055743203
62	0xbecabbed	-0.395965
63	0x3efd83f7	0.49514744
64	0xbdb4993f	-0.08818292
65	0x3e6f6d91	0.2338164
66	0x3ea00282	0.31251913
67	0xbd5e54b1	-0.054279987
68	0x3e1d37fa	0.15353385
69	0xbe944546	-0.289591
70	0xbe604434	-0.21901017
71	0xbd51f332	-0.05125732
72	0x3ecabaad	0.39595547
73	0xbec970df	-0.39343926
74	0xbe85e5fb	-0.26152024
75	0xbe06d9fc	-0.13169092
76	0xbdd41fe5	-0.10357646
77	0x3e8d5cf2	0.27609974
78	0xbeaca9fd	-0.3372344
79	0xbebaba59	-0.36470297
80	0x3e5a48e0	0.21316862
81	0x3ea511e7	0.3224022
82	0xbdf10fbf	-0.117705815
83	0x3edd00eb	0.43164763
84	0xbe6ea514	-0.2330516
85	0xbd066cfe	-0.032818787
86	0x3cd0207a	0.025406111
87	0x3e26ffe2	0.16308549
88	0x3e170ce1	0.14751007
89	0x3eab8ed6	0.33507413
90	0xbda7163a	-0.08158536
91	0xbe34254d	-0.17592354
92	0x3e037067	0.12835847
93	0x3d24b411	0.040210787
94	0xbdd30bf5	-0.10305015
95	0x3ebca7c0	0.36846733
96	0x3d1de9db	0.0385531
97	0xbdf58aea	-0.119893864
98	0x3c1b79f9	0.00948953
99	0x3e48316e	0.19550106
100	0x3e6d4843	0.23172097
101	0x3eb41060	0.35168743
102	0x3e2bc266	0.16773376
103	0x3e0d4b54	0.13798267
104	0xbe41bd3b	-0.18919842
105	0x3e8e2fe3	0.2777091
106	0xbebc9758	-0.36834216
107	0x3e828396	0.25491017
108	0xbe160a5d	-0.14652391
109	0xbd84ae9f	-0.06478619
110	0xbe357edd	-0.17724176
111	0x3ecc7ec1	0.39940456
112	0x3e57c350	0.210706
113	0xbe30518c	-0.17218608
114	0xbe8eee66	-0.2791626
115	0x3eab2131	0.3342376
116	0x3dbda48d	0.09259901
117	0x3e7cc91b	0.2468609
118	0x3ec1488d	0.37750664
119	0x3dca929b	0.09891244
120	0xbe158c30	-0.14604259
121	0xbe5487d8	-0.20754945
122	0x3ea70396	0.32619923
123	0x3ed02974	0.40656626
124	0xbd89a2f9	-0.06720538
125	0x3ea61d98	0.32444453
126	0xbed16f0d	-0.40905038
127	0x3d543638	0.05180952
128	0xbdf6e57a	-0.12055488
129	0xbd19380d	-0.03740697
130	0x3e087a3a	0.13327876
131	0x3e0465be	0.12929437
132	0xbe24d09d	-0.16095205
133	0xbdfb0188	-0.122561514
134	0x3e13d94e	0.14438364
135	0x3e94587f	0.28973767
136	0xbe829502	-0.2550431
137	0xbe80106d	-0.25012532
138	0xbe01af1f	-0.1266446
139	0x3ea712cb	0.32631525
140	0x3ef869af	0.4851813
141	0xbe6d5315	-0.23176225
142	0x3e128336	0.14307866
143	0x3e2ec330	0.17066646
144	0xbebb37f8	-0.36566138
145	0x3be17792	0.006880709
146	0xbb6b59ff	-0.0035911796
147	0xbe890304	-0.26760113
148	0xbe14bdde	-0.14525554
149	0x3e92d996	0.2868163
150	0xbeb5557e	-0.35416788
151	0xbe6d6db1	-0.23186375
152	0x3b356fdb	0.002768508
153	0x3e72a44f	0.23695491
154	0x3e22a5d8	0.15883577
155	0xbd6fc78f	-0.058539923
156	0x3e8a7479	0.27041987
157	0xbe89ca20	-0.26912022
158	0x3eb06d66	0.34458464
159	0x3c0d600f	0.008628859
160	0x3e10bb06	0.14133844
161	0x3ed813fb	0.42202744
162	0xbde24775	-0.110487856
163	0x3e7b0887	0.24514972
164	0x3eaedeb0	0.34154272
165	0x3ebe3aeb	0.37154326
166	0x3eaf3113	0.34217128
167	0xbea8488b	-0.32867846
168	0xbe7a8f68	-0.24468768
169	0xbd662744	-0.05618979
170	0x3e9cd030	0.30627584
171	0xbe9d8e44	-0.30772603
172	0xbe7b7a9a	-0.24558488
173	0xbe8f665c	-0.28007782
174	0xbe1baeda	-0.1520342
175	0xbe95c674	-0.2925297
176	0x3dfa0745	0.12208418
177	0xbe2f8e8d	-0.17144223
178	0xbe58d377	-0.21174417
179	0xbeab9d44	-0.33518422
180	0xbe93b84c	-0.28851545
181	0xbd9e39e6	-0.07725887
182	0xbe74538b	-0.23859994
183	0x3e9fbf3e	0.31200594
184	0x3e10339d	0.14082189
185	0xbdf9ad4f	-0.12191259
186	0xbe1b0e3a	-0.15142146
187	0x3dc5d773	0.09660234
188	0xbe9da90e	-0.3079304
189	0x3c2ea242	0.010658802
190	0xbe5f7036	-0.21820149
191	0x3e3a37af	0.18185304
192	0x3ed7b181	0.42127612
193	0x3d7744c6	0.06036832
194	0xbe7b0bef	-0.24516271
195	0x3d670fbb	0.056411486
196	0xbe33a652	-0.17543915
197	0xbd7077de	-0.058708064
198	0x3e95301f	0.29138276
199	0x3e07aaa7	0.13248692
200	0x3e211802	0.15731815
201	0xbe45b428	-0.19307005
202	0x3e563003	0.20916753
203	0xbe7a6658	-0.24453104
204	0xbe7e6b22	-0.24845555
205	0xbdcaa061	-0.09893871
206	0x3e8ea546	0.2786047
207	0xbc8650ad	-0.016395891
208	0xbdf14990	-0.11781609
209	0x3e89e496	0.2693221
210	0x3ec7ef68	0.3904984
211	0x3d563364	0.052295104
212	0xbeaffbf6	-0.34371918
213	0x3da5c9e6	0.0809515
214	0xbe267555	-0.16255696
215	0x3d6875a0	0.0567528
216	0x3e1a715a	0.15082303
217	0xbe8a7488	-0.2704203
218	0x3e5878eb	0.21139877
219	0xbc1db040	-0.009624541
220	0x3e0bed20	0.13664675
221	0x3e1f3773	0.15548496
222	0xbe795382	-0.24348262
223	0xbea96219	-0.33082655
224	0xbeac1a54	-0.33613837
225	0x3ef1f947	0.47260496
226	0x3dc34a55	0.09535662
227	0x3e0d3956	0.13791403
228	0xbe3ef6be	-0.18648812
229	0x3ebadd1e	0.36496824
230	0x3e9a293e	0.3010959
231	0x3eaf36ee	0.34221596
232	0x3ead9fdd	0.33911029
233	0x3ea51646	0.32243556
234	0xbe2f0b60	-0.17094183
235	0x3e7a4efa	0.2444419
236	0xbe8046ae	-0.25053924
237	0xbccb1e80	-0.024794817
238	0x3e35858f	0.1772673
239	0xbdb18a9f	-0.08669018
240	0xbe95324e	-0.29139942
241	0x3ea089b5	0.31355062
242	0x3edf38f7	0.43598148
243	0x3efac3ab	0.48977408
244	0xbe1a0609	-0.15041365
245	0xbe77b962	-0.24191812
246	0x3c904078	0.017608866
247	0x3e8cdab7	0.27510616
248	0x3dd96fcc	0.10617027
249	0xbde67b6a	-0.11254008
250	0x3e17e890	0.1483481
251	0xbe731a1b	-0.23740427
252	0x3e85bdda	0.26121408
253	0xbe08248a	-0.13295189
254	0xbaf4707a	-0.0018649243
255	0xbe7165a9	-0.23573937

ln1.alpha f4 [256]
0	0x3f800000	1.0
1	0x3f800000	1.0
2	0x3f800000	1.0
3	0x3f800000	1.0
4	0x3f800000	1.0
5	0x3f800000	1.0
6	0x3f800000	1.0
7	0x3f800000	1.0
8	0x3f800000	1.0
9	0x3f800000	1.0
10	0x3f800000	1.0
11	0x3f800000	1.0
12	0x3f800000	1.0
13	0x3f800000	1.0
14	0x3f800000	1.0
15	0x3f800000	1.0
16	0x3f800000	1.0
17	0x3f800000	1.0
18	0x3f800000	1.0
19	0x3f800000	1.0
20	0x3f800000	1.0
21	0x3f800000	1.0
22	0x3f800000	1.0
23	0x3f800000	1.0
24	0x3f800000	1.0
25	0x3f800000	1.0
26	0x3f800000	1.0
27	0x3f800000	1.0
28	0x3f800000	1.0
29	0x3f800000	1.0
30	0x3f800000	1.0
31	0x3f800000	1.0
32	0x3f800000	1.0
33	0x3f800000	1.0
34	0x3f800000	1.0
35	0x3f800000	1.0
36	0x3f800000	1.0
37	0x3f800000	1.0
38	0x3f800000	1.0
39	0x3f800000	1.0
40	0x3f800000	1.0
41	0x3f800000	1.0
42	0x3f800000	1.0
43	0x3f800000	1.0
44	0x3f800000	1.0
45	0x3f800000	1.0
46	0x3f800000	1.0
47	0x3f800000	1.0
48	0x3f800000	1.0
49	0x3f800000	1.0
50	0x3f800000	1.0
51	0x3f800000	1.0
52	0x3f800000	1.0
53	0x3f800000	1.0
54	0x3f800000	1.0
55	0x3f800000	1.0
56	0x3f800000	1.0
57	0x3f800000	1.0
58	0x3f800000	1.0
59	0x3f800000	1.0
60	0x3f800000	1.0
61	0x3f800000	1.0
62	0x3f800000	1.0
63	0x3f800000	1.0
64	0x3f800000	1.0
65	0x3f800000	1.0
66	0x3f800000	1.0
67	0x3f800000	1.0
68	0x3f800000	1.0
69	0x3f800000	1.0
70	0x3f800000	1.0
71	0x3f800000	1.0
72	0x3f800000	1.0
73	0x3f800000	1.0
74	0x3f800000	1.0
75	0x3f800000	1.0
76	0x3f800000	1.0
77	0x3f800000	1.0
78	0x3f800000	1.0
79	0x3f800000	1.0
80	0x3f800000	1.0
81	0x3f800000	1.0
82	0x3f800000	1.0
83	0x3f800000	1.0
84	0x3f800000	1.0
85	0x3f800000	1.0
86	0x3f800000	1.0
87	0x3f800000	1.0
88	0x3f800000	1.0
89	0x3f800000	1.0
90	0x3f800000	1.0
91	0x3f800000	1.0
92	0x3f800000	1.0
93	0x3f800000	1.0
94	0x3f800000	1.0
95	0x3f800000	1.0
96	0x3f800000	1.0
97	0x3f800000	1.0
98	0x3f800000	1.0
99	0x3f800000	1.0
100	0x3f800000	1.0
101	0x3f800000	1.0
102	0x3f800000	1.0
103	0x3f800000	1.0
104	0x3f800000	1.0
105	0x3f800000	1.0
106	0x3f800000	1.0
107	0x3f800000	1.0
108	0x3f800000	1.0
109	0x3f800000	1.0
110	0x3f800000	1.0
111	0x3f800000	1.0
112	0x3f800000	1.0
113	0x3f800000	1.0
114	0x3f800000	1.0
115	0x3f800000	1.0
116	0x3f800000	1.0
117	0x3f800000	1.0
118	0x3f800000	1.0
119	0x3f800000	1.0
120	0x3f800000	1.0
121	0x3f800000	1.0
122	0x3f800000	1.0
123	0x3f800000	1.0
124	0x3f800000	1.0
125	0x3f800000	1.0
126	0x3f800000	1.0
127	0x3f800000	1.0
128	0x3f800000	1.0
129	0x3f800000	1.0
130	0x3f800000	1.0
131	0x3f800000	1.0
132	0x3f800000	1.0
133	0x3f800000	1.0
134	0x3f800000	1.0
135	0x3f800000	1.0
136	0x3f800000	1.0
137	0x3f800000	1.0
138	0x3f800000	1.0
139	0x3f800000	1.0
140	0x3f800000	1.0
141	0x3f800000	1.0
142	0x3f800000	1.0
143	0x3f800000	1.0
144	0x3f800000	1.0
145	0x3f800000	1.0
146	0x3f800000	1.0
147	0x3f800000	1.0
148	0x3f800000	1.0
149	0x3f800000	1.0
150	0x3f800000	1.0
151	0x3f800000	1.0
152	0x3f800000	1.0
153	0x3f800000	1.0
154	0x3f800000	1.0
155	0x3f800000	1.0
156	0x3f800000	1.0
157	0x3f800000	1.0
158	0x3f800000	1.0
159	0x3f800000	1.0
160	0x3f800000	1.0
161	0x3f800000	1.0
162	0x3f800000	1.0
163	0x3f800000	1.0
164	0x3f800000	1.0
165	0x3f800000	1.0
166	0x3f800000	1.0
167	0x3f800000	1.0
168	0x3f800000	1.0
169	0x3f800000	1.0
170	0x3f800000	1.0
171	0x3f800000	1.0
172	0x3f800000	1.0
173	0x3f800000	1.0
174	0x3f800000	1.0
175	0x3f800000	1.0
176	0x3f800000	1.0
177	0x3f800000	1.0
178	0x3f800000	1.0
179	0x3f800000	1.0
180	0x3f800000	1.0
181	0x3f800000	1.0
182	0x3f800000	1.0
183	0x3f800000	1.0
184	0x3f800000	1.0
185	0x3f800000	1.0
186	0x3f800000	1.0
187	0x3f800000	1.0
188	0x3f800000	1.0
189	0x3f800000	1.0
190	0x3f800000	1.0
191	0x3f800000	1.0
192	0x3f800000	1.0
193	0x3f800000	1.0
194	0x3f800000	1.0
195	0x3f800000	1.0
196	0x3f800000	1.0
197	0x3f800000	1.0
198	0x3f800000	1.0
199	0x3f800000	1.0
200	0x3f800000	1.0
201	0x3f800000	1.0
202	0x3f800000	1.0
203	0x3f800000	1.0
204	0x3f800000	1.0
205	0x3f800000	1.0
206	0x3f800000	1.0
207	0x3f800000	1.0
208	0x3f800000	1.0
209	0x3f800000	1.0
210	0x3f800000	1.0
211	0x3f800000	1.0
212	0x3f800000	1.0
213	0x3f800000	1.0
214	0x3f800000	1.0
215	0x3f800000	1.0
216	0x3f800000	1.0
217	0x3f800000	1.0
218	0x3f800000	1.0
219	0x3f800000	1.0
220	0x3f800000	1.0
221	0x3f800000	1.0
222	0x3f800000	1.0
223	0x3f800000	1.0
224	0x3f800000	1.0
225	0x3f800000	1.0
226	0x3f800000	1.0
227	0x3f800000	1.0
228	0x3f800000	1.0
229	0x3f800000	1.0
230	0x3f800000	1.0
231	0x3f800000	1.0
232	0x3f800000	1.0
233	0x3f800000	1.0
234	0x3f800000	1.0
235	0x3f800000	1.0
236	0x3f800000	1.0
237	0x3f800000	1.0
238	0x3f800000	1.0
239	0x3f800000	1.0
240	0x3f800000	1.0
241	0x3f800000	1.0
242	0x3f800000	1.0
243	0x3f800000	1.0
244	0x3f800000	1.0
245	0x3f800000	1.0
246	0x3f800000	1.0
247	0x3f800000	1.0
248	0x3f800000	1.0
249	0x3f800000	1.0
250	0x3f800000	1.0
251	0x3f800000	1.0
252	0x3f800000	1.0
253	0x3f800000	1.0
254	0x3f800000	1.0
255	0x3f800000	1.0

ln1.bias f4 [256]
0	0x00000000	0.0
1	0x00000000	0.0
2	0x00000000	0.0
3	0x00000000	0.0
4	0x00000000	0.0
5	0x00000000	0.0
6	0x00000000	0.0
7	0x00000000	0.0
8	0x00000000	0.0
9	0x00000000	0.0
10	0x00000000	0.0
11	0x00000000	0.0
12	0x00000000	0.0
13	0x00000000	0.0
14	0x00000000	0.0
15	0x00000000	0.0
16	0x00000000	0.0
17	0x00000000	0.0
18	0x00000000	0.0
19	0x00000000	0.0
20	0x00000000	0.0
21	0x00000000	0.0
22	0x00000000	0.0
23	0x00000000	0.0
24	0x00000000	0.0
25	0x00000000	0.0
26	0x00000000	0.0
27	0x00000000	0.0
28	0x00000000	0.0
29	0x00000000	0.0
30	0x00000000	0.0
31	0x00000000	0.0
32	0x00000000	0.0
33	0x00000000	0.0
34	0x00000000	0.0
35	0x00000000	0.0
36	0x00000000	0.0
37	0x00000000	0.0
38	0x00000000	0.0
39	0x00000000	0.0
40	0x00000000	0.0
41	0x00000000	0.0
42	0x00000000	0.0
43	0x00000000	0.0
44	0x00000000	0.0
45	0x00000000	0.0
46	0x00000000	0.0
47	0x00000000	0.0
48	0x00000000	0.0
49	0x00000000	0.0
50	0x00000000	0.0
51	0x00000000	0.0
52	0x00000000	0.0
53	0x00000000	0.0
54	0x00000000	0.0
55	0x00000000	0.0
56	0x00000000	0.0
57	0x00000000	0.0
58	0x00000000	0.0
59	0x00000000	0.0
60	0x00000000	0.0
61	0x00000000	0.0
62	0x00000000	0.0
63	0x00000000	0.0
64	0x00000000	0.0
65	0x00000000	0.0
66	0x00000000	0.0
67	0x00000000	0.0
68	0x00000000	0.0
69	0x00000000	0.0
70	0x00000000	0.0
71	0x00000000	0.0
72	0x00000000	0.0
73	0x00000000	0.0
74	0x00000000	0.0
75	0x00000000	0.0
76	0x00000000	0.0
77	0x00000000	0.0
78	0x00000000	0.0
79	0x00000000	0.0
80	0x00000000	0.0
81	0x00000000	0.0
82	0x00000000	0.0
83	0x00000000	0.0
84	0x00000000	0.0
85	0x00000000	0.0
86	0x00000000	0.0
87	0x00000000	0.0
88	0x00000000	0.0
89	0x00000000	0.0
90	0x00000000	0.0
91	0x00000000	0.0
92	0x00000000	0.0
93	0x00000000	0.0
94	0x00000000	0.0
95	0x00000000	0.0
96	0x00000000	0.0
97	0x00000000	0.0
98	0x00000000	0.0
99	0x00000000	0.0
100	0x00000000	0.0
101	0x00000000	0.0
102	0x00000000	0.0
103	0x00000000	0.0
104	0x00000000	0.0
105	0x00000000	0.0
106	0x00000000	0.0
107	0x00000000	0.0
108	0x00000000	0.0
109	0x00000000	0.0
110	0x00000000	0.0
111	0x00000000	0.0
112	0x00000000	0.0
113	0x00000000	0.0
114	0x00000000	0.0
115	0x00000000	0.0
116	0x00000000	0.0
117	0x00000000	0.0
118	0x00000000	0.0
119	0x00000000	0.0
120	0x00000000	0.0
121	0x00000000	0.0
122	0x00000000	0.0
123	0x00000000	0.0
124	0x00000000	0.0
125	0x00000000	0.0
126	0x00000000	0.0
127	0x00000000	0.0
128	0x00000000	0.0
129	0x00000000	0.0
130	0x00000000	0.0
131	0x00000000	0.0
132	0x00000000	0.0
133	0x00000000	0.0
134	0x00000000	0.0
135	0x00000000	0.0
136	0x00000000	0.0
137	0x00000000	0.0
138	0x00000000	0.0
139	0x00000000	0.0
140	0x00000000	0.0
141	0x00000000	0.0
142	0x00000000	0.0
143	0x00000000	0.0
144	0x00000000	0.0
145	0x00000000	0.0
146	0x00000000	0.0
147	0x00000000	0.0
148	0x00000000	0.0
149	0x00000000	0.0
150	0x00000000	0.0
151	0x00000000	0.0
152	0x00000000	0.0
153	0x00000000	0.0
154	0x00000000	0.0
155	0x00000000	0.0
156	0x00000000	0.0
157	0x00000000	0.0
158	0x00000000	0.0
159	0x00000000	0.0
160	0x00000000	0.0
161	0x00000000	0.0
162	0x00000000	0.0
163	0x00000000	0.0
164	0x00000000	0.0
165	0x00000000	0.0
166	0x00000000	0.0
167	0x00000000	0.0
168	0x00000000	0.0
169	0x00000000	0.0
170	0x00000000	0.0
171	0x00000000	0.0
172	0x00000000	0.0
173	0x00000000	0.0
174	0x00000000	0.0
175	0x00000000	0.0
176	0x00000000	0.0
177	0x00000000	0.0
178	0x00000000	0.0
179	0x00000000	0.0
180	0x00000000	0.0
181	0x00000000	0.0
182	0x00000000	0.0
183	0x00000000	0.0
184	0x00000000	0.0
185	0x00000000	0.0
186	0x00000000	0.0
187	0x00000000	0.0
188	0x00000000	0.0
189	0x00000000	0.0
190	0x00000000	0.0
191	0x00000000	0.0
192	0x00000000	0.0
193	0x00000000	0.0
194	0x00000000	0.0
195	0x00000000	0.0
196	0x00000000	0.0
197	0x00000000	0.0
198	0x00000000	0.0
199	0x00000000	0.0
200	0x00000000	0.0
201	0x00000000	0.0
202	0x00000000	0.0
203	0x00000000	0.0
204	0x00000000	0.0
205	0x00000000	0.0
206	0x00000000	0.0
207	0x00000000	0.0
208	0x00000000	0.0
209	0x00000000	0.0
210	0x00000000	0.0
211	0x00000000	0.0
212	0x00000000	0.0
213	0x00000000	0.0
214	0x00000000	0.0
215	0x00000000	0.0
216	0x00000000	0.0
217	0x00000000	0.0
218	0x00000000	0.0
219	0x00000000	0.0
220	0x00000000	0.0
221	0x00000000	0.0
222	0x00000000	0.0
223	0x00000000	0.0
224	0x00000000	0.0
225	0x00000000	0.0
226	0x00000000	0.0
227	0x00000000	0.0
228	0x00000000	0.0
229	0x00000000	0.0
230	0x00000000	0.0
231	0x00000000	0.0
232	0x00000000	0.0
233	0x00000000	0.0
234	0x00000000	0.0
235	0x00000000	0.0
236	0x00000000	0.0
237	0x00000000	0.0
238	0x00000000	0.0
239	0x00000000	0.0
240	0x00000000	0.0
241	0x00000000	0.0
242	0x00000000	0.0
243	0x00000000	0.0
244	0x00000000	0.0
245	0x00000000	0.0
246	0x00000000	0.0
247	0x00000000	0.0
248	0x00000000	0.0
249	0x00000000	0.0
250	0x00000000	0.0
251	0x00000000	0.0
252	0x00000000	0.0
253	0x00000000	0.0
254	0x00000000	0.0
255	0x00000000	0.0

fc2.weight f4 [128, 256]
0	0xbc3b81a6	-0.011444485
1	0xbaca5abd	-0.0015438419
2	0x3d6bd532	0.057576366
3	0xbd0f9e9a	-0.035063364
4	0x3d7dc0dc	0.061951503
5	0xbd46e2ac	-0.048556015
6	0x3a14c580	0.0005675182
7	0xbc3aaa68	-0.011393167
8	0x3d4675dd	0.048452247
9	0xbd559662	-0.05214537
10	0x3d41fb8e	0.047359042
11	0x3b873730	0.004126452
12	0xbc35c7a8	-0.011094965
13	0x3c9a2ce4	0.018820234
14	0xbcb9d9d2	-0.022686873
15	0xbb829240	-0.0039847195
16	0xbc02f9f8	-0.0079941675
17	0xbd1e0656	-0.03858026
18	0x3d610c74	0.054943517
19	0xbd763bfb	-0.060115796
20	0xbd598d20	-0.053113103
21	0xbd0d1bea	-0.03445045
22	0x3b9a22f0	0.004703872
23	0xbb6c64c0	-0.0036070794
24	0xbd06983e	-0.032860033
25	0x3c1f2188	0.009712584
26	0xbca88d4e	-0.020575192
27	0xbc8be368	-0.01707621
28	0xbc4b11c8	-0.012394376
29	0xbd6a4283	-0.057192337
30	0xbc9946bc	-0.018710487
31	0x3d71b8dc	0.059014186
32	0xbd200674	-0.039068654
33	0xbd108870	-0.035286367
34	0xbd081486	-0.033222698
35	0x3d61ea39	0.055155013
36	0x3b41a700	0.0029549003
37	0xbc9c76da	-0.019099642
38	0x3ca68958	0.020329162
39	0x39e5fe00	0.00043867528
40	0xbd6c112b	-0.05763356
41	0x3ca59c06	0.020216
42	0xbbb93590	-0.005652137
43	0xbd2f2776	-0.042762242
44	0x3c2a8f18	0.010410093
45	0x3d77ed11	0.06052882
46	0x3c047cd8	0.008086406
47	0x3d568e37	0.05238172
48	0xbd30d3b4	-0.043170646
49	0xbcf7402c	-0.030181967
50	0xbc3b2c70	-0.011424169
51	0x3d07e20a	0.033174552
52	0xbca5d4c4	-0.020243056
53	0xbcea2c14	-0.028585471
54	0x3bba106e	0.005678228
55	0x3c719a80	0.014746308
56	0xbae161bd	-0.0017195266
57	0x3d40277c	0.046912655
58	0xb9a6d700	-0.00031822175
59	0xbd4de650	-0.05026847
60	0x3d7aa940	0.061196566
61	0x3d2fb458	0.0428966
62	0xbd734d96	-0.059400164
63	0xbcbaf810	-0.022823364
64	0x3c2e0658	0.01062163
65	0xbd6ab9ea	-0.057306208
66	0xbd129382	-0.035785206
67	0xbd28fafc	-0.041254982
68	0xbcd48e60	-0.025946796
69	0xbc23da7e	-0.010000823
70	0x3bdbbe4d	0.006706035
71	0x3d484507	0.048893955
72	0xbd103a06	-0.035211585
73	0xbb35cdc0	-0.0027741045
74	0x3d31d958	0.043420166
75	0x3d1a3e74	0.037657216
76	0x3d177a82	0.036982067
77	0xbd247be4	-0.040157214
78	0x3d76f082	0.06028796
79	0xbd017528	-0.03160587
80	0x3d710154	0.058839157
81	0x3d35b6a4	0.044363633
82	0x3c8cbc68	0.017179683
83	0xbd496806	-0.04917147
84	0xbd65f31a	-0.056140043
85	0xbd1053a8	-0.03523603
86	0x38ece800	0.0001129657
87	0x3d624c08	0.05524829
88	0xbbe95afd	-0.0071214424
89	0xbb0d3000	-0.0021543503
90	0xbd57eeaa	-0.052717842
91	0xbc379720	-0.011205465
92	0x3d571368	0.05250874
93	0x3d6b2a3a	0.057413317
94	0x3d6ccc64	0.05781211
95	0xbd4b9004	-0.04969789
96	0xbc22aa08	-0.009928234
97	0x3c8a33ac	0.016870342
98	0x3c4d06a5	0.012513791
99	0x3d352180	0.0442214
100	0xbd2fccee	-0.042920046
101	0xbd12487c	-0.035713658
102	0x3bc58550	0.006027855
103	0x3d3e5556	0.0464681
104	0x3d79e8d2	0.06101305
105	0xbd0f3b56	-0.034968697
106	0xbc9ade10	-0.018904716
107	0xbd4eb13c	-0.050461993
108	0xbd69cbfe	-0.057079308
109	0xbcd08d98	-0.025458142
110	0x3b7c5a40	0.0038505942
111	0xbd3e274c	-0.046424195
112	0xbbadfafe	-0.0053094616
113	0x3cdb5b44	0.026776917
114	0x3d346fa6	0.04405179
115	0x3d15d4b0	0.036579788
116	0xbaaa837e	-0.0013009158
117	0xbd4885f8	-0.048955888
118	0xbcd0f445	-0.025507102
119	0xbd114da8	-0.03547445
120	0x3c3f9580	0.011693358
121	0x3a019e80	0.0004944578
122	0xbd3e4c0a	-0.046459235
123	0xbd428b7b	-0.0474963
124	0x3d1b17f0	0.037864625
125	0xbd2107dc	-0.039314136
126	0xbd33b0d4	-0.04386981
127	0x3d68bd32	0.056821056
128	0xbcfbf7fc	-0.030757897
129	0xbcb53012	-0.022117648
130	0xbd6a9373	-0.057269525
131	0xbcfbb718	-0.030726954
132	0x3d303d22	0.04302705
133	0xbc8b084c	-0.01697173
134	0xbd621120	-0.055192113
135	0x3d2994d8	0.041401714
136	0x3d0d9b8e	0.034572177
137	0xbd56f380	-0.052478313
138	0xbd2be3ee	-0.041965418
139	0xbd6aab65	-0.05729236
140	0x3d1f800a	0.038940467
141	0xbd0bbd30	-0.03411597
142	0x3d175dac	0.036954567
143	0x3d7a7b80	0.061152935
144	0x3c2b4be0	0.010455102
145	0x3d0551b6	0.03254863
146	0xbd28a4d0	-0.041172802
147	0x3cad7768	0.021175101
148	0xbd0e1418	-0.03468713
149	0xbd1c3cc2	-0.03814388
150	0xbc311cc8	-0.010810085
151	0x3d2b61ea	0.041841425
152	0xbd25f872	-0.04052014
153	0xbd0d2302	-0.034457214
154	0x3d059336	0.032611094
155	0xbc9b7398	-0.018976018
156	0xbd3af748	-0.045645982
157	0xbc7baba8	-0.01536075
158	0x3c1b2b40	0.009470761
159	0x39aac900	0.00032574683
160	0x3b125380	0.0022327602
161	0xbd6afe99	-0.05737171
162	0x3c5eb328	0.013592519
163	0x3d1ef124	0.03880419
164	0x3b896e70	0.0041940734
165	0xbd228d68	-0.039685637
166	0x3b29bbc0	0.0025899261
167	0xbcb37fc0	-0.021911502
168	0xbc313c00	-0.010817528
169	0x3d42bcda	0.047543384
170	0xbc9509c8	-0.01819314
171	0xbbd02fbf	-0.006353348
172	0x3d4d837c	0.05017422
173	0x3d6a221c	0.057161435
174	0x3d50099e	0.05079042
175	0x3ba38810	0.004990585
176	0x3d1a87d0	0.037727177
177	0xbc46d267	-0.012135125
178	0xbc6e7238	-0.014553599
179	0xbd058dc8	-0.032605916
180	0xbcd5e864	-0.026111789
181	0xbd6a9320	-0.057269216
182	0x39fe25ff	0.00048474965
183	0x3d3bfa14	0.04589279
184	0xbadd8c40	-0.001690276
185	0xbd7bf036	-0.06150838
186	0x3a2ca400	0.0006585717
187	0xbd30a0e0	-0.043122172
188	0xbbe42a10	-0.006963022
189	0x3b22f420	0.0024864748
190	0x3d01dea2	0.03170646
191	0xbc50a91d	-0.012735632
192	0xbcb19ee4	-0.02168221
193	0xbd148956	-0.036263786
194	0x3c87a09c	0.016556077
195	0xbcf97e15	-0.030455628
196	0x3c4de4df	0.012566774
197	0xbc972e8c	-0.018454812
198	0x3b66f0dd	0.003523878
199	0xbd3716c4	-0.044699445
200	0xbcd9b909	-0.02657749
201	0x3cf84f08	0.030311123
202	0xbd4238d2	-0.04741747
203	0xbd3541d8	-0.044252247
204	0x3cc93b80	0.024564505
205	0x3cecda6b	0.028912744
206	0xbc5e718d	-0.013576877
207	0xbd20be6c	-0.0392441
208	0xbc5c6b9f	-0.013453393
209	0xbb47ae20	-0.0030468777
210	0x3ccd0e34	0.025031187
211	0xbd7ce324	-0.061740056
212	0x3d5ec68c	0.054388568
213	0x3d10b466	0.03532829
214	0xbcd14dac	-0.025549732
215	0xbd042108	-0.032258064
216	0xbb6e0640	-0.0036319643
217	0x3c83dda8	0.016096905
218	0xbd2f79ba	-0.042840697
219	0xbd7bcfa0	-0.061477304
220	0xbcf7a4eb	-0.030230006
221	0xbcbb938a	-0.0228975
222	0x3d5e3a9c	0.054255113
223	0x3d3ff1f0	0.04686159
224	0xbb34cf1e	-0.0027589272
225	0x3b858f90	0.004075952
226	0xbd051482	-0.03249026
227	0x3d69cf51	0.057082478
228	0xbc0b5218	-0.008503459
229	0xbc1afb8e	-0.009459389
230	0x3d5550c8	0.052078992
231	0xbd298302	-0.041384704
232	0x3b00ebc0	0.0019671768
233	0xbb8c4be0	-0.004281506
234	0xbd59756a	-0.05309049
235	0x3d41f94c	0.04735689
236	0x3ca1cd10	0.019751102
237	0x3d407967	0.04699078
238	0xbb6acfa0	-0.003582932
239	0x3d7755ef	0.060384687
240	0x3d5aad8c	0.053388163
241	0xbd16d350	-0.036822617
242	0xbc7834c8	-0.015149303
243	0x3c8d7b00	0.017270565
244	0xbd163892	-0.036675043
245	0x3cf52338	0.02992402
246	0x3d36a716	0.04459294
247	0x3d688e93	0.056776594
248	0xbd563b8a	-0.052302875
249	0xbd032082	-0.032013424
250	0x3cb9f1a0	0.022698224
251	0x3ca0f010	0.01964572
252	0xbcdf0890	-0.027225763
253	0xbc965fd0	-0.018356234
254	0x3d7e1b05	0.062037487
255	0xbbda60b0	-0.006664358

fc2.bias f4 [128]
0	0xbcad5e96	-0.021163266
1	0x3b5823aa	0.0032980242
2	0x3da10504	0.07862285
3	0xbd2db833	-0.042411994
4	0x3c80c2e2	0.015717927
5	0x3dc3b1f2	0.09555425
6	0x3d899663	0.06718137
7	0x3d6cf200	0.057847977
8	0x3d81067e	0.063000664
9	0x3ce84d25	0.028357098
10	0xbca5d3d5	-0.020242611
11	0x3d53319d	0.051560987
12	0x3d24e248	0.04025486
13	0xbd2784a4	-0.04089798
14	0x3d333b4a	0.043757714
15	0xbbe49a96	-0.006976436
16	0xbac97086	-0.0015368618
17	0x3c8c75ee	0.017146077
18	0x3d3f468c	0.046698138
19	0x3bf568f6	0.007489319
20	0xbb9aee9c	-0.0047281515
21	0xbcd81f8b	-0.026382228
22	0x3d909a07	0.070606284
23	0xbd5cec1a	-0.0539361
24	0x3db4b017	0.08822649
25	0x3c9e9dc3	0.019362336
26	0xbd4235dc	-0.047414646
27	0x3d1d24e0	0.038365245
28	0xbdab81de	-0.083743796
29	0x3d8e16b5	0.06937925
30	0x3d38d244	0.0451224
31	0xbd6bff16	-0.057616316
32	0xbd6f5512	-0.05843074
33	0xbd483c49	-0.048885617
34	0x3cfc6acb	0.030812642
35	0x3d50566f	0.05086368
36	0x3c342ffa	0.010997767
37	0xbda9dd3f	-0.082941525
38	0x3d2823b8	0.04104969
39	0xbd0304a1	-0.031986836
40	0x3c9374ae	0.017999973
41	0xbc6dbbd0	-0.01451011
42	0xbb812b95	-0.003941963
43	0xbc5f43d4	-0.013627011
44	0x3a9777e8	0.0011556121
45	0xbc6f8a9f	-0.014620452
46	0xb991f7f2	-0.0002784129
47	0x3d42f9d4	0.047601536
48	0xbce23bd4	-0.027616419
49	0x3d5030b9	0.050827716
50	0x3d3f1a8d	0.04665618
51	0x3d1c21a9	0.03811804
52	0x3bf17427	0.0073685828
53	0xbd10272e	-0.035193615
54	0x3c0993e5	0.008397077
55	0xbd1f9514	-0.03896053
56	0xbcbeb74b	-0.02328076
57	0x3ca46c7f	0.020071266
58	0xbcecfb9a	-0.028928567
59	0xbd829052	-0.06375183
60	0xbc7c3871	-0.015394316
61	0x3be5a43f	0.007008105
62	0x3d61d659	0.05513606
63	0x3c8c3be8	0.01711841
64	0x3c6e8167	0.014557219
65	0x3c166896	0.009180209
66	0xbd04d4d4	-0.03242953
67	0x3da77cde	0.081781134
68	0xbc2ab19a	-0.01041832
69	0xbc87c06a	-0.016571242
70	0xbd4aaea5	-0.04948296
71	0x3b5eabbd	0.0033976876
72	0xbd94ed17	-0.07271784
73	0xbbd4703a	-0.006483105
74	0xbbe1d87a	-0.006892261
75	0x3ad62922	0.0016339163
76	0xbd735148	-0.059403688
77	0x3b824cdd	0.003976448
78	0x3b6732cd	0.0035278082
79	0xbd6c2f2c	-0.057662174
80	0x3c682a25	0.014170204
81	0x3db5d355	0.08878199
82	0x3cbe2e72	0.023215506
83	0x3d8fcc34	0.070213705
84	0x3d10a14a	0.035310067
85	0xbd2c6dbc	-0.04209684
86	0xbd15d0cc	-0.036576077
87	0xbcc1ae8c	-0.0236428
88	0xbd00d8ac	-0.031456634
89	0xbd1975c2	-0.03746582
90	0xbc2d2685	-0.010568266
91	0xbc6b70c6	-0.014370149
92	0x3cbfacb3	0.02339778
93	0xbcd6a4a4	-0.026201554
94	0x3d192b4c	0.037394807
95	0xbd01c608	-0.031682998
96	0x3d9000e0	0.07031417
97	0x3c63c4c7	0.013901896
98	0x3d974b8d	0.07387457
99	0x3b5779b4	0.0032878937
100	0xbb8d72de	-0.0043166718
101	0x3cdd8394	0.02704028
102	0xbd81b3b2	-0.06333102
103	0x3cbc60e6	0.022995424
104	0x3cc6c493	0.024263656
105	0xbcbed280	-0.023293734
106	0xbd68a988	-0.056802303
107	0xbd71a358	-0.058993667
108	0xbcfecb3f	-0.031102775
109	0x3bef948b	0.007311409
110	0x3d3892c0	0.045061827
111	0x3d2b090b	0.04175667
112	0xbd846ac2	-0.06465675
113	0x3d6a6b9b	0.057231527
114	0xbd43157e	-0.04762792
115	0x3d5ae4d7	0.053440895
116	0x3dd392ff	0.10330772
117	0x3ca7aa62	0.020466987
118	0x3d5eb815	0.054374773
119	0x3d52267f	0.051306244
120	0xbd6205ac	-0.05518119
121	0x3da878ae	0.08226143
122	0xbd83c9f9	-0.064350076
123	0x3cc2da8b	0.02378585
124	0xbd166f89	-0.036727462
125	0xbda400c5	-0.08007959
126	0xbda63bdb	-0.08116885
127	0xbd85dc80	-0.06536198

ln2.alpha f4 [128]
0	0x3f800000	1.0
1	0x3f800000	1.0
2	0x3f800000	1.0
3	0x3f800000	1.0
4	0x3f800000	1.0
5	0x3f800000	1.0
6	0x3f800000	1.0
7	0x3f800000	1.0
8	0x3f800000	1.0
9	0x3f800000	1.0
10	0x3f800000	1.0
11	0x3f800000	1.0
12	0x3f800000	1.0
13	0x3f800000	1.0
14	0x3f800000	1.0
15	0x3f800000	1.0
16	0x3f800000	1.0
17	0x3f800000	1.0
18	0x3f800000	1.0
19	0x3f800000	1.0
20	0x3f800000	1.0
21	0x3f800000	1.0
22	0x3f800000	1.0
23	0x3f800000	1.0
24	0x3f800000	1.0
25	0x3f800000	1.0
26	0x3f800000	1.0
27	0x3f800000	1.0
28	0x3f800000	1.0
29	0x3f800000	1.0
30	0x3f800000	1.0
31	0x3f800000	1.0
32	0x3f800000	1.0
33	0x3f800000	1.0
34	0x3f800000	1.0
35	0x3f800000	1.0
36	0x3f800000	1.0
37	0x3f800000	1.0
38	0x3f800000	1.0
39	0x3f800000	1.0
40	0x3f800000	1.0
41	0x3f800000	1.0
42	0x3f800000	1.0
43	0x3f800000	1.0
44	0x3f800000	1.0
45	0x3f800000	1.0
46	0x3f800000	1.0
47	0x3f800000	1.0
48	0x3f800000	1.0
49	0x3f800000	1.0
50	0x3f800000	1.0
51	0x3f800000	1.0
52	0x3f800000	1.0
53	0x3f800000	1.0
54	0x3f800000	1.0
55	0x3f800000	1.0
56	0x3f800000	1.0
57	0x3f800000	1.0
58	0x3f800000	1.0
59	0x3f800000	1.0
60	0x3f800000	1.0
61	0x3f800000	1.0
62	0x3f800000	1.0
63	0x3f800000	1.0
64	0x3f800000	1.0
65	0x3f800000	1.0
66	0x3f800000	1.0
67	0x3f800000	1.0
68	0x3f800000	1.0
69	0x3f800000	1.0
70	0x3f800000	1.0
71	0x3f800000	1.0
72	0x3f800000	1.0
73	0x3f800000	1.0
74	0x3f800000	1.0
75	0x3f800000	1.0
76	0x3f800000	1.0
77	0x3f800000	1.0
78	0x3f800000	1.0
79	0x3f800000	1.0
80	0x3f800000	1.0
81	0x3f800000	1.0
82	0x3f800000	1.0
83	0x3f800000	1.0
84	0x3f800000	1.0
85	0x3f800000	1.0
86	0x3f800000	1.0
87	0x3f800000	1.0
88	0x3f800000	1.0
89	0x3f800000	1.0
90	0x3f800000	1.0
91	0x3f800000	1.0
92	0x3f800000	1.0
93	0x3f800000	1.0
94	0x3f800000	1.0
95	0x3f800000	1.0
96	0x3f800000	1.0
97	0x3f800000	1.0
98	0x3f800000	1.0
99	0x3f800000	1.0
100	0x3f800000	1.0
101	0x3f800000	1.0
102	0x3f800000	1.0
103	0x3f800000	1.0
104	0x3f800000	1.0
105	0x3f800000	1.0
106	0x3f800000	1.0
107	0x3f800000	1.0
108	0x3f800000	1.0
109	0x3f800000	1.0
110	0x3f800000	1.0
111	0x3f800000	1.0
112	0x3f800000	1.0
113	0x3f800000	1.0
114	0x3f800000	1.0
115	0x3f800000	1.0
116	0x3f800000	1.0
117	0x3f800000	1.0
118	0x3f800000	1.0
119	0x3f800000	1.0
120	0x3f800000	1.0
121	0x3f800000	1.0
122	0x3f800000	1.0
123	0x3f800000	1.0
124	0x3f800000	1.0
125	0x3f800000	1.0
126	0x3f800000	1.0
127	0x3f800000	1.0

ln2.bias f4 [128]
0	0x00000000	0.0
1	0x00000000	0.0
2	0x00000000	0.0
3	0x00000000	0.0
4	0x00000000	0.0
5	0x00000000	0.0
6	0x00000000	0.0
7	0x00000000	0.0
8	0x00000000	0.0
9	0x00000000	0.0
10	0x00000000	0.0
11	0x00000000	0.0
12	0x00000000	0.0
13	0x00000000	0.0
14	0x00000000	0.0
15	0x00000000	0.0
16	0x00000000	0.0
17	0x00000000	0.0
18	0x00000000	0.0
19	0x00000000	0.0
20	0x00000000	0.0
21	0x00000000	0.0
22	0x00000000	0.0
23	0x00000000	0.0
24	0x00000000	0.0
25	0x00000000	0.0
26	0x00000000	0.0
27	0x00000000	0.0
28	0x00000000	0.0
29	0x00000000	0.0
30	0x00000000	0.0
31	0x00000000	0.0
32	0x00000000	0.0
33	0x00000000	0.0
34	0x00000000	0.0
35	0x00000000	0.0
36	0x00000000	0.0
37	0x00000000	0.0
38	0x00000000	0.0
39	0x00000000	0.0
40	0x00000000	0.0
41	0x00000000	0.0
42	0x00000000	0.0
43	0x00000000	0.0
44	0x00000000	0.0
45	0x00000000	0.0
46	0x00000000	0.0
47	0x00000000	0.0
48	0x00000000	0.0
49	0x00000000	0.0
50	0x00000000	0.0
51	0x00000000	0.0
52	0x00000000	0.0
53	0x00000000	0.0
54	0x00000000	0.0
55	0x00000000	0.0
56	0x00000000	0.0
57	0x00000000	0.0
58	0x00000000	0.0
59	0x00000000	0.0
60	0x00000000	0.0
61	0x00000000	0.0
62	0x00000000	0.0
63	0x00000000	0.0
64	0x00000000	0.0
65	0x00000000	0.0
66	0x00000000	0.0
67	0x00000000	0.0
68	0x00000000	0.0
69	0x00000000	0.0
70	0x00000000	0.0
71	0x00000000	0.0
72	0x00000000	0.0
73	0x00000000	0.0
74	0x00000000	0.0
75	0x00000000	0.0
76	0x00000000	0.0
77	0x00000000	0.0
78	0x00000000	0.0
79	0x00000000	0.0
80	0x00000000	0.0
81	0x00000000	0.0
82	0x00000000	0.0
83	0x00000000	0.0
84	0x00000000	0.0
85	0x00000000	0.0
86	0x00000000	0.0
87	0x00000000	0.0
88	0x00000000	0.0
89	0x00000000	0.0
90	0x00000000	0.0
91	0x00000000	0.0
92	0x00000000	0.0
93	0x00000000	0.0
94	0x00000000	0.0
95	0x00000000	0.0
96	0x00000000	0.0
97	0x00000000	0.0
98	0x00000000	0.0
99	0x00000000	0.0
100	0x00000000	0.0
101	0x00000000	0.0
102	0x00000000	0.0
103	0x00000000	0.0
104	0x00000000	0.0
105	0x00000000	0.0
106	0x00000000	0.0
107	0x00000000	0.0
108	0x00000000	0.0
109	0x00000000	0.0
110	0x00000000	0.0
111	0x00000000	0.0
112	0x00000000	0.0
113	0x00000000	0.0
114	0x00000000	0.0
115	0x00000000	0.0
116	0x00000000	0.0
117	0x00000000	0.0
118	0x00000000	0.0
119	0x00000000	0.0
120	0x00000000	0.0
121	0x00000000	0.0
122	0x00000000	0.0
123	0x00000000	0.0
124	0x00000000	0.0
125	0x00000000	0.0
126	0x00000000	0.0
127	0x00000000	0.0

discrete_action.weight f4 [2, 128]
0	0x3991e50c	0.00027827208
1	0xbf2e39c5	-0.680569
2	0x3e936c3a	0.28793508
3	0x3b7e8dc0	0.0038841814
4	0xbf3281bf	-0.69729227
5	0x3f4d6e52	0.8024646
6	0x3f018f04	0.5060885
7	0x39256d9e	0.00015776462
8	0x3f191ccf	0.59809583
9	0x39f3697b	0.0004642716
10	0xbecd15fe	-0.4005584
11	0xbf0312ce	-0.5120057
12	0xb8da79f7	-0.00010417768
13	0xb99bb042	-0.00029695226
14	0xbc19f50e	-0.0093968045
15	0xbc1ca65a	-0.009561146
16	0xb7f733a4	-2.9468742e-05
17	0xbba0e3c8	-0.004909966
18	0xbef40133	-0.47657165
19	0xbf3d272d	-0.738879
20	0x3f1e5b6d	0.61858255
21	0x3a255ef4	0.00063083996
22	0x3f111f23	0.56688136
23	0xbcb10335	-0.021607975
24	0xbc08081c	-0.008302715
25	0xbf302e15	-0.68820316
26	0x3b8edeb3	0.004360044
27	0xbf006362	-0.50151646
28	0xbf287003	-0.65795916
29	0x3ee60933	0.44928893
30	0x3af3bfda	0.0018596605
31	0x3b181faf	0.0023212244
32	0xbb0b7ccc	-0.0021284102
33	0xbf306444	-0.68902993
34	0xbf13bb81	-0.57707983
35	0xbf1531af	-0.58278936
36	0x3d0b7649	0.034048352
37	0xbf46095a	-0.7735802
38	0xb99cfbc0	-0.00029942207
39	0xbf4803cc	-0.78130794
40	0xbf2cb5af	-0.6746473
41	0x3c020217	0.007935069
42	0xbb33b2b5	-0.002741975
43	0x3aafbc18	0.0013407497
44	0x3c37fdbb	0.011229928
45	0xba5c2f63	-0.0008399395
46	0x3e30ead1	0.17277075
47	0xbc555c2a	-0.013022462
48	0x3d5dc53f	0.054143187
49	0x3f07e462	0.5308286
50	0xbef18aa6	-0.47176093
51	0x3e1f2007	0.15539561
52	0xb9d46702	-0.00040512538
53	0xbf01f273	-0.50760573
54	0x3efdfb7a	0.49605924
55	0xb9ee9a77	-0.00045509983
56	0xbceae874	-0.028675295
57	0xbf32ffe1	-0.6992169
58	0xbf10153f	-0.5628242
59	0xbbb8c998	-0.005639266
60	0x3f49b95e	0.7879847
61	0xbf30e611	-0.69101053
62	0x3f1b9955	0.6078084
63	0x39ec1dec	0.0004503572
64	0xbeef10de	-0.46692556
65	0xbf1c80a9	-0.6113382
66	0x3ab294a7	0.0013624624
67	0x3d23d514	0.03999813
68	0xbf294753	-0.6612446
69	0xbed58df8	-0.41709876
70	0xba7623d7	-0.0009389496
71	0xbf234867	-0.6378235
72	0xbf34d57d	-0.7063826
73	0x3b3e3ea1	0.002902903
74	0xbf071202	-0.5276185
75	0xbf07112a	-0.52760565
76	0x39041f68	0.000126002
77	0x3f47a116	0.7798017
78	0xbc7ec9b4	-0.015551019
79	0xbb8648be	-0.004098027
80	0x3c3d10b7	0.01153963
81	0x3f201182	0.62526715
82	0x3eebc95c	0.46052063
83	0x3f0723e2	0.5278913
84	0xbf396a6b	-0.72428006
85	0xbf3770f3	-0.7165672
86	0xba215f4c	-0.0006155863
87	0xb9fece6f	-0.0004860046
88	0xba82d3d9	-0.0009981348
89	0x3cb17315	0.02166132
90	0xbf22b195	-0.6355222
91	0xbef06bc7	-0.46957228
92	0xbf18e1c8	-0.59719515
93	0x3b30b141	0.002696112
94	0x3f53bec2	0.8271295
95	0xbf3f5134	-0.7473328
96	0x3e194d28	0.14970839
97	0xbf0612ea	-0.5237261
98	0x3f066b23	0.5250723
99	0xbecfdf79	-0.40600184
100	0xbf384f2d	-0.7199581
101	0xbf103be0	-0.5634136
102	0xbb494c1d	-0.0030715533
103	0xbf2841d7	-0.65725464
104	0xb8da5570	-0.00010410964
105	0x3a37cf84	0.0007011818
106	0xbab5a827	-0.0013859317
107	0x3af06074	0.0018339292
108	0xbf3c0a10	-0.73452854
109	0xbf2e0a59	-0.6798454
110	0xbf0ec397	-0.55767196
111	0xbf1a8e6b	-0.6037356
112	0x3c454f38	0.012042813
113	0xbc330260	-0.010925859
114	0xbc5758c2	-0.01314372
115	0xbb361555	-0.002778371
116	0x3f0e8dcb	0.5568511
117	0xbf11a05d	-0.5688532
118	0xbec7795d	-0.3895978
119	0xbf0d21ce	-0.55129707
120	0x3a41503f	0.00073743233
121	0x3f22d783	0.63610095
122	0x3a9336d8	0.0011231555
123	0xbef142bd	-0.4712123
124	0x3b0c801c	0.0021438664
125	0xbf25be21	-0.6474324
126	0xbf39f1bb	-0.72634476
127	0x3b5d27ca	0.003374564
128	0xb981d730	-0.00024765125
129	0x3f2e922b	0.68191785
130	0xbe93ad04	-0.28842938
131	0xbb8e16cf	-0.004336215
132	0x3f3245e8	0.6963792
133	0xbf4d848c	-0.80280375
134	0xbf019949	-0.5062452
135	0xba7adf8a	-0.0009570053
136	0xbf18f4ed	-0.5974873
137	0x3a71cb80	0.0009223744
138	0x3ecc65a2	0.3992129
139	0x3f035707	0.5130467
140	0xba81c7a3	-0.0009901415
141	0x3a252b22	0.0006300678
142	0x3c12ac40	0.0089522
143	0x3c19840c	0.009369861
144	0x394ad4a8	0.00019343442
145	0x3b71d09d	0.0036898025
146	0x3ef3efe7	0.47643968
147	0x3f3d3add	0.73917943
148	0xbf1e3179	-0.6179424
149	0xb9af8408	-0.00033476972
150	0xbf10d596	-0.56575906
151	0x3caa61bf	0.020798562
152	0x3bda9f11	0.006671794
153	0x3f2ff4a9	0.68732697
154	0xbb884e2f	-0.004159711
155	0x3f0097b0	0.50231457
156	0x3f28dc0f	0.6596078
157	0xbee6cb3b	-0.45076928
158	0xbb0c9566	-0.0021451353
159	0xbad8e926	-0.0016548976
160	0x3ae8b9c8	0.0017755562
161	0x3f3044d1	0.68855006
162	0x3f1373d3	0.5759861
163	0x3f1534a7	0.58283466
164	0xbd0b4bba	-0.034007765
165	0x3f46096e	0.7735814
166	0xb821ae52	-3.854774e-05
167	0x3f4798ec	0.77967715
168	0x3f2c8733	0.673938
169	0xbc019e08	-0.007911213
170	0x3b16a7fb	0.0022988308
171	0xbaea44e5	-0.0017873315
172	0xbc3c66df	-0.011499136
173	0x38db705f	0.000104636645
174	0xbe2feddb	-0.17180578
175	0x3c6465b2	0.013940262
176	0xbd5a53eb	-0.053302687
177	0xbf07debd	-0.53074247
178	0x3ef212ac	0.4727987
179	0xbe1f51be	-0.15558526
180	0x3a6e3dee	0.0009088208
181	0x3f01aa4d	0.50650483
182	0xbefddb54	-0.49581397
183	0xb8f9ce47	-0.000119116674
184	0x3ce4578e	0.02787378
185	0x3f32fb27	0.6991448
186	0x3f103ec4	0.5634577
187	0x3bafb3bc	0.005362002
188	0xbf49881e	-0.78723323
189	0x3f30e522	0.6909963
190	0xbf1bc0e7	-0.6084122
191	0x394264a7	0.00018538778
192	0x3eef7ae1	0.46773437
193	0x3f1cc6a9	0.6124063
194	0xbae50062	-0.0017471428
195	0xbd2121db	-0.039338928
196	0x3f2944fb	0.6612088
197	0x3ed4dd21	0.41574958
198	0xba607265	-0.0008561968
199	0x3f2319f5	0.6371148
200	0x3f3492a7	0.70536274
201	0xbb47b48a	-0.00304726
202	0x3f06a78b	0.525994
203	0x3f06fd16	0.5272993
204	0xba7db9ab	-0.0009678851
205	0xbf47aa7f	-0.7799453
206	0x3c8b3c83	0.016996628
207	0x3b5b4748	0.0033459235
208	0xbc3ecfdd	-0.011646238
209	0xbf2036cf	-0.6258363
210	0xbeebae67	-0.46031496
211	0xbf071e8d	-0.5278099
212	0x3f398177	0.7246317
213	0x3f37bee1	0.71775633
214	0x37d3057d	2.5155716e-05
215	0xba11188b	-0.0005534968
216	0x39c87510	0.0003823419
217	0xbcb1c513	-0.021700418
218	0x3f22bca3	0.63569087
219	0x3ef0541b	0.46939167
220	0x3f188804	0.59582543
221	0xbb2a7d22	-0.0026014526
222	0xbf540cf7	-0.8283228
223	0x3f3f2811	0.7467051
224	0xbe1a14e0	-0.15047026
225	0x3f0679b5	0.5252946
226	0xbf062081	-0.5239335
227	0x3ecf923f	0.40541264
228	0x3f3823bd	0.7192953
229	0x3f108820	0.5645771
230	0x3b0ed372	0.0021793512
231	0x3f28a541	0.6587716
232	0x398e8c64	0.0002718895
233	0xba3f788e	-0.0007304036
234	0x3b1d41f1	0.0023995603
235	0xbb0f9b87	-0.002191277
236	0x3f3bb9b5	0.7333024
237	0x3f2df89d	0.6795748
238	0x3f0eae61	0.5573483
239	0x3f1a18a5	0.60193855
240	0xbc52594e	-0.012838675
241	0x3c2ae0e4	0.010429595
242	0x3c4cecac	0.012507599
243	0x3b7046ca	0.0036663287
244	0xbf0ec9ae	-0.5577649
245	0x3f1193dd	0.56866246
246	0x3ec7c178	0.39014792
247	0x3f0cfaaa	0.55069983
248	0x3a6dcfc5	0.00090717926
249	0xbf22b4b5	-0.6355699
250	0xba592c55	-0.0008284499
251	0x3ef12715	0.4710013
252	0xbb0f62f7	-0.0021879056
253	0x3f25bde5	0.6474288
254	0x3f39f125	0.7263358
255	0xbafaca78	-0.0019133827

discrete_action.bias f4 [2]
0	0x3d39cb9a	0.045360185
1	0xbd3b478e	-0.045722537
