s10lre4e3CCM_MADRL_MEC/model/50-400-8-10-40/MATD3/0-Actor.pth (torch, 23375 bytes, 7 tensors)

fc1.weight f4 [128, 7]
0.24093772 -0.16298483 -0.1631669 0.08338903 -0.09546434 -0.2916822 0.29825974 0.10420804
0.3147683 -0.060010843 -0.18227313 0.35813126 -0.29861528 -0.2801623 -0.16692312 -0.06601305
-0.12626103 -0.0034256952 -0.30469254 0.35485262 0.20356353 -0.11818286 0.024079518 0.26674578
-0.36142388 0.24341083 0.33621395 0.31305602 -0.2614189 0.29910374 -0.09623517 -0.30778238
0.16703789 -0.06863703 0.13616896 0.34374198 -0.29984513 -0.3598274 -0.2716175 -0.16563036
-0.30019626 -0.10013082 -0.3508765 -0.33733115 0.09487183 -0.015970606 -0.2841271 0.20867446
0.060871553 -0.0023990911 0.16524689 0.25826454 -0.33019575 0.044979867 0.033980172 -0.07898131
0.1903196 0.22033672 0.1184039 -0.07301799 -0.3632352 0.3070916 -0.2148288 0.038429353
0.12121656 -0.09122387 0.017046988 -0.3269718 -0.068084665 0.21326745 0.24520946 0.31611177
0.06691775 0.18775403 -0.04725674 -0.31566656 0.2218256 -0.07640775 -0.1109499 -0.020385575
0.0697227 0.012020344 0.18298364 -0.31371206 -0.3662819 -0.20287144 -0.33745 -0.18414965
0.25640684 0.20730571 -0.28351292 -0.19489282 0.07189853 -0.24006923 0.10233311 0.14771514
0.078498594 0.30624014 -0.036978144 0.18654446 0.25223312 -0.28310862 -0.2986697 -0.20315321
-0.29856172 0.015515448 0.078393266 -0.2682697 -0.19428486 -0.24969132 -0.23982345 0.3111153
-0.047450192 -0.13988903 -0.2984893 0.1908345 0.12590584 0.20979881 0.17205723 -0.10882376
0.07278071 0.28847936 -0.2723317 0.38693383 -0.019421894 -0.20302261 -0.042922486 -0.34994513
0.0691248 -0.023946756 -0.33286926 -0.3152494 -0.27886248 -0.26945448 0.22926123 -0.10554977
0.034528803 -0.33665872 0.24218474 0.38109428 -0.20533761 0.34594095 -0.3087397 0.036746785
0.21654795 -0.23538016 -0.010176745 0.022670934 0.036617137 0.33933222 0.07714103 0.29910168
0.20153011 0.09957381 0.10498139 -0.27158833 -0.058214113 0.08308656 -0.14873643 0.31948417
0.1575978 -0.22866406 -0.23377429 -0.15081571 0.25437972 0.1380449 -0.28223366 -0.29834214
-0.23154266 0.1343533 0.08152248 -0.31750983 -0.0064945645 0.07033055 0.11274632 0.21075766
0.31681505 0.15752152 0.17519413 0.29691285 0.018790327 -0.31095335 0.31875825 -0.13891707
0.07725085 -0.3596077 -0.0066575543 0.19543193 0.3457529 -0.3701138 0.028918423 -0.023034027
0.1750093 0.017182738 -0.046120524 0.1583525 -0.26021153 -0.16372748 -0.035791874 -0.13286662
0.00086619885 0.30677527 -0.2925861 -0.21824007 0.0072889314 0.02506475 0.2962452 0.18328656
-0.00039202292 -0.3579165 -0.09632038 -0.210625 0.17175958 -0.059091073 0.06926697 0.0072048306
0.400459 -0.21093994 0.33354825 -0.26049593 0.26115263 -0.2401884 0.26840532 -0.27682313
0.033551004 -0.08026396 0.1221303 -0.1226106 0.28842264 0.2464873 -0.1397418 0.25339657
0.124038845 -0.06370215 0.27679706 0.02741971 -0.32567766 0.3130409 -0.107706375 0.3220562
-0.20962588 0.09076909 0.09350104 -0.07592818 -0.08741491 0.0025775454 -0.3100765 -0.15484641
-0.3142577 0.027768638 -0.122673176 0.33118072 -0.29303816 0.08381687 -0.06298376 0.2771525
00000000: 61b8 763e 7fe5 26be 3915 27be dec7 aa3d
00000010: cf82 c3bd 5f57 95be 80b5 983e 066b d53d
00000020: 5029 a13e eecd 75bd cfa5 3abe fb5c b73e
00000030: 1ae4 98be 6f71 8fbe e5ed 2abe da31 87bd
00000040: 924a 01be a181 60bb a900 9cbe 3eaf b53e
00000050: f572 503e db09 f2bd 6942 c53c e792 883e
00000060: 8d0c b9be b040 793e 3c24 ac3e e148 a03e
00000070: b3d8 85be 2024 993e f216 c5bd a795 9dbe
00000080: fb0b 2b3e 9291 8cbd e06f 0b3e f3fe af3e
00000090: 4d85 99be 4c3b b8be 7311 8bbe 019b 29be
000000a0: 53b3 99be 6311 cdbd 16a6 b3be abb6 acbe
000000b0: 294c c23d cad4 82bc 1b79 91be c2ae 553e
000000c0: 7354 793d 123a 1dbb 7b36 293e 403b 843e
000000d0: 6b0f a9be cf3c 383d cb2e 0b3d f4c0 a1bd
000000e0: 24e3 423e f39f 613e be7d f23d 758a 95bd
000000f0: f7f9 b9be 1c3b 9d3e 15fc 5bbe 1968 1d3d
00000100: 6340 f83d 95d3 babd 20a6 8b3c d968 a7be
00000110: f96f 8bbd c862 5a3e 3018 7b3e 67d9 a13e
00000120: 2c0c 893d 9842 403e 4990 41bd 0c9f a1be
00000130: 4026 633e ab7b 9cbd b339 e3bd a6ff a6bc
00000140: c6ca 8e3d faf0 443c 1060 3b3e de9e a0be
00000150: 4d89 bbbe 88bd 4fbe 3fc6 acbe ba91 3cbe
00000160: c247 833e f347 543e 9b28 91be fc91 47be
00000170: 893f 933d b5d4 75be 0694 d13d a342 173e
00000180: dfc3 a03d 82cb 9c3e 6576 17bd 8305 3f3e
00000190: b324 813e 9df3 90be 3ceb 98be 6507 50be
000001a0: 15dd 98be 8134 7e3c a68c a03d a55a 89be
000001b0: 9cf2 46be 15af 7fbe 4794 75be 814a 9f3e
000001c0: 225b 42bd 123f 0fbe 97d3 98be 1f6a 433e
000001d0: 76ed 003e 80d5 563e c52f 303e fede debd
000001e0: 0e0e 953d 91b3 933e 106f 8bbe 311c c63e
000001f0: aa1a 9fbc 29e5 4fbe 7dcf 2fbd 022c b3be
00000200: 4e91 8d3d fd2b c4bc d76d aabe 5f68 a1be
00000210: 10c7 8ebe f0f5 89be 75c3 6a3e 7a2a d8bd
00000220: 136e 0d3d 885e acbe 47ff 773e ca1e c33e
00000230: 0644 52be 2c1f b13e 2113 9ebe cc83 163d
00000240: bfbe 5d3e 7f07 71be 5dbc 26bc 65b8 b93c
00000250: dafb 153d f4bc ad3e 1efc 9d3d db23 993e
00000260: e95d 4e3e 5bed cb3d 7c00 d73d a00d 8bbe
00000270: ec71 6ebd 4929 aa3d 5d4e 18be 6e93 a33e
00000280: 5161 213e e926 6abe 8762 6fbe 6f6f 1abe
00000290: 0f3e 823e a45b 0d3e ee80 90be 4dc0 98be
000002a0: 8519 6dbe e993 093e 42f5 a63d a690 a2be
000002b0: 5bd0 d4bb 7709 903d 8be7 e63d dbd0 573e
000002c0: 9535 a23e 524d 213e 1766 333e f604 983e
000002d0: 2cee 993c 4735 9fbe 4834 a33e 4740 0ebe
000002e0: b235 9e3d 801e b8be 9d27 dabb 4f1f 483e
000002f0: 8606 b13e 8e7f bdbe 54e6 ec3c dbb1 bcbc
00000300: a335 333e d0c2 8c3c e0e8 3cbd 2827 223e
00000310: 723a 85be 2da8 27be 809a 12bd 300e 08be
00000320: 9f11 633a a611 9d3e d8cd 95be 537a 5fbe
00000330: fdd7 ee3b 9754 cd3c 73ad 973e 79af 3b3e
00000340: 6d88 cdb9 d540 b7be 9f43 c5bd 14ae 57be
00000350: bee1 2f3e 7b09 72bd d7db 8d3d 8016 ec3b
00000360: f608 cd3e a400 58be d6c6 aa3e b95f 85be
00000370: ccb5 853e f3f3 75be 6c6c 893e c3bb 8dbe
00000380: c76c 093d 6e61 a4bd 731f fa3d 441b fbbd
00000390: 22ac 933e 2b67 7c3e 7918 0fbe 32bd 813e
000003a0: 1408 fe3d 4676 82bd 58b8 8d3e 4d9f e03c
000003b0: 39bf a6be e646 a03e 2995 dcbd 8de4 a43e
000003c0: 2ba8 56be 25e5 b93d 797d bf3d 3c80 9bbd
000003d0: 9706 b3bd 09ec 283b 59c2 9ebe 0f90 1ebe
000003e0: 63e6 a0be 0e7b e33c 133c fbbd 8590 a93e
000003f0: 1909 96be 2ea8 ab3d a1fd 80bd efe6 8d3e

fc1.bias f4 [128]
-0.36489952 0.24253888 0.34591255 0.2600347 0.1307296 0.213389 0.32194704 -0.29724985
0.0751331 -0.15289478 0.31361526 0.31899497 0.0336992 0.3515629 -0.034874097 -0.36525962
0.34522814 0.2698602 0.22391368 -0.20124471 -0.3640186 0.3449915 -0.04308717 0.0076056127
0.07322854 0.0522951 -0.028192706 0.13442877 0.17871185 -0.046544638 -0.1822407 0.19903341
-0.24192198 -0.011826781 0.2436118 0.22956096 0.11145179 -0.09322686 -0.015013229 0.3137107
0.07881927 0.21195756 0.16750886 0.24769516 0.27331588 0.21541847 -0.09362537 -0.19200666
0.28823778 -0.11695061 0.10554369 0.16912812 0.14924473 -0.027834088 -0.1785174 0.27885982
-0.26357064 0.22624736 0.18470061 -0.0014216446 -0.02573322 -0.24930671 0.22029942 0.008805538
0.32965526 0.36859933 0.06668443 -0.0023004368 0.19169396 0.087895915 0.28620616 -0.24193013
0.2426059 0.25371584 -0.15813531 0.23151292 -0.0544819 -0.071620554 -0.008211231 0.08123362
0.25964975 -0.03882186 0.27780795 -0.20794123 -0.21352488 -0.18410213 0.14299609 -0.2889046
0.30828324 -0.22069748 0.21952248 0.2158921 -0.07422576 -0.113847196 0.35399196 -0.1893545
0.25440806 0.13400765 0.32623008 -0.14145729 0.25613198 0.3541024 -0.1548682 0.1465056
-0.28808567 -0.2337285 0.032964833 0.0014976906 -0.25191015 0.11905189 -0.026097292 -0.3075832
0.04383778 0.34680492 -0.147736 0.1604052 -0.34106645 -0.04097955 0.28753516 0.09930377
0.37695217 0.34769195 -0.20055522 0.30958042 -0.28764018 0.34115735 0.24267884 0.11071872
00000000: 1cd4 babe 1d5c 783e 731b b13e 4523 853e
00000010: fbdd 053e a582 5a3e 3ed6 a43e 2231 98be
00000020: 62df 993d 7390 1cbe 2e92 a03e 4f53 a33e
00000030: 2c08 0a3d 0d00 b43e 24d8 0ebd 4f03 bbbe
00000040: bec1 b03e 1e2b 8a3e a149 653e 1813 4ebe
00000050: a560 babe baa2 b03e 2c7c 30bd 8138 f93b
00000060: d8f8 953d 6333 563d 64f4 e6bc b2a7 093e
00000070: 3d00 373e 97a5 3ebd 4e9d 3abe 6acf 4b3e
00000080: 65ba 77be 1dc5 41bc 5f75 793e 0712 6b3e
00000090: d640 e43d b9ed bebd 0cfa 75bc b09e a03e
000000a0: ff6b a13d 670b 593e 7187 2b3e cda3 7d3e
000000b0: 0ff0 8b3e a996 5c3e a8be bfbd 659d 44be
000000c0: e793 933e cd83 efbd 4a27 d83d ec2f 2d3e
000000d0: 9cd3 183e 5004 e4bc 44cd 36be b7c6 8e3e
000000e0: bbf2 86be 63ad 673e 2822 3d3e 7a56 baba
000000f0: 79ce d2bc 424a 7fbe 2c96 613e 1a45 103c
00000100: 93c8 a83e 0db9 bc3e d991 883d edc2 16bb
00000110: 6c4b 443e c602 b43d 9d89 923e 88bc 77be
00000120: ae6d 783e 0be7 813e 39ee 21be b911 6d3e
00000130: 6a28 5fbd ccad 92bd 6688 06bc d05d a63d
00000140: d0f0 843e ac03 1fbd d83c 8e3e 8cee 54be
00000150: 44a6 5abe 4585 3cbe 916d 123e 4eeb 93be
00000160: 4dd7 9d3e 85fe 61be 80ca 603e d212 5d3e
00000170: ad03 98bd b828 e9bd 6f3e b53e 25e6 41be
00000180: c641 823e 4d39 093e a107 a73e 2eda 10be
00000190: bb23 833e e94c b53e c595 1ebe 9005 163e
000001a0: f77f 93be 8656 6fbe 2206 073d 284e c43a
000001b0: 5efa 80be 7ad1 f33d fdc9 d5bc 8c7b 9dbe
000001c0: 3e8f 333d 6a90 b13e 1b48 17be 4341 243e
000001d0: 43a0 aebe 2cda 27bd cf37 933e c65f cb3d
000001e0: e0ff c03e ae04 b23e 595e 4dbe 5381 9e3e
000001f0: 9345 93be 2dac ae3e cd80 783e 7fc0 e23d

fc2.weight f4 [32, 128]
0.05638817 -0.029419843 0.027715923 0.02410004 0.03361135 0.03259967 -0.042949993 -0.059658244
-0.051157627 -0.0005694409 0.05940051 0.066115044 -0.058955688 -0.07617087 -0.04255915 0.0039959457
-0.036352176 0.051871024 0.06746054 -0.02469283 0.064065896 -0.00895818 0.027452845 0.03276606
-0.024123602 0.089191616 0.030536154 -0.072218835 0.086317234 0.07978387 -0.016257193 0.055114646
0.03944085 -0.08946547 0.0749552 0.022313138 -0.0026418397 0.07721893 -0.014455511 -0.03803647
0.044506576 0.0013734277 0.01383662 0.051576857 0.03906005 -0.026190525 -0.063051544 0.00039518197
-0.08491824 0.10315539 0.038184214 -0.051445458 0.002628191 0.057391006 0.028425872 0.056854077
0.029913498 -0.1091343 0.036413994 -0.07743889 -0.0001574723 -0.044327214 -0.090211466 0.04138549
-0.05291551 0.056803733 -0.0044309055 0.012453697 0.07004369 -0.09077546 -0.01936651 -0.006746384
-0.07532323 -0.043618422 -0.0075226957 -8.58376e-05 -0.09557367 0.08217906 0.05168277 0.013950755
-0.09931034 0.07917616 -0.0012443354 -0.033326864 0.08930732 -0.08284954 0.096378595 -0.027647732
0.08206143 -0.002590653 0.004900711 -0.029251978 -0.041331273 0.059160415 -0.08140122 -0.051401354
-0.073158056 0.021312315 -0.059270844 -0.0548148 -0.054365985 -0.066946656 0.004018902 -0.03991274
-0.06021464 -0.002370556 0.05030662 0.057824943 -0.07499376 -0.098490186 -0.05134703 -0.06704023
0.07185563 0.07066471 0.025101146 -0.046039864 0.002500658 -0.016493438 -0.049399324 0.06822496
-0.0786218 0.08613169 0.089079805 -0.024569994 -0.0068146456 -0.02931205 0.07103002 0.03250042
0.0029536055 0.021493226 0.022355266 -0.041368697 -0.021237247 -0.04559722 -0.07019037 0.06358315
0.030125696 0.044189688 -0.03820578 0.022538517 0.08190757 0.012958146 -0.072353736 -0.03533222
0.06956011 0.029625345 0.059136882 0.05970941 -0.025299642 0.05982841 -0.056304008 -0.070080034
-0.04835258 -0.063202135 -0.02828091 -0.07894533 -0.028907685 0.0014823704 -0.06772529 -0.047497578
0.04310606 0.037382983 -0.044566277 -0.028902087 0.030611942 0.0009934471 -0.06568062 -0.03215397
0.00587247 -0.05053893 -0.028260836 0.07346748 -0.013666538 0.055022847 -0.0038709687 0.05016361
-0.023321586 -0.08418407 0.046302453 0.05004939 0.033330444 0.017729856 0.073482156 0.07630634
0.060769025 0.07766233 -0.028732477 -0.07659869 0.06906846 0.021320913 -0.057929058 -0.002736669
-0.05744334 -0.027448254 -0.08287625 -0.06785801 -0.026229633 -0.0034637274 0.07032699 0.06569584
0.012260381 0.004834975 -0.03524583 -0.07602231 0.06817673 0.06206974 0.030666925 0.016976483
-0.038153905 0.002142708 0.039183713 0.077025004 -0.06414385 -0.005159828 0.02572373 0.02940031
0.07985515 -0.007707715 -0.023503413 -0.051774178 -0.04319873 -0.070609696 0.09788623 0.09989156
-0.038768627 -0.030134194 -0.054127958 0.02953175 0.03144504 -0.09131018 -0.07650283 -0.084721
0.030928355 0.102327466 -0.066296555 0.0046047415 0.05183874 0.006048035 0.02341571 -0.020844731
-0.03773881 0.04382898 -0.08594494 0.04227509 -0.06077991 -0.027834011 -0.029162236 0.05466107
-0.09887169 -0.076574564 -0.02478457 0.042118385 0.015934464 -0.0600478 -0.06922247 0.01642113
00000000: 48f7 663d e201 f1bc 810c e33c 726d c53c
00000010: 0eac 093d 3b87 053d 55ec 2fbd 345c 74bd
00000020: a98a 51bd 8846 15ba f34d 733d 5367 873d
00000030: 857b 71bd 79ff 9bbd 8152 2ebd 6cf0 823b
00000040: 05e6 14bd b676 543d c028 8a3d 9e48 cabc
00000050: fb34 833d 55c5 12bc cae4 e03c b435 063d
00000060: dc9e c5bc 18aa b63d f526 fa3c 78e7 93bd
00000070: 17c7 b03d ba65 a33d ce2d 85bc e5bf 613d
00000080: bb8c 213d ac39 b7bd 1d82 993d 0bca b63c
00000090: b722 2dbb f524 9e3d cfd6 6cbc 21cc 1bbd
000000a0: 874c 363d 9604 b43a feb2 623c 4142 533d
000000b0: 6efd 1f3d 838d d6bc 2b21 81bd 6d30 cf39
000000c0: 9de9 adbd 2243 d33d 0d67 1c3d 79b8 52bd
000000d0: ba3d 2c3b d512 6b3d 60dd e83c d2df 683d
000000e0: 270d f53c ce81 dfbd d726 153d 4898 9ebd
000000f0: 261f 25b9 7490 35bd cac0 b8bd d583 293d
00000100: efbd 58bd 08ab 683d 2131 91bb 970a 4c3c
00000110: 1173 8f3d 7ce8 b9bd 84a6 9ebc c510 ddbb
00000120: 1143 9abd 3ba9 32bd f280 f6bb b603 b4b8
00000130: 21bc c3bd 7f4d a83d 50b1 533d b591 643c
00000140: 3863 cbbd 1c27 a23d f818 a3ba c081 08bd
00000150: c2e6 b63d 05ad a9bd 2462 c53d 7f7d e2bc
00000160: d30f a83d f2c7 29bb 2596 a03b d8a1 efbc
00000170: fb4a 29bd 3152 723d afb5 a6bd 3a8a 52bd
00000180: e4d3 95bd 2a97 ae3c fcc5 72bd 7c85 60bd
00000190: deae 5ebd 541b 89bd feb0 833b 8b7b 23bd
000001a0: a0a3 76bd 545b 1bbb 500e 4e3d d9d9 6c3d
000001b0: 5496 99bd 39b5 c9bd 4351 52bd 634c 89bd
000001c0: 0b29 933d a9b8 903d eba0 cd3c 4c94 3cbd
000001d0: 14e2 233b 3f1d 87bc f256 4abd 87b9 8b3d
000001e0: 7704 a1bd d065 b03d 796f b63d 0347 c9bc
000001f0: 644d dfbb d31f f0bc 3078 913d 291f 053d
00000200: 4791 413b 9012 b03c 6422 b73c 3972 29bd
00000210: bcf9 adbc 27c4 3abd f8bf 8fbd e237 823d
00000220: 2aca f63c 3f00 353d aa7d 1cbd b2a2 b83c
00000230: 28bf a73d 674e 543c 322e 94bd 85b8 10bd
00000240: 8875 8e3d dab0 f23c 8439 723d db91 743d
00000250: 3241 cfbc a30e 753d 089f 66bd 1f86 8fbd
00000260: 5b0d 46bd 1f70 81bd 5ead e7bc 17ae a1bd
00000270: cfcf ecbc 194c c23a 8fb3 8abd d28c 42bd
00000280: fb8f 303d e61e 193d 218b 36bd 12c4 ecbc
00000290: e5c5 fa3c 8e36 823a 9083 86bd e2b3 03bd
000002a0: d96d c03b e901 4fbd 4583 e7bc 1e76 963d
000002b0: 9de9 5fbc a35f 613d 14b0 7dbb 5c78 4d3d
000002c0: e90c bfbc b368 acbd a4a7 3d3d 9700 4d3d
000002d0: 8185 083d 343e 913c d07d 963d 8046 9c3d
000002e0: f1e8 783d 6d0d 9f3d 5f60 ebbc c6df 9cbd
000002f0: c473 8d3d 32a9 ae3c 0547 6dbd b059 33bb
00000300: b549 6bbd 29db e0bc 06bb a9bd 24f9 8abd
00000310: 87df d6bc b4ff 62bb 9907 903d 8a8b 863d
00000320: c4df 483c b66e 9e3b ee5d 10bd 96b1 9bbd
00000330: 3ea0 8b3d d73c 7e3d 3439 fb3c 4412 8b3c
00000340: 4547 1cbd ad6c 0c3b 1a7f 203d 49bf 9d3d
00000350: da5d 83bd c613 a9bb 92ba d23c ebd8 f03c
00000360: 198b a33d 0091 fcbb 3b8a c0bc 2911 54bd
00000370: 27f1 30bd d19b 90bd 9378 c83d f293 cc3d
00000380: dacb 1ebd fcdb f6bc 47b5 5dbd 92ec f13c
00000390: 84cc 003d d500 bbbd 84ad 9cbd 3482 adbd
000003a0: 765d fd3c 1091 d13d 7dc6 87bd 5fe3 963b
000003b0: dc54 543d 982e c63b 4ed2 bf3c 92c2 aabc
000003c0: 0394 1abd 0486 333d e703 b0bd a528 2d3d
000003d0: 5bf4 78bd 2704 e4bc a4e5 eebc 49e4 5f3d
000003e0: 3e7d cabd 20d3 9cbd 0309 cbbc 5484 2c3d
000003f0: fe88 823c aff4 75bd 83c4 8dbd 9b85 863c

fc2.bias f4 [32]
0.028834157 0.009557735 0.073960185 -0.011865883 -0.07862218 -0.05220177 0.050535843 -0.017228013
-0.008510879 0.042162675 -0.047604628 0.012362891 0.05492697 0.053962704 0.036134604 -0.052105654
-0.01749555 0.05878094 -0.018983144 -0.046071492 0.02212709 -0.064454675 0.0087924795 0.035743173
0.012350572 -0.038083248 0.016258879 0.050934967 -0.0008777873 -0.0017158303 0.022944553 -0.09075857
00000000: 9c35 ec3c 0c98 1c3c 7078 973d 1f69 42bc
00000010: aa04 a1bd 86d1 55bd acfe 4e3d c321 8dbc
00000020: 3771 0bbc c5b2 2c3d 12fd 42bd b98d 4a3c
00000030: 1afb 603d ff07 5d3d e101 143d bd6c 55bd
00000040: d452 8fbc 48c4 703d 8a82 9bbc 76b5 3cbd
00000050: df43 b53c d000 84bd 550e 103c 6f67 123d
00000060: 0e5a 4a3c 2efd 1bbd 5731 853c 2fa1 503d
00000070: 4f1b 66ba b6e5 e0ba 37f6 bb3c a1df b9bd

action1.weight f4 [1, 32]
0.053083718 0.049692146 0.05538977 0.05837159 -0.039925456 0.05424681 -0.051895756 0.056302726
-0.053614184 0.051144816 -0.056751568 0.046781152 -0.058615346 -0.05570838 0.053363204 0.049505334
0.050338253 0.05618136 -0.053300362 0.058238037 -0.05869463 -0.0496824 -0.06279894 -0.058152325
0.048957743 0.059194855 -0.052849032 -0.05009828 0.047981627 -0.047736578 0.049812138 -0.04343065
00000000: 506e 593d fe89 4b3d 62e0 623d 0c17 6f3d
00000010: e088 23bd e731 5e3d a590 54bd b09d 663d
00000020: 8c9a 5bbd 3a7d 513d 5574 68bd 989d 3f3d
00000030: a516 70bd 782e 64bd 6093 5a3d 1bc6 4a3d
00000040: 7c2f 4e3d 6d1e 663d 7b51 5abd 028b 6e3d
00000050: c869 70bd c67f 4bbd bb9c 80bd 2231 6ebd
00000060: ea87 483d 4e76 723d 3a78 58bd db33 4dbd
00000070: 6288 443d 6e87 43bd d007 4c3d 56e4 31bd

action2.weight f4 [2, 32]
0.007805517 -0.026798973 -0.012217504 -0.032493655 0.0034535574 -0.035111398 -0.008934628 -0.0035324814
0.022793626 -0.013871263 0.01037709 -0.008995737 0.020716336 0.009453287 0.004200426 0.0022018692
0.0032972733 0.0023127384 -0.022707649 0.006673838 0.005838712 0.044427495 0.024802983 0.010146086
0.014388288 0.01591102 -0.013771044 0.005189339 -0.041348275 -0.0019128119 -0.026889507 0.016853878
0.007948223 0.010805448 0.008696386 0.008255493 0.0014961537 0.019636286 -0.006116672 0.013499319
-0.009442981 0.005191461 -0.0039932514 0.0022821 -0.011452045 -0.010558895 0.009999715 0.0048935926
0.0044707116 0.008613967 -0.0040027383 0.008655915 -0.013125957 -0.008965283 -0.013674827 -0.0100958655
0.010459521 0.006241304 -0.0048466427 -0.011786339 0.00902411 -0.0038318797 -0.004168738 -0.0054478897
00000000: 6cc5 ff3b 8589 dbbc ed2b 48bc 1118 05bd
00000010: 1455 623b f8d0 0fbd 8c62 12bc 3481 67bb
00000020: b3b9 ba3c 4b44 63bc ac04 2a3c db62 13bc
00000030: 4eb5 a93c f6e1 1a3c baa3 893b 3c4d 103b
00000040: 1117 583b 5091 173b 6405 babc 36b0 da3b
00000050: ab52 bf3b 9bf9 353d a02f cb3c c53b 263c
00000060: dbbc 6b3c d457 823c f29f 61bc 550b aa3b
00000070: cf5c 29bd 51b7 faba 6247 dcbc 2511 8a3c
00000080: 4339 023c 5509 313c 497b 0e3c 0c42 073c
00000090: 961a c43a 47dc a03c 5d6e c8bb 3f2c 5d3c
000000a0: bcb6 1abc 221d aa3b d2d9 82bb 498f 153b
000000b0: 5ca1 3bbc 37ff 2cbc d8d5 233c 6e5a a03b
000000c0: 0c7f 923b 9921 0d3c 6729 83bb 8ad1 0d3c
000000d0: 410e 57bc 1fe3 12bc 620c 60bc 2169 25bc
000000e0: 695e 2b3c da83 cc3b 96d0 9ebb 7d1b 41bc
000000f0: dcd9 133c 4620 7bbb e999 88bb 3684 b2bb

action2.bias f4 [2]
0.012792334 -0.0047829193
00000000: f096 513c 09ba 9cbb
