s10lre4e3CCM_MADRL_MEC/model/50-400-8-10-40/MATD3/Actor.pth (torch, 23355 bytes, 7 tensors)

fc1.weight f4 [128, 7]
000000 4d 00 1e 3e d6 42 0b be 9f 67 ae be f1 ea 5d 3e
       0.15429802 -0.13599715 -0.34063432 0.21671654
000010 c8 db 9d 3e e0 70 89 3e e7 2e 87 3e 65 91 f1 3d
       0.30831742 0.2684393 0.2640297 0.1179531
000020 4a fb 8f bd 96 7b 00 3e b9 63 91 be 8d 2a d2 bd
       -0.070303515 0.12547144 -0.28396395 -0.10262022
000030 b6 ab 8a 3e 06 f6 99 3e 18 09 8e 3e 26 0f a8 3e
       0.2708413 0.30070513 0.27741313 0.32824057
000040 be 46 40 3e d7 e2 52 3e ee 2d 83 ba 7a 93 1e 3e
       0.18776986 0.20594345 -0.0010008195 0.15485945
000050 a6 d0 9f 3d ff 7f 96 3e fe 3f 12 be d7 8c 2c be
       0.078034684 0.29394528 -0.14282224 -0.16850601
000060 fe 81 b2 bd 5b e1 cb bd 57 12 77 be 21 3f 3a 3e
       -0.087162 -0.099550925 -0.2412809 0.18188144
000070 b0 6d 87 3d ff 45 13 be 2e c5 4e 3e 0c d9 f2 bc
       0.06612718 -0.1438217 0.20192406 -0.029644512
000080 88 69 9d 3e a9 c9 92 be 09 b1 11 bd 8b 38 02 3e
       0.30744576 -0.2866948 -0.035569225 0.12716882
000090 f2 24 85 be 95 06 b8 be 28 6f ab 3e c7 70 8b 3d
       -0.2600475 -0.35942522 0.33483243 0.0680862
0000a0 5c e6 86 be 14 19 36 3e 0b ef be 3e f4 fb f6 3d
       -0.26347625 0.17783004 0.3729175 0.12059775
0000b0 1e 4d 84 3e 42 b3 6d bd a2 e6 c6 3d ea fd 65 3e
       0.25840086 -0.05803228 0.097119585 0.22460142
0000c0 8b a2 a1 3d 25 3f 0b 3e a4 87 4e 3e c1 a4 2e be
       0.07892331 0.13598306 0.2016893 -0.17055036
0000d0 de c3 fb bd ed 65 a9 be 5b e6 0b 3e 57 ee 11 bd
       -0.12293218 -0.33085576 0.13662092 -0.03562769
0000e0 43 22 e1 3c d0 2f 09 3d 63 59 00 3d 63 05 a0 bc
       0.027482158 0.033492863 0.031335246 -0.019533819
0000f0 d1 a3 3c 3e bd 61 0d 3d 14 8b 42 3e cd cb 1d be
       0.18421866 0.03451704 0.18998367 -0.15409775
000100 f9 b1 37 3c 19 3e 5e 3d 63 fb 72 be f7 8d 9d 3e
       0.011211866 0.05425844 -0.23728709 0.30772373
000110 0e 4b 5c 3e ae bc 28 be 22 bf c9 3e 86 1c a3 3d
       0.21513006 -0.16478226 0.39403635 0.07964425
000120 17 c3 b4 be 44 d3 9c be aa 5a 1a 3e 8a 18 80 bd
       -0.35305092 -0.30629933 0.15073648 -0.062546805
000130 c7 80 af be 45 9a 0b 3e 10 4b 70 3e b5 4c 2d 3d
       -0.34277937 0.13633068 0.23466134 0.04230948
000140 49 6d b3 3d c1 e7 52 3e 3e 74 6e bd 6a 24 c2 be
       0.08761079 0.2059622 -0.058216326 -0.37918407
000150 7a a2 ac 3e c3 cb da bd 83 d7 4e 3e 58 98 18 3d
       0.3371771 -0.10683396 0.20199399 0.03725466
000160 20 a7 cb 3c 63 b8 ba 39 d3 d1 19 be 93 07 85 be
       0.024859965 0.00035614063 -0.15021448 -0.2598234
000170 3a e2 bc 3e c4 1f 71 3e e2 8b 5a be 9b ed 3d 3e
       0.36891347 0.23547274 -0.21342424 0.1854767
000180 d0 ee 77 3e b5 6c 6a be 39 44 09 3e 81 6b bf 3c
       0.24212193 -0.22893031 0.13404931 0.023366692
000190 69 bb f1 bd 3d d8 76 be e9 a2 a3 3e bb ac a3 3c
       -0.11803324 -0.24105926 0.31960228 0.019979825
0001a0 cd 3f 28 be 74 c2 d5 3d 3d 82 8a be 36 ba a6 3e
       -0.16430588 0.104374796 -0.2705249 0.32563943
0001b0 e3 60 f9 3d 27 e0 b2 be d8 13 b9 3e 0d 2c ab 3b
       0.12176683 -0.3493664 0.36147952 0.005223757
0001c0 e1 71 c5 be 7b 07 48 be 3c 8f a7 bd 02 f4 4d 3b
       -0.38563445 -0.19534104 -0.08181617 0.0031425958
0001d0 f9 5a 8a be 04 3d 97 be c3 c3 06 3e d5 cb 84 3e
       -0.27022532 -0.2953874 0.13160615 0.25936761
0001e0 fc 3a 62 be 71 64 31 3e a7 26 8f 3d 13 89 54 3e
       -0.22092813 0.17323472 0.06989794 0.20755415
0001f0 86 ae 8c 3e 3d e8 17 3e ec 20 7f be 71 69 e5 3d
       0.274769 0.14834686 -0.24914902 0.11201752
000200 b7 71 8b 3e 5f 6b 57 be be a0 7a 3e 6b 72 53 3c
       0.27235195 -0.21037053 0.24475381 0.012905697
000210 2d 37 b9 3e 03 57 b6 3e 94 e6 36 3e 81 b5 42 3d
       0.36174908 0.3561326 0.17861396 0.047536377
000220 ea d3 a1 3e f3 6a a0 3e ff c3 7a be a0 82 93 3d
       0.3160699 0.31331596 -0.24488829 0.07202649
000230 e4 a1 12 3e 73 b2 57 be 70 5e 31 be 11 b8 9f 3e
       0.14319569 -0.21064167 -0.17321181 0.3119512
000240 46 5b 8e 3d 5f 3f 90 be f6 fc 67 bd b2 4a 25 be
       0.06951003 -0.28173348 -0.056637727 -0.16141775
000250 64 2e b5 3e d5 9c 65 3e 06 59 1e be 34 41 9b 3e
       0.35386956 0.22423108 -0.15463647 0.30323184
000260 52 6e a9 be d2 cc 6a be 41 99 0c be cc 62 4c be
       -0.3309198 -0.22929695 -0.13730337 -0.19959563
000270 f0 e6 ed 3d 99 d8 62 be e4 86 ae 3e 11 01 80 bc
       0.116163135 -0.22152938 0.34087288 -0.015625509
000280 1b ec 6f 3e 94 cb 70 be e8 d7 88 3d 82 4d 86 3e
       0.23429911 -0.23515159 0.06681806 0.2623101
000290 22 61 54 3e e9 01 9f 3e 2b fd b7 3d 0e 28 3a 3e
       0.20740178 0.31056145 0.08983835 0.18179342
0002a0 a9 cc 95 be 34 ea a3 3e 29 0e 3e 3e cb b1 9f be
       -0.29257706 0.3201462 0.18560089 -0.31190333
0002b0 d5 74 ae be 00 bf ec 3c ad dd 1e be 2e 3c 28 be
       -0.3407351 0.02889967 -0.1551425 -0.16429207
0002c0 e4 23 5a be 5c 02 0c be ec 94 02 3e c0 8d c2 3d
       -0.21302754 -0.13672775 0.12752122 0.09499693
0002d0 8a 2d e7 3c f5 1d 43 bd 73 73 98 3e e9 4a 41 3e
       0.028219957 -0.04763599 0.2977558 0.18876232
0002e0 75 01 ac 3e bd f3 26 be 26 d4 a9 3b 55 3e 69 be
       0.33594862 -0.16303916 0.005182761 -0.22777684
0002f0 6f 2f 7d bc e3 b6 13 be af de 11 be 1b 67 ea 3d
       -0.015453204 -0.14425234 -0.14245103 0.11445447
000300 e3 43 2e 3e 9c 99 5a be 93 9f e0 3b 6b 64 fa 3d
       0.17018084 -0.2134766 0.00685496 0.122261845
000310 20 4f 22 bd 47 28 ee bd 1e f1 29 be 19 25 f6 3d
       -0.03962624 -0.11628776 -0.16595885 0.120187946
000320 95 4c 5d be 9f 02 a2 3e bc 34 ca 3b 94 9e 83 3e
       -0.21611245 0.31642625 0.006170837 0.25706923
000330 83 6f 8f 3e 99 21 5d be 32 1e bf bd 0b 7b 04 3e
       0.28014764 -0.21594848 -0.09331931 0.12937562
000340 56 c3 f0 3d 8d 9e 1a 3d 44 50 3a be e6 73 4f 3d
       0.117560074 0.037748862 -0.18194681 0.05064764
000350 09 94 27 3e 93 81 22 3e 2e 1a 08 bc 00 57 6d be
       0.16365065 0.15869741 -0.008307023 -0.23177719
000360 99 94 b7 bc bf 25 af be 10 62 d2 be 20 0c ba 3d
       -0.022409724 -0.34208485 -0.4109044 0.09084344
000370 c8 6b 18 3c 99 f5 2d 3e ff c5 e2 bc 8a e3 13 3e
       0.009303041 0.1698822 -0.027682303 0.14442268
000380 1e f8 a2 be c9 cf b4 3e cf 46 6e be 30 4a f8 bc
       -0.31829923 0.35314777 -0.23269199 -0.030308813
000390 cf 3a 7c 3e 25 44 61 3e 2d 4d 42 bd 6a ef a0 3e
       0.24631809 0.21998651 -0.04743688 0.31432658
0003a0 fc 74 b9 3e 7a 46 6a 3d ab 96 5f 3e 8c 58 9b be
       0.36222064 0.057196118 0.21834819 -0.30340993
0003b0 19 40 dc bc 9b 65 f2 bd b3 d0 10 3d 99 b6 c4 bd
       -0.026886033 -0.11835786 0.03535528 -0.0960514
0003c0 98 76 9a 3e 87 3c a9 be 45 ca 06 be 5f b1 83 3e
       0.30168605 -0.3305399 -0.13163097 0.2572126
0003d0 d6 74 e1 bd b2 c2 1c 3e c9 c8 56 3e ad bb 20 bd
       -0.11008613 0.15308645 0.20975031 -0.03924148
0003e0 4e 1c 36 3e fe 4b b2 3e 21 19 a2 3d d1 2d 98 3e
       0.17784235 0.34823602 0.07914949 0.29722455
0003f0 2d 12 1c be 69 e4 8e be 8a ce 9e be ed f0 2f 3e
       -0.15241309 -0.27908638 -0.31016952 0.1718175

fc1.bias f4 [128]
000000 a3 35 34 3e c7 86 92 3e 64 91 44 be 13 3c 58 3e
       0.17598586 0.28618452 -0.19196087 0.21116666
000010 6d d5 bc 3e 57 5b ac 3d 09 13 aa be 14 32 73 3e
       0.3688158 0.08415859 -0.33217648 0.23749572
000020 78 c2 f9 3c 1e 04 8c be 0e 37 02 bc 52 6d 34 be
       0.030488238 -0.2734689 -0.007947696 -0.17619827
000030 df 4d 9b be c4 c6 b0 3e 82 7f 8a be 28 2b b5 3e
       -0.30332848 0.34526646 -0.27050406 0.35384488
000040 42 e6 6e 3e 53 78 5b be 4e 44 72 3e 8a 15 76 3e
       0.23330024 -0.21432619 0.23658869 0.24031654
000050 6d 68 1f 3d c4 0f 7d 3e 06 a7 3d 3d 30 4c bb 3d
       0.038917948 0.24713045 0.046301864 0.09145391
000060 51 1f 59 3d 93 d9 7d bd f3 b8 5b be 2e c8 9c bd
       0.05300838 -0.061975073 -0.21457271 -0.07655369
000070 4f 0f 41 be b1 b6 8c 3e b5 bd 0f 3d 25 77 a8 3e
       -0.18853496 0.27483132 0.035093028 0.329034
000080 d0 fc b7 bc b4 5e 8a 3e ac f1 8c 3e 79 21 6f 3e
       -0.022459418 0.27025378 0.2752813 0.23352613
000090 77 e8 77 be 4b f1 39 3e 2b 71 96 be 72 49 9f be
       -0.24209772 0.18158452 -0.29383215 -0.31110722
0000a0 4f ed d0 bd 32 26 d0 3c c7 75 55 3d ef ad 0f 3c
       -0.10201513 0.025408838 0.052114274 0.008769496
0000b0 d9 86 33 3e 37 58 c0 be f0 f8 b7 be 14 3a 0f be
       0.17531909 -0.37567303 -0.35932112 -0.13986999
0000c0 a8 8b 32 3e 53 fe 55 be 4b 9d b6 be bc e2 2d be
       0.17436087 -0.20897798 -0.3566688 -0.16981024
0000d0 48 8a 8f 3e d9 3a 33 3e fb c9 a7 be f3 ab b2 3e
       0.28035188 0.17502917 -0.32771286 0.34896812
0000e0 11 db 6e 3e b1 d1 3a 3e ec 80 19 bd 07 0e 39 be
       0.23325755 0.18244053 -0.037476465 -0.18071757
0000f0 10 85 6a be 6e 65 7f 3e 58 c9 4f 3e 20 26 85 be
       -0.22902322 0.24941036 0.2029165 -0.2600565
000100 39 73 61 be 17 99 81 3e b7 62 8c 3e 4a 7a 8c be
       -0.2201661 0.2531211 0.27419063 -0.2743705
000110 f7 78 8d bd 3c d4 8e bd 84 53 61 3e e8 9d 35 3e
       -0.06907838 -0.06974074 0.22004515 0.17736018
000120 ac 2b 88 be ac 5a 53 3d 13 4a a7 3e 86 58 21 3e
       -0.2659582 0.051600143 0.32673702 0.15756425
000130 2c d1 ac be 90 d3 b6 3d b6 d5 9b 3e 12 e5 9d be
       -0.33753335 0.08927071 0.30436486 -0.3083883
000140 f1 a1 14 be 23 5e 80 3e d5 64 38 be c9 88 aa be
       -0.145149 0.2507182 -0.18007214 -0.33307484
000150 9b 33 7b be 34 62 5b 3d 2b 8d 4a 3d c6 ea 12 3d
       -0.24531405 0.05356045 0.049451035 0.03586843
000160 e7 42 89 be 37 7f 19 3d 5f d9 46 3e ec 47 a4 3d
       -0.26808855 0.037474837 0.19418858 0.080215305
000170 f0 54 c0 bd 47 0e 9e be eb 61 e6 bd 9a 63 96 3e
       -0.093912005 -0.30870268 -0.11249145 0.29372865
000180 24 78 c7 be 4e 73 a3 be c5 c9 28 3e 97 16 20 be
       -0.38958848 -0.31923908 0.16483219 -0.15633617
000190 ad a2 6e 3e b7 79 22 3e 97 fb 9f be 7b 9e 20 bc
       0.23304243 0.15866743 -0.31246635 -0.00980341
0001a0 83 2a 41 3e bb 3b 75 3c 05 2a 2a be 0c 49 18 3e
       0.18863873 0.014967854 -0.16617592 0.14871615
0001b0 e0 f1 c4 3c 89 8b 5a 3d 63 85 e6 3d 88 87 0c 3c
       0.024041116 0.053355727 0.1125591 0.008577235
0001c0 ff 0a ab bc 77 8e 39 be 4a 2b 98 be 00 a3 df bd
       -0.020879267 -0.18120752 -0.29720527 -0.10919762
0001d0 23 e9 97 be e6 11 1b be 78 c4 9e 3e f3 2d 12 be
       -0.29670057 -0.15143546 0.3100927 -0.1427534
0001e0 95 0c 77 bd f6 2a 6a 3e d3 77 9e be 52 82 8c 3e
       -0.060314734 0.22867951 -0.30950794 0.27443177
0001f0 44 15 b4 be 2f 9e e6 3c fb b6 95 3d 85 f2 75 3a
       -0.35172474 0.0281516 0.073102914 0.00093821465

fc2.weight f4 [32, 128]
000000 ee e8 2b 3d d5 54 6f bd 51 76 4b bd 47 a8 bb 3d
       0.041970186 -0.05843051 -0.049673382 0.09162956
000010 31 12 b5 bc ad d0 2d bd e7 d9 8d bb 49 48 89 3b
       -0.0221034 -0.042435337 -0.0043289545 0.0041895253
000020 ad 74 1d 3d 01 82 c3 3a a5 19 3b 3d b5 52 90 bd
       0.03844135 0.0014916064 0.045678753 -0.07047025
000030 da df be 3c ef 52 06 3d 29 8c 75 3d 8d af 10 bd
       0.0233001 0.032793935 0.05994812 -0.03532367
000040 af 15 5e 3d 27 23 e0 bc 7f e0 87 bd e0 eb e1 3c
       0.054219898 -0.027360512 -0.06634616 0.027578294
000050 59 28 a9 3c 4b 29 f7 3b df 5e 06 bd c4 1b 50 3c
       0.020649122 0.0075427643 -0.03280532 0.012701932
000060 bc 19 62 bd da f7 bd bc 9d 41 a4 3d f4 7a 66 3d
       -0.055200323 -0.023189474 0.08020327 0.0562696
000070 a1 d3 29 3d cd 37 2d bd aa 84 a0 bd 90 81 3b 3d
       0.04146159 -0.042289544 -0.07837804 0.045777857
000080 16 a8 c2 3c 70 27 bf 3c 12 2e aa 3c 62 68 98 bb
       0.02376179 0.023334235 0.020773921 -0.0046511153
000090 57 71 8e bd e0 f9 76 3c 13 bb d4 bb 04 b8 3b bd
       -0.069552116 0.015074223 -0.0064920275 -0.045829788
0000a0 e8 67 42 3d 79 64 5a bd f9 9a 80 bd 10 9c 5b 3d
       0.047462374 -0.053318474 -0.06279559 0.05361563
0000b0 07 2f 4b 3c 44 0a 11 bd b3 3d c3 bc 0b e7 9f 3d
       0.012401349 -0.03541018 -0.023833131 0.0780774
0000c0 80 ac 87 bd b4 df ad 3c 4a 5c c6 3c 38 e4 81 3d
       -0.06624699 0.021224834 0.024213929 0.063423574
0000d0 74 41 5e ba 91 5c af bb b3 a4 96 3d 68 95 b6 bc
       -0.0008478381 -0.005351611 0.07355633 -0.02228804
0000e0 8d 18 9e bd 75 6d 7e 3d 54 de 09 3d af ba 9e bd
       -0.077195264 0.062116105 0.033659294 -0.07750451
0000f0 67 5c 82 3c 5e 32 01 be c4 ad 1d 3b 06 7f 45 3d
       0.015913201 -0.1261687 0.0024059871 0.048216842
000100 31 95 4b bc 0e 89 23 3d 86 cb 89 3c 57 66 3a 3c
       -0.012425707 0.039925627 0.01682068 0.011376939
000110 35 9b 39 3d 30 4d 98 bd 75 f1 88 bd ed 70 db bc
       0.045314033 -0.07436597 -0.06686679 -0.026787246
000120 98 a0 c9 3d ef 16 11 bc 91 29 9e bd 11 cf c1 bb
       0.09845084 -0.008855565 -0.07722772 -0.005914577
000130 97 ae 9a bd 5a f0 1c 3d 33 92 c1 3c c9 d5 17 3d
       -0.075528316 0.038315155 0.023629284 0.037069116
000140 c5 12 21 bd 47 f2 c5 bc 27 79 28 bd f2 de 71 bd
       -0.03932454 -0.024163378 -0.041131165 -0.059050508
000150 cd 09 8b 3d ad 83 d6 3c d4 6d c4 3c ce 4e 41 3d
       0.06788979 0.026185835 0.023978151 0.047194295
000160 37 d1 8f bd 30 3a a7 bd f3 ff d3 3c 3e 76 96 bd
       -0.070223264 -0.08165395 0.025878882 -0.07346772
000170 d3 ed 05 ba ea cf 82 bd b2 7a 58 3c d8 e9 30 bb
       -0.0005108986 -0.06387313 0.013212847 -0.002699485
000180 58 f8 93 3c b4 60 f7 bb cd 21 d3 bd 55 2f 9b 3d
       0.018062755 -0.0075493697 -0.10309181 0.07577387
000190 72 86 e9 bd 2f c5 66 bd bd d0 86 3c dd cc 08 bc
       -0.114025965 -0.056340393 0.016456956 -0.008349624
0001a0 8a 2a 2e 3a 26 f4 41 3d 50 12 8d bd e1 86 35 3b
       0.0006643912 0.04735198 -0.068882585 0.0027698802
0001b0 20 8e 75 3d dc 63 33 bd 13 c8 9c bc cc 8e 72 bd
       0.059949994 -0.043796405 -0.019138372 -0.059218213
0001c0 b8 32 70 3d f1 c0 39 3d 19 0b 66 3d 25 eb d7 3a
       0.05864212 0.04535002 0.056162927 0.0016473277
0001d0 b2 77 8f 3d ff 9f 26 bd ec 2d da bc 00 a0 be 3c
       0.07005252 -0.040679928 -0.026633225 0.023269653
0001e0 1f 5b 0e 3d f5 a1 be bd 91 b5 52 bd da 7f 57 3c
       0.03475487 -0.093082346 -0.051442686 0.013153041
0001f0 79 1b cd 3c 33 01 a1 3d 27 01 03 bc f2 b3 35 3d
       0.025037514 0.07861557 -0.00799588 0.044361062
000200 86 87 2f bd 2b eb 9e bb ae 09 c4 3c cb cd 35 3d
       -0.042853855 -0.0048498116 0.023930397 0.044385713
000210 90 b2 8c bd b2 e6 a7 3d 26 05 59 3c 6d 02 f9 3c
       -0.068699956 0.081982985 0.013245856 0.030396665
000220 a5 30 34 3a c6 d5 97 3b 1e a3 4c bd 85 39 70 bd
       0.00068737037 0.004633638 -0.04996025 -0.058648605
000230 4d 96 23 bc 43 15 be 3d a7 46 6f 3d 42 6c ab bd
       -0.009984565 0.09281399 0.05841699 -0.08370258
000240 09 d9 03 3b b7 e7 7b bd 2d 45 7f 3d 68 93 dc bb
       0.0020118377 -0.061500277 0.06232183 -0.0067314394
000250 61 96 b2 3d aa 0b a5 3d 67 b7 95 3d e1 a2 52 3c
       0.08720089 0.08058865 0.07310372 0.012856216
000260 eb 00 4d 3d e0 f2 a9 3d dc 4c 1d 3c 9d 91 01 3d
       0.050049704 0.08298278 0.009600844 0.03163301
000270 f4 46 9a bc d8 6a 35 3d f9 93 0b 3d 8d 26 01 3d
       -0.018832661 0.044291347 0.034076665 0.031530906
000280 35 78 69 3d ed 73 69 3c bd fb 34 3d 88 ce 91 bd
       0.056999404 0.01424883 0.04418539 -0.07119471
000290 13 2b 40 3d 08 a4 80 bd c2 b0 3a bc ed 01 4d 3d
       0.04691608 -0.062812865 -0.011394681 0.050050665
0002a0 14 43 09 3b 14 bc 51 bd 80 fc d7 bb ce 0b 1c bd
       0.0020944523 -0.051204756 -0.0065913796 -0.038097195
0002b0 87 f5 23 3a dd 6c 1c 3d 6e 20 aa bb 1f 83 c0 bd
       0.0006254543 0.038189758 -0.005191854 -0.09400009
0002c0 f3 4f cf 3b 3e 5d 8a bd 3f e4 e2 3b ae 57 29 3b
       0.0063266694 -0.06756066 0.0069241817 0.0025839615
0002d0 c4 f8 ad 3d 3f 68 73 3d f1 f9 5b 3d 74 e7 8b 3d
       0.08494714 0.05942559 0.05370516 0.068312556
0002e0 37 90 ba 3d 1b e5 83 3d 82 18 2e bd 43 07 20 bc
       0.09109538 0.06440183 -0.04250384 -0.009767356
0002f0 79 d9 b9 3d a5 65 ba bc 6f db 91 bd e3 b1 0d bc
       0.09074683 -0.022753546 -0.07121932 -0.0086483685
000300 61 50 8d bd d0 fa 4c 3d a6 16 90 bd 4c 06 3e bd
       -0.06900097 0.05004388 -0.0703557 -0.046392724
000310 e8 7a 62 bd a9 8f a4 3d 65 41 9f 3c cd 04 dc 3c
       -0.055292994 0.080352135 0.019440362 0.026857758
000320 f4 f2 83 bd 22 29 b8 3c 8b 61 8a bd 67 79 a6 3d
       -0.06442824 0.022480551 -0.06756886 0.081286244
000330 f1 67 4e 3d 58 1f fa 3c 0c 51 5a 3b 08 34 53 3d
       0.050392095 0.030532524 0.0033312468 0.051563293
000340 3e cd 74 bc a7 48 56 3d 36 4c 05 bc 16 c3 b9 bd
       -0.014941512 0.05231538 -0.008135846 -0.09070413
000350 82 3f 74 3b c5 95 24 bd 73 1e 7a bd e0 52 2b bc
       0.00372693 -0.040181894 -0.061064195 -0.010456771
000360 de ef a0 bd 55 37 2a 3d 62 59 59 3b bc 3a 5d bb
       -0.07858251 0.041556675 0.0033164849 -0.0033756932
000370 20 a6 96 bd 41 ce 8f 3d 5a e7 bb bc 58 1a b5 3a
       -0.073559046 0.07021762 -0.022937465 0.0013817055
000380 3c d8 81 bd 91 17 c4 3b 74 81 21 3d 29 7e f1 3c
       -0.063400716 0.0059842546 0.039430097 0.029479103
000390 4d ea a2 3d e4 19 28 3d ef 41 21 bc c8 8b 3a 3c
       0.079548456 0.041040316 -0.00984238 0.0113858655
0003a0 bc 80 9a 3d 54 39 2e bd a0 04 6f bc 1d 10 b4 bc
       0.075440854 -0.04253514 -0.014588505 -0.02198034
0003b0 96 41 f3 bd 59 4d bf bc 69 5f bb bc 29 64 bb 3d
       -0.11877744 -0.023352312 -0.022872644 0.091499634
0003c0 36 37 9e 3c e4 01 6d 3d 60 ae 42 bd 46 c2 9f 3c
       0.019313436 0.05786313 -0.04752958 0.019501816
0003d0 0f 07 a0 bd fd 3e 72 bd 0d f1 00 3c 18 f9 a1 bd
       -0.07813846 -0.0591421 0.007869971 -0.07908839
0003e0 d2 bd 50 bd 68 0c 2b bd 32 1c a4 3d 67 c0 88 3d
       -0.050962277 -0.04175988 0.0801319 0.06677323
0003f0 cf 40 bc b9 e3 b5 06 3c 0a db 4a bd 2f d1 c3 3c
       -0.0003590644 0.008222076 -0.0495253 0.023903457

fc2.bias f4 [32]
000000 69 1c d1 3b 35 c9 96 3d 10 29 5a bd 19 8e 64 bd
       0.0063815606 0.07362596 -0.053261817 -0.055799577
000010 6c 4f 9e bd 7a a8 5c bd f5 cf 84 3d 03 f2 33 bd
       -0.07729992 -0.05387161 0.06484977 -0.043931972
000020 83 3c 0c 3d df d3 08 3d 31 c2 44 bd 56 58 84 bd
       0.034237396 0.03340518 -0.048036758 -0.06462161
000030 29 a4 70 bd 5e ab 23 38 f8 e6 a5 3d 87 66 15 bd
       -0.058750305 3.9021827e-05 0.081006944 -0.03647473
000040 9f 2e 89 bd 24 29 b8 bc 56 49 92 bd 98 f7 8b 3b
       -0.066983454 -0.022480555 -0.07142894 0.004271459
000050 58 91 82 3d 25 03 76 bc b1 b0 3e 3d 23 61 00 3d
       0.06375378 -0.015015398 0.046555225 0.031342637
000060 8c bd 95 bd 15 9b 3f bd 3f 8d 85 3d 14 26 9e 39
       -0.07311544 -0.046778757 0.06521081 0.0003016448
000070 1b f0 75 3d 99 37 82 bd 0f 7f b5 3b e0 60 98 bd
       0.060043436 -0.06358261 0.005538828 -0.074403524

action1.weight f4 [1, 32]
000000 d5 a3 2f 3d a1 8c 60 bd 83 c6 70 bd 69 4c 7e 3d
       0.04288085 -0.054821614 -0.058783066 0.06208459
000010 9c 73 80 3d 65 53 82 3d c3 32 89 bd cf 4d 85 bd
       0.06272051 0.063635625 -0.06699135 -0.065089814
000020 9a c9 7e 3d 19 10 5a bd 12 69 5f 3d a4 1b 7b 3d
       0.06220398 -0.05323801 0.054543562 0.061305657
000030 f4 95 6a 3d 92 cd 5e 3d 8f 42 6a bd 86 1a 74 bd
       0.057271913 0.054395266 -0.05719238 -0.059595607
000040 0f e9 6c 3d 8e 42 7a 3d b8 e9 79 bd 7c 3b 6d 3d
       0.05783945 0.061098628 -0.061013907 0.057918057
000050 1e 7a 82 3d b6 43 7b bd 0a 10 67 bd ca 00 62 bd
       0.06370948 -0.06134387 -0.05641178 -0.055176534
000060 43 45 81 bd f1 d3 5d bd d6 3f 81 3d bb 66 69 bd
       -0.06312039 -0.0541572 0.06311004 -0.056982737
000070 36 15 61 bd bd c4 7c bd 77 ad 8b 3d 0a d2 6b 3d
       -0.05495187 -0.06171106 0.06820195 0.057573356

action2.weight f4 [2, 32]
000000 be f9 9b bb 51 d0 89 bb db 0c da 3b e7 27 40 3a
       -0.004759996 -0.0042057415 0.0066543645 0.00073301647
000010 4d e0 b8 3c 60 a8 10 bc db b2 12 3c fa 6e 82 3b
       0.022567892 -0.008829206 0.008953775 0.0039805146
000020 df 39 ac 3b 04 48 52 3b cb 46 24 bc db 78 f5 bb
       0.005255922 0.0032086382 -0.010026644 -0.0074912137
000030 ef bf 2a 3c 03 3a e5 3b b3 08 7e bb c4 d7 05 bc
       0.010421737 0.006995441 -0.003876251 -0.008169118
000040 87 26 5e 3b f9 ea eb bc 36 1a 08 bd 56 d5 e5 3c
       0.0033897476 -0.028798567 -0.03322812 0.028055828
000050 a3 7e 18 3a ff ee e2 3a 01 e4 63 bb 29 40 3d bc
       0.000581721 0.0017313658 -0.0034773352 -0.0115509415
000060 57 ba 07 b9 e8 5c 26 3c 3c ad 0a 3b ed 6c 6b bb
       -0.0001294402 0.0101539865 0.0021160385 -0.003592308
000070 8c 48 ff 39 58 47 11 3d d6 2d e1 bb 7c 64 07 bc
       0.00048691442 0.03546843 -0.006871919 -0.008263703
000080 78 14 93 3c c2 c0 13 bc e8 bb 4a ba f7 cd 28 3c
       0.017954096 -0.009018125 -0.00077336887 0.010303012
000090 79 b7 dc ba f2 b3 09 bd 75 28 66 bc 7a 62 75 bc
       -0.0016839347 -0.033618875 -0.014047732 -0.014977092
0000a0 8e 9c a3 3a ab cd 87 bc 4e 94 b6 3c a9 1a 7e 3c
       0.001248257 -0.016577562 0.022287514 0.015509286
0000b0 68 b7 9a bb aa 40 0c 3c 0a 36 45 bc 9e 79 13 3c
       -0.0047215708 0.008560339 -0.01203681 0.009001164
0000c0 44 7b 21 3c 3a 6b 7e bb c1 97 54 3d be e5 db bc
       0.009856049 -0.0038821236 0.051902536 -0.026842948
0000d0 92 fc 63 bc 6e 07 10 bc b8 2a 84 bb 3b 7a 8c bb
       -0.013915198 -0.008790834 -0.004033413 -0.004287032
0000e0 14 b7 24 bc 2b ee a6 bc 3b 9f bb 3b ba a3 c3 bb
       -0.010053415 -0.02037724 0.005725769 -0.0059704455
0000f0 a6 6b 0b bc 5e 0a 38 3d 1f 33 7c 3c 2b 36 7b 3c
       -0.008509552 0.044931762 0.015393048 0.015332739

action2.bias f4 [2]
000000 07 48 36 3d 77 5f 98 bb
       0.044502284 -0.004650052
