s10lre4e3CCM_MADRL_MEC/model/MATD3/9-Actor.pth (torch, 23375 bytes, 7 tensors)

fc1.weight f4 [128, 7]
-0.17635232 0.07142453 0.12685798 0.04586709 -0.23025376 0.25784305 -0.3035171 -0.3214626
0.10280643 0.143915 -0.1336377 -0.13604677 0.10619814 0.33659175 -0.16564046 -0.17218205
-0.19899791 -0.043396406 -0.30245307 -0.048533306 -0.29877585 0.30598432 0.026122477 0.17881738
0.33094972 -0.14617084 0.009699421 0.01160525 0.05042816 -0.15325885 -0.33710146 -0.33492655
-0.23478374 0.10153358 0.24183355 0.26374304 -0.28348854 0.23086149 0.08180745 -0.27306908
0.0642888 0.069644466 -0.35707602 0.03294644 -0.2316918 0.07790329 -0.26616758 0.350386
-0.014481988 -0.21501483 -0.23628129 0.24898413 -0.33787414 0.21764882 -0.36036772 -0.019994032
0.20864768 -0.09027511 0.23249479 -0.14149144 -0.11855028 -0.26480067 0.097624235 0.25858173
0.14666486 0.2725195 -0.20786212 -0.13672999 0.08850011 0.013130612 -0.33570698 -0.16677062
0.35865128 -0.37288952 -0.15809898 0.021108022 0.29068545 0.098468006 0.267859 0.027060855
-0.30934837 -0.0788785 -0.2765427 0.35072955 -0.27330002 -0.37891006 -0.27282104 0.3474143
0.09480259 -0.24993922 -0.23448744 -0.31753218 0.08019272 0.19736508 -0.09725657 -0.3681501
-0.09624084 0.05045752 -0.17997965 -0.31090698 -0.036939595 -0.3722179 -0.26309565 -0.3046689
0.27687103 0.082083724 -0.05755065 -0.31789687 -0.3281367 -0.04613139 -0.22168824 0.063813336
-0.021431966 -0.16741061 0.2939934 0.23639835 0.28104326 -0.14680545 0.14433782 -0.006361647
0.15098645 -0.37523156 -0.31493044 -0.32070783 0.24761008 -0.21802986 -0.3762404 -0.2446853
-0.17246126 0.12898585 -0.18525927 0.24160327 -0.0504881 -0.36124337 0.0124845365 -0.081472896
0.19902553 -0.00029098356 -0.30581126 0.043880504 0.38315263 -0.22048183 -0.29005384 -0.024394581
0.1727083 0.21204491 0.18755409 -0.3049081 -0.08618471 0.12039303 -0.280606 -0.09484785
0.31627965 -0.060030077 -0.38020098 0.2401742 -0.22142935 0.14121199 0.030610902 -0.28325173
0.18932413 0.15223537 -0.038023487 -0.3390644 0.22584653 -0.0814418 -0.08735339 -0.03187909
-0.069525175 -0.14895543 0.012591236 0.23357034 -0.34912285 -0.31803358 0.0011491355 -0.20236376
0.07420534 0.09915514 0.34733552 -0.21064024 -0.035431024 0.16594526 -0.27440125 0.1522838
0.27235502 -0.30485386 -0.2964377 0.34023204 0.14374603 0.27631748 -0.070777036 -0.092141725
0.20980862 0.16514345 -0.36474583 0.18047859 0.30001843 -0.32140395 -0.14716534 0.34380725
0.369794 -0.0027529742 -0.12207589 0.27573323 -0.09311657 -0.18973246 -0.19650477 -0.25414965
-0.15663838 -0.21296203 -0.30431056 0.19211632 -0.35901782 -0.15484254 0.33541203 0.2448677
-0.056532174 0.1776978 -0.057409056 -0.20776102 0.005129702 0.3017924 0.22708593 0.26536754
0.3838403 0.12156561 -0.33615416 -0.17553823 0.11447742 -0.23179196 0.0773068 -0.06903606
-0.111219205 -0.23859 -0.008253324 0.32947314 0.23256385 0.1639114 0.22567017 0.088270776
0.35337365 -0.25992972 -0.31544158 0.039055064 0.060923763 0.124169655 0.11342118 0.08927577
-0.2549529 -0.09028937 0.18384962 0.3274163 -0.11331049 0.20700626 0.19747841 -0.12533057
00000000: b495 34be 0647 923d 0fe7 013e 21df 3b3d
00000010: a4c7 6bbe 0104 843e 9866 9bbe bf96 a4be
00000020: 2d8c d23d 745e 133e 52d8 08be d84f 0bbe
00000030: 697e d93d c155 ac3e a79d 29be 7e50 30be
00000040: 1cc6 4bbe 6ec0 31bd 21db 9abe dcca 46bd
00000050: 26f9 98be faa9 9c3e cefe d53c e71b 373e
00000060: 3e72 a93e cfad 15be 52ea 1e3c f223 3e3c
00000070: c28d 4e3d e3ef 1cbe 9098 acbe 7e7b abbe
00000080: 266b 70be d6f0 cf3d 37a3 773e 5409 873e
00000090: 6925 91be f466 6c3e aa8a a73d b6cf 8bbe
000000a0: d9a9 833d c2a1 8e3d abd2 b6be d9f2 063d
000000b0: 9d40 6dbe c38b 9f3d 1e47 88be cb65 b33e
000000c0: dc45 6dbc d92c 5cbe b9f3 71be b2f5 7e3e
000000d0: d7fd acbe 55df 5e3e 1e82 b8be 86ca a3bc
000000e0: bda7 553e 28e2 b8bd 1d13 6e3e 22e3 10be
000000f0: 7dca f2bd f493 87be 37ef c73d d364 843e
00000100: 502f 163e ad87 8b3e cfd9 54be f202 0cbe
00000110: 8c3f b53d c721 573c c9e1 abbe ebc5 2abe
00000120: 24a1 b73e 60eb bebe b3e4 21be bbea ac3c
00000130: b9d4 943e 98a9 c93d d124 893e baae dd3c
00000140: e962 9ebe 0d8b a1bd 0197 8dbe d392 b33e
00000150: fbed 8bbe 8000 c2be 33af 8bbe 4ae0 b13e
00000160: dc27 c23d 11f0 7fbe 7a1d 70be 9493 a2be
00000170: 153c a43d 121a 4a3e 742e c7bd 2b7e bcbe
00000180: eb19 c5bd 8bac 4e3d 964c 38be 332f 9fbe
00000190: f94d 17bd 5893 bebe 79b4 86be 90fd 9bbe
000001a0: 0ac2 8d3e 831b a83d 3bba 6bbd 61c3 a2be
000001b0: 8901 a8be 45f4 3cbd 3e02 63be 91b0 823d
000001c0: 1792 afbc b06d 2bbe 4e86 963e 6912 723e
000001d0: e7e4 8f3e 2b54 16be 4bcd 133e 5d75 d0bb
000001e0: 319c 1a3e 5a1e c0be 903e a1be d133 a4be
000001f0: 7f8d 7d3e 3843 5fbe 95a2 c0be c98e 7abe
00000200: af99 30be de14 043e 9bb4 3dbe d966 773e
00000210: 9ccc 4ebd e4f4 b8be f18b 4c3c 43db a6bd
00000220: 59cd 4b3e 278f 98b9 4b93 9cbe 0bbc 333d
00000230: 952c c43e fdc5 61be f081 94be 25d7 c7bc
00000240: 72da 303e 4d22 593e 2e0e 403e ea1c 9cbe
00000250: 9c81 b0bd 9f90 f63d 97ab 8fbe 973f c2bd
00000260: 68ef a13e 19e2 75bd b4a9 c2be 3af0 753e
00000270: 60be 62be e099 103e b7c3 fa3c 5f06 91be
00000280: 2fde 413e 97e3 1b3e 84be 1bbd d999 adbe
00000290: 5044 673e f5ca a6bd 56e6 b2bd a693 02bd
000002a0: 3763 8ebd c687 18be 794b 4e3c 102d 6f3e
000002b0: 3bc0 b2be 4cd5 a2be 979e 963a 7238 4fbe
000002c0: f8f8 973d da11 cb3d f6d5 b13e 13b2 57be
000002d0: 1f20 11bd 8eed 293e 527e 8cbe 49f0 1b3e
000002e0: 1e72 8b3e ce15 9cbe afc6 97be e532 ae3e
000002f0: 2932 133e 7c79 8d3e 8df3 90bd cdb4 bcbd
00000300: 12d8 563e 5d1b 293e f7bf babe 61cf 383e
00000310: 049c 993e 0f8f a4be 83b2 16be 8107 b03e
00000320: a455 bd3e 3e6b 34bb ed02 fabd e82c 8d3e
00000330: e6b3 bebd 3a49 42be 8c38 49be e71f 82be
00000340: d065 20be b812 5abe 98ce 9bbe 24ba 443e
00000350: 2fd1 b7be 0b8f 1ebe 20bb ab3e 99be 7a3e
00000360: 488e 67bd 69f6 353e c225 6bbd 4ebf 54be
00000370: 0f17 a83b 8984 9a3e 3789 683e 41de 873e
00000380: b786 c43e 64f7 f83d 661c acbe 4bc0 33be
00000390: 2373 ea3d df5a 6dbe 0753 9e3d c762 8dbd
000003a0: e5c6 e3bd f050 74be f338 07bc b4b0 a83e
000003b0: 3825 6e3e 64d8 273e 1516 673e 4fc7 b43d
000003c0: 64ed b43e 8215 85be 8f81 a1be 34f8 1f3d
000003d0: 328b 793d a94c fe3d 5d49 e83d 37d6 b63d
000003e0: 3089 82be a2e9 b8bd 1343 3c3e 1ca3 a73e
000003f0: 550f e8bd 73f9 533e c837 4a3e a856 00be

fc1.bias f4 [128]
-0.2355364 0.34859505 0.1323196 0.27295902 0.09859988 -0.32312337 -0.06347873 0.068129435
0.18769692 0.35739353 -0.05181334 -0.24331467 0.18597992 -0.1029404 0.27160633 -0.27075455
0.2240748 0.2556285 -0.2755872 0.35749632 0.088391334 -0.052449517 0.2528185 -0.19637902
-0.28781757 0.22563462 -0.13245593 0.07771084 0.24690203 0.30905643 -0.21865027 0.31784806
-0.14044006 -0.30197838 0.15537019 -0.2444368 -0.34520653 -0.18970342 -0.25524426 -0.2629734
-0.31209093 0.26591817 0.17703354 -0.21030611 0.016546987 0.016916022 -0.15850161 0.3287974
0.048196144 0.017436976 -0.08185884 -0.29415438 -0.16879646 0.19707613 0.29411626 0.29952967
0.2158766 -0.11496998 0.014440014 0.3515618 -0.09537882 -0.08969741 -0.057159603 -0.080034375
0.19352949 -0.37143022 -0.15306956 0.052422047 -0.049017105 0.3298006 0.113167495 0.25267223
-0.02088101 -0.31591073 -0.27012464 -0.1426704 -0.024574224 -0.12945677 -0.13163234 0.06348957
0.14050667 0.19503042 0.16921942 0.051385358 0.29386857 0.101053864 -0.18955036 0.03923062
0.33990914 0.29137713 -0.201477 0.33772594 0.36590067 0.2294792 -0.2758845 -0.33024475
-0.10746867 0.2637374 -0.11462219 0.20646839 0.04046771 -0.1509393 0.20825322 -0.32801658
0.15755135 0.30051678 0.14335977 -0.20521514 -0.2781325 0.23834305 0.12660442 0.3124211
0.048872057 0.1091578 0.25101385 0.32426727 0.34531313 -0.10462645 -0.32131657 -0.07457976
-0.2589002 -0.053401675 -0.3029438 0.37128517 -0.0665353 -0.10685242 -0.08425513 -0.0031133792
00000000: 7430 71be 0d7b b23e ca7e 073e 49c1 8b3e
00000010: bcee c93d 6d70 a5be 2301 82bd 7287 8b3d
00000020: 9f33 403e 49fc b63e 3a3a 54bd 7b27 79be
00000030: 8571 3e3e 6bd2 d2bd fc0f 8b3e 57a0 8abe
00000040: dd73 653e bde1 823e c419 8dbe c209 b73e
00000050: 8406 b53d 4ed5 56bd 6d71 813e 9517 49be
00000060: d35c 93be c30c 673e 87a2 07be dc26 9f3d
00000070: e3d3 7c3e a53c 9e3e dbe5 5fbe fbbc a23e
00000080: 85cf 0fbe e99c 9abe 5d19 1f3e a44d 7abe
00000090: e9be b0be 9d41 42be 60af 82be 73a4 86be
000000a0: 62ca 9fbe 6d26 883e 4848 353e 7c5a 57be
000000b0: 8c8d 873c 7893 8a3c 3f4e 22be 2258 a83e
000000c0: 5269 453d fdd7 8e3c 9ca5 a7bd 679b 96be
000000d0: fbd8 2cbe 53ce 493e 6896 963e f45b 993e
000000e0: c10e 5d3e 6275 ebbd cf95 6c3c e9ff b33e
000000f0: f955 c3bd 47b3 b7bd 3020 6abd 10e9 a3bd
00000100: 982c 463e 1a2c bebe 44be 1cbe 80b8 563d
00000110: 29c6 48bd a0db a83e 5cc4 e73d 415e 813e
00000120: a70e abbc 0dbf a1be c74d 8abe 3018 12be
00000130: e24f c9bc 5190 04be a1ca 06be d206 823d
00000140: fbe0 0f3e 0eb6 473e db47 2d3e 7479 523d
00000150: f175 963e 54f5 ce3d 7d19 42be 49b0 203d
00000160: 9208 ae3e 622f 953e fd4f 4ebe 6aea ac3e
00000170: 5557 bb3e 98fc 6a3e bc40 8dbe d715 a9be
00000180: 8918 dcbd 9708 873e 0abf eabd 736c 533e
00000190: 78c1 253d d58f 1abe 5540 553e caf1 a7be
000001a0: 2455 213e 56dd 993e e7cc 123e eb23 52be
000001b0: 6267 8ebe 3310 743e 97a4 013e a9f5 9f3e
000001c0: 112e 483d 208e df3d e384 803e 5c06 a63e
000001d0: e2cc b03e 6446 d6bd 9b83 a4be 46bd 98bd
000001e0: 918e 84be b7bb 5abd 731b 9bbe 1719 be3e
000001f0: a943 88bd 71d5 dabd f48d acbd d609 4cbb

fc2.weight f4 [32, 128]
-0.03235674 0.010108918 0.06207715 0.0038729953 -0.03402509 -0.06602166 -0.058894835 0.027873384
0.05726392 -0.076756045 -0.03563174 0.02859909 0.045802396 -0.04573337 -0.078717194 0.029804274
-0.021878706 -0.061892994 0.04303555 -0.06677656 0.074530795 0.053864487 0.020198919 -0.06791664
-0.05252914 -0.046600975 -0.0463736 0.006143568 -0.09616036 0.05222223 -0.0038252254 0.019170083
0.009075559 0.07789008 -0.012200881 0.105006166 0.020210762 -0.08594878 0.053260427 0.06005724
0.017054806 -0.02338879 -0.013431255 0.0039104237 -0.011429482 0.09791662 0.034253474 0.043547362
-0.062027495 0.07277791 -0.07203597 -0.04365958 -0.01993953 0.06472838 0.052140515 -0.064297795
-0.021965627 -0.042546373 0.0669895 -0.043144513 -0.045320917 -0.07489938 -0.013111 0.05923725
0.005634503 0.09220023 0.039215628 0.015568246 -0.07614755 0.07265496 -0.04183156 0.012122905
-0.06352453 -0.05514701 -0.016466323 0.06789506 0.010249998 0.08982884 -0.00011591248 -0.055406295
-0.09532194 -0.023100693 -0.00850977 0.12137806 -0.0061896 -0.02083392 0.058308896 -0.049607184
0.0027160223 0.0010438698 0.013697309 0.08032538 -0.026511965 -0.08964966 -0.016050901 0.111720644
-0.0639745 -0.03227877 -0.08759579 0.065468654 -0.046322312 0.040851343 0.08232517 -0.04600519
0.031869646 -0.080776885 -0.008992217 0.09891959 0.035669327 -0.03863006 0.066348046 -0.09050878
0.014415547 -0.07437471 -0.0056034764 -0.094914936 0.057412274 0.006818761 -0.009344322 -0.009565661
-0.05228638 -0.0068504293 -0.05295479 -0.09765989 -0.050609346 0.08425803 0.028795168 0.03722923
-0.04606096 -0.05197482 -0.053665243 0.05409976 -0.008070792 0.05852764 0.074995406 0.07717143
0.027701426 0.033464905 0.05831683 -0.056970023 0.06646606 -0.066934675 -0.0071947933 -0.0621742
-0.055889297 -0.056968395 -0.018480662 0.046379693 -0.07565995 0.022585163 0.015569561 0.029854406
0.053586043 0.08103322 0.04024915 0.014124041 -0.020369029 0.03402572 -0.013121493 -0.025818564
0.041177977 0.06701285 0.08474001 -0.11454389 -0.06963845 0.026042452 0.03123248 0.015487712
0.044682406 -0.05496617 0.030651072 -0.044989217 0.03106554 -0.0016261553 -0.048431993 -0.012506767
0.031941112 -0.017343199 -0.027537879 0.011626065 -0.03653008 -0.035167348 -0.03692061 0.030307392
-0.040664125 -0.031597078 0.045432884 0.063668005 -0.0120759625 -0.06774142 0.035975087 0.08284124
-0.07752736 0.00023026676 0.040651664 0.028998803 0.009056072 0.061736617 -0.0015450137 -0.017076222
-0.01192389 -0.012059103 -0.010476155 0.022713484 0.0055940854 -0.042323742 -0.019241203 -0.059701655
-0.083074935 -0.06301594 0.049031317 -0.056791227 0.019720234 0.11478243 0.043207027 0.045046344
0.060183246 0.051251993 -0.055154864 -0.032950915 0.08059568 -0.012165132 -0.12222738 -0.09966004
0.070714466 -0.047264863 0.08061729 0.01919869 -0.044876937 -0.08602231 -0.05939858 0.026783584
-0.038273647 -0.012608451 0.03774327 -0.09513933 0.013468813 -0.008389559 -0.051442496 -0.029311255
-0.0011383265 0.062093772 0.05764815 0.12152471 0.08318482 0.0069497316 -0.04546344 -0.0518163
-0.06124055 0.047612473 0.09084418 -0.037463725 0.014082935 0.02345716 -0.059812773 0.013495232
00000000: 8088 04bd e09f 253c 9c44 7e3d 14d2 7d3b
00000010: e55d 0bbd 5d36 87bd b63b 71bd b956 e43c
00000020: 928d 6a3d 4632 9dbd 96f2 11bd a448 ea3c
00000030: 4b9b 3b3d ea52 3bbd 7b36 a1bd 1828 f43c
00000040: f93a b3bc 8283 7dbd 0b46 303d 26c2 88bd
00000050: 9aa3 983d 02a1 5c3d 3478 a53c e117 8bbd
00000060: cc28 57bd aae0 3ebd 3ef2 3dbd fc4f c93b
00000070: b9ef c4bd fae6 553d a2b0 7abb 940a 9d3c
00000080: a7b1 143c d684 9f3d 34e6 47bc 790d d73d
00000090: 0a91 a53c ea05 b0bd 9b27 5a3d 95fe 753d
000000a0: 85b6 8b3c d999 bfbc c40e 5cbc 0323 803b
000000b0: b942 3bbc 8288 c83d 5f4d 0c3d b85e 323d
000000c0: 8b10 7ebd 960c 953d 9887 93bd 63d4 32bd
000000d0: 3a58 a3bc 5090 843d 4b91 553d 90ae 83bd
000000e0: 42f1 b3bc 1b45 2ebd ca31 893d 4db8 30bd
000000f0: 6da2 39bd d964 99bd 85cf 56bc c2a2 723d
00000100: a3a1 b83b 79d3 bc3d 91a0 203d f511 7f3c
00000110: 3ff3 9bbd 20cc 943d 9257 2bbd 269f 463c
00000120: 2619 82bd d5e1 61bd 62e4 86bc 910c 8b3d
00000130: 9cef 273c 2ff8 b73d 0a16 f3b8 b6f1 62bd
00000140: 2638 c3bd aa3d bdbc 906c 0bbc 0f95 f83d
00000150: 21d2 cabb e6ab aabc 4fd5 6e3d e730 4bbd
00000160: 4bff 313b 75d2 883a ae6a 603c a281 a43d
00000170: 9f2f d9bc 3e9a b7bd 2e7d 83bc cbcd e43d
00000180: 1005 83bd be36 04bd 6c65 b3bd 6e14 863d
00000190: 77bc 3dbd bd53 273d 199a a83d f06f 3cbd
000001a0: bf89 023d 5a6e a5bd 1754 13bc 5b96 ca3d
000001b0: 001a 123d 8e3a 1ebd 7ce1 873d ab5c b9bd
000001c0: 302f 6c3c c551 98bd 5e9d b7bb c362 c2bd
000001d0: 2229 6b3d ea6f df3b ed18 19bc 4ab9 1cbc
000001e0: 3e2a 56bd 9179 e0bb 1fe7 58bd e901 c8bd
000001f0: bf4b 4fbd 798f ac3d d8e3 eb3c ad7d 183d
00000200: 6baa 3cbd 8de3 54bd 16d0 5bbd b697 5d3d
00000210: 5b3b 04bc aeba 6f3d 3197 993d 0e0c 9e3d
00000220: 1aee e23c 7f12 093d a1dd 6e3d 6659 69bd
00000230: 5c1f 883d 0c15 89bd 4dc2 ebbb 60aa 7ebd
00000240: 2dec 64bd b157 69bd c264 97bc a2f8 3d3d
00000250: 9bf3 9abd 8504 b93c 7917 7f3c 3a91 f43c
00000260: 0a7d 5b3d bff4 a53d 4bdc 243d 8668 673c
00000270: f3dc a6bc 8e5e 0b3d 88fb 56bc 7481 d3bc
00000280: 3daa 283d 083e 893d 2c8c ad3d fd95 eabd
00000290: 9b9e 8ebd fb56 d53c 42db ff3c 2cc0 7d3c
000002a0: e604 373d 3524 61bd f517 fb3c 9d46 38bd
000002b0: 297d fe3c b824 d5ba a060 46bd 2fe9 4cbc
000002c0: afd4 023d 5313 8ebc 1e97 e1bc 407b 3e3c
000002d0: 91a0 15bd a30b 10bd 113a 17bd 3547 f83c
000002e0: 6d8f 26bd f06b 01bd d517 3a3d 5f64 823d
000002f0: 42da 45bc 03bc 8abd 9d5a 133d aba8 a93d
00000300: aac6 9ebd c373 7139 5c82 263d e68e ed3c
00000310: eb5f 143c 89df 7c3d 0f82 caba 6fe3 8bbc
00000320: 6b5c 43bc 8b93 45bc 2ea4 2bbc a111 ba3c
00000330: 974e b73b a95b 2dbd ba9f 9dbc b989 74bd
00000340: 3123 aabd 800e 81bd 10d5 483d eb9d 68bd
00000350: 548c a13c 0d13 eb3d daf9 303d 8482 383d
00000360: b582 763d 9ced 513d 11ea 61bd 8af7 06bd
00000370: 590f a53d 4350 47bc 5952 fabd 901a ccbd
00000380: bfd2 903d cd98 41bd ae1a a53d 9246 9d3c
00000390: e1d0 37bd 772c b0bd ed4b 73bd 3f69 db3c
000003a0: d4c4 1cbd ad93 4ebc b098 1a3d 69d8 c2bd
000003b0: 4cac 5c3c 5c74 09bc 5eb5 52bd 281e f0bc
000003c0: e633 95ba 0a56 7e3d 7720 6c3d f2e1 f83d
000003d0: ce5c aa3d 93ba e33b df37 3abd 543d 54bd
000003e0: 5fd7 7abd 4c05 433d 830c ba3d 9073 19bd
000003f0: 1cbc 663c 3b29 c03c 3dfe 74bd 1b1b 5d3c

fc2.bias f4 [32]
0.03766529 0.0201913 0.036842912 -0.011679587 -0.08125456 0.0065060095 -0.021539789 -0.038950566
0.00025143227 0.038025945 0.023591626 0.083896905 -0.050584305 -0.052720744 -0.04727537 -0.07333086
-0.00448566 0.08346786 -0.054607645 -0.027536966 0.01635378 0.06871294 -0.027662156 -0.05831962
0.03472608 0.05013781 0.06949943 -0.0440668 0.053906165 0.013095646 0.026281582 -0.0123729445
00000000: eb46 1a3d 3a68 a53c 98e8 163d bd5b 3fbc
00000010: ca68 a6bd 5d30 d53b 3674 b0bc a18a 1fbd
00000020: abd2 8339 18c1 1b3d 3a43 c13c 24d2 ab3d
00000030: 7d31 4fbd b5f1 57bd d2a3 41bd 7d2e 96bd
00000040: 72fc 92bb 33f1 aa3d 44ac 5fbd 3495 e1bc
00000050: 5df8 853c 5fb9 8c3d bf9b e2bc 8ee0 6ebd
00000060: ef3c 0e3d 4e5d 4d3d b855 8e3d 647f 34bd
00000070: b6cc 5c3d 1f8f 563c 794c d73c e4b7 4abc

action1.weight f4 [1, 32]
0.061492294 -0.060260955 0.070974186 -0.056616616 -0.05114074 -0.047005214 -0.038807757 0.050432898
0.058348473 0.053542055 -0.06379893 0.055304274 -0.05548835 -0.05049851 0.06251248 0.04672473
-0.07108165 -0.06114695 0.044585157 -0.052672744 -0.06841564 0.05580879 -0.052914068 -0.065497875
0.05037287 0.05148785 -0.0484729 0.06829608 0.05914399 -0.0586298 0.055226132 -0.04407332
00000000: 58df 7b3d 31d4 76bd ea5a 913d d3e6 67bd
00000010: f478 51bd 8a88 40bd e2f4 1ebd ba92 4e3d
00000020: cffe 6e3d ea4e 5b3d 03a9 82bd bc86 623d
00000030: c147 63bd 87d7 4ebd 8b06 803d 6e62 3f3d
00000040: 4293 91bd 3975 7abd ed9e 363d 60bf 57bd
00000050: 801d 8cbd c297 643d 6cbc 58bd c023 86bd
00000060: c853 4e3d ece4 523d 858b 46bd d1de 8b3d
00000070: f840 723d cd25 70bd cc34 623d 3a86 34bd

action2.weight f4 [2, 32]
-0.028351316 0.026321528 -0.03291359 0.028795559 0.014811781 0.021599002 -0.0003784371 -0.009013995
-0.016592346 -0.014259812 0.020088349 -0.008607776 0.028034685 -0.004228076 -0.012440307 -0.0026592184
-0.008519839 0.019393805 -0.0074847112 0.016641727 -0.011019206 -0.01673149 0.0097139 0.01996801
-0.009725605 -0.004691388 0.005879869 -0.035163883 -0.013656426 0.022006825 -0.0004001865 0.008022898
0.0138020655 -1.4349221e-05 0.03763827 -0.011966915 -0.0060145822 -0.010059646 -0.009511732 0.0066280924
0.006200588 0.007809615 -0.019430272 0.015077517 -0.010418038 -0.02216446 0.020234352 0.014113849
-0.02313126 -0.012436607 0.008267053 -0.0118654985 -0.019708639 0.01570607 -0.0162127 -0.014570782
0.009827926 0.0130445 -0.018039592 0.0026515822 0.020408832 -0.004224397 0.014824706 -0.009141522
00000000: 0541 e8bc 3fa0 d73c 67d0 06bd aae4 eb3c
00000010: 1dad 723c 64f0 b03c f868 c6b9 6faf 13bc
00000020: acec 87bc fda1 69bc 5290 a43c a107 0dbc
00000030: ffa8 e53c ac8b 8abb 6ed2 4bbc 4846 2ebb
00000040: cb96 0bbc c2df 9e3c 4f42 f5bb 3b54 883c
00000050: e689 34bc 7a10 89bc 0d27 1f3c f493 a33c
00000060: 2558 1fbc 37ba 99bb ebab c03b 0108 10bd
00000070: 34bf 5fbc a847 b43c 1fd0 d1b9 7972 033c
00000080: 0f22 623c 6fbd 70b7 962a 1a3d e110 44bc
00000090: f915 c5bb 37d1 24bc 18d7 1bbc 7830 d93b
000000a0: 4d2e cb3b cde7 ff3b 3c2c 9fbc b107 773c
000000b0: 6bb0 2abc 3e92 b5bc 83c2 a53c c63d 673c
000000c0: c57d bdbc e9c2 4bbc 8972 073c 8267 42bc
000000d0: 0374 a1bc 04aa 803c 7fd0 84bc 4aba 6ebc
000000e0: 4f05 213c 99b8 553c c4c7 93bc 2bc6 2d3b
000000f0: 6c30 a73c cf6c 8abb 53e3 723c 53c6 15bc

action2.bias f4 [2]
0.0013741832 -0.0089528
00000000: f01d b43a c4ae 12bc
