s10lre4e3CCM_MADRL_MEC/model/50-400-8-10-40/Com_DDPG/1-actors.pth (torch, 90707 bytes, 9 tensors)

fc1.weight f4 [128, 7]
0	0x3d12db86	0.035853885
1	0x3e57e8e9	0.21084942
2	0x3d702f06	0.058638595
3	0x3e7b3387	0.24531375
4	0x3e0acf07	0.13555537
5	0xbe450253	-0.19239168
6	0x3ea3231b	0.3186272
7	0x3e69845d	0.22804399
8	0xbdb81142	-0.08987667
9	0x3e933d84	0.2875787
10	0x3e972787	0.29522344
11	0x3da4aa57	0.08040302
12	0xba2f3aa9	-0.0006684461
13	0xbced847c	-0.028993838
14	0xbec03311	-0.3753896
15	0x3eba9dff	0.36448666
16	0x3d20fe65	0.03930511
17	0x3d3b9a0c	0.045801207
18	0x3dc6c8e5	0.09706286
19	0x3dbb3968	0.09141809
20	0xbe1dca33	-0.15409164
21	0xbdb91807	-0.09037786
22	0xbd6da28a	-0.058016337
23	0xbe2f72c5	-0.17133625
24	0xbed044e3	-0.40677556
25	0xbd91dc4e	-0.07122098
26	0xbea8461f	-0.32865998
27	0x3af4bffc	0.0018672938
28	0xbe93e3c1	-0.288847
29	0xbea914bf	-0.3302364
30	0xbe0da34f	-0.13831829
31	0x3e25318a	0.16132179
32	0x3e1e1ca0	0.15440607
33	0xbd935392	-0.07193674
34	0xbd277e92	-0.04089219
35	0x3e897846	0.26849574
36	0x3e8773db	0.26455578
37	0xbe1f185e	-0.15536639
38	0x3e8bbf67	0.27294466
39	0xbe4d72e0	-0.20063353
40	0xbeb4082d	-0.35162488
41	0xbe9ece80	-0.31016922
42	0xbdedfbda	-0.116203025
43	0x3e4409d3	0.19144373
44	0x3e7a70eb	0.24457137
45	0x3ea804b0	0.32816076
46	0x3e416c94	0.18889076
47	0x3ea6b733	0.32561645
48	0xbde7132e	-0.11282955
49	0xbe5b425e	-0.21412036
50	0x3e3af9eb	0.18259399
51	0x3e3f906e	0.1870744
52	0x3d6711ed	0.05641358
53	0x3e4be9cd	0.19913407
54	0xbe882d64	-0.2659713
55	0x3d73d2b6	0.05952712
56	0x3e916b6c	0.2840227
57	0xbe99042d	-0.29885998
58	0x3eb2be4b	0.34910807
59	0x3d870774	0.065932184
60	0x3e98aa91	0.29817632
61	0xbdd342f6	-0.10315506
62	0x3d09aab0	0.033610046
63	0xbea83ff7	-0.328613
64	0x3d084330	0.0332672
65	0xbea664d8	-0.32498813
66	0x3e155b9c	0.14585727
67	0x3e4243fe	0.1897125
68	0xbe979a9b	-0.29610142
69	0xbe8755be	-0.26432604
70	0xbdccc2d9	-0.09998102
71	0xbebbe620	-0.3669901
72	0xbe0c220f	-0.13684867
73	0xbddd65a3	-0.10810401
74	0xbe927847	-0.2860739
75	0xbe9571e6	-0.2918846
76	0x3e60e554	0.21962482
77	0xbdd55e6d	-0.10418401
78	0x3e1fa6ff	0.15591048
79	0xbe8fbfc8	-0.28076005
80	0x3e9d8557	0.30765793
81	0x3d0d2570	0.03445953
82	0xbd84be17	-0.06481569
83	0x3d1d81ac	0.038453743
84	0x3e9b1ac9	0.30293873
85	0x3e9194b3	0.2843376
86	0xbe82c4d0	-0.2554078
87	0xbe5193b3	-0.20466499
88	0x3e0da269	0.13831486
89	0x3e4094ed	0.1880681
90	0xbe5bbe46	-0.21459302
91	0xbd3b36f8	-0.04570672
92	0x3cd4eacb	0.025990864
93	0x3e75a308	0.23987973
94	0x3eb96e3e	0.3621692
95	0xbe82ca14	-0.25544798
96	0x3eae90f8	0.34094977
97	0xbe10d9ee	-0.14145634
98	0xbdcc4790	-0.09974587
99	0x3d8cb301	0.0687008
100	0xbde274cc	-0.110574335
101	0x3e8e56ab	0.27800497
102	0xbdb7c504	-0.089731246
103	0xbe4eab8c	-0.20182627
104	0xbe6be060	-0.23034811
105	0x3e80b705	0.25139633
106	0x3e2e83a5	0.17042406
107	0xbe7095f2	-0.234947
108	0x3e9fd6d1	0.3121858
109	0x3e3d6ddb	0.18498938
110	0x3d47bedd	0.048766006
111	0x3d981d2c	0.07427439
112	0xbec10aea	-0.3770364
113	0x3e9a1acb	0.30098566
114	0x3ea3cd35	0.31992498
115	0x3e3d19c3	0.18466859
116	0xbe8e3ed9	-0.27782324
117	0x3e928322	0.2861567
118	0x3cff5a24	0.031170912
119	0xbd12418d	-0.035707045
120	0xbdd22507	-0.10260969
121	0x3c91f889	0.017818706
122	0xbe0d4455	-0.13795598
123	0x3e6febd5	0.23429807
124	0xbe36ba0d	-0.1784441
125	0x3eab693a	0.3347872
126	0xbc8a4836	-0.016880136
127	0xbe2afbf1	-0.1669767
128	0x3ea54bbc	0.32284343
129	0x3e8faaf7	0.28060123
130	0xbea46af5	-0.32112852
131	0x3cb02b9b	0.021505168
132	0xbe54c34a	-0.20777622
133	0xbe0f002c	-0.1396491
134	0x3d06aed4	0.032881573
135	0x3e20a42c	0.15687627
136	0x3e519b79	0.20469464
137	0x3d1c115c	0.038102493
138	0x3e95af08	0.292351
139	0x3e905a95	0.2819411
140	0xbeaac04c	-0.33349836
141	0x3ddddd69	0.10833246
142	0xbd8157d7	-0.06315582
143	0x3e0d6674	0.13808614
144	0xbe3b9233	-0.1831749
145	0xbe8fd182	-0.2808953
146	0xbe3fa35f	-0.18714665
147	0x3e9707fd	0.29498282
148	0x3e887a16	0.26655644
149	0xbdcb7712	-0.0993482
150	0xbebfed0c	-0.3748554
151	0xbe498331	-0.19678952
152	0xbe8f7b28	-0.28023648
153	0x3d84f147	0.064913325
154	0xbe9a0ab6	-0.30086297
155	0xbe3743ce	-0.17896959
156	0xbc721b8b	-0.014777075
157	0x3db5c6bd	0.08875797
158	0x3e0cdb8c	0.13755625
159	0x3da4c2e2	0.080449834
160	0x3e441980	0.19150352
161	0xbe44e453	-0.19227724
162	0xbe29711c	-0.16547054
163	0x3e686f9d	0.22698827
164	0x3ddc7bd3	0.10765805
165	0x3e8a0387	0.26955816
166	0x3e02b021	0.127625
167	0xbe8d40a1	-0.2758837
168	0x3e8aa7db	0.2708119
169	0xbeaeb697	-0.3412368
170	0x3e118eed	0.14214678
171	0xbeaefa02	-0.34175116
172	0x3e627fe3	0.22119097
173	0x3e27f856	0.16403326
174	0x3e8a60b7	0.27026913
175	0xbeba0dd9	-0.3633869
176	0xbebf91fe	-0.3741607
177	0xbcf08139	-0.029358493
178	0x3e9f50e5	0.31116405
179	0xbe3d2fcd	-0.18475266
180	0x3e46e1bc	0.19422048
181	0xbe127779	-0.14303388
182	0x3da6d845	0.08146719
183	0xbe9b84d1	-0.30374768
184	0xbe43e265	-0.19129331
185	0x3e306a8c	0.17228144
186	0x3e239f49	0.15978731
187	0x3e954e0d	0.2916111
188	0x3e7b309b	0.2453026
189	0xbe4f61cf	-0.20252155
190	0x3e7bd022	0.24591115
191	0xbeb84f8b	-0.35998186
192	0xbe1dc40e	-0.1540682
193	0xbe6f94de	-0.23396632
194	0x3e8b869b	0.27251133
195	0x3dc6d79f	0.09709095
196	0x3eab3504	0.33438885
197	0x3e4002a4	0.18751007
198	0x3bf7ced2	0.0075624967
199	0x3e85589f	0.26044175
200	0x3dc15f30	0.09441984
201	0xbe84b5a7	-0.2591984
202	0xbcbd15ce	-0.023081686
203	0xbdf33a2f	-0.11876332
204	0xbe61650c	-0.22011203
205	0x3e85936b	0.26089033
206	0xbe935e49	-0.2878287
207	0xbe09db31	-0.13462521
208	0x3e6d7857	0.23190437
209	0xbe83455d	-0.25638857
210	0xbd812486	-0.063057944
211	0xbcbb2886	-0.022846472
212	0xbeab3072	-0.33435398
213	0x3e8aa7c3	0.27081117
214	0xbc4f64c9	-0.012658306
215	0x3eb6d27b	0.3570746
216	0xbe8ad773	-0.271175
217	0x3e5d5b89	0.21616949
218	0xbdd46f8f	-0.103728406
219	0x3e50e2b3	0.20398979
220	0x3d9684c0	0.07349539
221	0x3e3457ab	0.17611568
222	0xbe9d6455	-0.3074061
223	0x3e9dd192	0.30823952
224	0xbdb4e08f	-0.08831894
225	0xbe58be77	-0.21166407
226	0xbe113b29	-0.14182724
227	0x3d2eb9f4	0.042657807
228	0x3ea8b51b	0.32950673
229	0x3e9f158d	0.3107113
230	0xbe1f1db7	-0.15538679
231	0x3ec8c867	0.39215395
232	0xbdcd061e	-0.100109324
233	0x3e4339c1	0.19065
234	0x3d90a248	0.07062203
235	0xbe583cda	-0.21116963
236	0x3e15ac9e	0.1461663
237	0x3e3b71d2	0.18305138
238	0x3ead89c6	0.33894175
239	0x3e3e0b30	0.18558955
240	0x3ea82dc1	0.32847407
241	0xbe75ec52	-0.2401593
242	0x3e7158f7	0.23569094
243	0xbdbf7dff	-0.09350204
244	0xbe30840c	-0.17237872
245	0x3da03756	0.078230545
246	0xbdfaef8c	-0.12252721
247	0xbe886f8f	-0.26647612
248	0xbec5213c	-0.38501918
249	0xbeb56278	-0.35426688
250	0x3d190032	0.037353702
251	0xbe833379	-0.25625208
252	0xbe89c6f0	-0.2690959
253	0x3c755737	0.014974407
254	0xbe707fe6	-0.2348629
255	0x3e0f96c4	0.14022356

fc1.bias f4 [128]
0	0x3e1715f7	0.14754473
1	0xbdc492b0	-0.09598291
2	0xbe88092a	-0.26569492
3	0xbed75f39	-0.42064837
4	0x3ecd4c56	0.40097302
5	0xbe938667	-0.28813478
6	0xbea462a0	-0.32106495
7	0xbe7d4e8d	-0.24736996
8	0xbd461013	-0.048355173
9	0x3ddc66f6	0.10761826
10	0xbe669695	-0.2251838
11	0x3e304bd8	0.17216432
12	0xbc883ed2	-0.016631518
13	0x3ea11f9b	0.31469426
14	0xbed09048	-0.40735078
15	0xbdba0192	-0.09082331
16	0x3e204a45	0.15653332
17	0x3ebd08e9	0.3692086
18	0xbd78fc9f	-0.060787793
19	0x3ec703b2	0.38870007
20	0x3eafc3ea	0.34329158
21	0x3c06a6ce	0.00821848
22	0x3dcc0e59	0.09963674
23	0x3e5b05a7	0.21388875
24	0xbe142ec7	-0.14470969
25	0x3e65b544	0.22432429
26	0x3d20e8c3	0.03928448
27	0x3e4430de	0.19159266
28	0x3e8c269d	0.2737321
29	0xbece4c3a	-0.4029253
30	0xbe1b2a9c	-0.15152973
31	0x3e95b1c9	0.29237202
32	0x3e21ccc1	0.15800764
33	0xbdd5fc8a	-0.10448559
34	0x3baa3cb8	0.0051952265
35	0xbe81d67e	-0.25358957
36	0xbe374af3	-0.17899685
37	0xbea388b7	-0.31940243
38	0x3dc92840	0.0982213
39	0xbed19f7a	-0.40941983
40	0x3d215598	0.03938827
41	0x3e3e5ad0	0.1858933
42	0xbe04dbdc	-0.12974495
43	0xbe986b96	-0.29769582
44	0x3c44c631	0.012010143
45	0xbe28cb6a	-0.16483846
46	0x3dd2621a	0.10272618
47	0xbe8b5bbc	-0.27218425
48	0x3e099909	0.13437285
49	0xbe29478a	-0.16531196
50	0xbdc1c013	-0.094604634
51	0xbe1890c9	-0.14898981
52	0x3e7c82bf	0.2465925
53	0xbe8730ae	-0.26404327
54	0x3eb6616a	0.35621196
55	0xbe9bdc28	-0.30441403
56	0xbe5c6930	-0.21524501
57	0xbe6bcef6	-0.23028168
58	0xbd18fe93	-0.037352156
59	0x3e003c75	0.12523063
60	0xbe9acff8	-0.30236793
61	0x3e428e30	0.18999553
62	0x3d081522	0.03322328
63	0xbd242f90	-0.04008442
64	0x3b454aa7	0.003010431
65	0x3d6df44f	0.05809432
66	0x3ea27b88	0.31734872
67	0x3e480143	0.19531731
68	0xbdf32609	-0.11872489
69	0xbe70a647	-0.2350093
70	0x3e968757	0.2940013
71	0xbe44ecb5	-0.19230922
72	0x3cee5ae8	0.029096082
73	0x3ca80460	0.020509899
74	0xbd4c73bf	-0.04991507
75	0xbea42a13	-0.3206335
76	0x3c165a2a	0.00917677
77	0xbebb9f3a	-0.36644918
78	0x3d970ede	0.073758826
79	0xbe7536e0	-0.23946714
80	0xbe8c1aa1	-0.27364066
81	0x3e92499b	0.28571782
82	0x3e8a0947	0.26960203
83	0xbe8542e7	-0.26027605
84	0xbbd4899a	-0.00648613
85	0xbc5aa34c	-0.013344597
86	0x3e9b1c82	0.30295187
87	0x3e870404	0.2637025
88	0x3e9e2c08	0.30892968
89	0xbddb8dee	-0.1072043
90	0xbccd9782	-0.025096659
91	0xbdf86dc8	-0.12130314
92	0xbe11c064	-0.14233547
93	0x3e5f1862	0.21786645
94	0xbeca395a	-0.3949688
95	0xbd5ce6e2	-0.053931125
96	0xbea99c16	-0.33126897
97	0x3d6c0329	0.0576202
98	0xbe0b9fe4	-0.13635212
99	0xbea81ae9	-0.3283303
100	0x3e77b9c5	0.24191959
101	0xbd62c0d6	-0.055359684
102	0x3e72c83d	0.23709197
103	0xbe912de2	-0.28355318
104	0x3e9cd25c	0.3062924
105	0xbe9a15bd	-0.3009471
106	0x3e8f7224	0.2801677
107	0x3e2cc492	0.1687186
108	0x3e63682e	0.2220771
109	0x3e1a0deb	0.15044372
110	0x3d657c5f	0.056026813
111	0xbe6c2083	-0.23059277
112	0xbe810c1e	-0.25204557
113	0xbed30d49	-0.41221073
114	0xbe7ee0b1	-0.248904
115	0xbdd5eef8	-0.1044597
116	0x3eaeacbb	0.34116158
117	0x3d5bee81	0.053694252
118	0xbe629f11	-0.22130992
119	0x3e4862dd	0.19568963
120	0xbe425fcc	-0.18981856
121	0xbe83e2a6	-0.25758857
122	0x3d91b508	0.07114607
123	0xbe68c6b3	-0.22732048
124	0xbeaa9c79	-0.33322504
125	0x3dbba71b	0.09162732
126	0xbdef32c6	-0.11679606
127	0x3e92fe1b	0.28709492

lstm.weight_ih f4 [128, 128]
0	0x3c71553f	0.014729797
1	0x3e2da196	0.16956171
2	0xbcac607d	-0.021042103
3	0xbe2ad557	-0.16682945
4	0x3e1e9483	0.1548634
5	0xbbfddb2c	-0.0077470746
6	0x3d5430f8	0.051804513
7	0x3d159e4f	0.036527928
8	0xbdf7a815	-0.12092606
9	0xbe0fb125	-0.14032419
10	0x3dba5682	0.09098531
11	0xbe2c63bf	-0.16834925
12	0xbda27dfb	-0.07934185
13	0x3df451fb	0.11929699
14	0xbdfe0b8f	-0.124045484
15	0xbd9171f4	-0.07101813
16	0x3dae04ad	0.084969856
17	0x3e1a4312	0.15064648
18	0x3c54e27f	0.012993454
19	0x3d8937b9	0.067000814
20	0xbd051e10	-0.032499373
21	0xbd016455	-0.031589825
22	0x3dcf630c	0.101263136
23	0x3c7e9fa2	0.015540989
24	0x3e10ac11	0.14128138
25	0xbd89a912	-0.06721701
26	0x3e1f2884	0.15542799
27	0x3ddbb240	0.10727358
28	0xbcd4155c	-0.025889091
29	0x3db5acd2	0.088708535
30	0xbdb44a22	-0.08803202
31	0xbde0ff56	-0.109862015
32	0x3c7dece5	0.015498375
33	0x3df1df76	0.118102
34	0x3b2ab02a	0.0026044943
35	0xbe04ef07	-0.12981807
36	0x3d0963a4	0.03354229
37	0xbdde595f	-0.1085689
38	0x3cd4bc9c	0.025968842
39	0xbe22f12d	-0.15912314
40	0xbd86fbda	-0.065910056
41	0x3e1f8463	0.15577845
42	0xbd484dfc	-0.048902497
43	0xbca5db20	-0.020246089
44	0xbd908021	-0.07055689
45	0x3dbf093b	0.093279324
46	0xbd8202d3	-0.06348195
47	0xbe00dd5a	-0.12584439
48	0xbdec0023	-0.115234636
49	0x3d4d0ca7	0.050060894
50	0xbcb84837	-0.022495372
51	0x3df6fd30	0.120600104
52	0xbd4545f5	-0.04816242
53	0x3ddb3c8c	0.10704908
54	0x3db6ae2e	0.08919941
55	0xbe415efa	-0.18883887
56	0x3e05ca81	0.1306553
57	0x3dc29883	0.095017456
58	0x3cba645b	0.022752931
59	0xbe437049	-0.19085802
60	0xbdd55b39	-0.1041779
61	0xbde8c40e	-0.113655195
62	0x3d5bd7f8	0.05367276
63	0xbddceab2	-0.10786952
64	0x3d4dd7de	0.050254695
65	0x3e0e68c9	0.1390716
66	0x3e49a906	0.19693384
67	0x3dd31925	0.1030753
68	0xbe009d39	-0.12559976
69	0x3d81ae10	0.06332028
70	0xbe013338	-0.12617195
71	0x3dd181b7	0.10229819
72	0xbe0e3e3f	-0.13890933
73	0xbe19c4b3	-0.15016441
74	0xbe0efa41	-0.13962652
75	0xbde50ffa	-0.11184688
76	0x3c5e0404	0.013550762
77	0xbdad9280	-0.08475208
78	0x3e01f84c	0.12692374
79	0xbde33a37	-0.11095088
80	0xbe2b8bd5	-0.1675256
81	0xbcc402e4	-0.02392716
82	0x3dc47754	0.095930725
83	0x3de5bf1a	0.1121809
84	0x3ca14674	0.019686915
85	0x3c2f4b71	0.010699139
86	0x3e026176	0.12732491
87	0x3d38d05a	0.045120575
88	0xbdf16bb0	-0.11788118
89	0x3e38795f	0.1801505
90	0x3d91df28	0.07122642
91	0xbe040009	-0.12890638
92	0xbc3ad1bf	-0.011402546
93	0x3d5bffbc	0.053710684
94	0xbc8350b9	-0.016029702
95	0x3dc92b4e	0.09822713
96	0xbd8ff937	-0.07029956
97	0x3e1fee31	0.15618207
98	0x3cfc9798	0.030834004
99	0x3d30bcf6	0.043148957
100	0x3d243d73	0.040097665
101	0xbda250f2	-0.07925595
102	0xbc9ddaf0	-0.019269437
103	0xbd8208c4	-0.06349328
104	0xbd8e2cee	-0.069421634
105	0xbe1b6e92	-0.15178898
106	0x3d8d8440	0.0690999
107	0x3cf80a63	0.03027839
108	0x3ab01170	0.0013432931
109	0x3d912a7f	0.070881836
110	0xbda6da89	-0.08147151
111	0x3d98b18c	0.074557394
112	0x3d49d53c	0.04927562
113	0xbc8618e0	-0.016369283
114	0xbd9f78db	-0.07786723
115	0xbd3cdd55	-0.046109516
116	0x3d274dc0	0.040845633
117	0x3d2fc203	0.042909633
118	0x3d6e3735	0.05815812
119	0x3d9621ee	0.0733069
120	0x3cfeb7e0	0.031093538
121	0x3da47f86	0.08032136
122	0xbe04a2e8	-0.12952769
123	0x3c9dbb36	0.019254308
124	0xbd824950	-0.063616395
125	0xbddcd907	-0.10783582
126	0x3d8302a8	0.06396991
127	0x3df05ab5	0.11736051
128	0xbd0f0755	-0.0349191
129	0x3e375db5	0.1790684
130	0x3d94d0be	0.07266377
131	0xbe2580a1	-0.1616235
132	0xbdfcf0f4	-0.12350646
133	0x3e09d4d2	0.13460091
134	0x3e02df82	0.12780574
135	0xbe20f5f4	-0.15718824
136	0x3cd4a3ac	0.025956951
137	0xbd27a95d	-0.040933
138	0x3de1908a	0.11013897
139	0x3d96c597	0.07361906
140	0x3e02ff52	0.1279271
141	0xbdd80570	-0.10547912
142	0xbd1626a8	-0.03665796
143	0xbde083f3	-0.10962667
144	0xbb71e35f	-0.0036909205
145	0x3cf10f85	0.029426346
146	0xbd902d25	-0.07039861
147	0x3d78026e	0.060549192
148	0xbda8b17c	-0.082369775
149	0x3dcfdd30	0.1014961
150	0xbd5ae381	-0.05343962
151	0x3d5ae576	0.053441487
152	0xbd97a14f	-0.07403814
153	0x3d9ce7ef	0.07661425
154	0x3e1ac5ef	0.15114568
155	0x3e3ad5a5	0.18245561
156	0x3e170d33	0.14751129
157	0x3e06aaa1	0.13151027
158	0xbad7a55c	-0.0016452479
159	0x3d96df52	0.07366814
160	0x3d1cb5e5	0.038259406
161	0xbdb6f5a8	-0.08933574
162	0xbdaeb0e5	-0.08529834
163	0xbc2edfa0	-0.010673434
164	0x3b028d92	0.0019920808
165	0xbd5fbc0b	-0.05462269
166	0x3e0481fb	0.12940209
167	0x3e21322e	0.15741798
168	0xbd8c45b0	-0.06849229
169	0x3e17ef34	0.14837343
170	0x3d771cd8	0.060330242
171	0x3de0380a	0.109481886
172	0xba284cdb	-0.0006420144
173	0x3d2eef5e	0.042708747
174	0x3e12c4b0	0.14332843
175	0x3e00143b	0.12507717
176	0x3d2dd7ad	0.042442013
177	0xbc8f849f	-0.017519293
178	0xbe0f0531	-0.13966824
179	0xbd1793fc	-0.037006363
180	0xbd9bb669	-0.07603151
181	0x3e55e88a	0.20889488
182	0xbde42aa2	-0.11140944
183	0xbe0f2877	-0.1398028
184	0xbdb4599c	-0.08806154
185	0xbdc09797	-0.094039135
186	0x3dc5bb19	0.09654827
187	0x3e2120f8	0.15735233
188	0xbbcdd44f	-0.0062814127
189	0xbce421e7	-0.027848197
190	0x3e379059	0.17926158
191	0x3e3b969a	0.18319169
192	0x3c76a2c2	0.015053453
193	0xbdf88c82	-0.12136175
194	0xbdf24bbc	-0.118308514
195	0x3ddc68d1	0.1076218
196	0xbd955d6b	-0.07293209
197	0xbd03a9cd	-0.032144357
198	0x3e23ac06	0.1598359
199	0x3e141294	0.14460212
200	0x3e0f4051	0.13989379
201	0x3d2a6f90	0.0416103
202	0xbd4a5bb6	-0.04940387
203	0x3d720501	0.059086803
204	0xbd175b81	-0.0369525
205	0x3e2571c6	0.16156682
206	0x3a20718f	0.0006120437
207	0xbdd06d87	-0.10177141
208	0x3e0ea4b9	0.13930024
209	0xbd8e4927	-0.069475465
210	0x3e37ad68	0.17937243
211	0xbd3930fb	-0.045212727
212	0x3d424a2f	0.04743403
213	0x3d1d1470	0.03834957
214	0xbe08d1e1	-0.13361312
215	0xbb7601c6	-0.0037537678
216	0x3e32a076	0.17444023
217	0x3e27c553	0.16383867
218	0x3df82438	0.12116283
219	0xbd3a0315	-0.045413096
220	0xbd04115d	-0.03224312
221	0x3da0465b	0.07825919
222	0xbe24cddc	-0.16094154
223	0x3d6a1ea3	0.057158124
224	0xbe38ae56	-0.18035254
225	0xbd99d564	-0.07511404
226	0xbe2e77bb	-0.17037861
227	0x3d2525a1	0.04031909
228	0x3e326c54	0.17424136
229	0xbc6e2474	-0.014535058
230	0x3c63ba91	0.013899461
231	0x3dcd1062	0.100128904
232	0x3dc5916d	0.096468784
233	0xbd16f740	-0.03685689
234	0xb9966c78	-0.00028691045
235	0x3d834276	0.06409161
236	0x3cebb53a	0.028772939
237	0x3d8d6dc0	0.06905699
238	0xbd8c5ba4	-0.068534166
239	0x3cbe5ba7	0.023237063
240	0x3cf9d230	0.030495733
241	0xbc6fa0f0	-0.014625773
242	0x3e31a77d	0.17349048
243	0x3e193304	0.14960867
244	0x3be2d6b6	0.006922568
245	0x3c3b807d	0.011444208
246	0xbe0b7c4a	-0.13621631
247	0x3e098199	0.13428344
248	0x3d9eccd2	0.0775391
249	0xbdc40788	-0.09571749
250	0xbd78a09c	-0.060700044
251	0xbcebf8d6	-0.028805178
252	0x3dddf2ec	0.10837349
253	0x3d30250e	0.043004088
254	0x3d7c438c	0.061587855
255	0x3cc27652	0.02373806

lstm.weight_hh f4 [128, 32]
0	0x3e5a53da	0.2132105
1	0x3d47a01e	0.048736684
2	0xbd97d892	-0.074143544
3	0xbe19a91b	-0.15005915
4	0xbd02207b	-0.031769257
5	0x3e03246b	0.12806861
6	0xbd5a5be8	-0.053310305
7	0xbc702100	-0.014656305
8	0xbdf28662	-0.11842038
9	0xbd8c84b2	-0.06861247
10	0x3ca67f58	0.020324394
11	0xbd2d9d30	-0.042386234
12	0x3d0b2da8	0.033979088
13	0xbdb24482	-0.08704473
14	0x3cf11927	0.029430939
15	0x3d21a743	0.039466154
16	0xbcad23bd	-0.021135205
17	0x3dddc754	0.108290344
18	0x3d89eb20	0.067343
19	0x3dce23f0	0.10065448
20	0xbd13a17a	-0.036042668
21	0xbe195801	-0.14974977
22	0x3e24e193	0.16101675
23	0xbbc77674	-0.0060871188
24	0xbe703455	-0.23457463
25	0xbdf49be3	-0.119437955
26	0xbdde3566	-0.10850029
27	0x3cb7d398	0.022439763
28	0x3e261ef4	0.16222745
29	0xbd7fe3f0	-0.062473238
30	0xbe371395	-0.17878564
31	0x3c6a46a3	0.014299068
32	0xbdd0e332	-0.10199584
33	0xbd243cbd	-0.040096987
34	0xbdcfc0b6	-0.101441786
35	0xbd1bdf63	-0.038054835
36	0x3e0e1098	0.13873518
37	0xbdd79790	-0.10526955
38	0xbde8f557	-0.1137492
39	0xbd1b16c1	-0.037863497
40	0xbd658b15	-0.056040842
41	0xbcd1aaa2	-0.02559406
42	0x3d84094c	0.06447086
43	0xbe2ec47c	-0.1706714
44	0xbd0193b1	-0.03163499
45	0xbdcf0d19	-0.1010992
46	0xbd83c908	-0.06434828
47	0x3e01585a	0.1263136
48	0x3de4a38a	0.11164005
49	0x3d25dbc7	0.0404928
50	0x3d0c0020	0.034179807
51	0xbde32f02	-0.110929504
52	0xbd8f0827	-0.06983977
53	0xbe1a3e77	-0.15062891
54	0x3e06432b	0.1311156
55	0xbcd199d6	-0.02558605
56	0xbd8b612a	-0.06805642
57	0x3dbf33e2	0.09336068
58	0xbd7e376c	-0.062064573
59	0x3d9c9d8e	0.07647239
60	0x3d66e25c	0.056368217
61	0x3e137679	0.14400662
62	0x3e1ccf7e	0.15313527
63	0xbe23694d	-0.15958138
64	0xbdc0d649	-0.09415872
65	0xbdc4edad	-0.096156456
66	0x3d69ef81	0.057113174
67	0x3e0c1d61	0.13683082
68	0xbdd8fd1d	-0.105951525
69	0xbe1dc048	-0.1540538
70	0x3d664f7c	0.056228146
71	0x3d2cc913	0.042183947
72	0xbe58019a	-0.21094361
73	0xbdcf981e	-0.10136436
74	0x3e43ca89	0.1912023
75	0xbe0234df	-0.12715481
76	0x3e17d222	0.14826253
77	0xbd0ca5ea	-0.034337915
78	0x3cdd69f3	0.02702806
79	0xbd861a32	-0.06547965
80	0x3a11bb55	0.00055592257
81	0x3db6f6f1	0.08933819
82	0x3ccc2c99	0.02492361
83	0xbcdae524	-0.02672059
84	0xbe219391	-0.15778948
85	0xbd862e99	-0.065518565
86	0x3e37bae3	0.17942385
87	0x3e3360bf	0.17517374
88	0x3bee0dfa	0.0072648497
89	0x3d9e063f	0.07716035
90	0x3e0ef76f	0.13961576
91	0xbc9e23e2	-0.01930422
92	0x3e312cd4	0.17302257
93	0xbceee7af	-0.02916321
94	0xbbdf1be4	-0.0068087447
95	0xbdb50883	-0.08839514
96	0xbd132f2e	-0.035933666
97	0xbddbe8b0	-0.10737741
98	0xbd99f674	-0.0751771
99	0x3e03a102	0.12854388
100	0xbe29559e	-0.16536567
101	0xbe254624	-0.16140038
102	0x3c916b20	0.017751276
103	0xbdd8f89c	-0.105942935
104	0xbe4461ea	-0.19177976
105	0xbcb293b3	-0.021798944
106	0xbd88e4aa	-0.06684239
107	0xbe0222bf	-0.12708567
108	0xbbbacf9b	-0.005701018
109	0xbd011b94	-0.03152044
110	0x3c1fc856	0.009752354
111	0xbe0001da	-0.12500706
112	0xbd0dcc19	-0.03461847
113	0xbde99e2f	-0.11407124
114	0xbdee0af2	-0.116231814
115	0x3e092ea1	0.13396694
116	0xbcc46a25	-0.023976395
117	0x3d9bdfa0	0.076110125
118	0xbd9d465c	-0.076794356
119	0xbe29b636	-0.16573414
120	0xbd69f94c	-0.057122514
121	0x3c772821	0.015085251
122	0xbe089970	-0.13339782
123	0x3e191e72	0.1495302
124	0x3d77597d	0.060388077
125	0xbe104976	-0.14090523
126	0xbe177190	-0.14789414
127	0x3b87469f	0.0041282917
128	0xbd0ad06c	-0.033890173
129	0x3db16067	0.086609654
130	0xbcb80ca0	-0.022466958
131	0xbd0e2074	-0.03469892
132	0xbe1cdbe2	-0.15318254
133	0x3db9dff6	0.0907592
134	0x3bfecdc0	0.007775992
135	0xbe127fe5	-0.143066
136	0xbe18e500	-0.14931107
137	0xbe18af9e	-0.14910743
138	0x3e0eaea1	0.13933803
139	0x3cdc9265	0.026925275
140	0x3db4619c	0.0880768
141	0x3e1c216f	0.15247129
142	0x398aaae8	0.00026448746
143	0xbc7af662	-0.015317531
144	0x3d709ddc	0.058744296
145	0x3dc91a70	0.09819496
146	0x3de663b2	0.11249484
147	0xbe20d32b	-0.15705554
148	0x3db1a46d	0.0867394
149	0x3e0c5e38	0.13707817
150	0xbd733e28	-0.05938545
151	0x3d6cfdf5	0.05785938
152	0x3ddf1020	0.108917475
153	0xbdd9d13d	-0.10635612
154	0x3da1c78f	0.07899391
155	0xbe11d0f1	-0.14239861
156	0xbe39db26	-0.18150005
157	0xbe20fc3c	-0.1572122
158	0x3e44a60a	0.19203964
159	0x3d917e12	0.07104124
160	0x3d14e787	0.036353614
161	0xbd362457	-0.04446825
162	0x3de40c7a	0.11135192
163	0x3cc46540	0.023974061
164	0xbd60b883	-0.054863464
165	0xbdb252bd	-0.08707187
166	0xbd5f2ec2	-0.05448795
167	0x3dc3ea8f	0.09566223
168	0xbdef8474	-0.11695185
169	0x3e01a92a	0.12662187
170	0x3df00841	0.11720324
171	0x3e311783	0.17294125
172	0xbd807d6b	-0.062739216
173	0x3e4ccc05	0.19999702
174	0xbe0aaa0b	-0.13541429
175	0x3e05dd26	0.13072643
176	0x3e011f0a	0.12609497
177	0x3dcc1eb8	0.09966797
178	0x3da553b6	0.08072607
179	0xbe45aac9	-0.1930343
180	0x3d72688c	0.059181735
181	0xbd6b389c	-0.057427034
182	0x3c4c6f31	0.012477682
183	0x3d9fbeca	0.07800062
184	0x3d900cd5	0.070336975
185	0xbda72905	-0.08162121
186	0x3d2361c2	0.03988815
187	0xbd971854	-0.07377687
188	0xbdc361c7	-0.09540134
189	0x3e54e624	0.20790917
190	0x3e2fcf3c	0.17168897
191	0x3d4110e3	0.047135245
192	0x3e31dbbf	0.17368983
193	0xbdcd5355	-0.1002566
194	0xbe166774	-0.14687902
195	0xbe356c6d	-0.17717142
196	0xbd55edb0	-0.05222863
197	0x3d4f6720	0.050635457
198	0xbdcbb4f0	-0.099466205
199	0x3de222c1	0.11041785
200	0x3d966f32	0.073454276
201	0xbdbd6206	-0.09247212
202	0xbd310ff8	-0.04322812
203	0x3d686a4d	0.056742
204	0xbe03be1a	-0.12865487
205	0x3ce71bb7	0.028211458
206	0x3d222c15	0.03959282
207	0xbbcc070a	-0.006226425
208	0x3daf075c	0.085463256
209	0xbe1dbe31	-0.15404584
210	0xbd7af014	-0.061264113
211	0x3d8720a3	0.06598022
212	0x3cb9f02b	0.022697529
213	0xbe2064fd	-0.15663524
214	0x3dbe4cc4	0.09291986
215	0x3d4d2dcd	0.050092507
216	0x3e0cb712	0.13741711
217	0x3d019c67	0.031643298
218	0xbe1e7f47	-0.1547824
219	0x3e190fab	0.14947383
220	0xbd20963e	-0.039205782
221	0x3dcbc33d	0.09949348
222	0xbe0fd7c8	-0.14047158
223	0xbe2aac13	-0.16667204
224	0xbdc42ef1	-0.09579266
225	0x3d9227f9	0.071365304
226	0x3e072f06	0.13201532
227	0xbdb3bfa9	-0.08776791
228	0xbda2f281	-0.0795641
229	0xbe1ce594	-0.15321952
230	0x3e090619	0.13381232
231	0xbde04a20	-0.10951638
232	0xbe29ee59	-0.16594829
233	0x3e214a05	0.15750892
234	0xbdd17ff1	-0.10229481
235	0xbda99f9b	-0.082823955
236	0x3ca3d838	0.020000562
237	0xbdf913c9	-0.12161977
238	0x3d9762c1	0.07391883
239	0x3dfee0bc	0.124452084
240	0xbca14cb1	-0.01968989
241	0xbd82c8ce	-0.06385957
242	0x3d6f5233	0.058428
243	0xbda40b47	-0.080099635
244	0x3d9e7c61	0.07738567
245	0x3e1b09e9	0.15140499
246	0xbd82fe76	-0.06396191
247	0xbd0586b3	-0.032599162
248	0xbdbaaceb	-0.09115013
249	0xbe018cb3	-0.12651329
250	0xbcd72142	-0.026260976
251	0x3d0771ae	0.033067398
252	0x3c8a5222	0.016884867
253	0xbcdfe43f	-0.027330516
254	0x3e083ac9	0.13303675
255	0xba2e92a9	-0.00066594273

lstm.bias_ih f4 [128]
0	0x3df51b87	0.11968141
1	0x3db75433	0.089516066
2	0xbe32613d	-0.17419906
3	0xbbcb0333	-0.0061954497
4	0x3d8ab969	0.067736454
5	0xbcf405a7	-0.029787851
6	0x3df47f95	0.11938397
7	0x3e04a6c5	0.12954243
8	0xbdd5bb53	-0.1043612
9	0x3cd0f768	0.025508597
10	0x3d173e45	0.03692462
11	0xbe4bd99c	-0.1990723
12	0xbe4e05d5	-0.20119412
13	0xbd921855	-0.07133547
14	0x3e04f173	0.1298273
15	0xbdde9a55	-0.1086928
16	0xba1671e3	-0.00057390163
17	0x3a987220	0.0011630692
18	0x3e239886	0.15976152
19	0x3d097c12	0.03356559
20	0x3d8e7147	0.069552
21	0xbd27de51	-0.0409835
22	0x3cf524df	0.029924808
23	0xbde28414	-0.11060348
24	0xbe08e4fc	-0.133686
25	0x3dd6d5d2	0.10490002
26	0x3d9e892b	0.077410065
27	0x3d8bd432	0.068275824
28	0xbd502f06	-0.050826095
29	0x3d8a5c5a	0.06755896
30	0xbd0e4774	-0.03473611
31	0x3c99af6a	0.018760402
32	0x3e0f3915	0.13986619
33	0xbd938b8a	-0.07204349
34	0xbce543d1	-0.027986439
35	0x3c9e506d	0.01932546
36	0x3e220f16	0.15826067
37	0xbac3bf53	-0.0014934338
38	0xbd05c5d0	-0.03265935
39	0x3e179200	0.14801788
40	0xbdbc7af8	-0.09203142
41	0x3db05a2f	0.08610951
42	0xbd2b182a	-0.04177109
43	0xbdcd8ac8	-0.10036236
44	0x3c88c3be	0.0166949
45	0xbd868aa1	-0.0656941
46	0x3d015b85	0.03158142
47	0x3e196b30	0.14982295
48	0xbdc9f821	-0.0986178
49	0xbdf5986c	-0.11991963
50	0x3e3c0645	0.18361767
51	0x3e05ae23	0.13054709
52	0xbe022ed4	-0.12713176
53	0x3df628af	0.120194785
54	0x3e17802e	0.1479499
55	0xbe0251cd	-0.12726517
56	0x3bd09a9b	0.0063660867
57	0xbcd5f3f2	-0.026117299
58	0xbdc76f22	-0.09737994
59	0x3d7a8700	0.061163902
60	0x3ddb946e	0.1072167
61	0xbd060b7d	-0.0327258
62	0x3d591125	0.052994866
63	0xbe155794	-0.1458419
64	0x3e232891	0.15933444
65	0x3dca5bd7	0.09880798
66	0xbe33027e	-0.1748142
67	0x3d19a638	0.037512034
68	0xbdb26634	-0.087109
69	0x3e332d93	0.17497854
70	0x3d84fe2e	0.064937934
71	0xbd7c3c7b	-0.061581116
72	0x3c1766f7	0.009240857
73	0xbda9a661	-0.082836874
74	0x3d8e781e	0.06956504
75	0xbd9ea14a	-0.07745607
76	0x3e2ec895	0.17068703
77	0x3ce2c70d	0.027682805
78	0x3d5dc553	0.05414326
79	0xbdad5cda	-0.08464976
80	0x3dcb4376	0.099249765
81	0x3de6d0f8	0.112703264
82	0xbe0826e0	-0.1329608
83	0x3e0335eb	0.12813537
84	0xbe29e7a2	-0.16592267
85	0x3df9d68e	0.12199126
86	0xbcb2e6ca	-0.021838564
87	0x3d5b21d7	0.05349907
88	0x3d7ffbf9	0.06249616
89	0xbdc0a1f5	-0.09405891
90	0xbb461881	-0.0030227008
91	0x3bfbbb87	0.007682267
92	0x3e12654b	0.14296453
93	0xbe269190	-0.16266465
94	0xbceb9da5	-0.028761694
95	0x3d524635	0.051336486
96	0x3db47417	0.08811205
97	0x3dd56e75	0.10421459
98	0x3e03f436	0.12886128
99	0x3dce13ab	0.10062345
100	0x3e198f3e	0.14996049
101	0x3df16456	0.11786716
102	0xbd93010b	-0.07177933
103	0xbdd8f833	-0.10594215
104	0xbdb59ffd	-0.08868406
105	0xbd23951c	-0.039937124
106	0x3d0ed8dd	0.034874786
107	0xbe11da2e	-0.14243385
108	0x3e0aacec	0.13542527
109	0x3dedf78e	0.11619483
110	0xbe0e9bf6	-0.13926682
111	0x3e324f55	0.17413075
112	0xbe24f12e	-0.16107628
113	0x3e024b15	0.12723954
114	0xbd5502ab	-0.052004497
115	0xbdf6101e	-0.12014793
116	0x3c06fcaf	0.008238955
117	0x3de38d3d	0.111109234
118	0x3d19c1a9	0.037538204
119	0xbe27b6a5	-0.16378267
120	0x3e439b51	0.19102217
121	0x3d38bca3	0.045101773
122	0x3d5bfe7c	0.053709492
123	0x3e25368c	0.16134089
124	0x3e09d00f	0.13458274
125	0x3c0dd87c	0.008657571
126	0x3e25e8f7	0.1620215
127	0x3d13a443	0.036045324

lstm.bias_hh f4 [128]
0	0x3d9faa02	0.07796098
1	0xbcb0f198	-0.021599576
2	0xbe025bf7	-0.12730394
3	0x3d9fa9ac	0.07796034
4	0x3dc193b1	0.09451998
5	0x3e22a2f6	0.15882477
6	0xbdde3f43	-0.1085191
7	0xbe2ed1f6	-0.17072281
8	0x3de4d966	0.11174278
9	0x3de2db71	0.110770114
10	0xbce87d92	-0.02838019
11	0x3daa7c32	0.083244696
12	0xbe27da95	-0.16391976
13	0xbdcbad9d	-0.099452235
14	0xbe026008	-0.12731946
15	0x3d0a31ee	0.033739023
16	0xbdfba424	-0.12287167
17	0x3cd40751	0.025882395
18	0xbdbd8791	-0.09254373
19	0xbd3c0bb0	-0.045909584
20	0x3d4fa080	0.050690174
21	0x3cfb2e06	0.030661594
22	0xbcd3f7a3	-0.025874918
23	0x3dfce74f	0.12348806
24	0x3e1b5cd9	0.15172137
25	0xbd866a78	-0.06563276
26	0xbe4b96e1	-0.19881774
27	0xbd65d904	-0.056115165
28	0x3d9aaefa	0.075529054
29	0xbd181a06	-0.037134193
30	0x3dd23ff0	0.10266101
31	0xbe219b56	-0.15781912
32	0xbe3d6781	-0.18496515
33	0x3bcbd966	0.0062209843
34	0x3c878d7f	0.016546963
35	0xbe3932ec	-0.18085831
36	0xbce13759	-0.027492212
37	0x3d8b950d	0.068155386
38	0xbd987bd5	-0.07445494
39	0xbd9c6df2	-0.07638158
40	0x3d410da9	0.047132168
41	0x3e1819bc	0.14853567
42	0x3c86771d	0.01641422
43	0x3e10571e	0.14095733
44	0x3ddf59c7	0.109057955
45	0xbba0fbb7	-0.0049128192
46	0xbc9ad4df	-0.018900333
47	0xbe2acf9c	-0.16680759
48	0x3dbd2f9d	0.09237597
49	0xbe1040d5	-0.14087231
50	0x3e00588a	0.12533775
51	0xbe2252fb	-0.15851967
52	0xbe1e3465	-0.15449674
53	0x3d8005a3	0.06251075
54	0xbbd8bc70	-0.0066142604
55	0x3e04376e	0.1291177
56	0x3d5710ed	0.052506376
57	0xbe33a936	-0.17545018
58	0x3e0297ab	0.12753169
59	0xbe312670	-0.17299819
60	0x3c208e57	0.009799561
61	0xbe35f495	-0.17769082
62	0x3d442c03	0.047893535
63	0xbe302cd0	-0.17204595
64	0xbe16510b	-0.14679353
65	0xbb43f359	-0.0029899685
66	0x3d6f2229	0.058382187
67	0xbdd54267	-0.10413056
68	0x3d98efb7	0.07467597
69	0xbd253510	-0.040333807
70	0xba2df045	-0.0006635229
71	0x3d418921	0.047249917
72	0x3e35346f	0.17695783
73	0x3da78c52	0.08181061
74	0x3cc093f6	0.023508053
75	0xbd6861dc	-0.05673395
76	0x3da979be	0.082751736
77	0x3dc49020	0.09597802
78	0xbe3226d7	-0.17397629
79	0xbe279c27	-0.16368161
80	0x3d8e8e52	0.06960739
81	0xbd33a004	-0.043853775
82	0x3e00055d	0.12502046
83	0x3c24b6a9	0.010053315
84	0xbb0b53ad	-0.0021259591
85	0x3def5674	0.116864115
86	0xbcf3e02c	-0.02976998
87	0x3d703ca0	0.058651567
88	0x3d56a8fe	0.052407257
89	0xbe3535fb	-0.17696373
90	0xbe2fce58	-0.17168558
91	0xbdcc617a	-0.0997953
92	0xbe181903	-0.14853291
93	0x3d004882	0.03131915
94	0xbe06a3ae	-0.13148376
95	0x3e21fe62	0.15819696
96	0x3da7c961	0.08192707
97	0xbdc1268b	-0.094311796
98	0xbc31e7e8	-0.010858513
99	0x3e023b8a	0.12718025
100	0xbe208dcc	-0.15679091
101	0x3e344fc6	0.17608556
102	0xbda64917	-0.081194095
103	0xbe3a2de4	-0.18181568
104	0x3d474912	0.04865367
105	0xbe1b0a92	-0.15140751
106	0x3d521303	0.051287662
107	0xbd5e8115	-0.05432232
108	0xbc570e05	-0.013125901
109	0x3d2c1e07	0.042020824
110	0xbe1f6131	-0.1556442
111	0x3df4378c	0.11924657
112	0x3da984b0	0.08277261
113	0x3e1e491b	0.15457575
114	0xbd8793d2	-0.06619991
115	0x3dfee051	0.12445129
116	0x3bdb7953	0.0066978126
117	0x3b9cb510	0.0047823265
118	0xbe0c67a8	-0.13711417
119	0x3c73d6ae	0.014882727
120	0xbe23efb0	-0.16009402
121	0x3dd35a05	0.10319904
122	0xbdce121a	-0.10062046
123	0x3d0274de	0.031849734
124	0x3daccdf8	0.08437723
125	0x3de94505	0.113901176
126	0xbe2c536c	-0.16828698
127	0x3ca34ee8	0.019935086

action1.weight f4 [1, 32]
0	0xbe0b25e8	-0.13588679
1	0xbd4f12aa	-0.05055491
2	0x3d6ad3da	0.057330944
3	0xbd442d92	-0.04789502
4	0x3d615ba2	0.05501903
5	0x3dca6a08	0.09883505
6	0x38c9d7f0	9.6246484e-05
7	0xbac0c04c	-0.0014705746
8	0xbd443f65	-0.04791202
9	0x3b8088b4	0.0039225463
10	0x3d41ec40	0.047344446
11	0x3ca535e5	0.0201673
12	0x3d4fde9d	0.05074941
13	0x3d720932	0.0590908
14	0xbca6b74c	-0.020351075
15	0x3d3cfc28	0.046138912
16	0xbd575eab	-0.052580517
17	0xbd61e861	-0.055153254
18	0xbd69d1a4	-0.057084695
19	0xbd38363e	-0.044973604
20	0xbc96dfb2	-0.018417213
21	0xbbb57d42	-0.0055386135
22	0x3c8fca96	0.017552655
23	0xbc2ba7d5	-0.010477026
24	0x3d515efc	0.051115975
25	0xbc80ca58	-0.015721485
26	0xbbf9e186	-0.0076257614
27	0xbd34d1ad	-0.044145275
28	0xbc5d7e8e	-0.0135189425
29	0x3d3ca162	0.046052344
30	0x3da78dde	0.08181356
31	0xbd53b399	-0.05168495

action2.weight f4 [2, 32]
0	0x3d4c83fe	0.049930565
1	0x3bc5df75	0.006038601
2	0x3c141351	0.0090378085
3	0x3b99a4bb	0.004688827
4	0x3c16e38d	0.009209526
5	0x3cc44cac	0.023962341
6	0x39696878	0.00022259529
7	0x3baa2b30	0.0051931366
8	0x3c10daac	0.008841198
9	0x3b538131	0.003227305
10	0x3c2adb0b	0.0104282005
11	0x3bc224d8	0.0059248023
12	0x3c3f5515	0.011678
13	0x3c069d23	0.008216175
14	0x3b9587d2	0.00456331
15	0x3bfb3490	0.007666178
16	0x3bc3f881	0.0059805517
17	0x3c0b6a3f	0.008509218
18	0x3a314358	0.0006762049
19	0x3bcb4024	0.0062027145
20	0x3c2469b7	0.01003497
21	0x3c080e50	0.008304194
22	0xbce77fec	-0.02825924
23	0xb9e48b7f	-0.00043591482
24	0x3c56be1d	0.01310685
25	0x3c428084	0.011871461
26	0x3b8fe1db	0.0043909377
27	0x3c129b1d	0.008948115
28	0xbc68c8f9	-0.014208072
29	0x3c05ecd5	0.008174141
30	0x3b2a5c9c	0.002599514
31	0x3bfdf32a	0.0077499347
32	0x3d33ec14	0.043926314
33	0x3c00c83c	0.00786024
34	0xbb99e354	-0.004696289
35	0xbc2e2dba	-0.010631019
36	0xbbdf6da2	-0.006818489
37	0x3be66531	0.007031106
38	0xba691eab	-0.00088928145
39	0xbb8d837a	-0.0043186517
40	0x3c3498cc	0.011022758
41	0xbb6a0053	-0.003570576
42	0x3bb57741	0.005537898
43	0xbbd2a78f	-0.006428666
44	0x3b865f0c	0.004100686
45	0x3c66b8ae	0.014082117
46	0xbb2aaa5c	-0.0026041484
47	0xbaa3d171	-0.0012498331
48	0x3bb8faeb	0.005645146
49	0x3bb370ee	0.0054761088
50	0x3cbdd359	0.023172067
51	0xbc0e6674	-0.008691419
52	0x3c2e806d	0.010650736
53	0xbc0290fb	-0.007969136
54	0xbca59067	-0.020210458
55	0x3ca98b12	0.020696197
56	0xbaf1f1bb	-0.0018458882
57	0xbc405a45	-0.011740272
58	0xbb881583	-0.004152955
59	0xbb7232c5	-0.003695653
60	0xbd8f6b4a	-0.07002886
61	0xbb1ce7f9	-0.0023941977
62	0x3d075cd9	0.03304753
63	0x3b2a87d3	0.00260209

action2.bias f4 [2]
0	0x3c0c9329	0.008580008
1	0x3b0d9a5c	0.0021606898
