s10lre4e3CCM_MADRL_MEC/model/50-400-8-10-40/Com_DDPG/2-actors.pth (torch, 90707 bytes, 9 tensors)

fc1.weight f4 [128, 7]
-0.1796864 0.02630164 -0.34357947 0.04984278 -0.14041479 0.28276753 0.10468144 -0.010736968
0.09447673 0.18379804 0.088077046 -0.066927545 0.07369907 -0.31761068 -0.0024040265 -0.33741513
0.38643572 0.3806439 0.28382456 -0.21094765 0.16178448 0.084492475 0.14230846 -0.08187563
0.2808796 0.0788525 0.2811581 -0.24982955 -0.005945855 -0.2803071 -0.29396898 0.2971883
-0.10997722 0.27345106 -0.15522021 0.11709992 -0.13383551 -0.022767168 -0.16719756 0.2812701
0.14704491 0.15991196 0.2029914 0.30209625 0.10344088 -0.3249284 -0.0787731 0.14363724
-0.0010242152 -0.17486489 0.14517345 -0.059364483 -0.19793189 0.31612125 -0.360829 -0.23857625
-0.0020721436 0.26478803 0.16209874 0.34766757 0.34778672 0.33181205 -0.11438463 0.27702883
0.08101123 0.3624919 -0.0022747554 -0.076348364 0.13580312 -0.18014213 0.23296158 0.033841725
-0.41112858 -0.07103994 -0.091595896 -0.33620167 -0.13678367 0.15964356 -0.12791535 0.06910629
-0.07150484 -0.27812165 -0.3806586 -0.30740455 0.15687108 0.06740299 -0.1915981 0.34341702
0.13988729 -0.27909386 0.24138677 0.37141588 -0.37647486 -0.275874 -0.21666043 0.16619447
0.13452704 -0.32707986 -0.00076726504 -0.071247496 -0.39954582 0.2074744 -0.15142587 0.262812
0.34053686 0.008893065 -0.3591685 0.13606523 -0.18402727 -0.0305362 0.13622844 -0.007881303
-0.34040672 0.23208965 0.048273508 0.32558542 -0.15636972 -0.1262743 0.088349104 0.27945608
0.0014808162 0.15784924 -0.26182842 -0.28879583 -0.27900094 0.1203878 -0.22862768 0.31066632
0.2264562 -0.3251873 0.14680356 -0.34277633 0.2577944 0.32973567 -0.2963036 -0.17496668
0.23707965 -0.040204022 -0.25326848 -0.30212936 0.14284487 -0.044002283 0.35350874 -0.1935142
-0.19262291 0.1807167 0.28205174 -0.11090015 -0.11029259 -0.020296298 0.26704335 -0.31280476
-0.18311317 0.080607526 0.018914089 0.26714176 -0.115442954 -0.04532399 -0.09643754 0.060710877
0.27318683 0.1867711 0.082219034 -0.14005311 -0.36246902 0.17035586 0.09851834 0.17680371
-0.12091938 -0.37805018 -0.2667752 -0.04703979 -0.012506261 0.2453444 0.12683208 -0.28419492
-0.26977053 -0.36418182 -0.23095755 0.37623417 0.17925143 0.29350752 -0.052910075 0.23288499
-0.3511398 0.2614149 0.21662739 0.26130933 -0.17486899 -0.37779126 -0.4007122 0.12708518
-0.28349978 -0.20655634 -0.011791947 0.20670389 -0.07784562 0.168572 0.27670056 -0.37242687
0.19764751 -0.0015310881 0.27073973 0.0610999 0.033272587 0.031244919 0.3269838 0.21342823
-0.27631232 -0.24364264 -0.30596465 -0.37249088 0.18647024 -0.41021046 0.2086562 0.15466444
-0.0141786365 0.17579527 0.34590623 0.045693763 -0.2664839 0.1262185 0.046512436 0.04133237
0.0339585 0.00878441 -0.056340527 0.08666871 0.021955198 -0.083288364 -0.23122968 0.17140901
-0.1478958 0.20237854 -0.17876834 0.104094006 -0.13404505 -0.27388033 0.32372227 -0.33187628
-0.059971385 -0.21064597 0.028870998 0.009458842 0.12369292 -0.30046856 -0.21733531 -0.27074146
0.078466035 0.030258577 -0.37126434 -0.24329114 0.37551636 -0.2103731 0.18793134 0.083220474
00000000: b6ff 37be 8976 d73c a6e9 afbe f127 4c3d
00000010: e5c8 0fbe e8c6 903e 3963 d63d 1cea 2fbc
00000020: 047d c13d 8e35 3c3e bd61 b43d 4f11 89bd
00000030: 8aef 963d de9d a2be df8c 1dbb adc1 acbe
00000040: e7da c53e c2e3 c23e 7451 913e a902 58be
00000050: d5aa 253e 640a ad3d 4fb9 113e 69ae a7bd
00000060: 73cf 8f3e 6b7d a13d f4f3 8f3e 51d3 7fbe
00000070: 72d5 c2bb 6a84 8fbe 1a83 96be 1129 983e
00000080: bd3b e1bd c701 8c3e 0cf2 1ebe 15d2 ef3d
00000090: 2d0c 09be 3682 babc d635 2bbe a202 903e
000000a0: f192 163e f6bf 233e fadc 4f3e 5cac 9a3e
000000b0: d0d8 d33d 045d a6be cb53 a1bd a415 133e
000000c0: f63e 86ba c80f 33be 59a8 143e 2c28 73bd
000000d0: a8ae 4abe a5da a13e 94be b8be 554d 74be
000000e0: cdcc 07bb 4c92 873e 36fd 253e 7c01 b23e
000000f0: 1a11 b23e 45e3 a93e 7d42 eabd b9d6 8d3e
00000100: 37e9 a53d 8a98 b93e 1014 15bb 885c 9cbd
00000110: f90f 0b3e 2e77 38be 7b8d 6e3e 9f9d 0a3d
00000120: 727f d2be 637d 91bd a196 bbbd a022 acbe
00000130: 0511 0cbe 9a79 233e 3efc 02be 9987 8d3d
00000140: 2171 92bd f665 8ebe afe5 c2be 2164 9dbe
00000150: d0a2 203e 940a 8a3d 4b32 44be 5bd4 af3e
00000160: 9d3e 0f3e 64e5 8ebe 182e 773e 392a be3e
00000170: 50c1 c0be 5b3f 8dbe 3bdc 5dbe e22e 2a3e
00000180: 75c1 093e 0377 a7be 4922 49ba 35ea 91bd
00000190: 4591 ccbe 2b74 543e 620f 1bbe 4b8f 863e
000001a0: d95a ae3e 38b4 113c efe4 b7be af54 0b3e
000001b0: a571 3cbe 0e27 fabc 787f 0b3e 9520 01bc
000001c0: ca49 aebe e9a8 6d3e 71ba 453d 22b3 a63e
000001d0: 621f 20be 0d4e 01be 60f0 b43d de14 8f3e
000001e0: f217 c23a 3ba3 213e 600e 86be 0cdd 93be
000001f0: 36d9 8ebe e18d f63d 601d 6abe a80f 9f3e
00000200: 22e4 673e f37e a6be ac53 163e 6180 afbe
00000210: a1fd 833e 1dd3 a83e 1bb5 97be 772a 33be
00000220: 02c5 723e f9ac 24bd 68ac 81be b3b0 9abe
00000230: ed45 123e bd3b 34bd 19ff b43e 9628 46be
00000240: f13e 45be cc0d 393e 1669 903e 9e1f e3bd
00000250: 15e1 e1bd 6c44 a6bc e8b9 883e f227 a0be
00000260: 0582 3bbe 8f15 a53d b8f1 9a3c cec6 883e
00000270: 5b6d ecbd a6a5 39bd 0c81 c5bd f8ab 783d
00000280: 25df 8b3e ec40 3f3e 7462 a83d 156a 0fbe
00000290: 8a95 b9be c471 2e3e fcc3 c93d 080c 353e
000002a0: 94a4 f7bd cb8f c1be c296 88be cbac 40bd
000002b0: 0fe7 4cbc 903b 7b3e 45e0 013e ff81 91be
000002c0: 5d1f 8abe 0a76 babe 2380 6cbe c4a1 c03e
000002d0: b08d 373e 9e46 963e 3cb8 58bd 6779 6e3e
000002e0: 99c8 b3be 2cd8 853e 92d3 5d3e 56ca 853e
000002f0: db10 33be db6d c1be 262a cdbe 9e22 023e
00000300: e226 91be 8183 53be 0333 41bc 2faa 533e
00000310: 866d 9fbd 239e 2c3e b2ab 8d3e bcae bebe
00000320: 1c64 4a3e cbae c8ba 669e 8a3e e443 7a3d
00000330: d648 083d 58f5 ff3c 6c6a a73e ee8c 5a3e
00000340: cf78 8dbe 757d 79be 66a7 9cbe 20b7 bebe
00000350: 0ef2 3e3e 1b07 d2be f9a9 553e 5b60 1e3e
00000360: 834d 68bc ad03 343e 9f1a b13e 6229 3b3d
00000370: 9470 88be 6c3f 013e d383 3e3d 224c 293d
00000380: 1118 0b3d 7cec 0f3c 53c5 66bd 5d7f b13d
00000390: 63db b33c 1793 aabd 79c7 6cbe d885 2f3e
000003a0: ff71 17be 523c 4f3e 0c0f 37be 3d2f d53d
000003b0: 1b43 09be 0b3a 8cbe edbe a53e b0eb a9be
000003c0: 8ea4 75bd 94b3 57be df82 ec3c 42f9 1a3c
000003d0: b752 fd3d 04d7 99be 268d 5ebe a09e 8abe
000003e0: cdb2 a03d d6e0 f73c 5c16 bebe 5021 79be
000003f0: ae43 c03e 0c6c 57be 1371 403e 7f6f aa3d

fc1.bias f4 [128]
-0.3463846 0.114547975 -0.09828063 0.1973044 0.09851401 0.24516626 0.33413857 0.020022456
-0.057917774 -0.075775534 -0.20066108 0.24023217 -0.007853295 0.31704053 -0.14614986 -0.3539961
-0.3615867 0.097815245 0.08543988 0.07749575 0.13821325 0.27047664 -0.08349771 0.30425796
0.1357505 -0.029588243 0.14115079 -0.12058643 -0.26282972 0.23741724 -0.40719348 0.022287577
0.23691306 0.15719491 0.34124205 0.39179745 0.029308565 0.10595844 -0.122962475 0.13797201
-0.22157958 0.21494783 -0.020346586 0.18746735 -0.35030776 -0.31800574 0.3664842 -0.22922525
-0.20741186 -0.36721477 -0.36225617 -0.082711495 0.20090201 -0.027277082 0.11561249 0.22868666
0.21519852 0.3420141 0.09107832 -0.38038003 -0.048131097 -0.045000102 -0.13082646 0.01992697
0.3470814 -0.2557799 -0.24827012 0.2512014 -0.37142602 0.30087554 -0.18469977 -0.0014270878
0.15640682 0.26055148 0.22004704 0.13809396 -0.056222044 0.31878275 -0.31087282 0.02952379
-0.30131793 -0.059364293 -0.060663745 -0.11526666 0.38481617 -0.38702387 -0.20110771 -0.013788423
-0.12325046 -0.10695412 0.078503415 0.3464836 -0.072570115 -0.2801442 -0.30323797 -0.07117318
-0.30874583 -0.24830215 0.025608573 0.27561525 0.04598554 -0.25302657 -0.36110124 0.1617945
-0.36444196 -0.32708296 0.28417054 0.019005263 0.044734884 0.26420563 -0.11161437 0.30711278
0.014122321 0.0963397 -0.055599786 0.2855518 -0.3085535 0.10979777 -0.09506317 -0.16001445
0.23657669 -0.32356063 0.114053495 -0.1794875 -0.39605632 0.12138021 0.25298974 -0.12175862
00000000: 5359 b1be 2198 ea3d 5b47 c9bd 2a0a 4a3e
00000010: b7c1 c93d dd0c 7b3e 3614 ab3e 2206 a43c
00000020: 303b 6dbd 3430 9bbd 197a 4dbe 6cff 753e
00000030: 1bab 00bc 2353 a23e 4fa8 15be fa3e b5be
00000040: e421 b9be 5c53 c83d 1bfb ae3d 17b6 9e3d
00000050: c687 0d3e ea7b 8a3e d900 abbd b3c7 9b3e
00000060: 2e02 0b3e 0b63 f2bc d589 103e 05f6 f6bd
00000070: 9e91 86be 811d 733e aa7b d0be 7094 b63c
00000080: 5699 723e b4f7 203e 47b7 ae3e ad99 c83e
00000090: 8418 f03c bd00 d93d c0d3 fbbd 8948 0d3e
000000a0: c2e5 62be 491b 5c3e e2ad a6bc 71f7 3f3e
000000b0: 8a5b b3be a6d1 a2be d1a3 bb3e 06ba 6abe
000000c0: c663 54be 9303 bcbe a479 b9be a564 a9bd
000000d0: 42b9 4d3e 3074 dfbc 3ec6 ec3d d62c 6a3e
000000e0: 005d 5c3e 791c af3e 4587 ba3d 2cc1 c2be
000000f0: 1d25 45bd 0752 38bd 5ff7 05be e33d a33c
00000100: a7b4 b13e 95f5 82be 863a 7ebe 789d 803e
00000110: 8d2b bebe 5c0c 9a3e f021 3dbe 1f0d bbba
00000120: 1c29 203e 0167 853e 0354 613e 8168 0d3e
00000130: 1649 66bd 7e37 a33e b92a 9fbe e0db f13c
00000140: 5846 9abe f927 73bd 8c7a 78bd ed10 ecbd
00000150: a006 c53e fe27 c6be 2eef 4dbe d6e8 61bc
00000160: bd6a fcbd c30a dbbd 66c6 a03d 4c66 b13e
00000170: a49f 94bd 106f 8fbe 0242 9bbe 3fc3 91bd
00000180: ef13 9ebe eb42 7ebe 12c9 d13c 711d 8d3e
00000190: 555b 3c3d b38c 81be 43e2 b8be 75ad 253e
000001a0: 2398 babe 6b77 a7be cd7e 913e edb0 9b3c
000001b0: ed3b 373d f645 873e 1396 e4bd e33d 9d3e
000001c0: 4f61 673c c04d c53d 9abc 63bd d833 923e
000001d0: b9fa 9dbe a7dd e03d 7bb0 c2bd d4da 23be
000001e0: 2941 723e bda9 a5be e194 e93d 92cb 37be
000001f0: e5c7 cabe 3096 f83d df87 813e 955c f9bd

lstm.weight_ih f4 [128, 128]
0.08106795 -0.14768432 -0.08596235 0.09475991 -0.035908546 -0.0013072634 -0.0069087194 -0.17291719
0.0039492245 -0.060968738 0.07309291 0.0903522 0.007756364 -0.08478544 0.009022326 -0.0963602
-0.060718328 -0.12755354 -0.036280923 -0.055363547 0.149877 0.013104002 0.049506962 -0.08808969
-0.076960206 0.14185964 0.041731622 0.12521097 0.06306653 0.02325834 -0.15031326 0.104021296
-0.07485953 -0.034059852 0.09163526 0.08675358 0.013824631 0.14247724 -0.196465 -0.12328452
0.09844906 0.14799213 0.12917455 -0.060170308 -0.06489915 -0.10901866 -0.04805411 -0.007756351
0.003364406 0.113045864 -0.14932281 0.12747952 0.0029615148 0.18090095 0.17143066 0.17178005
0.041197635 0.14719619 0.050618004 -0.13799898 0.098287806 0.022816349 -0.020428713 -0.14963707
-0.11569241 -0.0013398541 -0.101032555 0.10535207 -0.08477185 -0.079767585 0.12615651 0.0005572554
-0.045896348 -0.13325474 0.0915186 0.07463263 0.06803915 -0.024085026 0.013090079 0.13664965
-0.10989524 0.085992865 0.10703814 0.041572183 -0.058277424 0.054858148 0.1465893 -0.0085608885
-0.08281906 0.10426538 -0.14878155 0.09752928 0.10526721 -0.12558728 0.106366724 -0.025022496
0.08842219 -0.17450279 -0.07779537 0.16933796 0.10828363 -0.11588303 0.04184751 -0.19232966
0.12186067 -0.09444513 -0.15170325 0.1310812 0.08321524 -0.044690464 -0.12717925 0.0828596
-0.046297587 0.15841326 -0.077917576 0.14216985 0.046269584 0.11489091 0.12477878 -0.04851826
-0.04441973 0.066108346 -0.08615476 -0.056741036 -0.12125892 -0.07612718 0.18235901 -0.06880343
-0.11305148 0.056228355 -0.0008644333 -0.016350042 0.15037425 -0.014025574 -0.08068369 -0.15551881
0.003452473 0.1289548 0.10269394 -0.09651533 -0.1304371 -0.0050799716 0.09286937 -0.100145
0.01532294 -0.028861545 0.04196292 -0.010136447 0.13570704 0.15174589 0.10376644 0.13153505
0.018008612 -0.037283834 0.12315487 -0.047146793 0.043298446 -0.023785878 0.031219406 -0.026602026
-0.13352284 -0.10801263 -0.11937131 -0.10951577 0.014606443 -0.13415448 -0.038696665 -0.016934192
-0.13113347 0.085411444 0.04075009 0.043974157 -0.17217383 0.15245257 0.03752086 0.01847755
0.04413112 -0.08519018 -0.008232191 0.14814332 -0.056248 0.11042967 0.06785913 -0.17522746
0.0878514 0.036824077 -0.016266583 0.085910834 -0.009878258 -0.0055281236 0.06398379 -0.04248627
0.006284162 0.18287021 -0.10329348 -0.17846885 -0.059851177 -0.007662313 -0.08129581 0.032641098
0.13659301 -0.045658924 -0.07778654 0.08591717 0.111952886 -0.050775457 -0.11447051 0.07733835
-0.07104146 -0.02279763 -0.086586475 0.10333113 0.12246321 0.08237432 -0.08586864 -0.11131777
-0.14581281 -0.1316918 -0.04914779 -0.13698839 0.04722734 -0.114984654 0.09888905 0.07336967
-0.103748344 -0.1981407 0.07716418 0.010334709 0.1109502 -0.013137948 0.104593165 -0.058991328
0.0717839 -0.019592492 0.021489851 -0.0297703 -0.086529225 -0.15555423 -0.1126582 -0.18984118
0.14017753 -0.09567379 0.0021987963 0.14414884 0.1542845 -0.006558341 0.113790415 0.02531576
0.049080636 -0.11829248 0.033415426 -0.14082937 0.15105225 -0.17242654 0.061754882 -0.07291576
00000000: f406 a63d 8f3a 17be 070d b0bd 7c11 c23d
00000010: d714 13bd 7b58 abba 8a62 e2bb 3411 31be
00000020: 7f68 813b 5bba 79bd bcb1 953d 930a b93d
00000030: 1929 fe3b fda3 adbd 61d2 133c 7f58 c5bd
00000040: c8b3 78bd 659d 02be 4e9b 14bd e3c4 62bd
00000050: 5b79 193e 2bb2 563c d0c7 4a3d 5e68 b4bd
00000060: 509d 9dbd a743 113e c7ee 2a3d 4e37 003e
00000070: 0629 813d 4688 be3c b8eb 19be 1e09 d53d
00000080: f44f 99bd 5882 0bbd 44ab bb3d dcab b13d
00000090: b580 623c 8ee5 113e 1f2e 49be 987c fcbd
000000a0: a99f c93d 408b 173e 5546 043e 2475 76bd
000000b0: d8e9 84bd 2d45 dfbd 63d4 44bd fd28 febb
000000c0: 5e7d 5c3b 9784 e73d 14e8 18be fe89 023e
000000d0: f915 423b 193e 393e 858b 2f3e 1ce7 2f3e
000000e0: dabe 283d 99ba 163e d354 4f3d 9b4f 0dbe
000000f0: 1e4b c93d 5ae9 ba3c 1e5a a7bc 763a 19be
00000100: 24f0 ecbd 0b9e afba 28ea cebd d3c2 d73d
00000110: dd9c adbd 305d a3bd 2c2f 013e c714 123a
00000120: cffd 3bbd ee73 08be 1b6e bb3d fed8 983d
00000130: 1c58 8b3d f64d c5bc c577 563c e3ed 0b3e
00000140: c110 e1bd 071d b03d d036 db3d 9847 2a3d
00000150: 4fb4 6ebd f0b2 603d 811b 163e f842 0cbc
00000160: 0a9d a9bd 1689 d53d 315a 18be 6ebd c73d
00000170: 5696 d73d f499 00be ccd6 d93d fafb ccbc
00000180: b116 b53d dcb0 32be 2e53 9fbd ee66 2d3e
00000190: cfc3 dd3d 1554 edbd 4b68 2b3d 11f2 44be
000001a0: 1692 f93d 736c c1bd 1958 1bbe 263a 063e
000001b0: c06c aa3d 590d 37bd 473b 02be 4bb2 a93d
000001c0: 8aa2 3dbd 1637 223e 4093 9fbd f994 113e
000001d0: 2d85 3d3d ed4b eb3d 048c ff3d 15bb 46bd
000001e0: 76f1 35bd d063 873d e871 b0bd 4a69 68bd
000001f0: 9956 f8bd 91e8 9bbd 52bc 3a3e d0e8 8cbd
00000200: 8987 e7bd b44f 663d 239b 62ba 86f0 85bc
00000210: b5fb 193e 85cb 65bc 7e3d a5bd 5340 1fbe
00000220: e342 623b ba0c 043e 3351 d23d d4a9 c5bd
00000230: 4e91 05be e475 a6bb 4c32 be3d d218 cdbd
00000240: 120d 7b3c 0c6f ecbc 50e1 2b3d 5713 26bc
00000250: c9f6 0a3e 4663 1b3e 8083 d43d 20b1 063e
00000260: cc86 933c efb6 18bd 9f38 fc3d ff1c 41bd
00000270: b659 313d 9ada c2bc d7bf ff3c 7eec d9bc
00000280: 36ba 08be ba35 ddbd f278 f4bd ce49 e0bd
00000290: dd4f 6f3c cb5f 09be 6580 1ebd 93b9 8abc
000002a0: da47 06be 32ec ae3d 91e9 263d 3f1e 343d
000002b0: 564e 30be 871c 1c3e 79af 193d 3b5e 973c
000002c0: d5c2 343d 3078 aebd 50e0 06bc e2b2 173e
000002d0: 4e64 66bd f328 e23d baf9 8a3d d46e 33be
000002e0: 6feb b33d d8d4 163d 7f41 85bc 05f2 af3d
000002f0: 6bd8 21bc 4325 b5bb ef09 833d 1506 2ebd
00000300: 5feb cd3b 5442 3b3e 888b d3bd 8ac0 36be
00000310: 8226 75bd 2414 fbbb 6b7e a6bd acb2 053d
00000320: 0adf 0b3e da04 3bbd 8d4e 9fbd 57f5 af3d
00000330: 8e47 e53d edf9 4fbd 846f eabd 9263 9e3d
00000340: 2f7e 91bd 18c2 babc 4054 b1bd 469f d33d
00000350: fecd fa3d deb3 a83d e6db afbd 92fa e3bd
00000360: f44f 15be 37da 06be 314f 49bd af46 0cbe
00000370: 7571 413d 137d ebbd 5886 ca3d d642 963d
00000380: 037a d4bd 65e5 4abe 4108 9e3d e952 293c
00000390: dc39 e33d 8c40 57bc f134 d63d e4a0 71bd
000003a0: 7003 933d 6f80 a0bc 7c0b b03c d8e0 f3bc
000003b0: 3c36 b1bd 9c49 1fbe 58b9 e6bd ba65 42be
000003c0: b38a 0f3e 9ff0 c3bd ae19 103b c19b 133e
000003d0: c2fc 1d3e 5ae7 d6bb f30a e93d ff62 cf3c
000003e0: c708 493d 5443 f2bd 9dde 083d 9335 10be
000003f0: 71ad 1a3e 9590 30be b0f2 7c3d dc54 95bd

lstm.weight_hh f4 [128, 32]
-0.08313284 0.0018647342 -0.041631766 0.074382834 -0.100889675 -0.16470627 -0.23695803 -0.13005309
0.14680408 0.116687156 0.02581575 0.026615683 0.06896763 -0.12040451 -1.7443595e-05 -0.08763681
-0.16510801 -0.04690287 -0.13409369 -0.15049474 -0.06105502 -0.031737152 -0.038547512 -0.079016775
0.02101 0.17153011 -0.17463432 -0.06690344 -0.05826255 0.0979499 0.13769458 -0.016131362
0.106559284 0.042375773 0.0954028 -0.03978464 -0.04834902 0.016148832 -0.16060922 0.024819417
-0.07326911 -0.2367474 0.027684871 -0.12020359 -0.08847375 -0.05574714 0.16651511 -0.14502308
0.044875227 0.16334072 -0.06603863 -0.017824974 0.04359916 0.004669928 0.19610189 0.0068423734
-0.07326079 0.14332926 0.08982852 0.12263931 0.09345639 -0.015307972 -0.018750137 0.13672636
-0.04711836 0.1764042 0.07841926 0.15344174 -0.16010208 0.1428172 0.08618014 0.08061106
0.14975841 0.17281517 0.15776408 0.13097864 0.008413026 -0.13732882 0.1326328 -0.083284944
0.18302485 -0.12779748 -0.0870627 0.11781646 0.06911762 -0.054093625 0.05652284 0.041447308
0.02268151 -0.14983816 -0.025826354 -0.046944395 -0.07560191 0.051849935 -0.13434145 -0.047872357
0.1806184 0.028244257 -0.03920792 0.0062195016 -0.010564569 -0.13215311 0.12166945 -0.11381067
-0.13216138 0.032287106 -0.024269693 -0.12850325 0.084535934 0.09929003 0.08552607 -0.12908731
0.059386745 -0.108569995 -0.10369106 -0.21625735 0.058069386 -0.002589762 0.18966806 0.0012094439
0.12892415 0.08694307 -0.11131916 -0.081228584 0.041769993 0.06870782 0.15603442 0.07809049
-0.096436046 0.06935079 0.036923684 0.1533343 -0.037889447 -0.108372055 0.13966073 -0.1598683
-0.012804465 -0.11039905 0.00410717 -0.15487249 0.05053585 -0.09277308 -0.14194126 0.13091533
-0.15620075 0.1159397 0.096019164 -0.1955224 -0.08239167 0.084308505 -0.23731747 -0.17106375
0.115455754 0.063692756 0.15702191 -0.18016869 0.119770154 -0.11295251 -0.13628875 0.05414571
0.014046986 -0.050475337 0.11978763 -0.10428477 0.15217516 -0.03411693 -0.09895719 0.09284948
-0.084468015 -0.059332162 0.1320967 -0.04624243 0.03914819 -0.07261348 -0.065285824 -0.046847202
0.12756997 -0.15463299 -0.09085857 -0.16008063 -0.026218465 0.061359785 0.1015336 -0.011954007
-0.033481535 0.108126774 -0.11085443 -0.14350626 0.18358865 0.04165731 -0.06981729 0.027654076
0.00025922054 -0.03615817 -0.1800786 0.12635313 0.006062066 -0.12405014 0.18722235 0.015572678
-0.18014114 -0.24088629 -0.08091263 0.07250427 -0.22735138 -0.12359152 -0.024897108 0.16059746
-0.091182105 -0.17938627 -0.18823385 -0.21373926 0.018466646 -0.13114837 -0.022231456 0.13071057
0.054642037 -0.037923858 -0.106502175 0.03459724 0.026175106 -0.036145553 -0.012837555 -0.033148393
-0.051042657 -0.1502655 -0.052657645 0.010560722 -0.011979753 -0.09732931 -0.018871393 -0.009872274
-0.13153632 0.07376389 0.091771275 0.10426338 -0.004585638 -0.014063301 0.06550113 0.1309986
0.030561682 0.14596447 0.14001462 -0.02345001 0.07165181 0.1190763 0.16510996 -0.0036175326
0.024917122 0.07341967 0.023016753 -0.09184871 -0.130208 0.18475257 -0.06738158 -0.07497357
00000000: 8d41 aabd 196a f43a 1286 2abd 0756 983d
00000010: 3f9f cebd c3a8 28be 20a5 72be a32c 05be
00000020: cf53 163e adf9 ee3d 8d7b d33c 2209 da3c
00000030: e73e 8d3d a496 f6bd d653 92b7 ee7a b3bd
00000040: 1312 29be 391d 40bd db4f 09be 4b1b 1abe
00000050: d414 7abd d1fe 01bd ffe3 1dbd 8cd3 a1bd
00000060: 2a1d ac3c 97a5 2f3e 57d3 32be ac04 89bd
00000070: b6a4 6ebd f599 c83d cfff 0c3e eb25 84bc
00000080: c13b da3d 3892 2d3d 8b62 c33d 38f5 22bd
00000090: 9f09 46bd 8e4a 843c be76 24be 1752 cb3c
000000a0: 1d0e 96bd e96d 72be 62cb e23c 4d2d f6bd
000000b0: ba31 b5bd 1d57 64bd f082 2a3e ee80 14be
000000c0: 16cf 373d ca42 273e 433f 87bd ae05 92bc
000000d0: 0895 323d 3206 993b efce 483e fd35 e03b
000000e0: c109 96bd e8c4 123e 04f8 b73d 522a fb3d
000000f0: 1066 bf3d 4ace 7abc e399 99bc ff01 0c3e
00000100: 2eff 40bd 4da3 343e 479a a03d d51f 1d3e
00000110: cdf1 23be ac3e 123e 377f b03d 6917 a53d
00000120: 455a 193e 76f6 303e e88c 213e 441f 063e
00000130: cad6 093c ed9f 0cbe e5d0 073e 4c91 aabd
00000140: de6a 3b3e 58dd 02be ee4d b2bd c249 f13d
00000150: 8a8d 8d3d 4791 5dbd 7e84 673d a7c4 293d
00000160: 93ce b93c 2d6f 19be ca91 d3bc c448 40bd
00000170: 2dd5 9abd 9960 543d ce90 09be ce15 44bd
00000180: 08f4 383e 8060 e73c 7c98 20bd f6cc cb3b
00000190: 0417 2dbc 2553 07be d52d f93d 9215 e9bd
000001a0: 5055 07be 7c3f 043d 3cd1 c6bc 5b96 03be
000001b0: 2d21 ad3d 9258 cb3d 4b28 af3d 772f 04be
000001c0: 843f 733d f259 debd fa5b d4bd 9172 5dbe
000001d0: 2ada 6d3d ffb8 29bb 5838 423e 3486 9e3a
000001e0: b104 043e 350f b23d 4dfb e3bd 2c5b a6bd
000001f0: 0317 2b3d afb6 8c3d 7dc7 1f3e e8ed 9f3d
00000200: 4380 c5bd c907 8e3d 4a3d 173d ab03 1d3e
00000210: f731 1bbd 2bf2 ddbd 3903 0f3e 84b4 23be
00000220: d2c9 51bc e618 e2bd 7095 863b e596 1ebe
00000230: aefe 4e3d d0ff bdbd 0d59 11be ab0e 063e
00000240: 17f3 1fbe cb71 ed3d b2a5 c43d 0637 48be
00000250: f7bc a8bd f0a9 ac3d 5a03 73be 562b 2fbe
00000260: 1174 ec3d 5971 823d 5aca 203e 247e 38be
00000270: 0e4a f53d a553 e7bd 478f 0bbe e4c7 5d3d
00000280: 5425 663c 3abf 4ebd 3853 f53d 4193 d5bd
00000290: ced3 1b3e 32be 0bbd 11aa cabd de27 be3d
000002a0: 91fd acbd 4806 73bd 5b44 073e b468 3dbd
000002b0: da59 203d 60b6 94bd 93b4 85bd dae2 3fbd
000002c0: b4a1 023e 1c58 1ebe 0f14 babd 2dec 23be
000002d0: 1bc8 d6bc 6654 7b3d d9f0 cf3d bdda 43bc
000002e0: ef23 09bd 9271 dd3d a607 e3bd 4ef3 12be
000002f0: aafe 3b3e dba0 2a3d 5efc 8ebd cd8a e23c
00000300: fee7 8739 971a 14bd 8666 38be b762 013e
00000310: 4ca4 c63b 000e febd 37b7 3f3e 8c24 7f3c
00000320: eb76 38be e5aa 76be 85b5 a5bd 1e7d 943d
00000330: cdce 68be 8d1d fdbd 05f5 cbbc a973 243e
00000340: afbd babd 09b1 37be 60c0 40be 77de 5abe
00000350: 5d47 973c c24b 06be be1e b6bc fed8 053e
00000360: 54d0 5f3d 0c56 1bbd d01d dabd d6b5 0d3d
00000370: 2d6d d63c 5c0d 14bd 9c54 52bc 9cc6 07bd
00000380: 1b12 51bd 33df 19be 8baf 57bd e106 2d3c
00000390: ba46 44bc 9754 c7bd 2e98 9abc 51bf 21bc
000003a0: 75b1 06be 8611 973d 94f2 bb3d 0a88 d53d
000003b0: 1f43 96bb c269 66bc 7525 863d 7f24 063e
000003c0: 7e5c fa3c b677 153e fe5f 0f3e 3c1a c0bc
000003d0: 2fbe 923d 46de f33d 9612 293e 2014 6dbb
000003e0: fe1e cc3c 0d5d 963d a18d bc3c 2d1b bcbd
000003f0: 3f55 05be c72f 3d3e 5bff 89bd be8b 99bd

lstm.bias_ih f4 [128]
-0.06512357 0.0742664 -0.079161346 -0.1205835 -0.116093434 -0.18049817 -0.14440466 -0.16882034
-0.060657006 -0.1412546 0.046989653 -0.021624194 0.16404894 0.023456177 -0.15294015 0.12322862
-0.11289709 -0.07884189 0.016610706 0.1761507 0.13527155 0.025511296 0.13272606 0.05361391
0.054283652 0.17401858 0.08403828 0.11443671 0.1105719 -0.105012394 0.013667562 0.0119430795
-0.18243232 -0.06435699 -0.039079756 0.03442243 -0.16258705 0.047060315 -0.11651298 0.055890884
-0.013220481 -0.17626734 0.088859044 0.05635691 0.021869794 0.020613983 0.12361354 0.033471256
0.13905802 0.06679692 -0.032234136 0.22020397 -0.018584365 0.12609908 -0.122113965 0.14703871
0.15282553 -0.05419366 0.07616126 0.090313956 0.06990811 0.041047227 -0.09758646 -0.092620514
0.006094474 0.0481832 0.0013815085 0.0074841506 -0.080876246 0.17346661 0.030856712 0.083526894
-0.14384228 0.058244143 -0.0007900728 0.09579737 0.07281491 0.17609881 -0.037881255 -0.18424065
0.056763176 -0.17819336 0.0207002 -0.04343784 -0.050338365 -0.039225884 -0.12276141 -0.11177014
0.06702007 0.021411017 -0.15850724 0.13053049 0.13347627 -0.1603907 0.010236337 0.12491761
0.04876026 -0.10340861 0.06493833 -0.011249763 0.06611777 -0.15807447 -0.050731853 0.056468222
0.08448847 0.1886076 -0.16510157 -0.07049204 -0.101665646 0.12988561 -0.1087122 -0.14872284
-0.14573492 0.14497721 -0.05216187 -0.15983044 0.13916604 0.118564576 0.09417097 -0.14775084
-0.08199297 0.07799969 0.059926126 -0.11420069 0.11660817 -0.10794463 -0.08849556 0.020593606
00000000: 825f 85bd fb18 983d 581f a2bd 7bf4 f6bd
00000010: 65c2 edbd 83d4 38be d1de 13be 3ddf 2cbe
00000020: 7b73 78bd 0ca5 10be 3978 403d 3925 b1bc
00000030: 72fc 273e 2b27 c03c 589c 1cbe 495f fc3d
00000040: 9736 e7bd db77 a1bd 2d13 883c d960 343e
00000050: a084 0a3e 11fd d03c 57e9 073e 429a 5b3d
00000060: 8958 5e3d ed31 323e 431c ac3d cb5d ea3d
00000070: 8573 e23d bd10 d7bd e9ed 5f3c e8ac 433c
00000080: 8acf 3abe 99cd 83bd 1812 20bd 89fe 0c3d
00000090: 387d 26be 51c2 403d 5b9e eebd d7ed 643d
000000a0: b79a 58bc 6d7f 34be bbfb b53d 81d6 663d
000000b0: 4828 b33c a8de a83c 1829 fd3d 2819 093d
000000c0: 3a65 0e3e d3cc 883d f107 04bd 267d 613e
000000d0: 3d3e 98bc 1e20 013e e316 fabd 5191 163e
000000e0: 4c7e 1c3e 2cfa 5dbd 6ffa 9b3d 86f6 b83d
000000f0: fc2b 8f3d 2321 283d 69db c7bd d3af bdbd
00000100: 27b4 c73b bf5b 453d bc13 b53a 9b3d f53b
00000110: 72a2 a5bd 3ba1 313e 37c7 fc3c 2610 ab3d
00000120: 644b 13be 6991 6e3d e31c 4fba 6931 c43d
00000130: fc1f 953d 3f53 343e 6029 1bbd 95a9 3cbe
00000140: 8180 683d 5278 36be 7793 a93c e0eb 31bd
00000150: 9a2f 4ebd 52ab 20bd 566a fbbd bee7 e4bd
00000160: d241 893d 2866 af3c b94f 22be c9a9 053e
00000170: 01ae 083e 763d 24be 4fb6 273c ced4 ff3d
00000180: d7b8 473d e5c7 d3bd 63fe 843d ed50 38bc
00000190: c168 873d 46de 21be 34cc 4fbd 394b 673d
000001a0: 4a08 ad3d 5a22 413e 6310 29be 215e 90bd
000001b0: 1436 d0bd bc00 053e 80a4 debd cd4a 18be
000001c0: 893b 15be e874 143e afa7 55bd 97aa 23be
000001d0: 8b81 0e3e fcd1 f23d b6dc c03d ff4b 17be
000001e0: eeeb a7bd 4dbe 9f3d 1975 753d 0de2 e9bd
000001f0: 44d0 ee3d 1312 ddbd 293d b5bd ecb3 a83c

lstm.bias_hh f4 [128]
-0.09979714 -0.16729654 0.103996344 0.097466044 0.12650113 -0.15290633 -0.0674921 0.063758545
-0.1222966 0.06433251 0.04770406 -0.10170216 -0.10573633 0.038985062 0.14013386 0.08300236
0.0108291395 -0.0067469305 -0.10800916 0.15110567 -0.16168097 -0.099444665 0.07092655 0.15151264
-0.030235851 0.08430874 -0.04922956 0.048705243 0.058296934 -0.11197945 -0.07041871 -0.032523718
-0.05647102 0.07361388 -0.087830015 -0.1155389 0.018835189 -0.09863148 0.0026779696 -0.06946308
-0.036134206 -0.008073217 -0.03426799 0.0047879796 -0.05058091 0.15801726 0.10431288 -0.07194744
0.11537363 0.093853034 -0.09322124 -0.029850252 -0.15206066 -0.19664851 0.0056827688 0.07413209
0.1140306 -0.08732076 0.08807897 0.0011544067 -0.15590604 0.14999452 -0.040985785 -0.1456795
-0.05818396 0.0010189215 -0.052190438 0.15092847 -0.10202962 0.16108386 -0.037420418 -0.031919662
-0.13111551 0.015283104 -0.03978431 -0.1054137 -0.1455409 -0.01468059 -0.15575261 -0.048496515
-0.15730658 0.0066488176 0.045341797 0.042730696 -0.15172057 -0.020511774 -0.08528073 -0.18543895
0.13549198 -0.05596131 -0.065435864 0.15477882 -0.014529877 0.16973922 0.104707114 0.14526594
0.03200976 0.0048230346 0.18390769 0.0201266 -0.1638332 0.12876758 0.062397234 0.012022696
0.15986113 0.19554034 -0.087728955 -0.060866237 -0.05923242 0.08172569 0.04796409 0.124651484
0.021079343 -0.12927249 -0.09692983 0.19271246 -0.18453918 0.051261816 -0.056002952 0.13639827
0.013633409 -0.123334594 0.110655084 0.006397786 -0.14546521 -0.013918908 -0.015916249 0.13956171
00000000: 7162 ccbd c94f 2bbe 09fc d43d 479c c73d
00000010: 8389 013e 7a93 1cbe 4c39 8abd d793 823d
00000020: a476 fabd c3c0 833d 5565 433d 3949 d0bd
00000030: 4a8c d8bd cdae 1f3d 407f 0f3e 24fd a93d
00000040: b46c 313c 5b15 ddbb e833 ddbd 72bb 1a3e
00000050: b28f 25be a5a9 cbbd f041 913d 2126 1b3e
00000060: 2db1 f7bc 10aa ac3d efa4 49bd 267f 473d
00000070: c4c8 6e3d 7b55 e5bd af37 90bd 9737 05bd
00000080: 284e 67bd e0c2 963d 39e0 b3bd a99f ecbd
00000090: 414c 9a3c 4dff c9bd e080 2f3b a942 8ebd
000000a0: 7601 14bd 8745 04bc 985c 0cbd 7ce4 9c3b
000000b0: ee2d 4fbd 47cf 213e fea1 d53d 2e59 93bd
000000c0: 0249 ec3d 0536 c03d c7ea bebd 8488 f4bc
000000d0: cab5 1bbe 3a5e 49be 8536 ba3b 91d2 973d
000000e0: e088 e93d 3ad5 b2bd bf62 b43d 764f 973a
000000f0: d5a5 1fbe 2a98 193e b6e0 27bd 022d 15be
00000100: 4e52 6ebd 558d 853a a4c5 55bd fe8c 1a3e
00000110: e8f4 d0bd 2bf3 243e 2746 19bd 31be 02bd
00000120: 2543 06be fc65 7a3c dff4 22bd 23e3 d7bd
00000130: ac08 15be db86 70bc 9d7d 1fbe 48a4 46bd
00000140: fa14 21be 53de d93b 52b8 393d 6206 2f3d
00000150: a35c 1bbe 4f08 a8bc aaa7 aebd b5e3 3dbe
00000160: 69be 0a3e b037 65bd 3d03 86bd 577e 1e3e
00000170: b90e 6ebc 1ed0 2d3e af70 d63d 98c0 143e
00000180: ab1c 033d 8c0a 9e3b 4c52 3c3e 8ae0 a43c
00000190: e4c3 27be a6db 033e 3e94 7f3d d8fa 443c
000001a0: a3b2 233e ba3b 483e 3dab b3bd e04e 79bd
000001b0: b29d 72bd cc5f a73d fe75 443d 4749 ff3d
000001c0: 96ae ac3c 0260 04be 2683 c6bd 6a56 453e
000001d0: d7f7 3cbe e9f7 513d 5a63 65bd fdab 0b3e
000001e0: a95e 5f3c d996 fcbd 229f e23d 85a4 d13b
000001f0: d5f4 14be 220c 64bc cb62 82bc 44e9 0e3e

action1.weight f4 [1, 32]
-0.010438579 -0.06844657 0.08164104 -0.0006259864 0.02478478 0.025192548 0.046818215 -0.034960125
0.08001485 0.07302179 0.037002943 -0.018769445 -0.05417909 0.073407 -0.010019446 -0.009001047
-0.0130868945 -0.054910284 -0.047689352 0.10480724 -0.04066679 -0.033062678 -0.1122978 -0.008972319
-0.0275992 0.0016501719 -0.0059994063 -0.0031929223 -0.061428647 -0.061076175 0.0037890428 -0.014532856
00000000: 9306 2bbc b72d 8cbd 6b33 a73d 3c19 24ba
00000010: 7309 cb3c 9a60 ce3c 75c4 3f3d 5932 0fbd
00000020: d3de a33d 738c 953d 6690 173d 61c2 99bc
00000030: e5ea 5dbd 6956 963d 9a28 24bc 2179 13bc
00000040: 6a6a 56bc 9be9 60bd e955 43bd 2ea5 d63d
00000050: 3892 26bd bb6c 07bd 64fc e5bd a200 13bc
00000060: b817 e2bc 954a d83a ab96 c4bb 5940 51bb
00000070: 9b9c 7bbd 032b 7abd 9751 783b 371b 6ebc

action2.weight f4 [2, 32]
-0.0009111126 0.0343609 0.061530586 -0.0024294502 -0.04001218 0.037195675 -0.012491577 0.01703083
0.010677133 0.031550538 -0.0017435554 0.00649065 0.029524775 0.034405325 -0.002133617 -0.00055686774
-0.0049173865 0.024407456 0.030335074 0.06293681 0.018141426 0.010858417 0.068844125 -0.0015207576
0.01194749 -0.016684635 0.0005925893 -0.0028581435 0.036801547 0.032033335 -0.002565804 -0.0027004029
-0.0036420291 -0.03538292 0.057123736 -0.0013680857 -0.0066349013 -0.028683314 -0.022244425 -0.010410289
0.0266163 0.009662168 -0.008491828 -0.0063861837 -0.03308252 -0.007297175 0.000497068 -0.0017158827
-0.00031051386 -0.019292865 -0.025351496 0.04662596 -0.01685692 -0.0132036125 0.0033588756 -0.0028003228
-0.015660811 -0.03142214 -0.0077915625 -0.0010545125 -0.042747565 -0.026981678 0.0003526425 0.00016088421
00000000: bbd7 6eba 04be 0c3d 7f07 7c3d 6937 1fbb
00000010: d0e3 23bd 7e5a 183d 79a9 4cbc 3d84 8b3c
00000020: 24ef 2e3c 233b 013d 0388 e4ba 85af d43b
00000030: f1dd f13c 99ec 0c3d 27d4 0bbb c3fa 11ba
00000040: 0722 a1bb 25f2 c73c 4381 f83c 04e5 803d
00000050: 549d 943c 80e7 313c 26fe 8c3d 2854 c7ba
00000060: 68bf 433c 37ae 88bc ff57 1b3a b14f 3bbb
00000070: 38bd 163d 6335 033d 0c27 28bb 3ef9 30bb
00000080: 1caf 6ebb aeed 10bd 94fa 693d 5751 b3ba
00000090: 9669 d9bb 45f9 eabc f139 b6bc eb8f 2abc
000000a0: 6d0a da3c 124e 1e3c 4f21 0bbc 3143 d1bb
000000b0: 8981 07bd 241d efbb ab4d 023a 78e7 e0ba
000000c0: 77cc a2b9 120c 9ebc f1ad cfbc ddfa 3e3d
000000d0: 8617 8abc f753 58bc 9520 5c3b 9f85 37bb
000000e0: 1a4b 80bc 80b4 00bd 5d50 ffbb 9137 8aba
000000f0: 1218 2fbd ae08 ddbc e0e2 b839 07b3 2839

action2.bias f4 [2]
0.024799865 -0.017839653
00000000: 1629 cb3c 7724 92bc
