s10lre4e3CCM_MADRL_MEC/model/PER_CMDRL/2-Actor.pth (torch, 27567 bytes, 14 tensors)

fc1.weight f4 [128, 7]
0	0xbd27a5fc	-0.04092978
1	0x3df20c39	0.118187375
2	0x3e1641fe	0.14673612
3	0xbc9d1019	-0.019172715
4	0xbdd74a84	-0.105122596
5	0x3ec41ebe	0.38304704
6	0xbd36f626	-0.04466834
7	0x3db96596	0.09052579
8	0x3e9c063d	0.3047351
9	0xbd9f504a	-0.07778986
10	0x3dddfc86	0.10839181
11	0xbe4b2f97	-0.19842373
12	0xbdc31d6c	-0.09527096
13	0xbe3fb7f1	-0.18722512
14	0x3d65e109	0.056122813
15	0x3e2c920e	0.1685259
16	0xbd9c5f65	-0.076353826
17	0x3eb56533	0.3542877
18	0xbe7a31c4	-0.24433047
19	0x3d9be142	0.07611324
20	0x3e6176ed	0.22018023
21	0x3ec8c925	0.3921596
22	0x3c2287b9	0.009920054
23	0x3dceafb4	0.100921065
24	0x3e23a478	0.15980709
25	0xbe9aa703	-0.30205545
26	0x3e4aa110	0.19788003
27	0xbe386f77	-0.1801127
28	0x3ddfac55	0.109215416
29	0x3e0337e3	0.12814288
30	0x3da5d399	0.08097
31	0xbe7fe262	-0.24988702
32	0x3ea35595	0.3190123
33	0x3d0142e4	0.031557932
34	0xbebd6533	-0.3699127
35	0x3d3d8af2	0.046275087
36	0xbe59c811	-0.21267726
37	0x3df12143	0.11773922
38	0x3cb134b3	0.021631574
39	0xbc001638	-0.007817797
40	0xbe61a7db	-0.22036688
41	0x3e4262d5	0.18983014
42	0x3e1055e0	0.14095259
43	0x3da8b173	0.08236971
44	0x3e4b4e36	0.19854054
45	0x3e19e3a9	0.15028252
46	0x3ecacac6	0.3960783
47	0x3d9d703b	0.07687422
48	0xbdfef03c	-0.12448165
49	0x3de28980	0.11061382
50	0xbe297bdd	-0.16551156
51	0x3ea8621b	0.3288735
52	0xbe87c736	-0.26519173
53	0xbe77d22d	-0.2420127
54	0xbd6ec040	-0.058288813
55	0xbe159fef	-0.14611791
56	0x3e8ed5aa	0.27897388
57	0x3e8c38a8	0.27386975
58	0x3e8cb803	0.2748414
59	0x3dac9311	0.08426488
60	0x3e6db716	0.23214373
61	0x3e13d8a9	0.14438118
62	0x3e93b441	0.2884846
63	0x3e2bc009	0.16772474
64	0x3edcbb25	0.4311153
65	0xbdbc5994	-0.09196773
66	0xbe07a1cc	-0.13245314
67	0xbe6a7a0f	-0.22898124
68	0xbe798839	-0.24368371
69	0xbdefb108	-0.11703688
70	0xbcacf9da	-0.021115232
71	0xbdca4426	-0.098762795
72	0x3e97dcdd	0.29660693
73	0xbd63cc68	-0.05561486
74	0x3e59cd83	0.21269803
75	0xbc081cf6	-0.008307686
76	0xbe853fe9	-0.26025322
77	0x3e7349c5	0.2375861
78	0x3dd05a6e	0.10173498
79	0xbc82a54f	-0.015947966
80	0x3da533c3	0.080665134
81	0x3e573088	0.21014607
82	0xbd1a72b1	-0.037707034
83	0x3ed0f3dc	0.4081105
84	0xbd8d45d0	-0.06898081
85	0xbe86172a	-0.26189548
86	0xbcbcfcb0	-0.02306971
87	0xbc826d00	-0.015921116
88	0xbda19a68	-0.07890779
89	0xbe1b6b99	-0.15177764
90	0x3e9fac2f	0.31186053
91	0x3e3fdeae	0.1873729
92	0xbe945788	-0.2897303
93	0x3d2485d5	0.040166695
94	0x3d5f2253	0.054476094
95	0x3e5fae8c	0.21843928
96	0xbe99464f	-0.29936454
97	0x3e8db4ce	0.27677006
98	0x3e2431d0	0.16034627
99	0xbd515f30	-0.05111617
100	0x3e112dbf	0.14177607
101	0xbdc14f97	-0.09439009
102	0xbe361d04	-0.17784506
103	0xbe50adc0	-0.2037878
104	0xbcff267c	-0.03114628
105	0xbe658bce	-0.22416613
106	0x3eda3c8c	0.4262432
107	0x3e34ac96	0.17643961
108	0x3bc8a120	0.006122723
109	0x3dd046c5	0.10169748
110	0x3dfed4b8	0.12442917
111	0xbcfc0138	-0.0307623
112	0xbd65866a	-0.05603639
113	0x3ed37b34	0.41304934
114	0x3d11055a	0.035405494
115	0x3e14eb28	0.1454283
116	0x3df75bbc	0.12078044
117	0x3ea13ebb	0.31493172
118	0xbda417ae	-0.08012329
119	0x3e1fcbdf	0.15605114
120	0x3d8b6cf1	0.06807888
121	0x3e918ee1	0.2842932
122	0x3eb6460a	0.3560031
123	0x3d7a8a49	0.061167035
124	0xbdc95e35	-0.09832422
125	0xbe82f5ec	-0.25578249
126	0x3e0be35b	0.13660948
127	0x3e9fad19	0.3118675
128	0x3cfa9e6c	0.03059312
129	0xbe40bcae	-0.18821976
130	0x3e4b25c5	0.19838627
131	0xbe878e0e	-0.26475567
132	0x3eb6aac4	0.3567716
133	0x3d4f3380	0.050586224
134	0x3b6ea377	0.003641335
135	0x3e0a70ce	0.13519594
136	0x3ab7ddcc	0.0014027893
137	0x3dfdeceb	0.12398704
138	0x3e3e42c9	0.18580164
139	0xbe5349c4	-0.20633608
140	0x3dd87cd6	0.105706856
141	0xbeacd5a5	-0.33756748
142	0x3e2fbea4	0.17162567
143	0x3e23b165	0.1598564
144	0x3ea5fa21	0.32417396
145	0xbe3ad76d	-0.18246241
146	0xbe1f9188	-0.1558286
147	0x3ba5c18a	0.005058472
148	0xbdaeea66	-0.08540802
149	0x3e77a10d	0.2418253
150	0x3e474076	0.19458184
151	0xbe989418	-0.29800487
152	0xbe169057	-0.14703499
153	0x3e2600a0	0.16211176
154	0xbec177d9	-0.3778675
155	0x3cef79f0	0.029232949
156	0xbd8282d4	-0.0637261
157	0xbdf16a98	-0.11787909
158	0x3c2ada40	0.010428011
159	0xbcc743b0	-0.024324268
160	0x3da73ffc	0.08166501
161	0x3cc95201	0.024575235
162	0xbcacd633	-0.021098232
163	0xbe407f17	-0.18798481
164	0xbb5d38b4	-0.0033755722
165	0x3de6458f	0.11243736
166	0x3e49317b	0.19647782
167	0xbc9379c7	-0.018002404
168	0x3db4ab47	0.08821731
169	0x3eb3ef4e	0.35143512
170	0x3d4aac00	0.04948044
171	0x3e1c6a34	0.15274888
172	0x3e97e585	0.29667297
173	0xbcadadc1	-0.021201016
174	0xbe3040bb	-0.17212193
175	0xbe279f9d	-0.16369481
176	0x3ca94655	0.02066342
177	0x3e8f036a	0.27932292
178	0xbe1d5ec7	-0.15368186
179	0x3e459b54	0.19297534
180	0x3e78d7ac	0.24301022
181	0xbd69c232	-0.057069965
182	0x3df1054b	0.11768588
183	0xbebe7d10	-0.3720479
184	0xbdf901d2	-0.1215855
185	0xbe055491	-0.13020541
186	0x3eac845c	0.33694732
187	0xbeb9fd13	-0.36325893
188	0x3de64efa	0.11245532
189	0x3d0c7392	0.034289904
190	0xbdaa561a	-0.08317204
191	0xbe0d30e9	-0.13788189
192	0x3ea2ef1b	0.31823048
193	0xbce312f2	-0.027718995
194	0x3d622fb2	0.055221267
195	0xbe74725b	-0.23871748
196	0xbc947350	-0.018121392
197	0xbd9771ec	-0.07394776
198	0xbe435bab	-0.19077937
199	0x3c7a5600	0.015279293
200	0xbe92b587	-0.2865412
201	0xbdf77bc8	-0.12084156
202	0xbeb71f10	-0.35765886
203	0x3ec47eaf	0.38377902
204	0xbdb1673f	-0.08662271
205	0x3ddcf149	0.10788209
206	0x3ed88eba	0.42296392
207	0x3e61f272	0.22065142
208	0x3ed615db	0.4181355
209	0xbd7ec09b	-0.0621954
210	0xbcc6dc88	-0.02427508
211	0xbd99aafb	-0.07503315
212	0xbe899394	-0.26870406
213	0x3e0ef1b4	0.1395939
214	0x3ec4773a	0.38372213
215	0xbddf9444	-0.10916951
216	0x3e2a7153	0.16644792
217	0x3e687040	0.2269907
218	0xbd66d97e	-0.05635976
219	0x3d86859f	0.06568455
220	0xbe80416b	-0.2504991
221	0x3bebcc60	0.0071959943
222	0xbe910b45	-0.2832891
223	0x3d572682	0.05252696
224	0xbc9050e8	-0.017616704
225	0x3e88e2eb	0.26735625
226	0x3ea56709	0.32305172
227	0xbe2b296b	-0.16715018
228	0x3eb73301	0.357811
229	0x3ec17f60	0.37792492
230	0xbba1a64e	-0.004933155
231	0xbd041525	-0.032246727
232	0xbdad2924	-0.084551126
233	0x3d60ee44	0.054914728
234	0x3e2b5730	0.16732478
235	0x3ea1126a	0.3145936
236	0x3eb10f8e	0.3458218
237	0x3ec271fa	0.37977582
238	0x3d86250f	0.06550037
239	0xbe9d1633	-0.30681
240	0x3e6564af	0.22401689
241	0x3e7deb94	0.24796897
242	0x3e3061f7	0.1722487
243	0x3ed3c3bd	0.41360274
244	0x3e4d3cd0	0.2004273
245	0xbdbdc991	-0.09266961
246	0xbd9bc836	-0.076065466
247	0x3ee2ae33	0.44273528
248	0xbdd5cf78	-0.10439962
249	0x3d2f5ea2	0.04281486
250	0x3ee6c040	0.4506855
251	0xbe4f09dd	-0.20218606
252	0x3e3bb18c	0.18329448
253	0x3df9efdf	0.12203955
254	0x3eacbaab	0.33736166
255	0xbe0c8631	-0.13723065

fc1.bias f4 [128]
0	0x3ae55d57	0.0017499131
1	0xbde59ef2	-0.11211957
2	0x3da118c7	0.07866054
3	0x3db12a7b	0.08650681
4	0xbebe86b4	-0.37212145
5	0x3e2a0443	0.16603188
6	0xbe849848	-0.2589743
7	0xbeb19ffc	-0.3469237
8	0x3d4acf26	0.04951396
9	0x3e630fbe	0.22173974
10	0x3e10c414	0.14137298
11	0xbd480cc7	-0.04884031
12	0xbe9abc83	-0.30221948
13	0x3ed57936	0.4169404
14	0x3ea83a5c	0.32857025
15	0xbe260706	-0.16213617
16	0x3d2eabd0	0.042644322
17	0xbdf0cacd	-0.11757431
18	0xbddfa17b	-0.10919472
19	0xbec35ae9	-0.38155296
20	0x3ec80002	0.39062506
21	0x3ecd9cd1	0.40158704
22	0xbdb9ecc4	-0.090783626
23	0x3e407b93	0.1879714
24	0xbe53a3be	-0.20667931
25	0xbe21f48e	-0.15815946
26	0x3dfb611a	0.1227438
27	0xbd5bb43b	-0.053638678
28	0xbea28900	-0.31745148
29	0x3e750188	0.23926365
30	0x3cc02760	0.023456275
31	0x3ea76088	0.32690835
32	0xbe99c37d	-0.30031958
33	0x3e48c60d	0.196068
34	0x3e72ac7d	0.23698612
35	0xbdb1a245	-0.086735286
36	0xbd8ae672	-0.06782235
37	0xbe9bf7fd	-0.30462638
38	0x3c003e62	0.007827373
39	0x3df49def	0.11944186
40	0x3e3b7d69	0.18309559
41	0xbe49cdb2	-0.19707373
42	0xbe770e4f	-0.24126552
43	0x3e59eb8d	0.21281262
44	0x3ea4d725	0.32195392
45	0x3ec76a76	0.3894841
46	0xbda4365f	-0.08018183
47	0x3e5a5d79	0.2132472
48	0x3db245c4	0.08704713
49	0x3e8c1ba5	0.2736484
50	0xbc863a35	-0.016385177
51	0x3ea67aef	0.32515666
52	0xbe01a84b	-0.12661855
53	0x3ea6de4b	0.3259147
54	0x3ea9be4c	0.33152997
55	0x3e999fc1	0.30004695
56	0x3dc4b7b8	0.09605354
57	0x3e37d16b	0.1795098
58	0x3d1b5332	0.037921138
59	0x3ecf409c	0.4047898
60	0x3e91472e	0.28374618
61	0x3cf66e89	0.030082004
62	0x3ed80d5f	0.421977
63	0xbd9dc7ee	-0.07704149
64	0x3ebd1ffc	0.36938465
65	0x3e915f74	0.28393137
66	0xbe63efb4	-0.22259408
67	0xbe1a8f70	-0.1509378
68	0x3cec7cb1	0.028868051
69	0xbe00047b	-0.12501709
70	0xbe59357e	-0.21211812
71	0x3e1c6e98	0.15276563
72	0x3edb60f0	0.42847395
73	0x3e890e5f	0.26768777
74	0xbeb14508	-0.3462298
75	0xbea92d54	-0.33042395
76	0xbc271e95	-0.010200162
77	0xbe904c42	-0.2818318
78	0xbdfb23c7	-0.12262683
79	0x3ec7debf	0.3903713
80	0xbe900559	-0.2812908
81	0x3db5728f	0.08859741
82	0x3eda2ffd	0.42614737
83	0x3ecf0c52	0.40439087
84	0x3e0bfd11	0.13670756
85	0xbe28b186	-0.1647397
86	0xbd6375cd	-0.055532265
87	0x3e37d618	0.17952764
88	0x3dc0428d	0.093876936
89	0xbdcf7656	-0.10129993
90	0xbe2e3e47	-0.17015944
91	0x3e99a88a	0.30011398
92	0x3ec63a3a	0.38716298
93	0xbeab2d9c	-0.33433235
94	0x3ea0c22d	0.31398144
95	0xbe31d9d2	-0.17368248
96	0x3e74e540	0.23915577
97	0xbeb229e9	-0.347976
98	0xbc8d782c	-0.017269216
99	0xbde3ffee	-0.11132799
100	0xbe192d16	-0.14958605
101	0x3e1cc5b0	0.15309787
102	0x3e5523d5	0.2081445
103	0x3e28484f	0.16433834
104	0xbebf3852	-0.37347656
105	0x3e8ed737	0.2789857
106	0x3e805fed	0.25073186
107	0x3e822e4b	0.25425944
108	0x3e5098d7	0.20370804
109	0xbe851329	-0.2599118
110	0x3dcab3d4	0.09897581
111	0xbe63c84a	-0.22244373
112	0x3e077fe3	0.13232379
113	0x3db760cb	0.08954009
114	0xbdd7e27e	-0.10541247
115	0xbdec7de0	-0.11547446
116	0x3e83a685	0.25712982
117	0x3ebb33b9	0.365629
118	0xbd75ce78	-0.060011357
119	0x3e08ab7e	0.13346669
120	0xbe1e709c	-0.15472645
121	0x3e056873	0.13028125
122	0xbe0d7f35	-0.13818057
123	0xbe9d5548	-0.30729127
124	0x3e32b5ea	0.17452207
125	0x3e9ab175	0.30213514
126	0xbdd136b2	-0.102155104
127	0xbe83288b	-0.2561687

ln1.weight f4 [128]
0	0x3f800000	1.0
1	0x3f800000	1.0
2	0x3f800000	1.0
3	0x3f800000	1.0
4	0x3f800000	1.0
5	0x3f800000	1.0
6	0x3f800000	1.0
7	0x3f800000	1.0
8	0x3f800000	1.0
9	0x3f800000	1.0
10	0x3f800000	1.0
11	0x3f800000	1.0
12	0x3f800000	1.0
13	0x3f800000	1.0
14	0x3f800000	1.0
15	0x3f800000	1.0
16	0x3f800000	1.0
17	0x3f800000	1.0
18	0x3f800000	1.0
19	0x3f800000	1.0
20	0x3f800000	1.0
21	0x3f800000	1.0
22	0x3f800000	1.0
23	0x3f800000	1.0
24	0x3f800000	1.0
25	0x3f800000	1.0
26	0x3f800000	1.0
27	0x3f800000	1.0
28	0x3f800000	1.0
29	0x3f800000	1.0
30	0x3f800000	1.0
31	0x3f800000	1.0
32	0x3f800000	1.0
33	0x3f800000	1.0
34	0x3f800000	1.0
35	0x3f800000	1.0
36	0x3f800000	1.0
37	0x3f800000	1.0
38	0x3f800000	1.0
39	0x3f800000	1.0
40	0x3f800000	1.0
41	0x3f800000	1.0
42	0x3f800000	1.0
43	0x3f800000	1.0
44	0x3f800000	1.0
45	0x3f800000	1.0
46	0x3f800000	1.0
47	0x3f800000	1.0
48	0x3f800000	1.0
49	0x3f800000	1.0
50	0x3f800000	1.0
51	0x3f800000	1.0
52	0x3f800000	1.0
53	0x3f800000	1.0
54	0x3f800000	1.0
55	0x3f800000	1.0
56	0x3f800000	1.0
57	0x3f800000	1.0
58	0x3f800000	1.0
59	0x3f800000	1.0
60	0x3f800000	1.0
61	0x3f800000	1.0
62	0x3f800000	1.0
63	0x3f800000	1.0
64	0x3f800000	1.0
65	0x3f800000	1.0
66	0x3f800000	1.0
67	0x3f800000	1.0
68	0x3f800000	1.0
69	0x3f800000	1.0
70	0x3f800000	1.0
71	0x3f800000	1.0
72	0x3f800000	1.0
73	0x3f800000	1.0
74	0x3f800000	1.0
75	0x3f800000	1.0
76	0x3f800000	1.0
77	0x3f800000	1.0
78	0x3f800000	1.0
79	0x3f800000	1.0
80	0x3f800000	1.0
81	0x3f800000	1.0
82	0x3f800000	1.0
83	0x3f800000	1.0
84	0x3f800000	1.0
85	0x3f800000	1.0
86	0x3f800000	1.0
87	0x3f800000	1.0
88	0x3f800000	1.0
89	0x3f800000	1.0
90	0x3f800000	1.0
91	0x3f800000	1.0
92	0x3f800000	1.0
93	0x3f800000	1.0
94	0x3f800000	1.0
95	0x3f800000	1.0
96	0x3f800000	1.0
97	0x3f800000	1.0
98	0x3f800000	1.0
99	0x3f800000	1.0
100	0x3f800000	1.0
101	0x3f800000	1.0
102	0x3f800000	1.0
103	0x3f800000	1.0
104	0x3f800000	1.0
105	0x3f800000	1.0
106	0x3f800000	1.0
107	0x3f800000	1.0
108	0x3f800000	1.0
109	0x3f800000	1.0
110	0x3f800000	1.0
111	0x3f800000	1.0
112	0x3f800000	1.0
113	0x3f800000	1.0
114	0x3f800000	1.0
115	0x3f800000	1.0
116	0x3f800000	1.0
117	0x3f800000	1.0
118	0x3f800000	1.0
119	0x3f800000	1.0
120	0x3f800000	1.0
121	0x3f800000	1.0
122	0x3f800000	1.0
123	0x3f800000	1.0
124	0x3f800000	1.0
125	0x3f800000	1.0
126	0x3f800000	1.0
127	0x3f800000	1.0

ln1.bias f4 [128]
0	0x00000000	0.0
1	0x00000000	0.0
2	0x00000000	0.0
3	0x00000000	0.0
4	0x00000000	0.0
5	0x00000000	0.0
6	0x00000000	0.0
7	0x00000000	0.0
8	0x00000000	0.0
9	0x00000000	0.0
10	0x00000000	0.0
11	0x00000000	0.0
12	0x00000000	0.0
13	0x00000000	0.0
14	0x00000000	0.0
15	0x00000000	0.0
16	0x00000000	0.0
17	0x00000000	0.0
18	0x00000000	0.0
19	0x00000000	0.0
20	0x00000000	0.0
21	0x00000000	0.0
22	0x00000000	0.0
23	0x00000000	0.0
24	0x00000000	0.0
25	0x00000000	0.0
26	0x00000000	0.0
27	0x00000000	0.0
28	0x00000000	0.0
29	0x00000000	0.0
30	0x00000000	0.0
31	0x00000000	0.0
32	0x00000000	0.0
33	0x00000000	0.0
34	0x00000000	0.0
35	0x00000000	0.0
36	0x00000000	0.0
37	0x00000000	0.0
38	0x00000000	0.0
39	0x00000000	0.0
40	0x00000000	0.0
41	0x00000000	0.0
42	0x00000000	0.0
43	0x00000000	0.0
44	0x00000000	0.0
45	0x00000000	0.0
46	0x00000000	0.0
47	0x00000000	0.0
48	0x00000000	0.0
49	0x00000000	0.0
50	0x00000000	0.0
51	0x00000000	0.0
52	0x00000000	0.0
53	0x00000000	0.0
54	0x00000000	0.0
55	0x00000000	0.0
56	0x00000000	0.0
57	0x00000000	0.0
58	0x00000000	0.0
59	0x00000000	0.0
60	0x00000000	0.0
61	0x00000000	0.0
62	0x00000000	0.0
63	0x00000000	0.0
64	0x00000000	0.0
65	0x00000000	0.0
66	0x00000000	0.0
67	0x00000000	0.0
68	0x00000000	0.0
69	0x00000000	0.0
70	0x00000000	0.0
71	0x00000000	0.0
72	0x00000000	0.0
73	0x00000000	0.0
74	0x00000000	0.0
75	0x00000000	0.0
76	0x00000000	0.0
77	0x00000000	0.0
78	0x00000000	0.0
79	0x00000000	0.0
80	0x00000000	0.0
81	0x00000000	0.0
82	0x00000000	0.0
83	0x00000000	0.0
84	0x00000000	0.0
85	0x00000000	0.0
86	0x00000000	0.0
87	0x00000000	0.0
88	0x00000000	0.0
89	0x00000000	0.0
90	0x00000000	0.0
91	0x00000000	0.0
92	0x00000000	0.0
93	0x00000000	0.0
94	0x00000000	0.0
95	0x00000000	0.0
96	0x00000000	0.0
97	0x00000000	0.0
98	0x00000000	0.0
99	0x00000000	0.0
100	0x00000000	0.0
101	0x00000000	0.0
102	0x00000000	0.0
103	0x00000000	0.0
104	0x00000000	0.0
105	0x00000000	0.0
106	0x00000000	0.0
107	0x00000000	0.0
108	0x00000000	0.0
109	0x00000000	0.0
110	0x00000000	0.0
111	0x00000000	0.0
112	0x00000000	0.0
113	0x00000000	0.0
114	0x00000000	0.0
115	0x00000000	0.0
116	0x00000000	0.0
117	0x00000000	0.0
118	0x00000000	0.0
119	0x00000000	0.0
120	0x00000000	0.0
121	0x00000000	0.0
122	0x00000000	0.0
123	0x00000000	0.0
124	0x00000000	0.0
125	0x00000000	0.0
126	0x00000000	0.0
127	0x00000000	0.0

fc2.weight f4 [32, 128]
0	0x3dc6f4f4	0.0971469
1	0xbd3a598a	-0.045495547
2	0xbd03c65d	-0.032171596
3	0x3df7804f	0.1208502
4	0x3b8c716a	0.004285981
5	0xbceb43f0	-0.028718919
6	0x3e072f8e	0.13201734
7	0xbd41d90d	-0.047326136
8	0xbc916cc3	-0.017752057
9	0x3e4c2643	0.1993647
10	0x3e09fa8a	0.1347448
11	0x3df7368a	0.120709494
12	0xbdb30c5e	-0.08742593
13	0x3d8a2e30	0.06747091
14	0x3e233228	0.15937102
15	0x3d802c37	0.06258433
16	0x3c926f61	0.017875375
17	0xbc71988a	-0.014745841
18	0x3d193935	0.037408073
19	0x3d3fe252	0.046846695
20	0x3ceb2403	0.028703695
21	0x3df197f9	0.117965646
22	0xbd46d41f	-0.04854214
23	0x3dfe5ad1	0.124196656
24	0x3cbc4418	0.022981688
25	0xbd122bae	-0.035686187
26	0xbcdf6d8f	-0.027273921
27	0x3bf9dae0	0.007624969
28	0x3d84960f	0.06473934
29	0x3dd8561a	0.105632976
30	0x3dfb0b55	0.12258021
31	0x3d074bcf	0.03303128
32	0xbd39e9f4	-0.04538913
33	0x3d87b82c	0.06626925
34	0x3ddb8334	0.107183844
35	0x3d536f31	0.051619712
36	0x3aafc1b9	0.0013409174
37	0x3d9636df	0.073346846
38	0x3dc8ab14	0.097982556
39	0x3cfe6480	0.031053782
40	0x3cde4862	0.027134124
41	0x3da3da0e	0.08000575
42	0xbb2a2f47	-0.002596812
43	0x3e04991d	0.12949033
44	0xbd2b8a11	-0.041879717
45	0x3d5eb7e2	0.054374583
46	0x3d3d8084	0.04626514
47	0x3d85a99e	0.065264925
48	0xbd0a8cb5	-0.033825595
49	0x3e024eee	0.12725422
50	0x3db2d223	0.08731487
51	0x3d573bff	0.05254745
52	0x3d9e6c7d	0.07735536
53	0x3d156084	0.036468998
54	0x3d40d0d8	0.04707417
55	0xbd3713c3	-0.04469658
56	0x3d027e25	0.031858582
57	0x3cc127bd	0.023578519
58	0x3da3bc0c	0.079948515
59	0x3dd6a519	0.10480709
60	0x3d040311	0.032229487
61	0x3d0b044c	0.033939645
62	0xbb150586	-0.0022738888
63	0xbcbcfc2d	-0.023069466
64	0x3d87bbb1	0.06627596
65	0x3ccc4092	0.024933133
66	0xbaed9f00	-0.0018129051
67	0x3dd4c1d4	0.10388532
68	0xbc9fed9e	-0.019522484
69	0x3d4719a8	0.048608452
70	0xbd4e9c84	-0.050442234
71	0x3c2afd38	0.010436349
72	0x3d35049a	0.04419384
73	0x39a3e29c	0.0003125862
74	0x3c954dc2	0.018225554
75	0x3d3edf76	0.046599828
76	0x3d93b3f6	0.07212059
77	0x3d5dd0ec	0.05415432
78	0x3e0af5a6	0.1357027
79	0x3d6a7679	0.05724189
80	0x3d9d52e1	0.076818235
81	0x3d2f46c6	0.042792104
82	0x3d352e3d	0.04423355
83	0x3d1c2658	0.038122505
84	0x3e3cb860	0.18429708
85	0x3d3abbd9	0.0455893
86	0x3e1fcddb	0.15605871
87	0x3c9cd731	0.01914558
88	0x3d15274a	0.036414422
89	0x3e0d010c	0.1376993
90	0x3e0410d1	0.1289704
91	0x3dfe56c1	0.12418891
92	0x3d8fa050	0.07012999
93	0x3daeafcf	0.085296266
94	0x3de7b6cf	0.11314165
95	0x3c8fe97d	0.01756739
96	0x3c010dfb	0.007876868
97	0xbc446cd8	-0.011988841
98	0x3d581fa0	0.052764535
99	0x3cd9b681	0.026576282
100	0x3dcf1f32	0.10113372
101	0x3c0ba999	0.008524322
102	0x3dc660ce	0.09686433
103	0x3d4248b3	0.047432613
104	0xbc89c130	-0.016815752
105	0x3ce1df4a	0.027572293
106	0x3d9af585	0.075663604
107	0x3d5a2112	0.053254195
108	0x3bb775d4	0.005598763
109	0x3d3cb9da	0.04607568
110	0x3baa455e	0.0051962575
111	0x3dbb8bed	0.09157548
112	0x3ce2a154	0.027664818
113	0xbce3e6fb	-0.027820101
114	0xbce4afd7	-0.027915878
115	0xbc7b80d6	-0.015350541
116	0xbd1bfb81	-0.03808165
117	0xbc243406	-0.010022169
118	0xbd813f3d	-0.0631089
119	0x3d703fcd	0.058654595
120	0x3d9f393c	0.077745885
121	0x3d72c586	0.059270404
122	0x3cf28ee3	0.02960915
123	0xbd6bdc5f	-0.05758321
124	0x3d7f3a4f	0.062311467
125	0x3d415e45	0.047209043
126	0x3dde8f63	0.108671926
127	0x3dd3d4d6	0.103433296
128	0x3e217f29	0.15771164
129	0xbb83cae2	-0.0040219883
130	0x3c1a6de6	0.009425616
131	0xbc7893ba	-0.0151719395
132	0xbbd63b75	-0.0065378495
133	0xbd1c3899	-0.038139913
134	0x3e174422	0.14772084
135	0xbda51a2a	-0.08061631
136	0x3df094ea	0.11747153
137	0x3d00d785	0.031455535
138	0x3dd6897c	0.10475442
139	0x3dca2699	0.09870643
140	0xbd876f01	-0.06612969
141	0x3dda6f67	0.106657796
142	0x3d29211a	0.041291334
143	0x3dc4a6dd	0.09602139
144	0x3de06174	0.10956088
145	0x3d9cef28	0.07662803
146	0x3c3f4b63	0.011675688
147	0x3c55869e	0.0130325835
148	0x3de8ab88	0.11360842
149	0x3c34004f	0.010986402
150	0x3d543dc2	0.05181671
151	0x3d2ad8a5	0.041710515
152	0x3e284102	0.16431049
153	0x3c7524c6	0.014962381
154	0x3ce43afb	0.027860155
155	0xbce79d33	-0.0282732
156	0x3b246a80	0.0025087893
157	0x3d069c76	0.032864057
158	0x3c94862c	0.018130384
159	0x3d78ec70	0.06077236
160	0x3db7ec16	0.08980577
161	0x3d824fe2	0.06362893
162	0xbced8b45	-0.028997073
163	0x3e124dfb	0.1428756
164	0xbc9aa92c	-0.018879496
165	0x3d486846	0.048927568
166	0x3dba8683	0.09107687
167	0x3d439958	0.047753662
168	0x3af2881c	0.0018503699
169	0x3d22b4c5	0.039723177
170	0xbd3762b8	-0.04477188
171	0x3d3f3833	0.046684455
172	0xbd3aabdc	-0.045574054
173	0x3ce87c1a	0.028379489
174	0x3e60afb2	0.21942022
175	0x3d3586d9	0.044318054
176	0x3df8b379	0.12143607
177	0xba00066c	-0.00048837694
178	0x3e01e7ed	0.12686129
179	0x3dc5bc5e	0.09655069
180	0x3e00cd1a	0.1257824
181	0x3da8f8a3	0.08250549
182	0xbc954939	-0.018223392
183	0x3d946f07	0.07247739
184	0x3e07e8c2	0.13272384
185	0x3e0074be	0.12544534
186	0x3d88f34a	0.06687029
187	0x3da5c9f1	0.08095158
188	0xbc06d2a8	-0.008228935
189	0x3d1359f4	0.035974458
190	0x3dc2af13	0.09506049
191	0xbc7f807d	-0.015594599
192	0x3c9bbf97	0.019012256
193	0x3ddd057b	0.10792061
194	0x3cb7b9e8	0.022427514
195	0x3da79b19	0.081838794
196	0x3dc33dbb	0.095332585
197	0xbc805228	-0.015664175
198	0xbd8f8e03	-0.070095085
199	0xbd1860fb	-0.037201863
200	0x3d69b8cd	0.057061005
201	0xbd1b91a4	-0.03798069
202	0xbd76ddff	-0.060270306
203	0xbd5e0642	-0.054205187
204	0xbc29d907	-0.010366685
205	0x3dac8c1b	0.084251605
206	0x3d755504	0.05989553
207	0x3d7fd268	0.06245652
208	0x3e09541a	0.13410988
209	0x3d93fd85	0.072260894
210	0xbc493594	-0.01228084
211	0x3c27eab6	0.010248831
212	0x3d931127	0.07181006
213	0xbcb9fc65	-0.022703359
214	0x3dc07de5	0.093990125
215	0xbd3b72c8	-0.04576376
216	0x3dc86885	0.097855605
217	0x3e12bcef	0.14329885
218	0x3d449846	0.04799678
219	0x3d9fa25e	0.07794641
220	0x3bb7f140	0.005613476
221	0x3d2d84f2	0.042363115
222	0x3d02b70f	0.03191286
223	0xbbe2a7e3	-0.0069169863
224	0x3d6fc338	0.058535784
225	0xbda08295	-0.078374065
226	0xbc6173cb	-0.013760517
227	0xbb538e8e	-0.0032281014
228	0x3d6e15e4	0.058126345
229	0x3c4119cc	0.011785936
230	0x3ca3db89	0.020002143
231	0x3d46b0c4	0.04850842
232	0xb9b8a000	-0.00035214424
233	0x3c4a16c9	0.012334534
234	0x3de2daa9	0.11076862
235	0x3d1ba6a1	0.038000707
236	0x3b91668c	0.0044372734
237	0xbd5948ee	-0.053048067
238	0x3d7913df	0.060809966
239	0x3dfbae29	0.12289078
240	0x3e02f37b	0.12788193
241	0x3daf26bb	0.08552309
242	0x3d737840	0.05944085
243	0xbd22b920	-0.03972733
244	0xbd09a900	-0.033608437
245	0x3bcbd5e9	0.0062205684
246	0x3d726e5a	0.05918727
247	0x3dabab0d	0.08382235
248	0xbce99000	-0.028511047
249	0xba5e3c73	-0.00084776356
250	0x3dbbc910	0.09169209
251	0xbd8c258b	-0.06843098
252	0x3dd2dbb9	0.10295815
253	0xbd2bd36e	-0.041949682
254	0x3ced94bc	0.029001586
255	0x3de83e5f	0.11340021

fc2.bias f4 [32]
0	0xbcbb3b66	-0.022855472
1	0xbbc87490	-0.006117411
2	0x3aff5bcf	0.0019482317
3	0x3d7a5d7c	0.06112431
4	0xbdba5b74	-0.090994745
5	0x3dbbeaab	0.09175619
6	0xbda829eb	-0.0821112
7	0x3da4e9ae	0.08052383
8	0x3d65fa0d	0.05614667
9	0x3c32bbfb	0.010909076
10	0xbd3237f0	-0.043510377
11	0x3cad49e4	0.021153398
12	0x3caed0db	0.021339824
13	0xbc95a8c2	-0.018268947
14	0x3c09cd95	0.008410831
15	0xbdbc4132	-0.091921225
16	0x3de2f358	0.110815704
17	0xbd73e1ea	-0.05954162
18	0xbd2b97c8	-0.041892797
19	0xbc8fe0e1	-0.017563285
20	0xbc0ee6f5	-0.008722057
21	0xbd8595ab	-0.065226875
22	0x3d52942d	0.051410843
23	0x3dcfbd19	0.101434894
24	0x3c1954c8	0.009358592
25	0x3e0d7cda	0.13817158
26	0xbd96786c	-0.073471874
27	0x3d32abbf	0.04362082
28	0xbd41043c	-0.04712318
29	0x3c92eb6c	0.017934524
30	0xbcbfe7cd	-0.02342596
31	0x3d93833d	0.07202766

ln2.weight f4 [32]
0	0x3f800000	1.0
1	0x3f800000	1.0
2	0x3f800000	1.0
3	0x3f800000	1.0
4	0x3f800000	1.0
5	0x3f800000	1.0
6	0x3f800000	1.0
7	0x3f800000	1.0
8	0x3f800000	1.0
9	0x3f800000	1.0
10	0x3f800000	1.0
11	0x3f800000	1.0
12	0x3f800000	1.0
13	0x3f800000	1.0
14	0x3f800000	1.0
15	0x3f800000	1.0
16	0x3f800000	1.0
17	0x3f800000	1.0
18	0x3f800000	1.0
19	0x3f800000	1.0
20	0x3f800000	1.0
21	0x3f800000	1.0
22	0x3f800000	1.0
23	0x3f800000	1.0
24	0x3f800000	1.0
25	0x3f800000	1.0
26	0x3f800000	1.0
27	0x3f800000	1.0
28	0x3f800000	1.0
29	0x3f800000	1.0
30	0x3f800000	1.0
31	0x3f800000	1.0

ln2.bias f4 [32]
0	0x00000000	0.0
1	0x00000000	0.0
2	0x00000000	0.0
3	0x00000000	0.0
4	0x00000000	0.0
5	0x00000000	0.0
6	0x00000000	0.0
7	0x00000000	0.0
8	0x00000000	0.0
9	0x00000000	0.0
10	0x00000000	0.0
11	0x00000000	0.0
12	0x00000000	0.0
13	0x00000000	0.0
14	0x00000000	0.0
15	0x00000000	0.0
16	0x00000000	0.0
17	0x00000000	0.0
18	0x00000000	0.0
19	0x00000000	0.0
20	0x00000000	0.0
21	0x00000000	0.0
22	0x00000000	0.0
23	0x00000000	0.0
24	0x00000000	0.0
25	0x00000000	0.0
26	0x00000000	0.0
27	0x00000000	0.0
28	0x00000000	0.0
29	0x00000000	0.0
30	0x00000000	0.0
31	0x00000000	0.0

action1.weight f4 [2, 32]
0	0xba82da88	-0.000998334
1	0xbab04e97	-0.0013451156
2	0xbb2f7b27	-0.0026776285
3	0x3b15036a	0.002273763
4	0x39bf2052	0.0003645444
5	0x3adccbb4	0.0016845376
6	0xba01b016	-0.00049471983
7	0x3903597d	0.0001252647
8	0x3b0766d7	0.0020660663
9	0x3b1729c0	0.0023065656
10	0x395a10b3	0.00020796321
11	0x3ae1a012	0.0017213842
12	0x3b3cbc79	0.0028798862
13	0xb9eb49fd	-0.00044877818
14	0x3b30bd5f	0.0026968343
15	0x3b5de4c9	0.003385829
16	0x39c7c573	0.0003810335
17	0x39e9b46c	0.00044575648
18	0x3b09eb2b	0.0021044712
19	0x39d2647b	0.00040129185
20	0x3a7ac4ce	0.00095660693
21	0x3a5eb0df	0.0008494984
22	0x39d7b508	0.00041142874
23	0x398b7c7a	0.00026604888
24	0x39cf3b98	0.00039526518
25	0xbaa12a77	-0.0012295981
26	0xbac5b261	-0.0015083068
27	0xba5da677	-0.0008455286
28	0x3b0ec1a3	0.0021782897
29	0xba3d642d	-0.0007224705
30	0x3b2c7a36	0.002631796
31	0x3904b2f2	0.00012655163
32	0x3a0ea4fd	0.0005441455
33	0x3ae8f96c	0.0017774529
34	0x3b379e22	0.0028017838
35	0xbb326662	-0.002722167
36	0xba50e1f7	-0.00079682417
37	0xbad6e187	-0.0016394117
38	0xb8715743	-5.7540146e-05
39	0x39baaf91	0.00035607492
40	0xbaef88f8	-0.0018275073
41	0xbb54de73	-0.0032481223
42	0x3957e63b	0.00020589765
43	0xbb0774aa	-0.0020668902
44	0xbb24cfdc	-0.0025148308
45	0xbab5d846	-0.0013873659
46	0xbb67c34c	-0.0035364209
47	0xbb63f73e	-0.003478482
48	0xba6f498a	-0.00091280846
49	0x3a2cba20	0.0006589014
50	0xbb2e314a	-0.0026579672
51	0xba5118e8	-0.00079764286
52	0xbb235344	-0.0024921456
53	0xb6c3da68	-5.8368787e-06
54	0xb9c90340	-0.0003834013
55	0x3aa0edd2	0.0012277907
56	0x39af0064	0.00033378892
57	0x3b06302f	0.0020475497
58	0xb90b554a	-0.00013287846
59	0x39e7ee7f	0.00044237447
60	0xbb683521	-0.0035432058
61	0xb997aa04	-0.00028927636
62	0xbacf961d	-0.0015837584
63	0xb90bc6ae	-0.00013330087

action1.bias f4 [2]
0	0x3af93d5d	0.001901548
1	0xbb322776	-0.0027184165

action2_mu.weight f4 [1, 32]
0	0xbdcb6d82	-0.09932996
1	0x3bbdb558	0.00578944
2	0xbe0994c7	-0.1343566
3	0x3dc1eeca	0.094693735
4	0x3d371205	0.04469492
5	0xbd027a28	-0.03185478
6	0xbe28baf7	-0.16477571
7	0x3e0350d5	0.12823804
8	0xbc6d9ac2	-0.014502229
9	0xbe1329cc	-0.14371413
10	0xbe046666	-0.12929687
11	0x3d5064be	0.050877325
12	0x3db7d3e2	0.0897596
13	0x3cccbc8e	0.024992254
14	0xbd2d3165	-0.042283434
15	0xbe235d4e	-0.15953562
16	0xbd820390	-0.06348336
17	0xbe0b7738	-0.13619697
18	0x3de320db	0.11090251
19	0x3dd1a1f9	0.10235972
20	0xbc4d56d6	-0.01253291
21	0xbc5a31b6	-0.013317516
22	0x3e37300e	0.17889425
23	0xbc505ed0	-0.012717918
24	0x3df188c4	0.11793664
25	0xbe190a4c	-0.14945334
26	0xbe074679	-0.13210477
27	0xbbcceb11	-0.006253608
28	0xbd1d14bf	-0.038349863
29	0xbd6f19a7	-0.058374073
30	0xbe09266c	-0.13393563
31	0x3de96af6	0.11397354

action2_std.weight f4 [1, 32]
0	0xbdffc8f3	-0.124895
1	0xbe5a4979	-0.2131709
2	0xbd408b71	-0.04700798
3	0x3dadc7a6	0.084853455
4	0x3c6d591f	0.01448658
5	0xbdcfb40a	-0.101417616
6	0xbc3974c2	-0.011319341
7	0xbe55b9b4	-0.20871621
8	0xbe05ed37	-0.13078772
9	0xbdc337dd	-0.095321395
10	0xbdbbb1c3	-0.09164765
11	0x3cb01c21	0.021497788
12	0x3e24ac02	0.16081241
13	0xbe0efc9d	-0.13963552
14	0xbab0195b	-0.0013435291
15	0x3c6c445c	0.014420595
16	0xbde09dd0	-0.109676
17	0xbdc4cc19	-0.09609241
18	0x3ced5057	0.028968973
19	0xbe568bd1	-0.20951773
20	0x3de02270	0.109440684
21	0x3d0fa3e7	0.03506842
22	0xbdc9b9d3	-0.09849896
23	0xbe23bf81	-0.15991022
24	0xbe0c8fad	-0.13726683
25	0xbe1e055e	-0.15431735
26	0x3bf815de	0.007570966
27	0xbe42bfa7	-0.19018422
28	0x3c5dc4bc	0.013535675
29	0xbb3815d4	-0.0028089182
30	0x3c1791df	0.009251087
31	0xbcee7bf9	-0.02911185

action3_mu.weight f4 [1, 32]
0	0xbc548ccf	-0.0129730245
1	0x3d2b26a9	0.041784916
2	0x3e2ec783	0.17068295
3	0x3e262ef3	0.16228847
4	0x3de935a2	0.11387183
5	0x3d6bffb1	0.057616893
6	0x3e2b0431	0.16700818
7	0xbdadac0a	-0.084800795
8	0x3d6c7e38	0.05773756
9	0x3c58fae0	0.013243407
10	0x3dd35312	0.10318579
11	0x3e2579f1	0.16159798
12	0x3d84be52	0.06481613
13	0xbe049be3	-0.12950091
14	0x3e25a2c0	0.16175365
15	0xbe1600df	-0.1464877
16	0xbdfbaa65	-0.122883596
17	0xbdddd62d	-0.108318664
18	0x3dd600ab	0.10449346
19	0x3e6107fd	0.21975704
20	0x3d0c4a21	0.034250382
21	0x3d13ed3a	0.03611491
22	0x3da0359c	0.07822725
23	0x3d24cff0	0.040237367
24	0x3b8f01db	0.004364235
25	0x3e474a64	0.19461972
26	0x3a8482ea	0.0010109816
27	0x3e068e59	0.13140239
28	0xbe0229d8	-0.12711275
29	0xbb1d2042	-0.0023975526
30	0x3cd16683	0.025561577
31	0x3d6f9beb	0.058498304

action3_std.weight f4 [1, 32]
0	0x3e351af1	0.17686059
1	0xbcec3ef5	-0.028838614
2	0x3e22dc36	0.15904316
3	0xbe1d6ddb	-0.15373938
4	0xbc740ea3	-0.014896068
5	0x3e512d90	0.20427537
6	0xbe0b8726	-0.13625774
7	0x3dc5b919	0.09654445
8	0xbdc07e59	-0.09399099
9	0xbd166a6c	-0.036722586
10	0x3d0e3b97	0.034724798
11	0xbbe623e4	-0.0070233215
12	0x3dbdf229	0.09274704
13	0x3d81111c	0.063020915
14	0xbe0363cd	-0.1283104
15	0xbdbd3510	-0.092386365
16	0x3d9e29cb	0.07722815
17	0xbca883a8	-0.020570591
18	0xbdddf21a	-0.10837193
19	0x3d4f5116	0.05061444
20	0xbe0c03d6	-0.13673338
21	0x3d635631	0.05550212
22	0x3d4f847d	0.05066346
23	0x3e587f57	0.21142326
24	0x3e1f94f5	0.15584166
25	0xbd42006f	-0.047363695
26	0xbe24735d	-0.16059633
27	0x3e0619d8	0.13095796
28	0x3ac12411	0.001473548
29	0xbc9f6203	-0.019455915
30	0xbe23bc63	-0.15989833
31	0x3e5de8a9	0.21670784
