s10lre4e3CCM_MADRL_MEC/model/PER_CMDRL/4-Actor.pth (torch, 27567 bytes, 14 tensors)

fc1.weight f4 [128, 7]
00000000: c047 cd3d b129 93be efba a43e e208 6ebe
00000010: 3c66 cabd 9bb7 32be b289 99be 8916 463e
00000020: e998 2f3e ee36 993e 731e 043e 069f f13d
00000030: 62f1 38be 8886 153e 6f48 18be 709f 86bd
00000040: f36e d63e 9d93 f93d 0f93 9b3e 9dfd 45be
00000050: 1e47 d43e ae79 99be 8b84 713e 8ee5 6fbd
00000060: b22e 00bc e2a2 b93e c030 9e3e b0bc b73d
00000070: 725e c2bd 92fa 52be fde4 e53e 62eb 86be
00000080: 6d2d d3bb 896b 91be 102e 9f3e 591b 27be
00000090: 53ff 093e e4dd 673c 605c ac3e c82d 13be
000000a0: 336a b73e ee3a 6ebe 2601 043e 4797 3b3e
000000b0: 4782 923e 279b 09be c574 19be 0549 c5bc
000000c0: 5161 bf3e 4d0f cbbd bec7 90be 009d ae3d
000000d0: 18de 8f3c 672a 6f3e 60aa 123e 1abd 933e
000000e0: eb50 8b3d f331 81be 6aa8 69bd 9220 c03e
000000f0: 87cf 2abe 2505 ba3d 5448 97be 0bff cb3e
00000100: d575 d8bd 69cc c9bd 9f46 1d3e 88db 08be
00000110: 4d15 d93d 2c23 bf3c 2a99 a6bd fc5e 0f3e
00000120: 606e 173d 8671 933c 4b1c d33e 5a70 88be
00000130: 484c 1dbd 35f5 c33e 284a cf3d 85db 86be
00000140: 0412 863e 8807 93be 439e 53bd 3243 d93a
00000150: fc05 2abe 24b3 263e 7540 68be 0026 ba3e
00000160: b046 36bd 24b6 82be 29ce 46be 0e5d 803e
00000170: bf91 923e 9daa b43e 68c6 99bd b39f 9ebd
00000180: 77e3 c83e 4637 3fbe 7998 2dbe 13da b53e
00000190: a843 d73d 08cc 97be 2e73 96bd 88aa a13b
000001a0: 7e19 ce3e 2b5e 83bd 2485 7fbe 426d d0bd
000001b0: bc65 b63e 616f d83e ba5a 89be 6ce0 b83e
000001c0: d806 e83c c072 563e 8f19 ac3e ce23 efbd
000001d0: f5c6 bd3e 152f ea3b 3ec2 d4bd 16b0 01bb
000001e0: f6af e03d 61f9 cd3e adee 6bbe d190 1abe
000001f0: bbac 88bc 1a97 d03d db65 723e 6619 813e
00000200: 2220 2e3e da0d 2d3e 5f3b 9c3e 45b9 e738
00000210: ce72 86bd 06bf 40be 1276 343d ff80 d2bd
00000220: f310 893e 864e 89be d48a 64be b7cb ec3d
00000230: bb92 51be 7cfb 15be 74cc 64bd d4e9 433e
00000240: daf1 7a3e e533 583e de03 873e a7b3 9dbe
00000250: 25ff 68bd 7317 aa3e 44cc cc3d a3ad 1abd
00000260: 1dfc aabe ac7f ae3d 00e4 d2ba 0007 92be
00000270: 878e 45be e2a9 3d3e bcdd adbd 90ef 563d
00000280: 60e4 ad3c 0e39 3c3e c2fb 8c3e b1a2 323e
00000290: d58a 6b3e cde9 623e ef4d bebd 93d0 d53e
000002a0: 00d5 633e e98a 96be 26d5 5d3e 87fe 0e3e
000002b0: b4aa 473d b063 903e 73a2 8e3e b66d 813e
000002c0: b271 813c d546 bb3e 42a8 4b3e b213 8fbe
000002d0: 9143 893e 652d 8ebe 9756 32be 7182 e53e
000002e0: b278 d23b eb9c 8ebd eaac ccbc a87a 1bbd
000002f0: 7069 34bd 04ed 9ebe 08ed 9b3c b4c5 5abe
00000300: cf33 b93e cfed 1cbd 4962 85bc 9d6c 403e
00000310: 59ab 3a3d 6481 2d3c a759 903e 367f 2b3e
00000320: 9312 78bd db05 e13d 5b49 e7bc b71f 65be
00000330: a333 ba3e 5b46 a4be 731e f43d 41f6 9d3e
00000340: 93f1 17bd 6d19 473e 3e5e ca3c 8517 993e
00000350: f4e7 91be 7328 b53d 68a3 96be 66e6 d53e
00000360: 39fd 713e 4058 10be 48cc 53be bb9a 90be
00000370: 4be8 433e 506a 4b3e bd28 863e 0f2f ca3c
00000380: b6a7 953e c637 c53b 4e13 c2bd 6f32 533d
00000390: 8284 dcbb 3605 b73e 7c0e 48be 7cd4 dcbd
000003a0: 684f 80be 2be0 36be cc37 d03d 9519 32be
000003b0: 9738 0fbe 4b71 30be d97c 47be 2110 3e3e
000003c0: fae2 5b3e 99a6 35bd 1e54 00be 7b9a e2bd
000003d0: a28d 533e 82ce 0f3e bfa0 05be 1e41 483d
000003e0: 4cfd d33d f27e 82be 97eb 033e bc0b ccbd
000003f0: 885a 13be 58be c0bd 8e81 5d3e 9e69 b5be
0.10023451 -0.28742746 0.3217387 -0.23245576 -0.09882781 -0.17452852 -0.29987866 0.19344534
0.17148174 0.2992472 0.1290224 0.117979094 -0.1806083 0.14602101 -0.14871381 -0.06573379
0.41881523 0.12186358 0.30385634 -0.19335027 0.41460508 -0.29975647 0.23585717 -0.05856853
-0.007823633 0.36257082 0.30896568 0.08971536 -0.0949067 -0.20603397 0.44901267 -0.26351458
-0.006444624 -0.28402355 0.3108983 -0.16319026 0.13476305 0.014152024 0.33664227 -0.14372933
0.3582321 -0.23264667 0.12891063 0.18319426 0.2861502 -0.13438092 -0.1498595 -0.02408267
0.37378934 -0.09915028 -0.2827739 0.08526039 0.017561957 0.23356019 0.14322805 0.2885521
0.06802543 -0.2523342 -0.057045378 0.3752485 -0.16680728 0.090830125 -0.2954737 0.3984302
-0.1056935 -0.09853441 0.15358971 -0.13364995 0.10599766 0.023332201 -0.081346825 0.14001077
0.036970496 0.017998468 0.41232523 -0.26648217 -0.038402826 0.38273016 0.10121566 -0.26339355
0.2618562 -0.28716683 -0.051664602 0.0016575812 -0.16603845 0.16279274 -0.22680838 0.36357117
-0.044501007 -0.25529587 -0.19414581 0.25070995 0.2862682 0.35286418 -0.07508546 -0.07745304
0.39236042 -0.18673429 -0.16952695 0.3551794 0.10510951 -0.2964785 -0.073461875 0.004933659
0.40253824 -0.064144455 -0.24953133 -0.10177089 0.35624492 0.42272475 -0.2682703 0.3610872
0.028323576 0.20942211 0.3361325 -0.11676751 0.37065855 0.007146726 -0.10388611 -0.0019788793
0.10971062 0.40229324 -0.23040266 -0.15094306 -0.016683927 0.1018507 0.23671667 0.2521469
0.17004445 0.16899815 0.30514047 0.000110494475 -0.06564866 -0.1882287 0.044057913 -0.1027851
0.26770744 -0.2681772 -0.22318584 0.11562293 -0.2046613 -0.14646715 -0.055859044 0.19132167
0.24506322 0.21113546 0.26370138 -0.30801126 -0.05688395 0.33221015 0.09999898 -0.03776325
-0.33395472 0.08520445 -0.0016089678 -0.28520966 -0.19292651 0.18521836 -0.08489558 0.05247456
0.021227062 0.1838114 0.27535826 0.17444874 0.23002179 0.221595 -0.092922084 0.41760692
0.22249222 -0.29402855 0.21663341 0.13964282 0.04874678 0.28201056 0.27858314 0.25279015
0.015801284 0.36577478 0.19888404 -0.27944714 0.26809362 -0.27769008 -0.17415844 0.4482608
0.0064230794 -0.069635235 -0.024984796 -0.03795877 -0.044045866 -0.31040204 0.019033924 -0.2136448
0.3617234 -0.03831273 -0.016282218 0.18791433 0.045573566 0.010589931 0.281934 0.16747746
-0.06056459 0.10987445 -0.02823322 -0.2237538 0.3636752 -0.32084927 0.1191987 0.3085194
-0.037095618 0.19443293 0.024703141 0.29900756 -0.2849728 0.08845606 -0.29421544 0.41777343
0.23631753 -0.14096165 -0.20683396 -0.2824305 0.19131581 0.19864774 0.26202956 0.024680642
0.29229516 0.0060186116 -0.09476338 0.05156177 -0.0067296633 0.35746163 -0.19536775 -0.10782716
-0.25060582 -0.17858951 0.101668924 -0.17392571 -0.13986431 -0.17230718 -0.1948122 0.1856084
0.21473303 -0.044348333 -0.12532088 -0.11064621 0.20659497 0.1404362 -0.13049601 0.048890226
0.10351047 -0.25487477 0.12882839 -0.09963176 -0.14390004 -0.09411305 0.21631452 -0.35432142

fc1.bias f4 [128]
00000000: 45fc a3be 5023 64bd ea02 c73c 8cad 04be
00000010: c5d6 803e 8cba 5a3d 8c8e bebd 0436 4e3e
00000020: edf1 c0be 1d5c 973b fc05 923e cb95 9e3e
00000030: e69b da3e ce64 073e aad7 d03e 6333 0a3e
00000040: e784 1ebe 7d2b f23d cc0c 40be 0760 7ebe
00000050: f559 9d3d 99b7 d13e 7012 5ebe 4996 79be
00000060: 6c15 5f3e d4fd 3cbe a7a8 c43d c01a 013b
00000070: ca1d 1a3e 3fae c53e 6c34 b43d 025d d63e
00000080: a87a 2ebc 04e1 8d3e d038 963e 0eff 9a3e
00000090: 86ab bcbe e657 d53d ef87 a13e 11ec 9ebe
000000a0: dfc1 543e 159b 3d3e 9d0a a73d d754 52be
000000b0: d42c a13e 9c95 14be 2d9e 453e e091 7fbc
000000c0: d382 68bd 0d8e 613e 88dd a8be 39f6 b63e
000000d0: 3940 1fbe 48ff 07bd f61c a83d 2eb7 903e
000000e0: c756 973e cd63 9cbe 5ecc 153e e88a 99be
000000f0: 283a 653e dcbe 8fbd 2681 d93e 2b79 773d
00000100: f755 c4bc 0fc0 0f3e 5543 de3e 5bc7 b83e
00000110: 4402 9e3d 9c42 933e 14a5 233e 4d2f 87be
00000120: 7ff0 4abd 490e d93e e988 d3bc 7b14 40be
00000130: 59e2 73be 8686 73bb 957b f6bd e3f5 913e
00000140: 033a 64be 4e7d 2c3e 5d33 853e c7cc bfbe
00000150: b99d b9be e421 0e3e 4d61 f63d 8bba 4f3e
00000160: 077e 37bd 7fd8 82bc 3ad3 ae3e 34a5 99bd
00000170: d497 f93d cb68 793e ca19 ce3e a82b 82be
00000180: d9f2 26be 02c4 96be 385c b8bc 8c5f 683e
00000190: 4e2e c63a 3459 fd3c 6c7a 253e 2747 4abe
000001a0: 630b e53c d19e 883c 51f5 593e 2461 de3d
000001b0: 50a0 dbbd 7134 7f3b 1280 5abe 287f f2bd
000001c0: 05aa 9d3d c330 35be 8e93 c93e a470 613a
000001d0: eda3 c63e 2132 5d3e 8fef acbd df3f c63a
000001e0: ce3e 993d 9285 b1bd 4f2d 3ebe dc86 213d
000001f0: ecc3 0b3e 0741 8abd 428e bfbb a59b 8b3a
-0.32028404 -0.05569774 0.024293382 -0.12956828 0.25163856 0.05340056 -0.093045324 0.20137793
-0.37684575 0.004619135 0.2852019 0.30973658 0.42697066 0.13222048 0.4078954 0.13496165
-0.15480386 0.11824701 -0.18754882 -0.24841319 0.076831736 0.40960386 -0.21686721 -0.24373735
0.21785516 -0.18456203 0.096024804 0.0019699782 0.15050426 0.38609502 0.08799061 0.41867834
-0.010649361 0.27710736 0.2934022 0.30272716 -0.36849612 0.10417156 0.31549022 -0.3103948
0.20777081 0.1851619 0.08156321 -0.20540176 0.31479514 -0.14510196 0.1929862 -0.015598744
-0.05676539 0.22026844 -0.32981515 0.35734728 -0.15551843 -0.03320244 0.08208649 0.28264755
0.29558393 -0.30544892 0.14628741 -0.2998879 0.22385466 -0.070188254 0.42481345 0.06041829
-0.023966772 0.14038108 0.43410745 0.36089596 0.07715276 0.28761756 0.15980941 -0.26403275
-0.04954576 0.4239371 -0.02582212 -0.18757813 -0.23816814 -0.003715904 -0.1203529 0.2850791
-0.22287755 0.16844675 0.2601575 -0.3746092 -0.36253145 0.13880116 0.120302774 0.20286004
-0.044797923 -0.015972374 0.34145528 -0.07502213 0.12187162 0.24356382 0.4025405 -0.25423932
-0.16303577 -0.29446417 -0.02250491 0.22692698 0.0015120001 0.030926324 0.16159981 -0.19753705
0.027959531 0.016677292 0.21284987 0.10858372 -0.107239366 0.003894117 -0.21337917 -0.118406594
0.07698444 -0.17694382 0.39370388 0.00085998536 0.3879694 0.21601154 -0.0844413 0.0015125236
0.07482682 -0.08668055 -0.18571971 0.039435253 0.13648957 -0.06750684 -0.005845816 0.0010651244

ln1.weight f4 [128]
00000000: 0000 803f 0000 803f 0000 803f 0000 803f
00000010: 0000 803f 0000 803f 0000 803f 0000 803f
00000020: 0000 803f 0000 803f 0000 803f 0000 803f
00000030: 0000 803f 0000 803f 0000 803f 0000 803f
00000040: 0000 803f 0000 803f 0000 803f 0000 803f
00000050: 0000 803f 0000 803f 0000 803f 0000 803f
00000060: 0000 803f 0000 803f 0000 803f 0000 803f
00000070: 0000 803f 0000 803f 0000 803f 0000 803f
00000080: 0000 803f 0000 803f 0000 803f 0000 803f
00000090: 0000 803f 0000 803f 0000 803f 0000 803f
000000a0: 0000 803f 0000 803f 0000 803f 0000 803f
000000b0: 0000 803f 0000 803f 0000 803f 0000 803f
000000c0: 0000 803f 0000 803f 0000 803f 0000 803f
000000d0: 0000 803f 0000 803f 0000 803f 0000 803f
000000e0: 0000 803f 0000 803f 0000 803f 0000 803f
000000f0: 0000 803f 0000 803f 0000 803f 0000 803f
00000100: 0000 803f 0000 803f 0000 803f 0000 803f
00000110: 0000 803f 0000 803f 0000 803f 0000 803f
00000120: 0000 803f 0000 803f 0000 803f 0000 803f
00000130: 0000 803f 0000 803f 0000 803f 0000 803f
00000140: 0000 803f 0000 803f 0000 803f 0000 803f
00000150: 0000 803f 0000 803f 0000 803f 0000 803f
00000160: 0000 803f 0000 803f 0000 803f 0000 803f
00000170: 0000 803f 0000 803f 0000 803f 0000 803f
00000180: 0000 803f 0000 803f 0000 803f 0000 803f
00000190: 0000 803f 0000 803f 0000 803f 0000 803f
000001a0: 0000 803f 0000 803f 0000 803f 0000 803f
000001b0: 0000 803f 0000 803f 0000 803f 0000 803f
000001c0: 0000 803f 0000 803f 0000 803f 0000 803f
000001d0: 0000 803f 0000 803f 0000 803f 0000 803f
000001e0: 0000 803f 0000 803f 0000 803f 0000 803f
000001f0: 0000 803f 0000 803f 0000 803f 0000 803f
1.0 1.0 1.0 1.0 1.0 1.0 1.0 1.0
1.0 1.0 1.0 1.0 1.0 1.0 1.0 1.0
1.0 1.0 1.0 1.0 1.0 1.0 1.0 1.0
1.0 1.0 1.0 1.0 1.0 1.0 1.0 1.0
1.0 1.0 1.0 1.0 1.0 1.0 1.0 1.0
1.0 1.0 1.0 1.0 1.0 1.0 1.0 1.0
1.0 1.0 1.0 1.0 1.0 1.0 1.0 1.0
1.0 1.0 1.0 1.0 1.0 1.0 1.0 1.0
1.0 1.0 1.0 1.0 1.0 1.0 1.0 1.0
1.0 1.0 1.0 1.0 1.0 1.0 1.0 1.0
1.0 1.0 1.0 1.0 1.0 1.0 1.0 1.0
1.0 1.0 1.0 1.0 1.0 1.0 1.0 1.0
1.0 1.0 1.0 1.0 1.0 1.0 1.0 1.0
1.0 1.0 1.0 1.0 1.0 1.0 1.0 1.0
1.0 1.0 1.0 1.0 1.0 1.0 1.0 1.0
1.0 1.0 1.0 1.0 1.0 1.0 1.0 1.0

ln1.bias f4 [128]
00000000: 0000 0000 0000 0000 0000 0000 0000 0000
00000010: 0000 0000 0000 0000 0000 0000 0000 0000
00000020: 0000 0000 0000 0000 0000 0000 0000 0000
00000030: 0000 0000 0000 0000 0000 0000 0000 0000
00000040: 0000 0000 0000 0000 0000 0000 0000 0000
00000050: 0000 0000 0000 0000 0000 0000 0000 0000
00000060: 0000 0000 0000 0000 0000 0000 0000 0000
00000070: 0000 0000 0000 0000 0000 0000 0000 0000
00000080: 0000 0000 0000 0000 0000 0000 0000 0000
00000090: 0000 0000 0000 0000 0000 0000 0000 0000
000000a0: 0000 0000 0000 0000 0000 0000 0000 0000
000000b0: 0000 0000 0000 0000 0000 0000 0000 0000
000000c0: 0000 0000 0000 0000 0000 0000 0000 0000
000000d0: 0000 0000 0000 0000 0000 0000 0000 0000
000000e0: 0000 0000 0000 0000 0000 0000 0000 0000
000000f0: 0000 0000 0000 0000 0000 0000 0000 0000
00000100: 0000 0000 0000 0000 0000 0000 0000 0000
00000110: 0000 0000 0000 0000 0000 0000 0000 0000
00000120: 0000 0000 0000 0000 0000 0000 0000 0000
00000130: 0000 0000 0000 0000 0000 0000 0000 0000
00000140: 0000 0000 0000 0000 0000 0000 0000 0000
00000150: 0000 0000 0000 0000 0000 0000 0000 0000
00000160: 0000 0000 0000 0000 0000 0000 0000 0000
00000170: 0000 0000 0000 0000 0000 0000 0000 0000
00000180: 0000 0000 0000 0000 0000 0000 0000 0000
00000190: 0000 0000 0000 0000 0000 0000 0000 0000
000001a0: 0000 0000 0000 0000 0000 0000 0000 0000
000001b0: 0000 0000 0000 0000 0000 0000 0000 0000
000001c0: 0000 0000 0000 0000 0000 0000 0000 0000
000001d0: 0000 0000 0000 0000 0000 0000 0000 0000
000001e0: 0000 0000 0000 0000 0000 0000 0000 0000
000001f0: 0000 0000 0000 0000 0000 0000 0000 0000
0.0 0.0 0.0 0.0 0.0 0.0 0.0 0.0
0.0 0.0 0.0 0.0 0.0 0.0 0.0 0.0
0.0 0.0 0.0 0.0 0.0 0.0 0.0 0.0
0.0 0.0 0.0 0.0 0.0 0.0 0.0 0.0
0.0 0.0 0.0 0.0 0.0 0.0 0.0 0.0
0.0 0.0 0.0 0.0 0.0 0.0 0.0 0.0
0.0 0.0 0.0 0.0 0.0 0.0 0.0 0.0
0.0 0.0 0.0 0.0 0.0 0.0 0.0 0.0
0.0 0.0 0.0 0.0 0.0 0.0 0.0 0.0
0.0 0.0 0.0 0.0 0.0 0.0 0.0 0.0
0.0 0.0 0.0 0.0 0.0 0.0 0.0 0.0
0.0 0.0 0.0 0.0 0.0 0.0 0.0 0.0
0.0 0.0 0.0 0.0 0.0 0.0 0.0 0.0
0.0 0.0 0.0 0.0 0.0 0.0 0.0 0.0
0.0 0.0 0.0 0.0 0.0 0.0 0.0 0.0
0.0 0.0 0.0 0.0 0.0 0.0 0.0 0.0

fc2.weight f4 [32, 128]
00000000: 1eec 8ebd ba89 abbd 3b88 af3c fe66 9fbd
00000010: 53c8 7bbd 9018 213d fb97 b0bc 935d 983d
00000020: 6cdd af3d 50a0 49bd c7f0 39bd d732 74bd
00000030: b5f2 5b3c fdf7 653d e409 2abd 982f 54bd
00000040: ce12 573d 70b6 5f3d 5c66 7dbd c7ef 20bb
00000050: 21fd 893d bf1b ab3c 225a aebd 0992 903d
00000060: 8adb c03c 790c 94bc f4a7 793d 5bbf 913d
00000070: 241d 81bd fe89 21bd 33b8 b3bd 8533 89bc
00000080: 8f47 c63c 41d7 2a3d d85c 333d d18d 593b
00000090: a0d0 193b 723c 8c3b 5af8 9fbd 1aef 083d
000000a0: 8c67 143d a550 013c 4d1e e6bc ee82 8f3d
000000b0: e980 5d3b cfdc 93bd edb3 c0bd e93f a13d
000000c0: 22a8 50bd 5438 483b 6380 843d fffb 193d
000000d0: c35b 9abd 2429 303d 96e7 173d 94c6 93bc
000000e0: 9260 09bd f52f b5bd 38ab 5bbd 6541 21bd
000000f0: 8183 383d b7ff 9bbd 691c 9c3d dc10 343d
00000100: cb13 63bd f9a7 993d f0d2 613d de38 633d
00000110: 70e6 0e3d 6bde a5bd 5f7d 86bd 26ca 8ebd
00000120: 8cb0 4b3c 3eac 13bd 281d cbbc 93af 713c
00000130: efa7 50bd f579 473d ac17 82bc a707 c33b
00000140: be5b 76bc 7488 503d 9a05 8bbd 780d 89bd
00000150: 1429 943c e501 6e3d 1808 8ebb c72f b1bd
00000160: a704 363d 7247 26bd ca1e 1dbd 861b 023d
00000170: e43f 63bd 5e08 47bd 1ce1 a93c f04d 1e3c
00000180: cc69 603d 7100 10bc db5f c0bd 18f0 26bd
00000190: 9f8c 2bbd 73ff a73d 0f8d 083d a49b bb3c
000001a0: bb08 93bd de13 fa3c 326e b8bd 3840 193c
000001b0: 2b39 70bd 2998 e3bb c110 2ebc d603 083d
000001c0: 4bdd 9bbd 723b 21bd 5c33 823c 7f4f 7d3d
000001d0: 7b93 a7bd e577 1bbd 00dc b1bc ab8d 873c
000001e0: 60ef 863d f321 96bd 4b86 2abd 4c40 7f3c
000001f0: 89ed 833d dc27 263d 2621 063b 5690 4cbd
00000200: ba85 373d c650 5b3c 9b9f 6e3d 4c08 2a3d
00000210: dd30 f6bc 5f78 df3a bca7 503c 1b49 10bd
00000220: 98ad 0bbd 5984 9a3d e8c6 113d 970d 74bc
00000230: f818 32bd 037c 7dbd 9505 b6bd 5eaf 193d
00000240: 1662 45bd 433a e73b a3c5 a6bd bc3f 95bd
00000250: 8c5d 683d 28c6 8fbd d24c 013d 9f7f 853d
00000260: 14b3 28bd 2c3b 783d 0804 143d fbf3 e5bc
00000270: 401d 92bd 3414 fe39 de21 a73d e7bd 163a
00000280: 1515 8cbd 83cf 84bd 58fc 82bd f38a 5dbb
00000290: 004d 83b9 94f6 4c3d 5edb a43c 887e 81bd
000002a0: 936c ad3d 2d79 3e3d 3eec 8b3d bacf 503d
000002b0: 30c5 85bd f7dd 953d 91b1 913d a2ec 8dbd
000002c0: 8c96 d03c 68c0 46bb a69b 693d 65ae 7cbc
000002d0: 0960 da3c a07c cb3b ade4 8b3d 0213 2d3d
000002e0: 3721 353d 3ce6 133d 7634 b1bd 193b ab3c
000002f0: da55 5c3d 939e 873d aee1 80bd c062 893c
00000300: 4171 b53b cab8 223d 670b 42bc e3fd 903d
00000310: 3b6d bebd 8822 90bd 7df7 0fbd d8af 4dbd
00000320: f5e2 103c 0773 cabc f6cd 563d b4ae 7bbc
00000330: 9389 623c 423c 953d e85c e0ba b51d 98bd
00000340: 9add 41bd bdf8 853d 161c 133d 918e 9d3d
00000350: 3b55 11bd 5a19 003d 403c 0cbd 09a8 213d
00000360: 5b8b 24bd bb9d 0e3d cb08 6ebd 5c3d 42bd
00000370: c286 a5ba ff7c 8ebc 7500 f4bc 5ee9 4f3d
00000380: 8b6a 86bd 6de0 c8bc c92e 783d d316 9fbd
00000390: b5c9 ae3c eacd 3fbd 0a25 a3bd 96aa 543d
000003a0: 22f9 32bc 9a60 053b 0d86 08bd 2f1a 8c3d
000003b0: 67bc 16bc 95a5 97bb 6ef0 29b4 5bd5 9b3d
000003c0: 6d5a 8ebc 95fb 28bd bb11 cf3c c1af 1d3c
000003d0: 5da0 dd3c 21ef 803d f1bb 75bd a693 963c
000003e0: bccd 693d babc 94bd bf8c 493d ff48 1b3d
000003f0: 1493 b2bd 1d72 c0bd 3f2a 60bd ad9e f8bb
-0.069786295 -0.08375879 0.021427264 -0.07783316 -0.06147034 0.039330065 -0.021556845 0.07439723
0.08587155 -0.04922515 -0.04539564 -0.059618797 0.013424565 0.056144703 -0.04151334 -0.0518032
0.052508168 0.054617345 -0.061865196 -0.002455698 0.06737734 0.020887254 -0.08513285 0.07059104
0.023542184 -0.018072354 0.06095119 0.07116576 -0.06304386 -0.03943824 -0.087753676 -0.0167482
0.024204044 0.04170919 0.043789715 0.0033196101 0.0023470297 0.0042796666 -0.07811041 0.03343115
0.036231562 0.007892762 -0.02809062 0.07007395 0.003379876 -0.0721985 -0.09409318 0.07873518
-0.050941594 0.0030551152 0.064698 0.037593838 -0.075370334 0.043007985 0.037086092 -0.018039025
-0.033539362 -0.08847038 -0.053630084 -0.039369006 0.045047287 -0.07617133 0.07622606 0.04396139
-0.055438798 0.07502741 0.055132806 0.055474155 0.03488773 -0.080990635 -0.065668814 -0.069721505
0.012432229 -0.036052935 -0.024794176 0.014751333 -0.050941404 0.04870029 -0.015880428 0.00595184
-0.0150365215 0.05091138 -0.06788178 -0.06692022 0.018085994 0.058107276 -0.004334461 -0.08651691
0.04443803 -0.04059548 -0.03835944 0.03176453 -0.055480853 -0.048591964 0.020737223 0.009662136
0.054788396 -0.008789168 -0.09393283 -0.040756315 -0.041882154 0.0820302 0.03333765 0.022901364
-0.071793996 0.030527052 -0.09005393 0.00935369 -0.05864827 -0.006945629 -0.010624112 0.033206783
-0.07610568 -0.039363332 0.01589363 0.06184339 -0.081824265 -0.037956137 -0.02171135 0.016547045
0.06588626 -0.07330694 -0.041631978 0.015579294 0.064417906 0.040565357 0.0020466535 -0.049942337
0.044805266 0.013385957 0.05825768 0.04151182 -0.030052597 0.0017049423 0.0127353035 -0.03522597
-0.0341011 0.075447746 0.035590082 -0.014895818 -0.043480843 -0.061885845 -0.088877834 0.03752076
-0.048189245 0.007056506 -0.08143165 -0.07287547 0.05672984 -0.07020217 0.031567402 0.065184824
-0.041186407 0.060603306 0.036136657 -0.02807044 -0.07134485 0.00048461708 0.081607565 0.00057503436
-0.068399586 -0.06484892 -0.06395787 -0.0033804744 -0.00025043637 0.050039843 0.020124134 -0.06322962
0.084679745 0.04650228 0.06832169 0.050979353 -0.06531751 0.07317727 0.07113946 -0.069299
0.025462411 -0.0030327085 0.057033204 -0.015422438 0.026657121 0.006209925 0.06830726 0.042254455
0.04422113 0.03610824 -0.08652584 0.020902203 0.053792812 0.066220425 -0.06293045 0.01677072
0.0055371826 0.03972701 -0.011843539 0.07079675 -0.09298178 -0.07037836 -0.035148133 -0.050216526
0.008843173 -0.024713052 0.052442513 -0.015361477 0.013826746 0.07286884 -0.0017117532 -0.07427541
-0.047330476 0.06541584 0.035915457 0.07693208 -0.035481673 0.031274177 -0.034237146 0.03946689
-0.040171962 0.034818392 -0.058113854 -0.047421798 -0.0012628662 -0.017393587 -0.029785374 0.050759666
-0.0656329 -0.024521077 0.060591493 -0.07768025 0.021336416 -0.046827234 -0.07966049 0.051920496
-0.010923656 0.0020351768 -0.033330966 0.068409316 -0.009200192 -0.004627893 -1.582682e-07 0.07609054
-0.017377103 -0.041255552 0.02527701 0.0096244225 0.027054006 0.0629561 -0.059993688 0.018380951
0.05708097 -0.07262559 0.04920649 0.03791141 -0.08719459 -0.093967654 -0.05472779 -0.007587275

fc2.bias f4 [32]
00000000: 3eda 9d3d 3454 c3bc abe0 f73c 1c09 6ebd
00000010: 7a02 c73c e7e1 83bc b538 073d eba4 853c
00000020: 5ff6 a0bd ab04 983d 0325 943d 8bc0 9c3d
00000030: 757d b3bd fdb2 d43c faf6 193d ed8b 523d
00000040: 4e65 853d e8ad aebd f88f 243c 1485 743d
00000050: 63c8 e83d 3bfe 6abd d1a2 953d 8633 9ebd
00000060: 3006 b4bd 0fce 493d d423 823d e4c0 90bd
00000070: 7066 6cbc b602 233c 57d6 793b 50d8 df3d
0.07707642 -0.023843862 0.030258497 -0.058114156 0.024293173 -0.01609893 0.033013064 0.01631399
-0.078594916 0.07422765 0.07233622 0.07653912 -0.087641634 0.025964255 0.03758905 0.051402975
0.06513463 -0.08529264 0.01004409 0.059697226 0.11366346 -0.05737136 0.073064454 -0.07724671
-0.08790243 0.04926878 0.0635449 -0.07068041 -0.01442872 0.009949377 0.0038122141 0.1092993

ln2.weight f4 [32]
00000000: 0000 803f 0000 803f 0000 803f 0000 803f
00000010: 0000 803f 0000 803f 0000 803f 0000 803f
00000020: 0000 803f 0000 803f 0000 803f 0000 803f
00000030: 0000 803f 0000 803f 0000 803f 0000 803f
00000040: 0000 803f 0000 803f 0000 803f 0000 803f
00000050: 0000 803f 0000 803f 0000 803f 0000 803f
00000060: 0000 803f 0000 803f 0000 803f 0000 803f
00000070: 0000 803f 0000 803f 0000 803f 0000 803f
1.0 1.0 1.0 1.0 1.0 1.0 1.0 1.0
1.0 1.0 1.0 1.0 1.0 1.0 1.0 1.0
1.0 1.0 1.0 1.0 1.0 1.0 1.0 1.0
1.0 1.0 1.0 1.0 1.0 1.0 1.0 1.0

ln2.bias f4 [32]
00000000: 0000 0000 0000 0000 0000 0000 0000 0000
00000010: 0000 0000 0000 0000 0000 0000 0000 0000
00000020: 0000 0000 0000 0000 0000 0000 0000 0000
00000030: 0000 0000 0000 0000 0000 0000 0000 0000
00000040: 0000 0000 0000 0000 0000 0000 0000 0000
00000050: 0000 0000 0000 0000 0000 0000 0000 0000
00000060: 0000 0000 0000 0000 0000 0000 0000 0000
00000070: 0000 0000 0000 0000 0000 0000 0000 0000
0.0 0.0 0.0 0.0 0.0 0.0 0.0 0.0
0.0 0.0 0.0 0.0 0.0 0.0 0.0 0.0
0.0 0.0 0.0 0.0 0.0 0.0 0.0 0.0
0.0 0.0 0.0 0.0 0.0 0.0 0.0 0.0

action1.weight f4 [2, 32]
00000000: 1f94 5f3b 490d 103b 8e6c 09bb 5489 343a
00000010: 0eb0 29bb c28d 9bba 01f1 c8ba 822c 563b
00000020: 0006 293a ae8c 263b 99c1 843b e278 40ba
00000030: 9814 073b 5c77 16ba e602 31ba a9de db3a
00000040: fafe 003b ffcd 2b39 bd95 383b 1e37 9339
00000050: 1c2b 8a3a 5ca3 113b f85a bd3a b6d5 0e3b
00000060: b212 063a e0d0 5cba ad16 ef39 44fa 523b
00000070: 40ec e6b7 21a2 9cba 1238 84b9 69a3 1b3b
00000080: 7b10 29bb 47aa c7ba d4dd 8339 0fc6 4bb9
00000090: 02ca 073b 1dc3 6ab9 2e98 e13a 091f 40bb
000000a0: 12db 8eba 469a d7ba 7f9e 50bb 02c3 843a
000000b0: dd79 faba d7c5 5a3a 70fa efb9 41d1 d2ba
000000c0: e86c f9ba b4b9 253a e38d 87bb e46a 883a
000000d0: ecd1 a8ba 938e a3ba 12e7 bfba 2e1d 38bb
000000e0: bcd6 643a d71a 7b39 b87c 0eba b941 88bb
000000f0: 129c 493a 5a3c e939 d085 b73a 3729 abba
0.0034115387 0.0021980575 -0.0020969245 0.00068869186 -0.002589229 -0.0011867809 -0.0015330614 0.0032680337
0.00064477324 0.0025413441 0.004051399 -0.00073422317 0.002061164 -0.0005739832 -0.0006752446 0.0016774732
0.0019683228 0.0001638457 0.0028165423 0.0002807909 0.0010541412 0.0022222614 0.0014446666 0.0021794862
0.000511448 -0.0008423459 0.00045602527 0.0032192627 -2.7528149e-05 -0.0011950174 -0.00025218778 0.0023748523
-0.0025797177 -0.0015233242 0.00025151542 -0.00019433371 0.0020719771 -0.00022388664 0.0017211491 -0.0029315373
-0.0010899028 -0.0016449175 -0.0031832752 0.0010128918 -0.0019109804 0.00083455205 -0.00045772223 -0.0016084091
-0.0019029649 0.00063219224 -0.0041367873 0.0010407832 -0.0012879944 -0.0012478404 -0.0014641008 -0.0028093564
0.00087295077 0.00023947224 -0.00054354547 -0.0041582254 0.0007690798 0.0004448619 0.0014001671 -0.0013058548

action1.bias f4 [2]
00000000: 2e87 e33a 79f6 47bb
0.0017359012 -0.00305119

action2_mu.weight f4 [1, 32]
00000000: 09b0 aabd 0dd7 873d 74de db3d b755 8a3d
00000010: c3b7 4d3c 42a7 5dbd e7cf 4e3d dc3b 1e3e
00000020: 5267 8d3d 5134 dabd 1c73 86bd 61df 8e3d
00000030: d0c0 09be 918d 9abb e758 193e 4c84 7bbd
00000040: 3b02 ffbd bbe8 15bc 1433 38bd 413e e5bd
00000050: 428b 223e bbe5 463c cee9 b23d 8afc 2dbe
00000060: e48d 6e3d 07c1 1ebe a912 333e e7e9 0cbe
00000070: b43e 26bd 31ca d5bd c7af 283e 2c22 343d
-0.08334357 0.066328146 0.10735789 0.0675463 0.012556019 -0.054114588 0.05049124 0.15452522
0.069044724 -0.1065451 -0.06564924 0.069762 -0.13452458 -0.004716583 0.1497532 -0.061405465
-0.12451597 -0.009149726 -0.044970587 -0.111935146 0.15873435 0.012139733 0.08736001 -0.16990867
0.058240786 -0.15503322 0.17487587 -0.13761102 -0.040587142 -0.104389556 0.16473304 0.0439779

action2_std.weight f4 [1, 32]
00000000: a3d4 023d 67d7 043e f405 cbbd 08ad 8e3d
00000010: b2b3 7bbe 02e3 50be f616 16be d534 65bc
00000020: 2ef3 9f3d 9220 40be f36e 9f3d 28ab 71bd
00000030: 5cc6 d93c 4afd 02be f442 05be 0472 45bd
00000040: 452d 4abe 3f02 2b3e 124d 263e cc5d 36be
00000050: 3b76 04be 311a 363d ab52 073e 163c 1e3e
00000060: 6059 da3c 5c75 94bd 21f5 e6bd 8b58 013e
00000070: d0af 71bc de68 ffbd 6b80 35bd dbe4 43be
0.031941067 0.12972794 -0.09913245 0.06966597 -0.24580267 -0.20399097 -0.14657196 -0.013989647
0.07810055 -0.18762425 0.07784834 -0.059001118 0.026583843 -0.12791935 -0.13013822 -0.048204437
-0.19743831 0.16700076 0.16240337 -0.17809218 -0.12935726 0.04445857 0.13215129 0.15452608
0.026653945 -0.07248947 -0.112772234 0.12631433 -0.01475139 -0.12471174 -0.044311922 -0.1913027

action3_mu.weight f4 [1, 32]
00000000: fd76 74bc 5f0b 1f3e 9faf 753c 8b82 20be
00000010: 3bfa 663d 3c39 d3ba d764 b83d 7b70 0abe
00000020: 54cc ccbd bbaf c23c 346b 333e b7e6 a33d
00000030: f821 1dbe 916e 2a3e e0b5 4abd aead dfbd
00000040: 2772 1c3e e90f e9bc 9d1d 8ebd 9f09 72bd
00000050: 2738 c83d 0dfb 7cbd b78f 25be c77b 913d
00000060: 7841 af3c 6833 2fbd e6f2 423e 14c5 bdbd
00000070: a215 9b3d 9d05 82bd 4b3e e6bd 3206 563e
-0.014920947 0.15531681 0.014995485 -0.15674798 0.056390982 -0.001611508 0.09003609 -0.1351947
-0.0999991 0.023765435 0.17521363 0.0800299 -0.1534499 0.1664374 -0.049489856 -0.10921799
0.1527792 -0.02844997 -0.06939242 -0.059091207 0.09776335 -0.06176286 -0.16168104 0.07103687
0.021393523 -0.042773634 0.19037971 -0.09266105 0.075724855 -0.06348727 -0.1124235 0.20900801

action3_std.weight f4 [1, 32]
00000000: d38b b33d 0cc9 84bd c21e 083e 9219 343e
00000010: ec7e e0bc 9556 103e 2e4d 023e a25d 05be
00000020: 8113 d2bd 5dfc a7bd 81a3 e1bc 9ca1 023e
00000030: 12bf d0bc d9fd 66bd 3ab0 73bd 5cf1 5f3e
00000040: 68bc 0a3e ebb8 98bd 6e9c 4c3d 900a 073e
00000050: c449 053e 7f02 883c c5a1 293e 0028 a0bd
00000060: db47 16be 4990 0d3e 1011 ca3d d72a a43d
00000070: 1012 c4bc 4630 abbd 6290 593e aefd eabb
0.08766904 -0.06483659 0.13292983 0.1758788 -0.027404271 0.14095528 0.12724754 -0.13024
-0.10257626 -0.08202431 -0.027543785 0.12756962 -0.025481734 -0.05639443 -0.059494235 0.21869415
0.13548434 -0.07457145 0.04995387 0.13187623 0.1301642 0.016602753 0.16565616 -0.078201294
-0.14675848 0.13824572 0.09866536 0.080159836 -0.023934394 -0.08358817 0.21246484 -0.0071713543
