s10lre4e3CCM_MADRL_MEC/model/50-400-8-10-40/HYASP_RMAPPO/3-Actor.pth (torch, 161391 bytes, 18 tensors)

fc1.weight f4 [256, 7]
00000000: 6470 c83e 8448 2dbe e835 ca3e 2cb4 323e
00000010: 16e3 b23e bbbf 23bd f5cf a13e f35a 1bbf
00000020: a826 8b3d 43cd f4be 7ec0 3abe 618c 423e
00000030: beac b43e 54af 233e 2675 3b3e e873 b4bd
00000040: 0a9b d93e e855 913e 5a1d 6ebe 35dc 6ebe
00000050: f89e cb3c e0f0 293c 3207 8dbe b571 63be
00000060: 2d93 60be c742 76be bd3c 77bd cceb b2be
00000070: 8d71 333e 0636 313e 7c41 b23e fcc8 96be
00000080: de6a bc3d 494d 9e3d ef0c c83e a4f2 17be
00000090: 4010 b83e 141e 62bd cc5c 073e ab20 b43e
000000a0: 0f77 9a3e f29d 2e3c 4b40 84be 6f46 0cbe
000000b0: edfe bb3e 55b6 a03d ed37 47be 145f fb3e
000000c0: e63c a73e 1420 b93e 424a 9a3e e08c 8f3e
000000d0: fe4c c53d e027 ecbd 1150 a1be d396 063d
000000e0: 758c f9bd f830 abbe 0811 b1be 852f 7b3e
000000f0: 2c90 a0be 8cd7 62be 8bcc 9a3e 3f42 033f
00000100: 69df 9d3d 44d6 f0be 2268 7ebe 6ac4 723e
00000110: 74a5 a63e 6ca7 edbe 7b46 2fbe 9a10 c53e
00000120: 32e5 883e 1d9d 7abe ef5b 8cbe 741a babc
00000130: c79a ee3a 596c 81be 9760 dcbd a0f7 af3e
00000140: 87fe 683d d523 b4be c0e3 41be d2ff b9bd
00000150: 17b7 703e 7c72 b3be 14f2 813e 3c12 5e3e
00000160: b0fe 0d3e b807 3abe 381e e73d 455c 9d3d
00000170: 726e 5f3e 16d5 383e f6df 993e ae3d 773d
00000180: afde 5bbe 336e 313e c741 403e 28be 8e3e
00000190: cc2d 9e3e ba04 e9be 29d8 a6be a6d3 0ebe
000001a0: 61e7 5f3e b2b0 ed3d f2e4 183b da94 d33e
000001b0: bf89 df3e 1de2 cebd a87b a6be 9194 463e
000001c0: eec2 163e d662 c33e 4d46 6a3e 16c4 a4be
000001d0: 25c9 203e 4ea8 cebd cc83 27bc 05d1 3cbe
000001e0: d5af 993d 5086 c7bd 5fed c3be ba0c c9bc
000001f0: 95ee 313d 1ace bbbe 2817 bfbe 8718 09bc
00000200: 75c8 b0bd e2a6 963e 0cbf 84bd 4605 10be
00000210: ad5c a8be d0b2 ab3e 2077 6dbc 121a b63e
00000220: 9249 8dbe e923 20be 6ca2 45be 6c5a cdbd
00000230: e44c 043e b028 a13e 9cdd b43e 0c2b cfbe
00000240: f6be 87be c4cc a23e 9d22 573e 2ab0 00be
00000250: 9341 2a3d d4c6 a23e e4fd 973d 2406 4d3e
00000260: e274 433e cf74 c4bd 7f75 33bd 0d0d 9d3e
00000270: d26d 193e f46d 7f3c e6d5 59bd 5235 8dbe
00000280: 750d b2bd a6cb 943e 7a31 9c3c c2eb 9e3d
00000290: aaea 50be 40f7 6cbd e2db a23d be0c a0be
000002a0: 26e3 a3bd 559f d4bd ccce 593e baae 13bd
000002b0: d94f a73e 4051 f73d 85c3 843e db9c 19bd
000002c0: 9901 543e b318 f3bd 16f3 b63d 4105 49be
000002d0: ff93 05be 99b8 6f3e a796 62bd 508e 753e
000002e0: 6779 bd3e 7c9e 253e 1e41 9c3e fda7 bc3e
000002f0: 321b 7a3e 1cfa bdbe 7890 9cbd 2068 dd3d
00000300: 8a2f 87bd c3c1 3e3e 9210 663e 6e6c 983e
00000310: 5e6c 813b cc9f c53e 5215 363d 34dc aa3e
00000320: c414 7fbd 3e27 92be b4c5 343e 667a 093e
00000330: 31ab 4e3e e05e e5be a4a2 863e 0da9 86be
00000340: 7647 813c 37e6 e7be d11e 453e 05f5 bc3e
00000350: 958d bc3e c8b8 143d a012 603d afd4 e2ba
00000360: 20ec 4abc ce35 bc3e d24b 0c3e 323b c7bd
00000370: aa33 a13e 83d7 acbd a50e b83e ccb0 793d
00000380: fd36 73be 2f99 c43e 5e11 87bd 6811 e2be
00000390: f514 bc3e afa4 86bd 0577 c53e 7825 35bd
000003a0: 6e8e c33e bb95 31be 9a20 58be 3e83 a9be
000003b0: 2cc9 1d3e fbaa 3bbe 84ff 963e 427e 6cbd
000003c0: aa02 513d 3726 c63e 7ab7 b33d 3550 043e
000003d0: 60b8 29be c37c 6abd 2f39 95be ea66 58be
000003e0: 486c ac3e 689c a2be 7a2f c5bc 0cbb 99be
000003f0: 5a91 313e 74ad 0f3e 2e16 e53e 6c75 82be
0.39148247 -0.16922194 0.39494252 0.17451543 0.34938878 -0.03997777 0.3160397 -0.6068565
0.067944825 -0.47812852 -0.18237492 0.18998863 0.35288042 0.15984851 0.18306407 -0.0881117
0.42501098 0.28385854 -0.23253384 -0.2332619 0.024856076 0.0103723705 -0.27544552 -0.22211345
-0.21931143 -0.24048911 -0.06036066 -0.34945524 0.17523785 0.17305765 0.34815586 -0.29450214
0.09200071 0.07729585 0.39072368 -0.14838654 0.35949898 -0.055204466 0.13218993 0.35181174
0.3016896 0.010657774 -0.25830302 -0.13698743 0.3671793 0.07847277 -0.19454928 0.49095976
0.3266365 0.36157286 0.3013478 0.28037167 0.09633826 -0.11531043 -0.31506398 0.03285868
-0.12184993 -0.33435798 -0.34583306 0.24529846 -0.31359994 -0.22152537 0.3023418 0.5127296
0.07708628 -0.47038472 -0.24844411 0.23707739 0.32548106 -0.46416795 -0.1711673 0.38489228
0.26737362 -0.24473996 -0.2741389 -0.022717692 0.0018204086 -0.25277975 -0.107606106 0.3436861
0.05688336 -0.35183588 -0.18934536 -0.09081997 0.23507343 -0.35048282 0.25380003 0.21686643
0.13866687 -0.18167007 0.11285061 0.07683615 0.21819475 0.18050036 0.3005368 0.060361557
-0.21471666 0.17327194 0.18775092 0.27879453 0.30894315 -0.4551142 -0.32586792 -0.13947925
0.21865608 0.116059676 0.0023329821 0.41324502 0.4365978 -0.101017214 -0.32516217 0.19392611
0.14722797 0.38161343 0.2287838 -0.32180852 0.1570173 -0.10090695 -0.010224294 -0.1843911
0.075042404 -0.09742415 -0.38267037 -0.024542201 0.04344042 -0.3668068 -0.37322354 -0.008367664
-0.08631984 0.29424196 -0.06481752 -0.14064512 -0.32883206 0.3353486 -0.014493734 0.35566765
-0.27595192 -0.15638699 -0.1930024 -0.10027012 0.12919956 0.31476355 0.35325325 -0.4046253
-0.2651288 0.3179685 0.21009298 -0.12567201 0.041566443 0.3179232 0.07421473 0.20021874
0.19087556 -0.09592592 -0.043813225 0.3067402 0.149833 0.01559018 -0.053182505 -0.27579743
-0.08693973 0.2906162 0.019066561 0.07759811 -0.20402017 -0.057852983 0.079520956 -0.31259722
-0.080023095 -0.10381953 0.21270293 -0.036055304 0.32678106 0.12076044 0.2593042 -0.037503105
0.20703734 -0.118699454 0.08933084 -0.1963091 -0.13044737 0.23410262 -0.055319455 0.23980069
0.37006685 0.16173738 0.3051843 0.36846915 0.24424437 -0.3710488 -0.07644743 0.10810876
-0.06600864 0.18628602 0.22467259 0.29770225 0.003949686 0.38598478 0.044453926 0.33371127
-0.062275663 -0.28545564 0.17653543 0.13425598 0.20182492 -0.44798946 0.2629596 -0.2630085
0.015781146 -0.45292827 0.19250037 0.36905685 0.3682677 0.036309034 0.054705262 -0.0017305816
-0.012385398 0.367598 0.13700798 -0.097280875 0.3148473 -0.08439543 0.35948673 0.060959622
-0.23751445 0.3839812 -0.065951094 -0.44153905 0.3673474 -0.0657438 0.38567367 -0.044225186
0.38194603 -0.17342274 -0.21106187 -0.33107942 0.15408772 -0.18326943 0.29491818 -0.057737596
0.05102793 0.3870103 0.0877523 0.12921222 -0.1657424 -0.05724789 -0.2914519 -0.21133009
0.33676362 -0.31759953 -0.02407049 -0.30025518 0.17340603 0.14031011 0.44743484 -0.2548021

fc1.bias f4 [256]
00000000: c3f9 6dbe 1277 0d3c 06b7 3ebc d927 06be
00000010: 48d1 973d 5e84 65be 0cca 12be 0cb4 aa3e
00000020: 6651 abbe 91f1 a2be e828 5b3d 1ad5 b23e
00000030: 28eb ca3e 43ce 55be eba0 963c 8c88 1cbe
00000040: 35bd 42be 7ecc 263e 44d2 ae3e 9c9c af3e
00000050: ba0c d6bd c735 a7bd 5cf6 f93d faeb 453e
00000060: 10b8 6d3e 2cab 073e 1811 b0be 8100 b33e
00000070: 88dc abbd 924c c63e 7725 6ebd 543d 833e
00000080: dbb1 3bbe 1c03 403e 7148 5bbd 367c eb3e
00000090: 090e 46be e556 a8bc 9010 6d3e c5af c0be
000000a0: 1179 82bc d693 b0bd b8c4 c1bd 6327 b43e
000000b0: 24e8 603e a300 a53e 7279 b8be 485d c0be
000000c0: 10d9 14be 0390 b0be 755b 98bb ac0e 8cbe
000000d0: 5598 65be 1845 18be 2f3c a63e 625a 173e
000000e0: 6011 6d3e 5842 a33d eeaf 4c3e 51b3 0fbe
000000f0: 1cf1 ad3e 183f 85be 746e b53e bb07 bdbe
00000100: 58ac 93bd 463d e23e 577e 113d 7ca7 b03e
00000110: 64e5 1e3d 2f9a 183e c8d5 06bd 5844 20be
00000120: e849 3fbe 8b8b be3e a334 ddbc 8c4b 91bd
00000130: 0fdf c6be 61ea 703e 8d4f 94be 9004 c53e
00000140: bd7b 813e 4690 283e 8955 01be 3060 8b3d
00000150: 10bb 3a3e b636 c4bd 53cb 49be f14a 2bbd
00000160: 9fe5 cb3e 2131 9cbe 7402 95be 98f7 83be
00000170: 5a5f 633e d6fd d23e 3220 1e3e 7a74 85be
00000180: 4019 55be a0b0 abbe ad9e 523e eeae 67be
00000190: 5a8b 35bb 7a2c 5d3e 5031 52be b11c 19bd
000001a0: 6e54 833e a47e 9dbe a4f2 9c3e c065 01bd
000001b0: 75a2 a93e 14c2 ee3d 61f4 6b3e 4459 8bbe
000001c0: 01dc d2bd 3f2b 2fbe 2088 153e 5895 2cbe
000001d0: e8a7 8f3e a431 5b3e b6f2 b2be 64c3 bb3e
000001e0: 1c61 0cbe 0c55 863e 35ed b7be cac5 233e
000001f0: 22f6 de3e 540d aa3e e9c6 bfbe f511 723e
00000200: bd09 4bbe d5e1 abbd 3543 a1bd 5133 c7be
00000210: 8285 51be f098 adbe 3b4d 8cbe 37e4 3ebe
00000220: 56d9 eabd 0468 29be e17e 5f3c 6e7c cb3d
00000230: 39e9 8c3e a6e1 4ebe d700 cebe 0c66 093d
00000240: 1d0d bf3e 3e16 993e 20c9 72be a8b1 033e
00000250: 08e0 8bbe b9fd 20be f287 f93d f308 e1be
00000260: 6350 153e 904b a3be e5f4 84be e8d8 2ebe
00000270: 73ac 923e 2cad afbe 9752 babd 50cd 1dbc
00000280: ad27 423e a1cc bc3e 597c ff3d 16b6 dabd
00000290: 2246 82be d42b de3e e7a2 383e e8d5 82bd
000002a0: 28ff bb3e 94ac ce3d 6c67 043c 18d8 33be
000002b0: 0772 5dbe 3440 063f f99b c03d 56ab 383e
000002c0: 6a5d 37be 520c d53e 1f90 99be 6aa2 acbc
000002d0: d8fd c4bd af64 a33d 385e ca3e 31d5 b03e
000002e0: e3c1 98bc 36b3 383e 5b9a 32be bb19 b4be
000002f0: e4a4 b33d a250 a5bd 709d 60bd 4011 a3bb
00000300: feba 983e 3b0d ba3e 4587 9f3d 88b1 38be
00000310: 23a5 333c 5ab8 9ebe 53cf 1e3e 4da8 adbe
00000320: c8da 79bd 904d 933e feef 47be 9456 6e3e
00000330: 3543 283e 6254 afbd a76c a83e 660f b43e
00000340: 1d89 86be dfdc aebb 28ec 7b3c da0c 01bb
00000350: e0da 0ebe 3e3b 62be 71e5 8abe 9bb5 a03d
00000360: 4e88 9ebe 9932 af3e e697 8a3e 30d6 be3e
00000370: b584 9b3d 693b afbe f75e d7bd 2bb0 403d
00000380: d4f8 1d3e 8cbb 9d3e ac16 9e3e d6e0 0cbd
00000390: cc78 debc f5c1 60be c3a4 4e3e b00c aa3e
000003a0: b0bc 883d 530b a53c 3cfb 92be 955d bd3d
000003b0: 8090 2c3d c884 c3be 36a0 643c c00e 78bd
000003c0: dce6 38be c69f b7be 509f 69be c7ad 9dba
000003d0: dbe3 6cbb 5d0c 7bbe a135 40bd afcf a13e
000003e0: 20f4 e3bc 8021 44be f7b0 01be 2279 983c
000003f0: 3463 763e 277a 1d3e 54b6 97be 3a6a 39be
-0.23239808 0.008634346 -0.011640316 -0.13101138 0.07412964 -0.22413775 -0.14334887 0.3334049
-0.3346054 -0.31824926 0.053505808 0.3492821 0.39632535 -0.20879464 0.018387279 -0.15286463
-0.19017489 0.16288945 0.34144795 0.3429917 -0.10451646 -0.08164554 0.122051924 0.19328299
0.23214746 0.1324889 -0.34388041 0.34961322 -0.083916724 0.38730294 -0.058141198 0.25632727
-0.18329565 0.18751186 -0.053535882 0.45993203 -0.19341291 -0.020549247 0.2315085 -0.37634102
-0.01592687 -0.086219475 -0.09461349 0.351863 0.21963555 0.32227048 -0.36030155 -0.37571168
-0.14535928 -0.34484872 -0.0046495744 -0.27354944 -0.22421391 -0.14870107 0.3246779 0.14780572
0.2315116 0.079716384 0.19988987 -0.14033248 0.33973014 -0.260247 0.35435832 -0.3691996
-0.07210606 0.44187373 0.035520878 0.3450278 0.038792983 0.14902566 -0.03291872 -0.15651071
-0.18680537 0.37215838 -0.027002638 -0.070944875 -0.38842055 0.23526908 -0.28966942 0.38480043
0.25289717 0.16461286 -0.12630285 0.06805456 0.18235421 -0.09580748 -0.19706468 -0.041819517
0.39823624 -0.30506232 -0.29103434 -0.25774837 0.22204342 0.41209286 0.15441969 -0.26065427
-0.20810413 -0.33533192 0.20568343 -0.22625324 -0.0027701468 0.21598998 -0.20526624 -0.037380878
0.25650352 -0.30760682 0.3065387 -0.031591177 0.33131757 0.11658111 0.23042442 -0.27216542
-0.10295869 -0.17106341 0.14602709 -0.16853845 0.2805779 0.21405655 -0.349508 0.3667251
-0.1370892 0.2623676 -0.35923162 0.1599342 0.4354716 0.33213294 -0.37456444 0.23639663
-0.19827934 -0.083926834 -0.07874147 -0.3890634 -0.20461085 -0.33905745 -0.27402672 -0.18641745
-0.11467235 -0.16543585 0.01364109 0.099358425 0.27521685 -0.20203266 -0.40235016 0.033544585
0.37314692 0.29899782 -0.23709536 0.12860739 -0.2731936 -0.15721788 0.12184133 -0.4395214
0.14581446 -0.31893587 -0.2596809 -0.1707493 0.28647193 -0.34311807 -0.09097784 -0.00963147
0.18960448 0.3687487 0.12474889 -0.106792614 -0.25444132 0.43392813 0.18030892 -0.06388456
0.36718106 0.100915104 0.008081298 -0.17562902 -0.21625529 0.52441716 0.094047494 0.1803411
-0.17906728 0.41610962 -0.29992768 -0.021073539 -0.09618729 0.07978188 0.39525008 0.34537652
-0.01864714 0.18037114 -0.17441694 -0.3517588 0.08771685 -0.0807202 -0.054837644 -0.0049764216
0.29830164 0.3633822 0.077894725 -0.18036473 0.010964665 -0.31000024 0.15508775 -0.33917466
-0.06099966 0.28770113 -0.19525144 0.23275214 0.16431887 -0.085610166 0.32895395 0.35167998
-0.26276484 -0.0053363885 0.015376128 -0.0019691498 -0.13950682 -0.22092912 -0.27128175 0.078471385
-0.30963367 0.3421829 0.27069014 0.37272787 0.07593671 -0.34225014 -0.1051616 0.047043007
0.15426952 0.3080715 0.30876672 -0.034394108 -0.02715721 -0.21948989 0.20180039 0.33212805
0.06676614 0.020147001 -0.28707302 0.09246365 0.042129993 -0.38187242 0.013954213 -0.06056094
-0.18056816 -0.35864085 -0.22814679 -0.0012029939 -0.0036146555 -0.24516435 -0.046926145 0.31603763
-0.027826369 -0.19153404 -0.12665163 0.018612448 0.2406128 0.15378629 -0.29631293 -0.18106928

ln1.alpha f4 [256]
00000000: 0000 803f 0000 803f 0000 803f 0000 803f
00000010: 0000 803f 0000 803f 0000 803f 0000 803f
00000020: 0000 803f 0000 803f 0000 803f 0000 803f
00000030: 0000 803f 0000 803f 0000 803f 0000 803f
00000040: 0000 803f 0000 803f 0000 803f 0000 803f
00000050: 0000 803f 0000 803f 0000 803f 0000 803f
00000060: 0000 803f 0000 803f 0000 803f 0000 803f
00000070: 0000 803f 0000 803f 0000 803f 0000 803f
00000080: 0000 803f 0000 803f 0000 803f 0000 803f
00000090: 0000 803f 0000 803f 0000 803f 0000 803f
000000a0: 0000 803f 0000 803f 0000 803f 0000 803f
000000b0: 0000 803f 0000 803f 0000 803f 0000 803f
000000c0: 0000 803f 0000 803f 0000 803f 0000 803f
000000d0: 0000 803f 0000 803f 0000 803f 0000 803f
000000e0: 0000 803f 0000 803f 0000 803f 0000 803f
000000f0: 0000 803f 0000 803f 0000 803f 0000 803f
00000100: 0000 803f 0000 803f 0000 803f 0000 803f
00000110: 0000 803f 0000 803f 0000 803f 0000 803f
00000120: 0000 803f 0000 803f 0000 803f 0000 803f
00000130: 0000 803f 0000 803f 0000 803f 0000 803f
00000140: 0000 803f 0000 803f 0000 803f 0000 803f
00000150: 0000 803f 0000 803f 0000 803f 0000 803f
00000160: 0000 803f 0000 803f 0000 803f 0000 803f
00000170: 0000 803f 0000 803f 0000 803f 0000 803f
00000180: 0000 803f 0000 803f 0000 803f 0000 803f
00000190: 0000 803f 0000 803f 0000 803f 0000 803f
000001a0: 0000 803f 0000 803f 0000 803f 0000 803f
000001b0: 0000 803f 0000 803f 0000 803f 0000 803f
000001c0: 0000 803f 0000 803f 0000 803f 0000 803f
000001d0: 0000 803f 0000 803f 0000 803f 0000 803f
000001e0: 0000 803f 0000 803f 0000 803f 0000 803f
000001f0: 0000 803f 0000 803f 0000 803f 0000 803f
00000200: 0000 803f 0000 803f 0000 803f 0000 803f
00000210: 0000 803f 0000 803f 0000 803f 0000 803f
00000220: 0000 803f 0000 803f 0000 803f 0000 803f
00000230: 0000 803f 0000 803f 0000 803f 0000 803f
00000240: 0000 803f 0000 803f 0000 803f 0000 803f
00000250: 0000 803f 0000 803f 0000 803f 0000 803f
00000260: 0000 803f 0000 803f 0000 803f 0000 803f
00000270: 0000 803f 0000 803f 0000 803f 0000 803f
00000280: 0000 803f 0000 803f 0000 803f 0000 803f
00000290: 0000 803f 0000 803f 0000 803f 0000 803f
000002a0: 0000 803f 0000 803f 0000 803f 0000 803f
000002b0: 0000 803f 0000 803f 0000 803f 0000 803f
000002c0: 0000 803f 0000 803f 0000 803f 0000 803f
000002d0: 0000 803f 0000 803f 0000 803f 0000 803f
000002e0: 0000 803f 0000 803f 0000 803f 0000 803f
000002f0: 0000 803f 0000 803f 0000 803f 0000 803f
00000300: 0000 803f 0000 803f 0000 803f 0000 803f
00000310: 0000 803f 0000 803f 0000 803f 0000 803f
00000320: 0000 803f 0000 803f 0000 803f 0000 803f
00000330: 0000 803f 0000 803f 0000 803f 0000 803f
00000340: 0000 803f 0000 803f 0000 803f 0000 803f
00000350: 0000 803f 0000 803f 0000 803f 0000 803f
00000360: 0000 803f 0000 803f 0000 803f 0000 803f
00000370: 0000 803f 0000 803f 0000 803f 0000 803f
00000380: 0000 803f 0000 803f 0000 803f 0000 803f
00000390: 0000 803f 0000 803f 0000 803f 0000 803f
000003a0: 0000 803f 0000 803f 0000 803f 0000 803f
000003b0: 0000 803f 0000 803f 0000 803f 0000 803f
000003c0: 0000 803f 0000 803f 0000 803f 0000 803f
000003d0: 0000 803f 0000 803f 0000 803f 0000 803f
000003e0: 0000 803f 0000 803f 0000 803f 0000 803f
000003f0: 0000 803f 0000 803f 0000 803f 0000 803f
1.0 1.0 1.0 1.0 1.0 1.0 1.0 1.0
1.0 1.0 1.0 1.0 1.0 1.0 1.0 1.0
1.0 1.0 1.0 1.0 1.0 1.0 1.0 1.0
1.0 1.0 1.0 1.0 1.0 1.0 1.0 1.0
1.0 1.0 1.0 1.0 1.0 1.0 1.0 1.0
1.0 1.0 1.0 1.0 1.0 1.0 1.0 1.0
1.0 1.0 1.0 1.0 1.0 1.0 1.0 1.0
1.0 1.0 1.0 1.0 1.0 1.0 1.0 1.0
1.0 1.0 1.0 1.0 1.0 1.0 1.0 1.0
1.0 1.0 1.0 1.0 1.0 1.0 1.0 1.0
1.0 1.0 1.0 1.0 1.0 1.0 1.0 1.0
1.0 1.0 1.0 1.0 1.0 1.0 1.0 1.0
1.0 1.0 1.0 1.0 1.0 1.0 1.0 1.0
1.0 1.0 1.0 1.0 1.0 1.0 1.0 1.0
1.0 1.0 1.0 1.0 1.0 1.0 1.0 1.0
1.0 1.0 1.0 1.0 1.0 1.0 1.0 1.0
1.0 1.0 1.0 1.0 1.0 1.0 1.0 1.0
1.0 1.0 1.0 1.0 1.0 1.0 1.0 1.0
1.0 1.0 1.0 1.0 1.0 1.0 1.0 1.0
1.0 1.0 1.0 1.0 1.0 1.0 1.0 1.0
1.0 1.0 1.0 1.0 1.0 1.0 1.0 1.0
1.0 1.0 1.0 1.0 1.0 1.0 1.0 1.0
1.0 1.0 1.0 1.0 1.0 1.0 1.0 1.0
1.0 1.0 1.0 1.0 1.0 1.0 1.0 1.0
1.0 1.0 1.0 1.0 1.0 1.0 1.0 1.0
1.0 1.0 1.0 1.0 1.0 1.0 1.0 1.0
1.0 1.0 1.0 1.0 1.0 1.0 1.0 1.0
1.0 1.0 1.0 1.0 1.0 1.0 1.0 1.0
1.0 1.0 1.0 1.0 1.0 1.0 1.0 1.0
1.0 1.0 1.0 1.0 1.0 1.0 1.0 1.0
1.0 1.0 1.0 1.0 1.0 1.0 1.0 1.0
1.0 1.0 1.0 1.0 1.0 1.0 1.0 1.0

ln1.bias f4 [256]
00000000: 0000 0000 0000 0000 0000 0000 0000 0000
00000010: 0000 0000 0000 0000 0000 0000 0000 0000
00000020: 0000 0000 0000 0000 0000 0000 0000 0000
00000030: 0000 0000 0000 0000 0000 0000 0000 0000
00000040: 0000 0000 0000 0000 0000 0000 0000 0000
00000050: 0000 0000 0000 0000 0000 0000 0000 0000
00000060: 0000 0000 0000 0000 0000 0000 0000 0000
00000070: 0000 0000 0000 0000 0000 0000 0000 0000
00000080: 0000 0000 0000 0000 0000 0000 0000 0000
00000090: 0000 0000 0000 0000 0000 0000 0000 0000
000000a0: 0000 0000 0000 0000 0000 0000 0000 0000
000000b0: 0000 0000 0000 0000 0000 0000 0000 0000
000000c0: 0000 0000 0000 0000 0000 0000 0000 0000
000000d0: 0000 0000 0000 0000 0000 0000 0000 0000
000000e0: 0000 0000 0000 0000 0000 0000 0000 0000
000000f0: 0000 0000 0000 0000 0000 0000 0000 0000
00000100: 0000 0000 0000 0000 0000 0000 0000 0000
00000110: 0000 0000 0000 0000 0000 0000 0000 0000
00000120: 0000 0000 0000 0000 0000 0000 0000 0000
00000130: 0000 0000 0000 0000 0000 0000 0000 0000
00000140: 0000 0000 0000 0000 0000 0000 0000 0000
00000150: 0000 0000 0000 0000 0000 0000 0000 0000
00000160: 0000 0000 0000 0000 0000 0000 0000 0000
00000170: 0000 0000 0000 0000 0000 0000 0000 0000
00000180: 0000 0000 0000 0000 0000 0000 0000 0000
00000190: 0000 0000 0000 0000 0000 0000 0000 0000
000001a0: 0000 0000 0000 0000 0000 0000 0000 0000
000001b0: 0000 0000 0000 0000 0000 0000 0000 0000
000001c0: 0000 0000 0000 0000 0000 0000 0000 0000
000001d0: 0000 0000 0000 0000 0000 0000 0000 0000
000001e0: 0000 0000 0000 0000 0000 0000 0000 0000
000001f0: 0000 0000 0000 0000 0000 0000 0000 0000
00000200: 0000 0000 0000 0000 0000 0000 0000 0000
00000210: 0000 0000 0000 0000 0000 0000 0000 0000
00000220: 0000 0000 0000 0000 0000 0000 0000 0000
00000230: 0000 0000 0000 0000 0000 0000 0000 0000
00000240: 0000 0000 0000 0000 0000 0000 0000 0000
00000250: 0000 0000 0000 0000 0000 0000 0000 0000
00000260: 0000 0000 0000 0000 0000 0000 0000 0000
00000270: 0000 0000 0000 0000 0000 0000 0000 0000
00000280: 0000 0000 0000 0000 0000 0000 0000 0000
00000290: 0000 0000 0000 0000 0000 0000 0000 0000
000002a0: 0000 0000 0000 0000 0000 0000 0000 0000
000002b0: 0000 0000 0000 0000 0000 0000 0000 0000
000002c0: 0000 0000 0000 0000 0000 0000 0000 0000
000002d0: 0000 0000 0000 0000 0000 0000 0000 0000
000002e0: 0000 0000 0000 0000 0000 0000 0000 0000
000002f0: 0000 0000 0000 0000 0000 0000 0000 0000
00000300: 0000 0000 0000 0000 0000 0000 0000 0000
00000310: 0000 0000 0000 0000 0000 0000 0000 0000
00000320: 0000 0000 0000 0000 0000 0000 0000 0000
00000330: 0000 0000 0000 0000 0000 0000 0000 0000
00000340: 0000 0000 0000 0000 0000 0000 0000 0000
00000350: 0000 0000 0000 0000 0000 0000 0000 0000
00000360: 0000 0000 0000 0000 0000 0000 0000 0000
00000370: 0000 0000 0000 0000 0000 0000 0000 0000
00000380: 0000 0000 0000 0000 0000 0000 0000 0000
00000390: 0000 0000 0000 0000 0000 0000 0000 0000
000003a0: 0000 0000 0000 0000 0000 0000 0000 0000
000003b0: 0000 0000 0000 0000 0000 0000 0000 0000
000003c0: 0000 0000 0000 0000 0000 0000 0000 0000
000003d0: 0000 0000 0000 0000 0000 0000 0000 0000
000003e0: 0000 0000 0000 0000 0000 0000 0000 0000
000003f0: 0000 0000 0000 0000 0000 0000 0000 0000
0.0 0.0 0.0 0.0 0.0 0.0 0.0 0.0
0.0 0.0 0.0 0.0 0.0 0.0 0.0 0.0
0.0 0.0 0.0 0.0 0.0 0.0 0.0 0.0
0.0 0.0 0.0 0.0 0.0 0.0 0.0 0.0
0.0 0.0 0.0 0.0 0.0 0.0 0.0 0.0
0.0 0.0 0.0 0.0 0.0 0.0 0.0 0.0
0.0 0.0 0.0 0.0 0.0 0.0 0.0 0.0
0.0 0.0 0.0 0.0 0.0 0.0 0.0 0.0
0.0 0.0 0.0 0.0 0.0 0.0 0.0 0.0
0.0 0.0 0.0 0.0 0.0 0.0 0.0 0.0
0.0 0.0 0.0 0.0 0.0 0.0 0.0 0.0
0.0 0.0 0.0 0.0 0.0 0.0 0.0 0.0
0.0 0.0 0.0 0.0 0.0 0.0 0.0 0.0
0.0 0.0 0.0 0.0 0.0 0.0 0.0 0.0
0.0 0.0 0.0 0.0 0.0 0.0 0.0 0.0
0.0 0.0 0.0 0.0 0.0 0.0 0.0 0.0
0.0 0.0 0.0 0.0 0.0 0.0 0.0 0.0
0.0 0.0 0.0 0.0 0.0 0.0 0.0 0.0
0.0 0.0 0.0 0.0 0.0 0.0 0.0 0.0
0.0 0.0 0.0 0.0 0.0 0.0 0.0 0.0
0.0 0.0 0.0 0.0 0.0 0.0 0.0 0.0
0.0 0.0 0.0 0.0 0.0 0.0 0.0 0.0
0.0 0.0 0.0 0.0 0.0 0.0 0.0 0.0
0.0 0.0 0.0 0.0 0.0 0.0 0.0 0.0
0.0 0.0 0.0 0.0 0.0 0.0 0.0 0.0
0.0 0.0 0.0 0.0 0.0 0.0 0.0 0.0
0.0 0.0 0.0 0.0 0.0 0.0 0.0 0.0
0.0 0.0 0.0 0.0 0.0 0.0 0.0 0.0
0.0 0.0 0.0 0.0 0.0 0.0 0.0 0.0
0.0 0.0 0.0 0.0 0.0 0.0 0.0 0.0
0.0 0.0 0.0 0.0 0.0 0.0 0.0 0.0
0.0 0.0 0.0 0.0 0.0 0.0 0.0 0.0

fc2.weight f4 [128, 256]
00000000: 2857 973d a072 bc3e 7e49 3d3c a82b 4a3d
00000010: ac9c 13bd 7aff d73d 2832 e93b b742 ecbb
00000020: 481d d4bc 3d70 f0bd dee2 1abe a03b 14be
00000030: 33a1 b63b 98b9 0b3e e631 5dbc 4b98 053e
00000040: 95ed 2c3d fb07 cabd e82d 24bd 006d 713c
00000050: 6bae 38bd 3628 e43c 1d43 86bd ce50 2cbd
00000060: 0488 16bd 344b 8c3c 679c 563d ac6e 403d
00000070: 7c5b b63d 5771 41bd 3c56 593d 6abc e93c
00000080: feff 83bd 482d 06be 2934 893d aae8 bfbd
00000090: 6e17 69bc 2c0b 273c 6bce a93a c2fd 3c3d
000000a0: 24c4 b83c 155e c43c 2020 a13b 8d70 5ebd
000000b0: 6e46 f63c 8d91 b23b bf47 feba e688 f6bc
000000c0: d8b4 803d 13ea cb3d ec81 8bba 2330 1d3d
000000d0: beab 0bbd 8cba 20bd 3fad b93c 5a1c 343d
000000e0: d9df d13c 54f5 b7bd d0e2 b2bd b403 27bb
000000f0: ae91 fdbd e309 d73d 90ba e7bd 7d7e af3c
00000100: aad7 c33d 0c92 15be 2aec 45bd 4a4b 32bc
00000110: baf9 183e c991 823d 86fd 91bc 9876 793d
00000120: 2ac8 4bbc 56e4 8fbd dd21 b0bd 5805 91bc
00000130: 2003 e13d 856e 00be fa5e e23c 9fa1 26bd
00000140: d1cb 893b e6eb a23b 5eb8 083e c81b dcbb
00000150: 1142 09be dc6c 84bd 096b 93be e3c0 f2bc
00000160: 6ce6 a1bc 2a13 9cbd 631a 1e3e 8a7e 53bd
00000170: 986f 9c3d 6326 efbd 294f 8d3e eb8c 8d3d
00000180: efa3 30bc 1ae0 133e 4ae2 b2bb 4d01 91be
00000190: df3a 4dbd 54ae 803d e86c 233d c03c a73c
000001a0: 98a5 d13c ca5f 083d 645e dcb9 9c48 3fbd
000001b0: f213 fcbd e3c1 b83d d102 983d 2817 ff3c
000001c0: a451 e6bc 9059 9dbd edb7 a93c b2dc 5bbe
000001d0: 521b 2d3e 05c5 243d 4e3a 5b3d d8f3 02be
000001e0: f023 553d 53f3 fdbc 037f 67bd 9b00 c6bc
000001f0: e0d0 25be 45c0 643d a048 1b3d 2048 393e
00000200: 6c54 3b3d 7e6f 80bd 3268 993e 3aff 8f3d
00000210: 410c c2ba ccca c9bc e74f 58be 0bc2 f2bc
00000220: 9cbe bc3c b6c2 e93c 2d1b a6be c798 3c3c
00000230: a423 273d df86 e83e 3f77 6a3d a265 993c
00000240: 458f e03c 22d9 35be e09c 2cbd 1229 85bc
00000250: e914 a23c 6bcb 543c 7b16 10bc bc3d c23d
00000260: 649f 7cbd 2300 533d 16cd d53c 9397 41be
00000270: 5ae8 f3bd b494 363d 1e24 e03d 9da2 e83d
00000280: 160e 37bc fec0 1ebd 695a 183d 7553 763d
00000290: 7136 e03c 1a60 cdbd ed73 d1bd deae a83d
000002a0: d16f e5bc 5569 86bd 38d8 25bd 85e4 853b
000002b0: d086 90bb 4ff5 debd d2ba 903d b574 74bd
000002c0: e2e0 8b3b 6199 26bd e71d 99be 5a77 a83d
000002d0: 6006 873d a478 ec3b d7af 093d 3f69 50bc
000002e0: 6fc9 f1bc 1a19 823d 83cb 9a3d 88ea a53c
000002f0: db5d 97be 603f c43d 7676 683c 6fd0 9a3d
00000300: e654 88bd 819f 69bc 1646 823c 6bdb 013e
00000310: 4abe 83bd b8e0 5fbc dedc cebd 7446 523d
00000320: a167 cb3d e990 d73b 9e40 4b3d 9d4a 173d
00000330: bfc8 acbc 8824 0e3e eb60 ac3d b075 b4bd
00000340: a481 153e 095f b43c e838 3e3d 673d 033e
00000350: 9848 763c c546 21be 43bf dd3d 00eb 353e
00000360: b1f7 41be 5299 c33b 1aeb 133c 09a1 2ebd
00000370: 09dd dc3b 4ae1 043d 7856 9a3c c6d2 953c
00000380: 88c0 05be c91a 183d 8f0f 83bb a99a 02bd
00000390: 9e17 c6bd b26b 07bd a44e a5bd 6c98 b6bd
000003a0: 6a0c 223e 892a 88bc 782e c73c b5a6 d0bc
000003b0: 1bce 57bc c691 673d 8709 193d 8420 72bd
000003c0: 7c76 8c3d 1298 3cbb 0ab3 2fbd 6cd5 c13c
000003d0: 4be2 c3bb a4d8 f53c 2aa5 ed3d b21d 453d
000003e0: 83d1 44bd 51b5 33bd 64b9 3a3d 8854 8c3d
000003f0: fa51 64bc 8f38 34bb 78c0 43be 1cc1 40bc
0.073896706 0.36806202 0.011553166 0.04935804 -0.036038086 0.10546775 0.007116575 -0.0072101015
-0.025892869 -0.11740158 -0.15125605 -0.1447587 0.0055734157 0.13645017 -0.013500666 0.13046376
0.042218763 -0.098648034 -0.040082842 0.01473546 -0.045088213 0.027851205 -0.065557696 -0.04206925
-0.03675081 0.017125703 0.05239525 0.046980545 0.08904168 -0.04722723 0.053060755 0.028532226
-0.06445311 -0.13103211 0.06699402 -0.09370549 -0.0142267775 0.010195535 0.0012955194 0.04614044
0.022554465 0.023970643 0.0049171597 -0.054306556 0.03006288 0.00544948 -0.0019400044 -0.030094575
0.06284493 0.099567555 -0.0010643578 0.038375985 -0.034099333 -0.039240405 0.022665618 0.04397235
0.025619434 -0.089823395 -0.08734667 -0.0025484385 -0.12381302 0.104999326 -0.11314881 0.021422619
0.09562619 -0.14606494 -0.048320927 -0.010882208 0.14939013 0.063754626 -0.017821085 0.060904115
-0.01243786 -0.070259735 -0.08600209 -0.017702743 0.10986924 -0.1254216 0.027633179 -0.040681478
0.004205205 0.004971969 0.1335158 -0.006717179 -0.13404109 -0.06466076 -0.287926 -0.029632991
-0.019763194 -0.07620843 0.15439753 -0.05163435 0.07638472 -0.116772436 0.27599457 0.069116436
-0.010781272 0.14440957 -0.0054591047 -0.28321305 -0.050104972 0.062832505 0.039898783 0.02041471
0.025591657 0.033294477 -0.00042031996 -0.046700105 -0.12308492 0.09021356 0.07422412 0.031138971
-0.028115101 -0.07683098 0.020717585 -0.21470907 0.16904953 0.040226955 0.0535224 -0.12788332
0.052036226 -0.030999815 -0.056517612 -0.02417021 -0.1619296 0.055847425 0.037911057 0.1809392
0.045734808 -0.062712654 0.29962307 0.070311025 -0.0014804677 -0.024632834 -0.2112423 -0.029633543
0.023040108 0.028535228 -0.32442608 0.011511034 0.040805474 0.45415398 0.05724263 0.01872522
0.027412066 -0.17758611 -0.042141795 -0.016254935 0.019785361 0.012987952 -0.008794422 0.09484431
-0.061675444 0.051513802 0.02609877 -0.18905477 -0.11909552 0.044575408 0.10944389 0.11359141
-0.011172792 -0.03875827 0.037195597 0.060138185 0.02736971 -0.100280955 -0.10227189 0.08236478
-0.02800742 -0.06563059 -0.040489405 0.0040860795 -0.004410602 -0.10886633 0.07066883 -0.059681613
0.0042687515 -0.040673617 -0.29905626 0.082258895 0.06593013 0.00721653 0.03361496 -0.012720405
-0.029514996 0.06352444 0.07558348 0.020253435 -0.29563794 0.095824 0.0141884 0.07559287
-0.06656818 -0.01425922 0.01590256 0.12681358 -0.06432779 -0.013664417 -0.10100721 0.05133672
0.09931875 0.006578554 0.04962217 0.03693639 -0.021091817 0.13881123 0.08416923 -0.088115096
0.14600235 0.022017973 0.04644099 0.12816392 0.015031956 -0.15749653 0.10827496 0.17765427
-0.18942143 0.005969205 0.009028221 -0.042634044 0.0067402166 0.032441415 0.01884006 0.018288981
-0.13061726 0.03713492 -0.0039996575 -0.031885777 -0.09672473 -0.03306169 -0.0807164 -0.08915791
0.15825048 -0.016621845 0.02431415 -0.025470117 -0.013171698 0.056535505 0.0373626 -0.05911304
0.068585366 -0.0028777164 -0.042895354 0.023661338 -0.005977904 0.030010529 0.11603768 0.048124023
-0.04805137 -0.04387409 0.04558696 0.068520606 -0.01393556 -0.0027499532 -0.1911639 -0.011764791

fc2.bias f4 [128]
00000000: 632a 49bd d24d 113d dc08 64bb 5eb7 853d
00000010: 56cb a0bb f5ec 4d3d c03e 943c 8ccd 783b
00000020: 8005 e53d 331f 17bb d25a a73b 5f01 22bd
00000030: f3f2 3abd 8c57 d7bc 1622 d83d bef7 57ba
00000040: 2e3b 273d b4e4 06bd 2ccb 4dbd b8d6 ae3c
00000050: 2583 553d 4cde 3ebd 1210 09bd 1e76 8a3d
00000060: dd84 3ebd e467 b53b cf44 a33c e27c 873c
00000070: cd1b 4a3a 8c25 69bd 905a 36bd b0b7 0c3e
00000080: b0ec 043d 5ae1 2ebd c9ac 843d c0b2 64bb
00000090: 9c8e 60bd fc27 eabc 33fd e9bc c97b 4f3c
000000a0: 071e 653d e45d fa3c f00a 45bd d68c d0bb
000000b0: 197c 183c be7c bcba 5ea7 ab3c 91b0 253d
000000c0: 7837 53bd 0b09 83bd e6cb c73d c85b 823d
000000d0: fae1 a2bc 3427 923c b9d4 463c e91d c23d
000000e0: 7e2e 203d 3054 5ebd 671f 6dbd 0bed 893c
000000f0: 1d3d 3cbd ffdc f139 2f48 28bb 7126 663c
00000100: 96fa 403b c4c4 fabc 183c 4cbc 8e18 4ebd
00000110: 50c9 f5bc bd0f 0abd c003 6b3c 3867 14bd
00000120: e8c3 0c3d d22b d63d 74cc 2fbd 2313 79bc
00000130: 6329 da3c 2c7a 0dbb 7643 4abd b480 02bd
00000140: 6643 5fbd 597a 613d a9f4 0f3d fd6b df3c
00000150: b536 35ba 2c1f b63d 3f63 773c 2aee a33c
00000160: 34b0 513d 0eae 903d 01c8 27bd c92b 0d3d
00000170: ff06 43bd 75d9 38bd 3a1c 713d e2bb 9f3a
00000180: 367e 733d acb3 e83a 2e46 883d 9fd8 d9bb
00000190: a458 113d be53 1d3c 5cab 63bd 17ee 85bd
000001a0: 5dd4 28bd 7db9 2ebd a27d c8bc 8235 52bd
000001b0: 920a 40bd cbf3 1dbd de17 413d 47c0 69bd
000001c0: f8db d7bb 79f5 663d b55f 2dbd 482d 113d
000001d0: 7a65 febc f142 3abd 8977 523c de0d 68bd
000001e0: cbfe 063e 2cc5 67bd 30c4 95bb c00a ebbc
000001f0: c11c fabc 0f96 853c aec8 dabc 6a10 813d
-0.04911269 0.035474606 -0.003479532 0.06529115 -0.004907052 0.050274808 0.018096328 0.0037964312
0.1118269 -0.0023059368 0.005107262 -0.03955209 -0.04564185 -0.026286863 0.105533764 -0.00082385156
0.040827923 -0.032932952 -0.050242588 0.02134262 0.052127022 -0.046598718 -0.03346259 0.0676081
-0.046513427 0.0055360664 0.019930271 0.016539041 0.0007709831 -0.056920573 -0.04451996 0.13741946
0.032452285 -0.04269538 0.06478269 -0.0034896582 -0.054823503 -0.02858352 -0.028563118 0.01266379
0.05593684 0.030562349 -0.048106134 -0.006364445 0.009306931 -0.0014380438 0.02095383 0.04045159
-0.05156657 -0.06398209 0.097556874 0.06365162 -0.019883145 0.01784096 0.012135678 0.09478361
0.03910684 -0.054279506 -0.057891276 0.016836664 -0.04595672 0.00046131757 -0.002567779 0.014047251
0.0029446236 -0.030611403 -0.012465499 -0.050316386 -0.03000322 -0.033706415 0.014344156 -0.03623125
0.03436652 0.10457577 -0.04291959 -0.015202316 0.026631063 -0.0021587713 -0.049380742 -0.031861022
-0.054507636 0.05504832 0.035145435 0.027273173 -0.0006912754 0.08892664 0.015099346 0.020011026
0.05119343 0.07064448 -0.040962223 0.034465585 -0.047614094 -0.04512926 0.05886481 0.0012186731
0.059446536 0.0017753742 0.06654011 -0.0066481377 0.035484925 0.009602485 -0.055583343 -0.06539553
-0.04121815 -0.042657364 -0.024473969 -0.05132056 -0.04688508 -0.038562577 0.047141902 -0.057068136
-0.0065875016 0.056386445 -0.0423276 0.035443574 -0.031054247 -0.045473997 0.012845882 -0.05665385
0.13183133 -0.056584522 -0.0045705065 -0.02869165 -0.030531289 0.016306905 -0.02670702 0.06301959

ln2.alpha f4 [128]
00000000: 0000 803f 0000 803f 0000 803f 0000 803f
00000010: 0000 803f 0000 803f 0000 803f 0000 803f
00000020: 0000 803f 0000 803f 0000 803f 0000 803f
00000030: 0000 803f 0000 803f 0000 803f 0000 803f
00000040: 0000 803f 0000 803f 0000 803f 0000 803f
00000050: 0000 803f 0000 803f 0000 803f 0000 803f
00000060: 0000 803f 0000 803f 0000 803f 0000 803f
00000070: 0000 803f 0000 803f 0000 803f 0000 803f
00000080: 0000 803f 0000 803f 0000 803f 0000 803f
00000090: 0000 803f 0000 803f 0000 803f 0000 803f
000000a0: 0000 803f 0000 803f 0000 803f 0000 803f
000000b0: 0000 803f 0000 803f 0000 803f 0000 803f
000000c0: 0000 803f 0000 803f 0000 803f 0000 803f
000000d0: 0000 803f 0000 803f 0000 803f 0000 803f
000000e0: 0000 803f 0000 803f 0000 803f 0000 803f
000000f0: 0000 803f 0000 803f 0000 803f 0000 803f
00000100: 0000 803f 0000 803f 0000 803f 0000 803f
00000110: 0000 803f 0000 803f 0000 803f 0000 803f
00000120: 0000 803f 0000 803f 0000 803f 0000 803f
00000130: 0000 803f 0000 803f 0000 803f 0000 803f
00000140: 0000 803f 0000 803f 0000 803f 0000 803f
00000150: 0000 803f 0000 803f 0000 803f 0000 803f
00000160: 0000 803f 0000 803f 0000 803f 0000 803f
00000170: 0000 803f 0000 803f 0000 803f 0000 803f
00000180: 0000 803f 0000 803f 0000 803f 0000 803f
00000190: 0000 803f 0000 803f 0000 803f 0000 803f
000001a0: 0000 803f 0000 803f 0000 803f 0000 803f
000001b0: 0000 803f 0000 803f 0000 803f 0000 803f
000001c0: 0000 803f 0000 803f 0000 803f 0000 803f
000001d0: 0000 803f 0000 803f 0000 803f 0000 803f
000001e0: 0000 803f 0000 803f 0000 803f 0000 803f
000001f0: 0000 803f 0000 803f 0000 803f 0000 803f
1.0 1.0 1.0 1.0 1.0 1.0 1.0 1.0
1.0 1.0 1.0 1.0 1.0 1.0 1.0 1.0
1.0 1.0 1.0 1.0 1.0 1.0 1.0 1.0
1.0 1.0 1.0 1.0 1.0 1.0 1.0 1.0
1.0 1.0 1.0 1.0 1.0 1.0 1.0 1.0
1.0 1.0 1.0 1.0 1.0 1.0 1.0 1.0
1.0 1.0 1.0 1.0 1.0 1.0 1.0 1.0
1.0 1.0 1.0 1.0 1.0 1.0 1.0 1.0
1.0 1.0 1.0 1.0 1.0 1.0 1.0 1.0
1.0 1.0 1.0 1.0 1.0 1.0 1.0 1.0
1.0 1.0 1.0 1.0 1.0 1.0 1.0 1.0
1.0 1.0 1.0 1.0 1.0 1.0 1.0 1.0
1.0 1.0 1.0 1.0 1.0 1.0 1.0 1.0
1.0 1.0 1.0 1.0 1.0 1.0 1.0 1.0
1.0 1.0 1.0 1.0 1.0 1.0 1.0 1.0
1.0 1.0 1.0 1.0 1.0 1.0 1.0 1.0

ln2.bias f4 [128]
00000000: 0000 0000 0000 0000 0000 0000 0000 0000
00000010: 0000 0000 0000 0000 0000 0000 0000 0000
00000020: 0000 0000 0000 0000 0000 0000 0000 0000
00000030: 0000 0000 0000 0000 0000 0000 0000 0000
00000040: 0000 0000 0000 0000 0000 0000 0000 0000
00000050: 0000 0000 0000 0000 0000 0000 0000 0000
00000060: 0000 0000 0000 0000 0000 0000 0000 0000
00000070: 0000 0000 0000 0000 0000 0000 0000 0000
00000080: 0000 0000 0000 0000 0000 0000 0000 0000
00000090: 0000 0000 0000 0000 0000 0000 0000 0000
000000a0: 0000 0000 0000 0000 0000 0000 0000 0000
000000b0: 0000 0000 0000 0000 0000 0000 0000 0000
000000c0: 0000 0000 0000 0000 0000 0000 0000 0000
000000d0: 0000 0000 0000 0000 0000 0000 0000 0000
000000e0: 0000 0000 0000 0000 0000 0000 0000 0000
000000f0: 0000 0000 0000 0000 0000 0000 0000 0000
00000100: 0000 0000 0000 0000 0000 0000 0000 0000
00000110: 0000 0000 0000 0000 0000 0000 0000 0000
00000120: 0000 0000 0000 0000 0000 0000 0000 0000
00000130: 0000 0000 0000 0000 0000 0000 0000 0000
00000140: 0000 0000 0000 0000 0000 0000 0000 0000
00000150: 0000 0000 0000 0000 0000 0000 0000 0000
00000160: 0000 0000 0000 0000 0000 0000 0000 0000
00000170: 0000 0000 0000 0000 0000 0000 0000 0000
00000180: 0000 0000 0000 0000 0000 0000 0000 0000
00000190: 0000 0000 0000 0000 0000 0000 0000 0000
000001a0: 0000 0000 0000 0000 0000 0000 0000 0000
000001b0: 0000 0000 0000 0000 0000 0000 0000 0000
000001c0: 0000 0000 0000 0000 0000 0000 0000 0000
000001d0: 0000 0000 0000 0000 0000 0000 0000 0000
000001e0: 0000 0000 0000 0000 0000 0000 0000 0000
000001f0: 0000 0000 0000 0000 0000 0000 0000 0000
0.0 0.0 0.0 0.0 0.0 0.0 0.0 0.0
0.0 0.0 0.0 0.0 0.0 0.0 0.0 0.0
0.0 0.0 0.0 0.0 0.0 0.0 0.0 0.0
0.0 0.0 0.0 0.0 0.0 0.0 0.0 0.0
0.0 0.0 0.0 0.0 0.0 0.0 0.0 0.0
0.0 0.0 0.0 0.0 0.0 0.0 0.0 0.0
0.0 0.0 0.0 0.0 0.0 0.0 0.0 0.0
0.0 0.0 0.0 0.0 0.0 0.0 0.0 0.0
0.0 0.0 0.0 0.0 0.0 0.0 0.0 0.0
0.0 0.0 0.0 0.0 0.0 0.0 0.0 0.0
0.0 0.0 0.0 0.0 0.0 0.0 0.0 0.0
0.0 0.0 0.0 0.0 0.0 0.0 0.0 0.0
0.0 0.0 0.0 0.0 0.0 0.0 0.0 0.0
0.0 0.0 0.0 0.0 0.0 0.0 0.0 0.0
0.0 0.0 0.0 0.0 0.0 0.0 0.0 0.0
0.0 0.0 0.0 0.0 0.0 0.0 0.0 0.0

discrete_action.weight f4 [2, 128]
00000000: 8626 11bf c306 bb3c 727c d4be 0e9e cbbe
00000010: 6ba1 c1be 7fd7 baba ec5d f83a 6583 26bf
00000020: 5abf 443f 9717 e3ba 5f22 3d3c 74b8 913c
00000030: d399 3dbf c837 8d3c bf35 153f 7699 713a
00000040: a7ea 87bb 62b8 20bc 2d0a f1be 8ca3 003d
00000050: 5ef0 cbbb ccba 22bf 1591 773e 96e4 473f
00000060: e8e7 0bbc 05ce dcba d1e3 363f 5daf 7d3b
00000070: f43f dbbd 5fd3 31bf ac14 e1be 7b9e 313f
00000080: 7ca7 62bb 138c 7cba e85e e73e 7ca0 9ebe
00000090: aabf 1dbf 478e 5039 b523 3bbf 9fcd 29bb
000000a0: 29af 7aba 00e4 b4b7 4106 ac39 b954 33bc
000000b0: b86a fc3e b5ff 663a 12c2 1bbf 9193 21bf
000000c0: 3761 f9be 0cfc 1ebf 6303 2b3f cd40 383f
000000d0: e615 1cbf c8bb a5be fe15 c13e db31 343f
000000e0: 6c41 74bd b486 14bf 14af 583a edcc b63a
000000f0: 12ad 2d3e 8063 2339 b356 8f3e ce52 c23c
00000100: b93c 233f bb31 43bb 099d f0b9 fb6c 1abf
00000110: aa0a 3fba 1905 ddbe 3c67 9639 4842 bdbe
00000120: b11c f1be 7100 163f c0ce a438 8bb4 3dbf
00000130: 09dc f2be a2ec 29bf da75 133c 2f4c 41ba
00000140: 3be0 20b9 9b32 8cbe 0bbe 36bf e20e 31bf
00000150: 7b19 f8be 2aaf 8b3e aab4 07bf c6f0 f6bd
00000160: 751e efbe 75fb f3bd f270 c6ba 44cc bebe
00000170: f2f8 2f3a 87ef 4abe edc3 c7be 4534 a738
00000180: cec0 6dbc f23f 0ebf bd72 89be 7066 03bf
00000190: 4725 e43b e3be 21bf 5578 c4be d735 2abf
000001a0: 76e4 c93b 897b e7be 8827 ed39 bc3d 2abf
000001b0: 6c2f 70b9 402d 41bc 7a11 03bf 8021 fc38
000001c0: ea3f d5b9 bccd e3be 6698 b7be 0aa2 013f
000001d0: 31a3 56bb dbb8 0a3b 78bb 11bd 3ca1 76ba
000001e0: 2316 263f c26c 1b3c 8f0c bcbe 858d 10bf
000001f0: 2026 18ba da26 17bf 87ce 27bf 7e18 4a3f
00000200: 8234 113f cdc5 babc 476c d43e 41f3 cb3e
00000210: bf75 c13e 2733 b73a c382 8dba 3b85 263f
00000220: 0e84 44bf 9622 9e39 3770 3abc c517 8fbc
00000230: 30c0 3d3f 2bb8 97bc 5825 15bf 1f26 a4ba
00000240: 13f2 363b 6843 213c 3908 f13e e2db 03bd
00000250: 185f cb3b b6da 223f 590d 78be 6821 48bf
00000260: dddf 153c 360f 833a 4f3d 37bf c0b9 a5bb
00000270: 4f71 dc3d 5df8 313f 50c6 e03e 99b2 31bf
00000280: 9f45 2a3b be62 153b 5402 e7be 282c 9e3e
00000290: 0483 1d3f a038 eb39 d779 3b3f 9d7a 2e3b
000002a0: 00c0 1136 80ac 73b7 d4e0 62ba 5369 2f3c
000002b0: e0ca fbbe 7c14 3ab9 30ea 1b3f 59e4 213f
000002c0: 5ddc f83e 6a39 1f3f a0ae 2abf 74eb 37bf
000002d0: 7ef6 1b3f 867b a53e 37bf c1be 6539 34bf
000002e0: 7a49 6d3d 626a 143f d63c 63ba 8c62 c2ba
000002f0: 582d 2dbe ff68 4a38 729e 8ebe 86e0 c2bc
00000300: eb55 23bf 8adb 8a3b 6324 71ba 3d30 1a3f
00000310: ff90 ed39 3b1f dd3e a8c2 4739 3af0 bd3e
00000320: af05 f13e 476b 16bf 962a 163a 8b6e 3d3f
00000330: 47da f23e ea1c 2a3f 5a8d 12bc ea9b 5e3a
00000340: 90bc beb9 2251 8c3e 9501 373f b455 313f
00000350: 19c2 f73e 7734 8cbe 0e9c 073f fab0 f83d
00000360: eb66 ef3e 68c0 f53d 7ca4 803a f2b8 bf3e
00000370: ecc5 34b9 05cb 4b3e 0b56 c73e e111 9cb9
00000380: dbd5 723c 027b 0e3f 8d5c 893e 796c 033f
00000390: a90f edbb 6202 223f a573 c43e 4333 2a3f
000003a0: 2acf 00bc 17ca e73e 417c 723a eb62 2a3f
000003b0: 1e05 413a 7ee6 533c 5a81 033f f6fe 643a
000003c0: 23b1 c23a 933d e43e fc06 b83e 24dd 01bf
000003d0: 4c9d 333b c611 15bb c6a8 123d 936d a73a
000003e0: c3bc 25bf 46da 1fbc ec67 bc3e fd74 103f
000003f0: 409b e3b9 e0da 163f e29c 273f 27fb 49bf
-0.5669941 0.022830373 -0.41501194 -0.39769024 -0.37818465 -0.0014254897 0.0018948889 -0.6504424
0.7685448 -0.0017325756 0.011543839 0.01778815 -0.7406284 0.017238513 0.58285135 0.0009216288
-0.004147846 -0.009809585 -0.47078076 0.03140597 -0.0062237224 -0.6356628 0.24176438 0.7808317
-0.0085391775 -0.0016846067 0.7144137 0.003870926 -0.107055575 -0.6946315 -0.43961084 0.69382447
-0.0034584692 -0.000963391 0.45189595 -0.30981815 -0.6162058 0.00019889428 -0.7310136 -0.0025909913
-0.0009562844 -2.1563843e-05 0.00032811056 -0.010945492 0.4930017 0.0008811907 -0.60843 -0.63115793
-0.48706982 -0.62103343 0.6680204 0.7197388 -0.60970914 -0.32369828 0.3771209 0.70388573
-0.059632704 -0.5801804 0.0008265835 0.0013946571 0.16960552 0.00015581958 0.27995834 0.023721125
0.6376453 -0.002978428 -0.00045893367 -0.6032254 -0.0007287661 -0.43167952 0.00028687145 -0.3696463
-0.47092202 0.58594424 7.8586396e-05 -0.7410361 -0.47433499 -0.663767 0.009000266 -0.0007373718
-0.00015342321 -0.2738236 -0.7138373 -0.69163334 -0.4845694 0.27282077 -0.53010046 -0.12057643
-0.46702924 -0.11913196 -0.0015139861 -0.37265217 0.0006712816 -0.19817935 -0.39016667 7.9729165e-05
-0.0145113 -0.5556632 -0.2684535 -0.5132818 0.0069624516 -0.63181895 -0.38373056 -0.66488403
0.006161268 -0.45211437 0.00045233616 -0.6650045 -0.0002290585 -0.011790574 -0.5119854 0.00012022536
-0.00040674146 -0.444929 -0.35858458 0.50637877 -0.0032751078 0.0021167311 -0.035579175 -0.0009408181
0.6487753 0.009486379 -0.3672833 -0.5646594 -0.0005804021 -0.5904366 -0.6554951 0.7894362
0.56720746 -0.022799397 0.4148886 0.39834026 0.37785146 0.0013977037 -0.0010796416 0.65047044
-0.76764 0.00030161877 -0.011379293 -0.017467389 0.7412138 -0.018520435 -0.5826011 -0.0012523568
0.0027915284 0.009842731 0.47076586 -0.03219212 0.0062064044 0.63614976 -0.24223842 -0.78175974
0.009147611 0.000999904 -0.71577924 -0.0050575435 0.107637994 0.695196 0.439013 -0.69413143
0.0025981439 0.002279445 -0.45118964 0.30893064 0.6152804 0.00044864882 0.7323279 0.0026623376
2.1718442e-06 -1.4524092e-05 -0.0008654718 0.010706264 -0.4917822 -0.00017745973 0.60904217 0.63239056
0.48605624 0.6219698 -0.66672707 -0.7184365 0.6092299 0.32320803 -0.37841198 -0.7040008
0.0579314 0.5797483 -0.0008668428 -0.0014830395 -0.16911829 4.825834e-05 -0.2785526 -0.023788702
-0.63802975 0.004237597 -0.00091988425 0.60229856 0.00045312193 0.4318789 0.00019050634 0.3709734
0.4707465 -0.5875744 0.00057283917 0.739968 0.47432157 0.6645037 -0.008944834 0.0008491861
-0.00036380114 0.2740565 0.7148679 0.692714 0.48390272 -0.27383777 0.52972496 0.121431306
0.46758208 0.11999589 0.0009814645 0.3744579 -0.0001723987 0.19901665 0.38932833 -0.0002976796
0.014821495 0.55656445 0.26828423 0.5133739 -0.007234533 0.63284886 0.3836948 0.6648447
-0.007861892 0.4527137 0.00092500827 0.66557187 0.0007363128 0.012933372 0.5136925 0.0008735502
0.0014853816 0.44578227 0.3594283 -0.5072806 0.0027406989 -0.002274619 0.035805486 0.0012773745
-0.6474115 -0.00975663 0.36798036 0.5642851 -0.00043412484 0.58927727 0.6547376 -0.78898853

discrete_action.bias f4 [2]
00000000: e565 193d a286 18bd
0.03745069 -0.03723777

continue_action1.weight f4 [6, 128]
00000000: 75d8 af3c 36b9 adbd 7638 9f3c f5d7 c4bd
00000010: d78d debb d307 b93c 6376 743d 14a6 77bc
00000020: 2d91 be3b 10b9 8d3d 5357 2d3d 22b6 9b3d
00000030: 90db 70bd 5e7e f23c 3c58 373d 396a 6ebd
00000040: 9f5a c03d f362 0bbd 0854 033d ec4a 523d
00000050: 2f93 72bd 2294 733d 2a61 553d 6f27 aabd
00000060: 42a3 94bd 2e61 743d ed5f d23c aaf6 e73c
00000070: e651 8bbc fc1e 453d 77c5 98bd b541 08bd
00000080: 85f7 8dbd 87b5 5c3c 47e8 933d 16b4 a5bd
00000090: 8758 2fbc bd21 743d 294e 88bc 8c9c 87bc
000000a0: 9e92 043d a1ea 44bd f3ef c73c 40ea 423d
000000b0: 22e4 8abd 0054 1739 beec 4d3d 568f 63bc
000000c0: 5219 0a3c 646a cb3c b852 e4bd 4687 e23b
000000d0: f587 9e3d 0ddd bb3c fdd7 183d 1976 463d
000000e0: 5cf7 f8bb 71f9 0cbd 4152 a23d eee9 583d
000000f0: 8c1e b93d 0010 8239 8d7d ef3d 07a5 60bd
00000100: 4af2 aabd 55d7 88bd e857 abbc 39af a33d
00000110: d236 793d 601e 833b d1cb 87bd 489c 89bc
00000120: bd48 1a3d ddeb 2d3b 806b 88bd f9cb cabb
00000130: eea2 a53c 2204 9cbd 5579 933d 92af 2b3d
00000140: fabe 3b3d 66c5 a73d 6a52 72bd 55b6 363d
00000150: 721a a7bd 25af 78bc 0cef 82bd 9f41 803d
00000160: 9aa8 9d3d 5437 0cbd 7fa9 863d f0c0 c63d
00000170: e0ff a9bb 4c29 c1bd 3710 2a3c a5e8 9cbd
00000180: ccdc e43d 77be 23bc 9d4f f9bc aa4d afbd
00000190: 1ff1 abbb 4db0 983d 9236 753d 0a9f 6cbd
000001a0: 8da9 583c f304 bf3d c6cf 023d ea27 8c3c
000001b0: e24e 653d f871 e2bc 0496 b7bd 7f09 813d
000001c0: 57e9 323d c0ff 5ebd 0a17 973d b88c 76bd
000001d0: a8c9 dfba 4421 3fbd 6c3a 9cbd ed80 cebc
000001e0: a502 483d 2433 91bd 8906 473b 00f7 a83d
000001f0: e4e2 1e3d eadb 493d d89e 12bd 7e67 5c3d
00000200: 2ca1 233d 36ba 8ebd 6931 953d 9bf2 85bd
00000210: 08b5 793d 9949 98bb 3060 7bbd bcd5 7fbd
00000220: 5a6c 95bd 4aef a43d c569 1cbd 70d4 79bd
00000230: f2ba 85bd 4269 d33a fc64 433d 6dec 58bd
00000240: 4011 92bd c6ef eb3c 0f3e 093d 420f 973d
00000250: 90d1 ae3d cba8 a13d 6c40 b63d 3ecf a3bd
00000260: de18 8f3b bdf3 8abd b70b 943c 0932 8dbd
00000270: 9b79 c8bd f0fc bbbd 55d7 aabc d2b0 003c
00000280: 60dc 303d d898 24bc d367 563d 0875 05bd
00000290: 1026 a4bd 6896 5b3c ac2a 8cbd 2c80 613d
000002a0: 68e8 17bd b036 433c a079 3f3d 2956 21bb
000002b0: 0c39 dfbc b57e 9bbd f8e6 48bd 4198 cc3c
000002c0: 42ad 23bd b450 07bc 8890 07bd 7a1c 063d
000002d0: e9e5 afbd 8485 9dbd b555 e03d 1f6e 333d
000002e0: 8e19 25bd 7e43 953d 00a4 9d3a 82cc 283d
000002f0: d272 59bd f6d9 773d 6195 41bd 4aa5 3c3d
00000300: 60ab 943b dd71 ca3c 4536 b2bd 8c59 5dbd
00000310: 1042 ea3b 7d61 b23d 5e51 27bd 7593 d13b
00000320: 660e 973d 2601 adbd d06c 10bd f16c f7bc
00000330: 5b31 b2bd 6405 9b3d 6052 a93d f1b2 963d
00000340: a4d6 90bd 41e5 423d 08c6 c43c f1fb d83c
00000350: 006c 92bd ddc3 4b3d 6f7a 413a 3455 8a3d
00000360: 540e 3b3d a0ab 6f3d 47b7 a93d 017d ea3d
00000370: 9431 113d b8bb b9bc 8e9b 85bc 3fbf e33c
00000380: d7e1 013d 7bb3 113a 87b0 053d 2ca9 113d
00000390: 0dfd ffba f56d d4bb 6796 a93d 8766 a93c
000003a0: d1d2 9a3d 2e0b 9f3d 9e47 283c d657 a2bc
000003b0: 1ef2 37bd 2029 6abd 47a8 913d e633 babc
000003c0: 6491 3b3d 1e3e 9dbd 1d4f fc3a e531 0fbd
000003d0: db5b 7b3c d736 fc3c cecc 183d 7dc1 9b3d
000003e0: cd6f d0bc bba9 b6bd e4a3 61bc d384 93bd
000003f0: 2c6a 9c3c 024e 943c 32ef 52bc 92ea a3bc
0.02146552 -0.08482592 0.019436102 -0.09611503 -0.006791811 0.022586739 0.059683215 -0.01511528
0.005815646 0.069200635 0.042319607 0.076030985 -0.05880314 0.029601272 0.04476188 -0.05820677
0.093922846 -0.034029912 0.03206256 0.051340982 -0.059222396 0.059467442 0.052094616 -0.083083026
-0.072577015 0.05966299 0.025680507 0.02831586 -0.017006826 0.048125252 -0.074595384 -0.033265788
-0.06931976 0.013471014 0.07222038 -0.08090989 -0.010702259 0.059602488 -0.016638832 -0.01655414
0.032366388 -0.048075322 0.024406409 0.04758668 -0.06781794 0.00014431775 0.050274603 -0.013889154
0.008428888 0.024831004 -0.1114859 0.0069130985 0.077407755 0.022932554 0.037315357 0.04845247
-0.007597847 -0.034417573 0.07925845 0.052957468 0.090390295 0.00024807453 0.11693869 -0.054844882
-0.08346994 -0.06681696 -0.02091594 0.079924054 0.060843296 0.0040014237 -0.06630672 -0.016798154
0.037667025 0.002653829 -0.06661129 -0.006188866 0.020219292 -0.07617976 0.072008766 0.041915484
0.045836426 0.08191948 -0.059160627 0.04460748 -0.08159341 -0.015178476 -0.06393251 0.06262516
0.07698174 -0.034232453 0.065752976 0.09704769 -0.0051879734 -0.09431705 0.0103798425 -0.07661561
0.11174926 -0.009994141 -0.03043347 -0.08559735 -0.0052472497 0.07455502 0.059866495 -0.05776886
0.013224018 0.09327116 0.03193643 0.017108876 0.05598343 -0.027642235 -0.0896416 0.06300639
0.04367956 -0.05444312 0.07377441 -0.060192794 -0.0017073648 -0.046662584 -0.076283306 -0.025207961
0.048830647 -0.070898324 0.0030368885 0.082502365 0.0387906 0.049281992 -0.035796016 0.053809635
0.039948627 -0.06969111 0.07284815 -0.06540414 0.06096366 -0.0046474454 -0.06137103 -0.062459692
-0.07296057 0.08053453 -0.038186807 -0.06099361 -0.065297976 0.0016129392 0.047703728 -0.05295985
-0.071321964 0.028800856 0.03350645 0.07375957 0.085360646 0.07893523 0.08899006 -0.07998513
0.004366978 -0.06784771 0.018071992 -0.06894309 -0.097888194 -0.091791034 -0.020854631 0.007854657
0.043178916 -0.010046206 0.05234511 -0.032582313 -0.08015072 0.013402559 -0.068440765 0.055053875
-0.037086874 0.011914894 0.04674685 -0.0024618006 -0.027248882 -0.07592527 -0.049048394 0.024974944
-0.039960153 -0.008258987 -0.03309682 0.032742 -0.08588774 -0.07691482 0.10953847 0.04380619
-0.040307574 0.07288264 0.0012027025 0.04121066 -0.053088017 0.060510598 -0.0472616 0.04605607
0.004537031 0.024712497 -0.08701757 -0.054040477 0.0071489885 0.08710001 -0.040849082 0.006395752
0.07375793 -0.08447485 -0.03526002 -0.030203314 -0.0870082 0.075693876 0.08267665 0.07358349
-0.070721895 0.047581915 0.02402021 0.026487323 -0.071495056 0.049747337 0.000738061 0.067545325
0.04566796 0.058513284 0.082869105 0.11449624 0.035447672 -0.02267252 -0.016309526 0.027801154
0.03170952 0.0005558056 0.032639053 0.035561725 -0.0019530371 -0.0064828345 0.0828064 0.020678772
0.07559741 0.07765804 0.010270981 -0.019817274 -0.044908635 -0.057168126 0.071121745 -0.022729825
0.045792952 -0.076778635 0.0019249652 -0.034959693 0.015341724 0.030787868 0.037304692 0.07605264
-0.025443936 -0.08919092 -0.013771985 -0.072030686 0.019093595 0.018103603 -0.012874411 -0.020009313

continue_action1.bias f4 [6]
00000000: 13d5 c83c 6d0d 3c3d f266 8d3d ce6d f8bb
00000010: a92f 1e3d 0214 2fbd
0.024515664 0.04591124 0.06904401 -0.007581449 0.03861967 -0.04274369
