s10lre4e3CCM_MADRL_MEC/model/CCM_MADRL/8-critics.pth (torch, 657575 bytes, 5 tensors)

fc1.weight f4 [256, 510]
-0.025134638 -0.017127292 -0.033108275 -0.034544375 -0.0040376065 0.017135095 0.01928503 -0.027330706
-0.030977497 -0.010621671 -0.027255876 -0.03938698 0.03719592 -0.012337748 -0.043048747 0.022238852
0.015334775 0.0065995534 -0.031774137 -0.0061963713 -0.012083822 -0.04392252 0.002968496 0.027409833
0.011900329 -0.0073545743 -0.014770903 -0.017857872 -0.017197073 -0.046631474 -0.043798126 0.020558847
-0.044754185 0.0014872671 0.03274393 -0.016698232 0.0063421284 -0.007321706 0.029005777 -0.013004067
0.029614933 0.011479753 0.0103 0.009368689 0.03608075 0.030205885 -0.0044765887 0.033296417
-0.047733568 0.013706904 -0.030509235 0.0027625912 0.001969824 -0.021732964 -0.009906648 -0.026346345
0.022076279 0.007944933 -0.022032924 0.0035462342 0.025086587 -0.03932728 -0.006327559 -0.03142221
0.03389527 -0.032160066 -0.004150876 0.02648551 0.029172082 0.021273762 -0.04306905 -0.037070557
-0.020559456 -0.023510182 0.034076802 0.009121319 -0.0032067483 -0.04793338 0.013413068 -0.024020007
-0.009193963 0.0020029168 -0.03983023 -0.031383142 -0.039890707 0.034858342 -0.043629967 0.019099656
-0.008368294 -0.01768534 -0.02802252 0.021856774 0.03336137 -0.045709297 -0.04257037 -0.015305415
0.022074137 -0.011666607 -0.017662771 0.021558004 0.02845326 0.014624105 -0.030430686 -0.00756275
-0.049274113 -0.012041261 0.0084720645 -0.022409914 -0.018873898 -0.031174386 -0.019420436 -0.03383268
0.0057387585 0.025110984 0.03035797 -0.03259776 0.012447834 0.0066881846 -0.009453941 0.009638089
0.016172597 -0.005857701 0.0112624755 0.02110156 -0.03421183 0.026329055 -0.026908137 0.00086525537
-0.014052323 -0.03944946 0.0006996682 0.034920484 0.02593676 -0.04884372 -0.027693303 -0.034449123
0.026518662 0.011664591 -0.0128894625 -0.030588485 -0.017622052 0.0012531105 0.010019829 0.004354701
-0.04535687 0.027043171 -0.021654988 -0.03972793 -0.041568294 -0.027817585 0.00503311 0.0067670494
-0.04351746 -0.038041934 -0.024333745 0.022848492 -0.018217353 -0.028697694 0.0035056646 -0.049176294
0.031373568 0.035743553 -0.024656048 -0.029724786 0.03170415 -0.0427583 0.03451081 0.014240541
-0.024677604 -0.012538106 0.03436057 -0.005676528 0.0049101217 0.0031909803 -0.00860963 0.028825834
0.037095778 -0.018418038 0.02278067 -0.0053595733 -0.007083745 0.02083516 0.024893342 -0.014901277
-0.026631027 -0.034542616 0.0321162 -0.02807233 -0.021764547 -0.017335849 -0.0013460912 -0.026953692
-0.038435936 -0.022797229 -0.03326395 0.009801002 -0.01929849 0.0027120952 0.0016390723 0.007139517
-0.022251246 0.015793024 0.0052219857 0.020473711 0.036412317 0.011396758 -0.010389013 0.005204115
-0.010672413 0.00845213 -0.04113499 0.03329449 -0.03466737 -0.0049648955 0.016933491 -0.031601854
0.0059557264 0.029232457 -0.020393977 -0.027232645 0.014810631 -0.0071396837 0.034198914 -0.026929256
-0.046141565 -0.034202944 0.019299196 0.00874661 0.018807348 0.008419965 0.016939616 -0.023374569
0.018217145 -0.036376175 0.020000024 0.024917342 -0.033182535 -0.03839506 0.0143710505 -0.03661425
-0.045451496 -0.007821522 0.0370913 -0.03924209 0.01958991 -0.04508338 0.013553264 -0.01048402
-0.026913948 0.021063702 -0.0380188 0.03170846 -0.04158302 -0.005114581 0.032123413 -0.013621413
00000000: 28e7 cdbc 894e 8cbc 8b9c 07bd 677e 0dbd
00000010: e64d 84bb e65e 8c3c a4fb 9d3c a5e4 dfbc
00000020: 85c4 fdbc 8406 2ebc b747 dfbc 3e54 21bd
00000030: c05a 183d 4424 4abc e253 30bd 412e b63c
00000040: b53e 7b3c 1141 d83b 9925 02bd ee0a cbbb
00000050: 39fb 45bc 1ae8 33bd 198b 423b 968a e03c
00000060: 99f9 423c a4fe f0bb a801 72bc ac4a 92bc
00000070: e0e0 8cbc a500 3fbd aa65 33bd 076b a83c
00000080: 2a50 37bd 67f0 c23a 801e 063d bbca 88bc
00000090: a1d1 cf3b ecea efbb 869d ed3c 030f 55bc
000000a0: 049b f23c 9315 3c3c 55c1 283c 217f 193c
000000b0: 69c9 133d 5572 f73c 59b0 92bb d361 083d
000000c0: 4684 43bd ec92 603c 81ee f9bc 970c 353b
000000d0: 2a18 013b 5409 b2bc 7e4f 22bc 4ad4 d7bc
000000e0: 50d9 b43c 772b 023c 647e b4bc f067 683b
000000f0: 6382 cd3c a415 21bd 6957 cfbb 93b4 00bd
00000100: c4d5 0a3d 46ba 03bd 1204 88bb 24f8 d83c
00000110: 4afa ee3c 5046 ae3c 2c69 30bd 4cd7 17bd
00000120: 4e6c a8bc 6d98 c0bc 1e94 0b3d 9671 153c
00000130: 4f28 52bb cb55 44bd 7cc2 5b3c 9bc5 c4bc
00000140: 47a2 16bc 5e43 033b 0625 23bd 9c8b 00bd
00000150: 7064 23bd 9fc7 0e3d 56b5 32bd e276 9c3c
00000160: 2b1b 09bc d9e0 90bc 7c8f e5bc fa0c b33c
00000170: efa5 083d ac39 3bbd 455e 2ebd 90c3 7abc
00000180: d2d4 b43c 4c25 3fbc 84b1 90bc 699a b03c
00000190: d016 e93c f199 6f3c c649 f9bc f2d0 f7bb
000001a0: a7d3 49bd b648 45bc 6ace 0a3c ff94 b7bc
000001b0: 6f9d 9abc 6d61 ffbc 9b17 9fbc 2394 0abd
000001c0: 320c bc3b 8db5 cd3c 47b1 f83c 3b85 05bd
000001d0: 00f2 4b3c 8f28 db3b b4e4 1abc 13e9 1d3c
000001e0: 657c 843c f5f1 bfbb 3f86 383c 2edd ac3c
000001f0: b421 0cbd 08b0 d73c 746e dcbc 4ed2 623a
00000200: b73b 66bc c295 21bd f069 373a c808 0f3d
00000210: 5479 d43c 5a10 48bd 11dd e2bc 861a 0dbd
00000220: aa3d d93c d71c 3f3c 532e 53bc b494 fabc
00000230: 1f5c 90bc 693f a43a 352a 243c e1b1 8e3b
00000240: 20c8 39bd a489 dd3c cd65 b1bc c1b9 22bd
00000250: 8443 2abd b4e1 e3bc c9ec a43b 20be dd3b
00000260: 5d3f 32bd dcd1 1bbd 9057 c7bc c32c bb3c
00000270: 8f3c 95bc 6d17 ebbc 4bbf 653b 156d 49bd
00000280: 9281 003d d567 123d 7bfb c9bc 6581 f3bc
00000290: 36dc 013d 5423 2fbd 355b 0d3d 2851 693c
000002a0: b028 cabc a16c 4dbc abbd 0c3d 2b02 babb
000002b0: 16e5 a03b c41f 513b 680f 0dbc 2824 ec3c
000002c0: bef1 173d 6de1 96bc 879e ba3c 5c9f afbb
000002d0: c31e e8bb 7fae aa3c 1fed cb3c 7c24 74bc
000002e0: 5029 dabc 8f7c 0dbd 478c 033d f1f7 e5bc
000002f0: 904b b2bc e903 8ebc 536f b0ba fdcd dcbc
00000300: 006f 1dbd 41c1 babc c83f 08bd 6294 203c
00000310: de17 9ebc 68bd 313b 24d6 d63a 9cf2 e93b
00000320: 3f48 b6bc 5f60 813c 311d ab3b 7cb8 a73c
00000330: 1525 153d 78b9 3a3c ae36 2abc 4887 aa3b
00000340: 58db 2ebc cd7a 0a3c 2a7d 28bd ce5f 083d
00000350: 5fff 0dbd 90b0 a2bb 1bb8 8a3c f270 01bd
00000360: 4128 c33b e878 ef3c 4511 a7bc ff16 dfbc
00000370: 4aa8 723c 02f4 e9bb 2914 0c3d be9a dcbc
00000380: f0fe 3cbd 6318 0cbd 5919 9e3c f14d 0f3c
00000390: de11 9a3c e5f3 093c f3c4 8a3c 067c bfbc
000003a0: 1f3c 953c 2fff 14bd 17d7 a33c 741f cc3c
000003b0: 69ea 07bd 2344 1dbd 8e74 6b3c d3f8 15bd
000003c0: 592b 3abd d725 00bc 0ced 173d 50bc 20bd
000003d0: 057b a03c 5aa9 38bd 820e 5e3c 2bc5 2bbc
000003e0: a47a dcbc c98d ac3c 9ab9 1bbd bbe0 013d
000003f0: f552 2abd 3798 a7bb d793 033d 592c 5fbc

fc1.bias f4 [256]
-0.003426202 -0.0053000115 0.02227343 -0.024244146 -0.02753583 0.03791205 -0.013409236 -0.03182872
0.0026169592 -0.04361973 -0.011969737 -0.017967666 -0.036602385 0.024912309 -0.025021564 0.042626638
-0.023035852 -0.046813358 0.025869768 -0.0115290275 0.027867597 0.021753477 0.010507464 0.019632783
-0.047628373 0.00451563 0.030375445 0.012528726 0.0044865636 -0.027462095 -0.04245011 0.020605884
-0.0081340335 0.027702913 0.011282279 0.030304324 0.024506785 0.006966215 -0.036780696 0.001967252
-0.019856049 0.030068379 0.006950178 0.019814666 0.025797818 -0.041277904 0.017139522 -0.04195813
-0.0047122804 -0.008273184 -0.01329626 0.012282284 0.027290178 -0.03215814 -0.03934394 -0.0058721756
-0.012304582 0.026037639 -0.0012321937 -0.0331699 -0.03930843 -0.003792665 0.016555589 -0.027765196
-0.013385495 0.042434733 0.03163495 0.011436467 -0.0345443 -0.02429255 0.0021057683 0.014671812
0.01569895 0.02808296 0.039155222 0.0019151706 -0.017074414 -0.013827103 0.039496526 8.5509484e-05
0.034848467 0.03199171 -0.04952434 0.017167356 0.022549596 0.019662037 -0.007942005 -0.0019367449
0.013427541 0.020623008 -0.0129495 0.027068397 -0.041162774 0.0071688294 -0.01187899 -0.017652338
0.028497376 0.020008886 -0.041953333 -0.017712032 0.03406075 0.025237637 -0.011625529 0.0018816112
0.020323893 -0.018810488 -0.0020298534 -0.038505662 -0.0327904 -0.0046540922 -0.04607261 0.029774763
-0.033161145 -0.009196004 0.035645764 0.0014271241 -0.016181821 -0.02515743 0.02240439 -0.01204215
-0.0050304634 -0.008825844 0.02170912 0.05194466 -0.046833996 -0.006581976 0.031215943 0.040623516
0.009956392 -0.015610872 -0.045489512 -0.0129101295 -0.04267906 -0.01970995 -0.026271006 -0.014498
0.03018317 0.00046021634 -0.035303786 0.018350039 0.011002202 -0.01244855 0.027998582 -0.027945865
0.0050195274 -0.0012056726 -0.011440811 0.036272325 0.009267779 0.027885806 -0.012365914 0.0019228084
0.029528156 -0.031501297 0.026249493 0.036768924 -0.00033936146 -0.042073965 0.021588689 -0.042935353
-0.036993667 0.017567601 -0.050339255 0.0057544396 0.021942 -0.020936688 0.011137439 -0.0025250858
0.019467114 -0.02884912 -0.013159095 0.004490085 0.0022269015 0.011518557 0.038544502 0.015070606
0.014691945 -0.034648985 0.023825994 -0.02164567 0.00045907157 -0.008503513 0.013725744 -0.037136674
-0.011586832 0.025878364 -0.022142995 0.0007037295 -0.049720746 0.012470775 -0.028007155 0.011787407
0.0020110856 0.052941766 -0.030563952 0.022704404 0.020577682 0.034421694 0.048389867 -0.0037268081
0.00010765928 0.005074761 -0.012848423 -0.015167831 -0.008515174 -0.051467065 0.021599174 -0.024235163
-0.006285395 0.0011715805 -0.030876432 0.032645553 -0.04278177 0.0071570803 0.032381985 0.04760124
0.015181848 -0.037624527 -0.029933369 0.0034099508 -0.022429833 -0.022077406 0.030042738 -0.043147344
-0.025456166 -0.018903894 0.034363363 -0.04046724 -0.0061377934 -0.03585262 -0.03455302 0.025013173
-0.004280137 -0.03626909 0.033826888 -0.01546366 -0.007970489 -0.038947072 -0.0074955956 0.045867845
0.017883368 0.029523449 -0.029830836 -0.009734036 0.028334053 0.0182995 -0.048520844 -0.022592867
0.009158898 -0.010137013 0.024469675 0.023385504 0.03809458 0.025463805 0.043645997 -0.03290577
00000000: 228a 60bb b8ab adbb c576 b63c a99b c6bc
00000010: d292 e1bc aa49 1b3d 6ab2 5bbc d55e 02bd
00000020: 4a81 2b3b 9aaa 32bd b71c 44bc ed30 93bc
00000030: 62ec 15bd e614 cc3c 06fa ccbc 4599 2e3d
00000040: afb5 bcbc 5dbf 3fbd d6ec d33c 3fe4 3cbc
00000050: 964a e43c 5934 b23c 8027 2c3c eed4 a03c
00000060: f815 43bd daf7 933b edd5 f83c 4945 4d3c
00000070: 0604 933b 30f8 e0bc 2be0 2dbd accd a83c
00000080: 9c44 05bc 38f1 e23c 4fd9 383c c640 f83c
00000090: 74c2 c83c d944 e43b 5ba7 16bd 03ed 003b
000000a0: 27a9 a2bc f651 f63c 52be e33b 5e52 a23c
000000b0: f255 d33c 0513 29bd 2f68 8c3c 4adc 2bbd
000000c0: 7969 9abb 408c 07bc 8ed8 59bc a23b 493c
000000d0: a78f df3c 41b8 03bd 1c27 21bd 616b c0bb
000000e0: 2899 49bc e34c d53c 8f81 a1ba 29dd 07bd
000000f0: e001 21bd 5c8e 78bb 969f 873c d673 e3bc
00000100: d64e 5bbc 0bd0 2d3d a693 013d 0560 3b3c
00000110: 537e 0dbd 2b01 c7bc ee00 0a3b 0a62 703c
00000120: 169b 803c 3c0e e63c 3a61 203d 7606 fb3a
00000130: a4df 8bbc 138b 62bc 1cc7 213d 8e53 b338
00000140: 44bd 0e3d bd09 033d 09da 4abd 8ea2 8c3c
00000150: eeb9 b83c 4812 a13c 2f1f 02bc 60da fdba
00000160: 30ff 5b3c 95f1 a83c 242a 54bc 8bbe dd3c
00000170: 4c9a 28bd 80e8 ea3b 18a0 42bc a39b 90bc
00000180: 5473 e93c ade9 a33c 42d7 2bbd d318 91bc
00000190: 4983 0b3d 29bf ce3c 0179 3ebc 65a0 f63a
000001a0: 4b7e a63c 7418 9abc 4a07 05bb 1db8 1dbd
000001b0: 3a4f 06bd 5b81 98bb a2b6 3cbd 34ea f33c
000001c0: fbd3 07bd d6aa 16bc 4b01 123d 570e bb3a
000001d0: bd8f 84bc f416 cebc 6989 b73c 704c 45bc
000001e0: 96d6 a4bb 469a 10bc 53d7 b13c ecc3 543d
000001f0: 01d5 3fbd 9ead d7bb 94b8 ff3c d864 263d
00000200: 2320 233c bec4 7fbc 3653 3abd 0285 53bc
00000210: 3dd0 2ebd c376 a1bc 4b36 d7bc 0589 6dbc
00000220: b242 f73c 3149 f139 b49a 10bd d252 963c
00000230: 9442 343c 01f5 4bbc 485d e53c baee e4bc
00000240: d97a a43b a907 9eba 3d72 3bbc 4a92 143d
00000250: e2d7 173c c670 e43c 679a 4abc be06 fc3a
00000260: 08e5 f13c 8107 01bd 2d09 d73c 039b 163d
00000270: 53ec b1b9 c055 2cbd c3da b03c fbdc 2fbd
00000280: ac86 17bd eee9 8f3c 8930 4ebd bd8f bc3b
00000290: b6bf b33c 6b83 abbc ce79 363c e97b 25bb
000002a0: 7f79 9f3c fd54 ecbc 3f99 57bc 9021 933b
000002b0: 35f1 113b 54b8 3c3c d7e0 1d3d b4ea 763c
000002c0: 7cb6 703c 18ec 0dbd bb2e c33c 4352 b1bc
000002d0: 8baf f039 5252 0bbc f1e1 603c a01c 18bd
000002e0: b2d6 3dbc ddfe d33c 3a65 b5bc 7d7a 383a
000002f0: fba7 4bbd 3952 4c3c 436f e5bc f81f 413c
00000300: 6bcc 033b 77d9 583d 4161 fabc 96fe b93c
00000310: 8792 a83c c3fd 0c3d 7434 463d 773d 74bb
00000320: 23c7 e138 2e4a a63b 3182 52bc 7f82 78bc
00000330: 3a83 0bbc 21cf 52bd c0f0 b03c d288 c6bc
00000340: b7f5 cdbb b88f 993a 92f0 fcbc 58b7 053d
00000350: f03b 2fbd f185 ea3b f9a2 043d 85f9 423d
00000360: 49bd 783c 2d1c 1abd d336 f5bc 7b79 5f3b
00000370: c5be b7bc addb b4bc 301c f63c 45bb 30bd
00000380: 7389 d0bc 57dc 9abc 99c0 0c3d fac0 25bd
00000390: 8b1f c9bb 32da 12bd 7887 0dbd 6de8 cc3c
000003a0: 6440 8cbb e68e 14bd 108e 0a3d 4a5b 7dbc
000003b0: a796 02bc f786 1fbd 9d9d f5bb ecdf 3b3d
000003c0: 2480 923c 29db f13c cc5f f4bc 827b 1fbc
000003d0: d11c e83c d5e8 953c cbbd 46bd ad14 b9bc
000003e0: 340f 163c b715 26bc a174 c83c f592 bf3c
000003f0: 1009 1c3d 7899 d03c 25c6 323d 33c8 06bd

fc2.weight f4 [128, 256]
-0.044278897 -0.06303016 -0.059035704 0.0058875233 -0.026867446 -0.010657661 -0.0033996552 -0.010308361
-0.029392855 0.046061426 0.054404676 -0.060719598 0.045534298 0.025378734 -0.01762914 -0.0007232491
0.0046362826 -0.029007107 -0.03169258 0.005857175 -0.01502853 0.04754308 -0.0409749 -0.012786464
0.053241547 -0.042440098 0.02699519 0.056388002 0.011400283 -0.00090070383 -0.06298345 -0.034978278
0.03908863 0.023589008 0.032021508 -0.058930423 -0.03755042 -0.0003210721 0.012446015 -0.019553766
-0.05253355 0.04369823 -0.03549 -0.057032377 0.043203346 -0.0624355 0.062358394 0.056175865
-0.012125485 -0.034839574 0.030394526 0.01888325 -0.06289922 0.053480458 0.03537693 0.054751594
-0.033301868 -0.03451272 -0.039435085 0.01209764 0.0066798595 0.0485946 -0.014739514 0.040490873
0.039717935 -0.06665599 -0.008473681 -0.0010366173 0.040581588 0.046227373 -0.021639556 0.042061895
-0.005706884 0.012370855 -0.03654083 0.03932225 0.051821884 0.010927741 -0.036317784 -0.0038021058
0.026022568 -0.059831783 -0.05083783 0.036900785 -0.0043758852 0.04180902 -0.037661325 0.052830808
0.04527483 -0.00016467884 -0.051782757 -0.051293537 -0.024455009 -0.004816729 -0.06036891 -0.055041667
-0.0086542405 0.059017386 -0.03769874 -0.029712476 -0.02574865 0.026510209 -0.008517218 0.010362239
-0.06429142 -0.05815994 -0.046151202 0.034211494 0.014299661 -0.02641213 -0.02688811 -0.022801062
-0.03944147 -0.047637735 -0.033614185 0.0076632234 -0.00096107274 -0.004445187 0.027661994 0.017190106
-0.06693657 0.049186796 -0.040318735 -0.017119294 0.054611363 0.023069631 -0.06696738 -0.024073951
0.00035136938 -0.05089394 -0.026607752 0.021857083 0.046335593 -0.01701469 0.015362918 0.034499094
-0.014292598 0.047543075 0.029975146 0.008420629 0.0014171749 -0.0390128 -0.035300408 -0.033865497
-0.04927537 0.006623213 -0.0575487 -0.0044848034 -0.059064627 -0.04689585 0.01676776 -0.044763647
0.0372814 -0.0645464 0.040372476 0.02670528 0.035401903 -0.027371317 0.037781216 0.054503337
0.05099131 -0.022075804 0.048292994 -0.033723284 -0.060891297 0.005450619 -0.016909106 0.05314298
-0.028323838 -0.011567742 0.043432113 -0.02165964 -0.024862029 0.015150102 0.0272212 0.0040566376
0.04369834 0.0008998364 0.037451193 0.028744563 -0.015880594 -0.06391691 -0.0051373686 -0.0155734625
0.038614705 0.0015390175 -0.03672 0.028391995 -0.028992567 -0.045041956 -0.05934977 0.01314155
0.03916753 0.048787765 0.05393067 0.009363577 -0.050430417 -0.013080451 0.0034353286 -0.050741065
-0.059556823 0.02719662 0.028327765 -0.0230866 -0.059667856 -0.048817866 -0.06549905 -0.010009369
0.04462988 0.0009329554 0.022305505 0.030974949 -0.031622127 0.050293025 -0.07270057 -0.059799377
0.017140448 -0.02312991 -0.037639447 -0.042405657 -0.024249656 0.034482956 0.0471816 -0.011607423
0.0019836784 0.0019907032 0.019067869 -0.028919168 -0.05821969 -0.007408336 -0.037422664 -0.008644128
-0.04030818 -0.04244005 -0.0043610893 0.02906643 0.0032605866 -0.045083374 0.022509038 0.023531891
0.03838641 0.047354694 0.021025991 -0.04073038 -0.033686146 0.018634392 -0.04208539 -0.020062076
0.049416535 -0.051352255 0.009088565 0.004252292 0.041003264 0.04198513 -0.01814153 0.0027188733
00000000: ca5d 35bd f515 81bd 6ccf 71bd 20ec c03b
00000010: 1e19 dcbc 789d 2ebc c0cc 5ebb 66e4 28bc
00000020: 49c9 f0bc e8aa 3c3d 70d7 5e3d 1db5 78bd
00000030: 2c82 3a3d 10e7 cf3c fc6a 90bc 6d98 3dba
00000040: f5eb 973b 50a0 edbc 14d0 01bd 8ced bf3b
00000050: 393a 76bc 88bc 423d 4cd5 27bd 517e 51bc
00000060: cf13 5a3d abd5 2dbd 0425 dd3c 1bf7 663d
00000070: 41c8 3a3c 361d 6cba 78fd 80bd 6245 0fbd
00000080: 661b 203d bc3d c13c fc28 033d 0761 71bd
00000090: 78ce 19bd 9155 a8b9 5fea 4b3c 382f a0bc
000000a0: 6b2d 57bd eafc 323d f65d 11bd c89a 69bd
000000b0: fef5 303d 5ebc 7fbd 846b 7f3d aa18 663d
000000c0: f8a9 46bc f1b3 0ebd f1fd f83c 0cb1 9a3c
000000d0: 4ed1 80bd 530e 5b3d 66e7 103d 3543 603d
000000e0: 8a67 08bd 365d 0dbd af86 21bd 2e35 463c
000000f0: b9e2 da3b 220b 473d 017e 71bc c2d9 253d
00000100: 46af 223d f082 88bd 32d5 0abc 1bdf 87ba
00000110: e138 263d ea58 3d3d 7045 b1bc 1849 2c3d
00000120: d000 bbbb 20af 4a3c d6ab 15bd 5e10 213d
00000130: 2f43 543d 450a 333c f5c1 14bd c02c 79bb
00000140: 482d d53c 2c12 75bd 543b 50bd 4725 173d
00000150: 9663 8fbb ef3f 2b3d c342 1abd 1e65 583d
00000160: 1a72 393d a4ad 2cb9 281a 54bd 2c19 52bd
00000170: df55 c8bc a7d5 9dbb 6445 77bd 5f73 61bd
00000180: 84ca 0dbc 37bc 713d fe69 1abd 9467 f3bc
00000190: d5ee d2bc f02b d93c cd8b 0bbc 61c6 293c
000001a0: 38ab 83bd 1e39 6ebd 0b09 3dbd 5a21 0c3d
000001b0: 2049 6a3c 405e d8bc 7444 dcbc 4bc9 babc
000001c0: 618d 21bd c91f 43bd 07af 09bd c71b fb3b
000001d0: 80f0 7bba eea8 91bb 689b e23c 44d2 8c3c
000001e0: 0a16 89bd 1878 493d 4225 25bd c33d 8cbc
000001f0: 2ab0 5f3d 86fc bc3c 3226 89bd bc36 c5bc
00000200: 0038 b839 2a76 50bd 80f8 d9bc a00d b33c
00000210: 64ca 3d3d 6462 8bbc c0b4 7b3c ec4e 0d3d
00000220: 802b 6abc 87bc 423d 708e f53c aef6 093c
00000230: 80c0 b93a e3cb 1fbd 2997 10bd 8cb6 0abd
00000240: f8d4 49bd 8a07 d93b 30b8 6bbd 42f5 92bb
00000250: c0ed 71bd dd15 40bd 8b5c 893c 165a 37bd
00000260: 62b4 183d e730 84bd 9c5d 253d 08c5 da3c
00000270: 9601 113d d039 e0bc 7ac0 1a3d e43e 5f3d
00000280: 44dc 503d 51d8 b4bc e0ce 453d 6d21 0abd
00000290: 2769 79bd 1b9b b23b f784 8abc 74ac 593d
000002a0: 6507 e8bc a086 3dbc dfe5 313d 8f6f b1bc
000002b0: 74ab cbbc 2238 783c fefe de3c 8bed 843b
000002c0: 08fd 323d 00e3 6b3a 6c66 193d b879 eb3c
000002d0: 0518 82bc dee6 82bd 5f57 a8bb d627 7fbc
000002e0: 742a 1e3d dcb8 c93a b667 16bd 5496 e83c
000002f0: d281 edbc ea7d 38bd bf18 73bd a84f 573c
00000300: 226e 203d aed5 473d 68e6 5c3d b069 193c
00000310: 2090 4ebd 634f 56bc 4023 613b ddd5 4fbd
00000320: dbf1 73bd 72cb de3c a10f e83c 1c20 bdbc
00000330: 4866 74bd 3ef5 47bd 5e24 86bd 56fe 23bc
00000340: d2cd 363d 9491 743a 09ba b63c 2dbf fd3c
00000350: 3486 01bd 0f00 4e3d 09e4 94bd 31f0 74bd
00000360: 206a 8c3c f07a bdbc d22b 1abd 8eb1 2dbd
00000370: 37a7 c6bc 003e 0d3d 7e41 413d 102d 3ebc
00000380: 9a00 023b 7576 023b 3834 9c3c e4e7 ecbc
00000390: c577 6ebd a0c1 f2bb 8248 19bd 1aa0 0dbc
000003a0: 311a 25bd 9ed5 2dbd 78e7 8ebb b91c ee3c
000003b0: 91af 553b 58a9 38bd e064 b83c f4c5 c03c
000003c0: 113b 1d3d fff6 413d b33e ac3c e6d4 26bd
000003d0: 7cfa 09bd 27a7 983c bb61 2cbd 3959 a4bc
000003e0: fe68 4a3d be56 52bd 34e8 143c d056 8b3b
000003f0: 0af3 273d 9af8 2b3d 8c9d 94bc 202f 323b

fc2.bias f4 [128]
-0.06696234 -0.0216268 0.029933162 0.03547791 0.01143519 0.041841086 0.003293462 0.0049913363
-0.035087023 0.011022975 0.04195106 0.061850674 -0.0485679 -0.05908482 0.024835287 -0.017543582
-0.035431877 0.09589603 -0.028231263 0.06704707 0.07350218 -0.028193634 0.052452184 -0.00020678525
0.06754694 -0.042327326 0.019960267 0.045031708 0.06715287 0.097925656 0.0732672 0.085744
0.017447913 -0.023559928 -0.0120056765 -0.013661673 0.09198631 0.058754202 0.020803515 0.08655488
0.053246666 -0.0024022972 0.035907146 -0.025384026 -0.008637845 -0.012908955 0.021728778 -0.015807075
0.03328928 -0.05967235 -0.0114177065 -0.026370803 0.038581118 0.060632687 -0.050439738 -0.034631968
-0.051404648 -0.06236513 -0.038769007 0.033812728 0.042138785 -0.0051399413 -0.043751888 0.016733097
-0.06819481 0.10131082 0.004182776 0.010964231 0.05128488 -0.01561848 0.0058667082 -0.013215595
-0.035860296 0.013485336 0.031202367 0.0008928105 -0.030089805 -0.0023345088 -0.0149339 -0.010636158
0.09009917 0.053838737 0.037093423 0.022368232 0.030701898 0.055455945 -0.021731772 -0.0077568237
0.066233605 -0.052264616 -0.03376548 -0.02776685 -0.0036041555 0.07895206 0.073055364 0.04352125
-0.057741772 -0.048637725 0.09326383 -0.00084275997 -0.06267133 0.012787623 0.06818462 0.03549412
-0.042093024 0.025988877 0.060352355 0.012075476 -0.01651397 0.049706694 -0.011532374 0.07448826
-0.055327132 0.02088856 -0.0444661 0.011341686 -0.031925198 0.03627823 0.012878478 0.07174308
-0.026761327 0.09564145 -0.012204912 0.02199364 -0.027654916 -0.0004122109 0.0034983875 0.010615893
00000000: 8d23 89bd b02a b1bc 6436 f53c 4951 113d
00000010: aa5a 3b3c 8f61 2b3d 20d7 573b 5d8e a33b
00000020: 69b7 0fbd b599 343c e0d4 2b3d 2257 7d3d
00000030: 22ef 46bd ed02 72bd 5f73 cb3c 8fb7 8fbc
00000040: 0421 11bd 2365 c43d 4045 e7bc f94f 893d
00000050: 5088 963d 56f6 e6bc 1ad8 563d 7ed4 58b9
00000060: 0d56 8a3d 6b5f 2dbd b783 a33c 2b73 383d
00000070: 7287 893d 3f8d c83d 1d0d 963d 8d9a af3d
00000080: edee 8e3c c000 c1bc 75b3 44bc 36d5 5fbc
00000090: 5263 bc3d 3fa8 703d 226c aa3c af43 b13d
000000a0: 2d19 5a3d dc6f 1dbb 5f13 133d 29f2 cfbc
000000b0: bf85 0dbc 1580 53bc 8d00 b23c d77d 81bc
000000c0: 575a 083d fe6a 74bd 5511 3bbc 9507 d8bc
000000d0: 3c07 1e3d fb59 783d e699 4ebd 40da 0dbd
000000e0: ae8d 52bd 9472 7fbd 40cc 1ebd 377f 0a3d
000000f0: b899 2c3d f46c a8bb 2e35 33bd d913 893c
00000100: b8a9 8bbd 0c7c cf3d ab0f 893b 51a3 333c
00000110: 1810 523d a7e4 7fbc 843d c03b 3986 58bc
00000120: 3fe2 12bd 99f1 5c3c 1b9c ff3c 800b 6a3a
00000130: e57e f6bc 8ffe 18bb 51ad 74bc 4843 2ebc
00000140: ea85 b83d 0286 5c3d 46ef 173d 953d b73c
00000150: 8c82 fb3c c625 633d d406 b2bc f42c febb
00000160: 7ca5 873d 6c13 56bd ac4d 0abd 4e77 e3bc
00000170: b233 6cbb 9eb1 a13d 0d9e 953d 5743 323d
00000180: a382 6cbd 5a38 47bd 1b01 bf3d aaec 5cba
00000190: d459 80bd 2e83 513c 61a4 8b3d 4862 113d
000001a0: bc69 2cbd a0e6 d43c 0834 773d 38d8 453c
000001b0: 4e48 87bc 3f99 4b3d 48f2 3cbc 4d8d 983d
000001c0: b49e 62bd 7c1e ab3c 1622 36bd 7bd2 393c
000001d0: ffc3 02bd 7b98 143d 4000 533c 09ee 923d
000001e0: 923a dbbc aadf c33d 1cf7 47bc 022c b43c
000001f0: 908c e2bc 031e d8b9 3445 653b 48ee 2d3c

fc3.weight f4 [1, 128]
-0.0037592805 0.00029208735 -0.008793293 -0.01425181 -0.0179713 0.022221755 0.005464606 -0.012223607
-0.007805875 -0.0047794767 -0.00093070377 -0.0010645047 -0.00049912476 -0.0041311113 -0.015989505 -0.009118855
0.032289773 -0.02067163 -0.004732024 -0.019744854 -0.016094701 -0.0027692073 -0.012569118 0.00051089126
-0.0078045926 -0.00744469 0.006843782 -0.0008780586 -0.025113262 -0.013705156 -0.012125728 -0.010410891
0.003094567 0.0029786387 -0.0031814517 -0.0012229746 -0.022948442 -0.015536353 0.00011358703 -0.018189568
-0.015565784 -0.0037262095 -0.008434548 -0.00014717659 -0.007268139 -0.0049922634 -0.0033988317 -0.0059193736
-0.0023083654 0.005321414 -0.0034496514 -0.013378509 -0.0034961193 -0.018849133 -0.009762375 -0.0068630525
-0.0010684694 -0.0070360405 -0.004900705 0.00092197326 -0.0031829537 -0.0026432988 -0.00051266473 -0.015584727
0.0009969692 -0.020474762 -0.025498662 -0.009214701 -0.0075151096 0.0096109705 -0.0038128288 -0.010686743
-0.007471449 -0.0038144253 -0.020998735 -0.0029091253 -0.0067048674 -0.023272796 -0.0034706683 0.00094514666
-0.022837663 -0.013634197 -0.01230755 -0.011438968 0.0147868795 -0.012040708 -0.0054638097 0.0007542649
1.9888847e-05 -0.0007521079 -0.0055041527 -0.0042338427 -0.010958296 -0.011841446 0.03242425 -0.014866007
0.003010617 -0.0018517444 -0.018944785 -0.014689898 -0.0015698663 -0.03418263 -0.0022817615 -0.010306593
-0.017954495 -0.0029694177 -0.0073616793 -0.016272629 0.00014510857 -0.01694489 -0.015812395 -0.0022732413
-0.00047368553 -0.020183723 -0.004366123 0.006034379 -0.00061433413 -0.0006065376 -0.017458715 -0.023972414
-0.0029380124 -0.022486249 -0.003075228 -0.0015709045 -0.011305617 -0.017296901 -0.013819605 9.3846575e-05
00000000: 435e 76bb 4d23 9939 be11 10bc 6c80 69bc
00000010: 8c38 93bc 660a b63c 7010 b33b 8645 48bc
00000020: 6dc8 ffbb 289d 9cbb 79fa 73ba da86 8bba
00000030: b2d7 02ba 465e 87bb 6cfc 82bc 4067 15bc
00000040: 4842 043d 8d57 a9bc 180f 9bbb f6bf a1bc
00000050: 09d9 83bc 977b 35bb b4ee 4dbc 55ed 053a
00000060: abbd ffbb 96f2 f3bb ce41 e03b 842d 66ba
00000070: 54ba cdbc 978b 60bc fdaa 46bc 7192 2abc
00000080: 38ce 4a3b 4435 433b e77f 50bb 384c a0ba
00000090: 5ffe bbbc 308c 7ebc 9335 ee38 4a02 95bc
000000a0: a107 7fbc 6c33 74bb 0f31 0abc 6a53 1ab9
000000b0: 9229 eebb 2496 a3bb efbe 5ebb 4ef7 c1bb
000000c0: f247 17bb 425f ae3b 8c13 62bb 8931 5bbc
000000d0: 261f 65bb 7f69 9abc 5ef2 1fbc 75e3 e0bb
000000e0: e20b 8cba 968e e6bb 1896 a0bb 94b0 713a
000000f0: 1a99 50bb 323b 2dbb 5964 06ba 1557 7fbc
00000100: bcac 823a b0ba a7bc 92e2 d0bc 42f9 16bc
00000110: 4f41 f6bb 5577 1d3c a7e0 79bb 7317 2fbc
00000120: 0fd3 f4bb 70fb 79bb 8a05 acbc 06a7 3ebb
00000130: 81b4 dbbb 97a6 bebc 2774 63bb b8c3 773a
00000140: 0d16 bbbc f861 5fbc 9ba5 49bc 826a 3bbc
00000150: ab44 723c 6446 45bc c209 b3bb dcb9 453a
00000160: f9d6 a637 1b29 45ba 2e5c b4bb 0cbc 8abb
00000170: 6d8a 33bc a002 42bc 4acf 043d 8d90 73bc
00000180: c64d 453b 3bb6 f2ba 1832 9bbc e6ad 70bc
00000190: f9c3 cdba 1603 0cbd 9b89 15bb fcdc 28bc
000001a0: 4e15 93bc 909a 42bb 3e3a f1bb 2d4e 85bc
000001b0: 4928 1839 03d0 8abc ff88 81bc a9fa 14bb
000001c0: ff58 f8b9 5658 a5bc b211 8fbb 0abc c53b
000001d0: 440b 21ba 0d00 1fba 9405 8fbc cc61 c4bc
000001e0: ab8b 40bb 1535 b8bc c489 49bb cfe6 cdba
000001f0: 323b 39bc 3bb2 8dbc a06b 62bc 7fcf c438
