s10lre4e3CCM_MADRL_MEC/model/50-400-8-10-40/PER_CMDRL/3-Actor.pth (torch, 27567 bytes, 14 tensors)

fc1.weight f4 [128, 7]
00000000: 82ea ec3d 1b6c 913e 73e6 9b3e df28 8bbe
00000010: c442 af3e 6911 3abe 03fe 833e f107 913e
00000020: a7e8 8c3e a9ae 0cbe 8d17 023d f7ca 353e
00000030: ee41 8fbe b612 943c 4f1d 443d 6787 d23e
00000040: 0c9c 343e 5c80 cabd 807f 673e 80d7 4fbe
00000050: d1bb 72be 6c9f 42bd a554 a23e 84ae 2ebe
00000060: 553e f3bd ec02 cc3e 0e82 0abe a291 823e
00000070: 3a31 733e 7ffd b83e f22d dbbd 9371 7bbe
00000080: 161f c73e 83e7 8c3e e17b 4fbe 9f38 d83e
00000090: b7ff 08be d787 c2bd bb60 1f3e 63f6 52be
000000a0: a947 70be 8cb2 403e 174e 6f3d 2a6e 41bd
000000b0: 3f92 c23e b0b0 57be a515 c83c 39bc f0bd
000000c0: 0271 2bbe 53ad b33e f0a3 563e 4a59 83be
000000d0: de9f f5bd 3ebb 6f3e fd3d 1ebe 8266 53be
000000e0: 9602 693d 944d 493e 01b7 04be 2147 81be
000000f0: 5077 713e dcc6 773e ff2a 943d 08c9 bd3e
00000100: 770b a1be 9cd3 0a3e 2e1d 8ebe 6c60 47be
00000110: 5a18 a93e 6ffa e13d 69c4 343e 36c4 23be
00000120: 1735 6abe c0f5 c33e 02fc 20bd 8e58 743e
00000130: 049a 843c 7747 843e d94a a43e 4eb3 0dbe
00000140: 1cc3 06be 1d72 c33e 45f1 5c3d 70e4 31bc
00000150: 843b a03e 3182 bb3e 7f7e 0e3e 0495 db3d
00000160: af82 803e b381 953d 2bb1 d53d 19b5 0a3e
00000170: 9463 a0be d4f5 053e 5958 993e 0faf 54be
00000180: 9452 813e 570c 18be 7d0d 353d 980d a4be
00000190: 49f3 b13c 80d8 743e c3d8 c53e 62ce 65be
000001a0: 6cf3 a53e 788c 9fbe 30be 9f3e ee61 c33e
000001b0: 3eca 3f3e b149 0fbe 7b58 79be 76a3 413d
000001c0: 35f2 cdbd 1753 053e de79 9e3d 9a22 703e
000001d0: f8d8 80be d93c 473e 628b 793e e4bd 533e
000001e0: 2d48 8ebe f040 d23e 1d28 2fbe be62 90be
000001f0: b442 ae3e b87c 85be 3777 ab3e 9b97 29be
00000200: 5d98 853e 7dec d33e b3ec b73e f5c1 1ebe
00000210: 47a3 f43d 8fee b33e ecd7 2abd c090 ab3d
00000220: 1f4c 4dbe 5840 ae3e f4a2 84bc 7e3f 31be
00000230: de46 c33e 050d 213e 1325 47be 8784 92be
00000240: a871 103e df52 373e 5c99 933e 870a 9ebe
00000250: 6184 6c3e c820 a63e 9cea abbd dbbe 753e
00000260: de29 8e3e ecfd c23d 84cb 833e e363 35be
00000270: 4cca a43e 4d52 39be e93d 95be 57df d03e
00000280: bf64 e83d 181e 41bd a4f6 04be 951a 05be
00000290: 9bf5 b6be 26f9 a1be d933 15be 2342 a9be
000002a0: 74cd 7b3d 6a30 9a3e dad5 ae3e 29b9 9fbe
000002b0: ca73 7c3e e5f3 6d3d e0fa d9bd c72e e5bb
000002c0: 7874 863e 1498 efbc 3cbf 123c 8d7d 90bd
000002d0: 55ac 02bd 3700 953d 156c 30be 49f2 d23e
000002e0: d5be 123e 731a 2ebe ca9f 45be 4be6 41be
000002f0: daf1 fcbd db7b e13d a544 103e 7513 e83c
00000300: afc4 90bb 403c c1bd fb56 69be f67d 443e
00000310: b1af 3cbe b65e 44bc 2c28 e6bd 9024 ffbd
00000320: 2ac6 413e f9ea e53e d7f2 4dbe 6900 9ebe
00000330: 82b5 60be 0e2d 343e 5a05 bdbe b8cc 76be
00000340: 4e62 a6be 7873 323d 1924 ec3e ce63 7dbd
00000350: a4bd a33d 65fe c8bd dcf4 953d 922b 3cbe
00000360: 41d8 8e3e 1396 b73e b96f 863d 5f80 3a3e
00000370: 4a58 9ebe c3e9 d33c c8d2 3a3e f341 59bd
00000380: 8d01 673e e1d9 84bc c39d 7b3e 940e 74be
00000390: ac03 353d 421b eabd 39db d7bd fd33 763e
000003a0: 0e91 af3e d433 3bbe 5048 2c3d 42de 3c3e
000003b0: 7636 053e b064 17be 8d4d d23e 0af0 a43e
000003c0: d004 bc3c 4c72 8b3e 096a 91bd 6323 843e
000003d0: fca5 40be f56e 03be 5dd5 0ebe 69b1 703e
000003e0: 7710 f2bd 3a7a 51be 7073 a73c 6e0e e93e
000003f0: 68b4 5f3e d842 333e 62c6 2a3d 90a4 89be
0.11568166 0.2840279 0.30449256 -0.2717962 0.34230626 -0.18170704 0.25779733 0.2832637
0.2752125 -0.13738503 0.03176074 0.17753206 -0.27979988 0.018075328 0.047879513 0.4111893
0.17637652 -0.09887764 0.22607231 -0.2029705 -0.23704459 -0.047515318 0.31705204 -0.1705876
-0.11877123 0.3984598 -0.13526174 0.25501734 0.23749247 0.36130902 -0.10702123 -0.24555044
0.38890904 0.2752038 -0.202621 0.42230698 -0.13378797 -0.09498566 0.15564243 -0.20601802
-0.23464836 0.1881811 0.05842408 -0.0472242 0.38002202 -0.21063495 0.024424383 -0.117546506
-0.16742328 0.35093173 0.20960975 -0.2565406 -0.11993383 0.23411271 -0.15453334 -0.20644572
0.05688723 0.196585 -0.12960435 -0.2524958 0.2358067 0.24196953 0.07234763 0.37067437
-0.3145406 0.13557285 -0.27756637 -0.19470376 0.3302639 0.110340945 0.1765305 -0.15992817
-0.22871815 0.3827343 -0.039302833 0.23861906 0.016186722 0.25835773 0.32088354 -0.1383793
-0.13160366 0.38173 0.05394103 -0.010857686 0.31295407 0.36622766 0.13915442 0.10721782
0.25099704 0.07300129 0.10434183 0.13545646 -0.31325972 0.13082057 0.29950216 -0.20769905
0.25258315 -0.14848457 0.044202317 -0.3204162 0.021722453 0.23910713 0.3864194 -0.2244201
0.3241228 -0.31161857 0.3119979 0.38160652 0.18729493 -0.13992955 -0.24350159 0.04727503
-0.10055963 0.13019978 0.07738088 0.234507 -0.25165534 0.19456805 0.24369577 0.20677906
-0.2778944 0.41065168 -0.17105146 -0.28200334 0.34035265 -0.26071715 0.3348939 -0.16561739
0.26092806 0.41391364 0.35922775 -0.15503676 0.11945205 0.35142943 -0.041709825 0.08377218
-0.20048569 0.34033465 -0.016190983 -0.17309377 0.38140005 0.15727623 -0.19447736 -0.28616735
0.14105856 0.17902707 0.2882794 -0.30867407 0.23097374 0.32446885 -0.083943576 0.23998587
0.27766317 0.09521088 0.25741208 -0.17713885 0.3218559 -0.18097802 -0.29148796 0.40795395
0.11347341 -0.04714784 -0.12984711 -0.12998421 -0.35734257 -0.31635398 -0.1457056 -0.3305827
0.061475232 0.30115062 0.3414753 -0.31195953 0.24653545 0.058093924 -0.10643554 -0.0069941017
0.26260734 -0.029247321 0.008956727 -0.07055197 -0.03190263 0.072754316 -0.1722873 0.41200474
0.14330609 -0.17002277 -0.19299236 -0.18935506 -0.12350817 0.11009952 0.14088686 0.02832959
-0.0044179778 -0.0943532 -0.22787087 0.19188675 -0.18426396 -0.0119854715 -0.11238131 -0.124581456
0.1892325 0.44905832 -0.20112167 -0.30859688 -0.2194424 0.17595312 -0.36918145 -0.24101532
-0.32496876 0.04356715 0.4612129 -0.06186276 0.079951555 -0.09814147 0.07322094 -0.18375996
0.27899364 0.35856685 0.06564278 0.18213032 -0.30926734 0.025868302 0.18244469 -0.05304141
0.22559185 -0.016217174 0.245719 -0.23833686 0.044192955 -0.1143098 -0.1053986 0.2404327
0.34290355 -0.1828149 0.04206115 0.1844416 0.13009056 -0.14784503 0.41074792 0.32214385
0.022951514 0.2723564 -0.07100303 0.25808248 -0.18813318 -0.12835295 -0.13948579 0.23505177
-0.11819547 -0.20456782 0.020440787 0.4551882 0.21846163 0.17505968 0.0416931 -0.26883364

fc1.bias f4 [128]
00000000: 4eaa 0dbe 1d8d f53d 821a c1bb 7012 11be
00000010: de99 49bd ea8c ca3c f0b0 3c3e a5c3 393e
00000020: 723b c7bd ec68 b33e d9de e83d 76c3 863e
00000030: ccc8 1fbd e77a adbe afd8 4c3e 4f7d 8b3e
00000040: fd52 89bd 80c8 f5bc 5e42 103e e291 24bd
00000050: f7af 9c3e 158b ee3d e621 babd 561a 173e
00000060: 65f1 22be c0b6 d53d 6003 c93e 988d 563e
00000070: ce3f b63c 62fe 5ebe 53e4 2cbe fee5 b23e
00000080: b96d 953d ebfa d33e 555f 9abd f97b a03d
00000090: 77df 033c 342d 6b3e ae72 b1be 81c3 863e
000000a0: 4ca7 c83e b619 38be b49c 91be ffff 42be
000000b0: 7ab9 f43d 6905 573e 05c5 b43d cf4e 333e
000000c0: c34e 9cbe f52b b93e c497 543d 07ef ab3e
000000d0: 7967 a73d bd1e 5f3e d09c e5bd a7a0 b3bd
000000e0: 5063 a93e 9eb6 303e d829 383d 8fa5 823e
000000f0: 5b90 24be ea52 853e 441d da3e 8505 3f3d
00000100: a7dd d53e 8643 a83e 442b a1be 659f 163e
00000110: b9c1 923c cc24 b83e 9273 25bd c172 06be
00000120: 711d 9a3e b625 073e 9738 cf3e 872d 403e
00000130: 2221 1cbe 03e8 bdbe 09dd 92be 8d06 563e
00000140: 8811 85bd 7c28 a83d ec4d ebbd e8d1 dabc
00000150: 00b8 87be 4b3b 083e 51c1 2fbe 6f90 34be
00000160: abdf 37bd 0d1c 48be 471f cb3e 9a32 513d
00000170: 4667 b0be d080 9b3e 96f8 7dbe 624d cb3e
00000180: 2c57 553e fabf 3ebe 8687 283e a13b d93e
00000190: d26c 8f3e ee1b 8b3e 81ef dfbd 421d 0dbd
000001a0: b73f 4c3e 15dc 6d3d 50a0 12bd 3d13 14be
000001b0: 2651 2a3e 8ee6 0cbe ef7c 0f3d 184d 0abe
000001c0: 87bb 0aba 88f0 e4bd 887d e23d 18bd c63e
000001d0: a4ca 27be 388c 583d 0d95 573e 8aa0 9bbe
000001e0: a25d 36be 69ad d73e 6f83 a8bc a80f a63e
000001f0: 3691 74be 21e4 67be 204c 47be 8069 57be
-0.13834497 0.11989806 -0.0058930526 -0.1416719 -0.049219005 0.024725396 0.18426871 0.18141039
-0.09728135 0.35040987 0.1137063 0.26321 -0.039009854 -0.3388283 0.20004533 0.2724404
-0.06705282 -0.030002832 0.14087817 -0.040178187 0.30603 0.116476215 -0.09088497 0.1475614
-0.15912397 0.104352474 0.39260387 0.20952451 0.022247221 -0.21776727 -0.16883974 0.34941095
0.072963186 0.41402373 -0.075377144 0.07836146 0.008048884 0.22966462 -0.34657806 0.26321033
0.39190137 -0.17978558 -0.28439867 -0.19042967 0.11949439 0.20998158 0.08826641 0.17510532
-0.3052884 0.3616635 0.051902547 0.335808 0.08174033 0.2178907 -0.1121155 -0.087708764
0.33083582 0.17257163 0.04496178 0.25516936 -0.16070692 0.2603982 0.42600453 0.046636123
0.4177067 0.32864016 -0.31478322 0.14709242 0.01791464 0.35965574 -0.04039342 -0.13129713
0.30100587 0.1319798 0.40472862 0.18767367 -0.15247014 -0.37091073 -0.2868426 0.20900936
-0.064974844 0.08210847 -0.11489472 -0.02671142 -0.26507568 0.13303868 -0.17163588 -0.17633222
-0.04489104 -0.1954195 0.396723 0.051073648 -0.3445379 0.30371714 -0.2480186 0.39707476
0.20834035 -0.18627921 0.16457948 0.42428306 0.2801271 0.27169746 -0.109343536 -0.03445173
0.1994618 0.058071215 -0.035797417 -0.14460464 0.16632518 -0.13759825 0.035031255 -0.13505971
-0.0005292226 -0.1117869 0.110590994 0.38816142 -0.16385895 0.052868098 0.21052952 -0.3039592
-0.17809156 0.4212449 -0.020570485 0.3243382 -0.23883519 -0.22645618 -0.19462633 -0.21036339

ln1.weight f4 [128]
00000000: 0000 803f 0000 803f 0000 803f 0000 803f
00000010: 0000 803f 0000 803f 0000 803f 0000 803f
00000020: 0000 803f 0000 803f 0000 803f 0000 803f
00000030: 0000 803f 0000 803f 0000 803f 0000 803f
00000040: 0000 803f 0000 803f 0000 803f 0000 803f
00000050: 0000 803f 0000 803f 0000 803f 0000 803f
00000060: 0000 803f 0000 803f 0000 803f 0000 803f
00000070: 0000 803f 0000 803f 0000 803f 0000 803f
00000080: 0000 803f 0000 803f 0000 803f 0000 803f
00000090: 0000 803f 0000 803f 0000 803f 0000 803f
000000a0: 0000 803f 0000 803f 0000 803f 0000 803f
000000b0: 0000 803f 0000 803f 0000 803f 0000 803f
000000c0: 0000 803f 0000 803f 0000 803f 0000 803f
000000d0: 0000 803f 0000 803f 0000 803f 0000 803f
000000e0: 0000 803f 0000 803f 0000 803f 0000 803f
000000f0: 0000 803f 0000 803f 0000 803f 0000 803f
00000100: 0000 803f 0000 803f 0000 803f 0000 803f
00000110: 0000 803f 0000 803f 0000 803f 0000 803f
00000120: 0000 803f 0000 803f 0000 803f 0000 803f
00000130: 0000 803f 0000 803f 0000 803f 0000 803f
00000140: 0000 803f 0000 803f 0000 803f 0000 803f
00000150: 0000 803f 0000 803f 0000 803f 0000 803f
00000160: 0000 803f 0000 803f 0000 803f 0000 803f
00000170: 0000 803f 0000 803f 0000 803f 0000 803f
00000180: 0000 803f 0000 803f 0000 803f 0000 803f
00000190: 0000 803f 0000 803f 0000 803f 0000 803f
000001a0: 0000 803f 0000 803f 0000 803f 0000 803f
000001b0: 0000 803f 0000 803f 0000 803f 0000 803f
000001c0: 0000 803f 0000 803f 0000 803f 0000 803f
000001d0: 0000 803f 0000 803f 0000 803f 0000 803f
000001e0: 0000 803f 0000 803f 0000 803f 0000 803f
000001f0: 0000 803f 0000 803f 0000 803f 0000 803f
1.0 1.0 1.0 1.0 1.0 1.0 1.0 1.0
1.0 1.0 1.0 1.0 1.0 1.0 1.0 1.0
1.0 1.0 1.0 1.0 1.0 1.0 1.0 1.0
1.0 1.0 1.0 1.0 1.0 1.0 1.0 1.0
1.0 1.0 1.0 1.0 1.0 1.0 1.0 1.0
1.0 1.0 1.0 1.0 1.0 1.0 1.0 1.0
1.0 1.0 1.0 1.0 1.0 1.0 1.0 1.0
1.0 1.0 1.0 1.0 1.0 1.0 1.0 1.0
1.0 1.0 1.0 1.0 1.0 1.0 1.0 1.0
1.0 1.0 1.0 1.0 1.0 1.0 1.0 1.0
1.0 1.0 1.0 1.0 1.0 1.0 1.0 1.0
1.0 1.0 1.0 1.0 1.0 1.0 1.0 1.0
1.0 1.0 1.0 1.0 1.0 1.0 1.0 1.0
1.0 1.0 1.0 1.0 1.0 1.0 1.0 1.0
1.0 1.0 1.0 1.0 1.0 1.0 1.0 1.0
1.0 1.0 1.0 1.0 1.0 1.0 1.0 1.0

ln1.bias f4 [128]
00000000: 0000 0000 0000 0000 0000 0000 0000 0000
00000010: 0000 0000 0000 0000 0000 0000 0000 0000
00000020: 0000 0000 0000 0000 0000 0000 0000 0000
00000030: 0000 0000 0000 0000 0000 0000 0000 0000
00000040: 0000 0000 0000 0000 0000 0000 0000 0000
00000050: 0000 0000 0000 0000 0000 0000 0000 0000
00000060: 0000 0000 0000 0000 0000 0000 0000 0000
00000070: 0000 0000 0000 0000 0000 0000 0000 0000
00000080: 0000 0000 0000 0000 0000 0000 0000 0000
00000090: 0000 0000 0000 0000 0000 0000 0000 0000
000000a0: 0000 0000 0000 0000 0000 0000 0000 0000
000000b0: 0000 0000 0000 0000 0000 0000 0000 0000
000000c0: 0000 0000 0000 0000 0000 0000 0000 0000
000000d0: 0000 0000 0000 0000 0000 0000 0000 0000
000000e0: 0000 0000 0000 0000 0000 0000 0000 0000
000000f0: 0000 0000 0000 0000 0000 0000 0000 0000
00000100: 0000 0000 0000 0000 0000 0000 0000 0000
00000110: 0000 0000 0000 0000 0000 0000 0000 0000
00000120: 0000 0000 0000 0000 0000 0000 0000 0000
00000130: 0000 0000 0000 0000 0000 0000 0000 0000
00000140: 0000 0000 0000 0000 0000 0000 0000 0000
00000150: 0000 0000 0000 0000 0000 0000 0000 0000
00000160: 0000 0000 0000 0000 0000 0000 0000 0000
00000170: 0000 0000 0000 0000 0000 0000 0000 0000
00000180: 0000 0000 0000 0000 0000 0000 0000 0000
00000190: 0000 0000 0000 0000 0000 0000 0000 0000
000001a0: 0000 0000 0000 0000 0000 0000 0000 0000
000001b0: 0000 0000 0000 0000 0000 0000 0000 0000
000001c0: 0000 0000 0000 0000 0000 0000 0000 0000
000001d0: 0000 0000 0000 0000 0000 0000 0000 0000
000001e0: 0000 0000 0000 0000 0000 0000 0000 0000
000001f0: 0000 0000 0000 0000 0000 0000 0000 0000
0.0 0.0 0.0 0.0 0.0 0.0 0.0 0.0
0.0 0.0 0.0 0.0 0.0 0.0 0.0 0.0
0.0 0.0 0.0 0.0 0.0 0.0 0.0 0.0
0.0 0.0 0.0 0.0 0.0 0.0 0.0 0.0
0.0 0.0 0.0 0.0 0.0 0.0 0.0 0.0
0.0 0.0 0.0 0.0 0.0 0.0 0.0 0.0
0.0 0.0 0.0 0.0 0.0 0.0 0.0 0.0
0.0 0.0 0.0 0.0 0.0 0.0 0.0 0.0
0.0 0.0 0.0 0.0 0.0 0.0 0.0 0.0
0.0 0.0 0.0 0.0 0.0 0.0 0.0 0.0
0.0 0.0 0.0 0.0 0.0 0.0 0.0 0.0
0.0 0.0 0.0 0.0 0.0 0.0 0.0 0.0
0.0 0.0 0.0 0.0 0.0 0.0 0.0 0.0
0.0 0.0 0.0 0.0 0.0 0.0 0.0 0.0
0.0 0.0 0.0 0.0 0.0 0.0 0.0 0.0
0.0 0.0 0.0 0.0 0.0 0.0 0.0 0.0

fc2.weight f4 [32, 128]
00000000: 40e4 fb3c c3c1 863d d326 933d da7e e4bc
00000010: d24e 50bd 0a95 edbc d110 80bd 56f8 51bd
00000020: d249 643d a8ab 10bc ceea 26bd 6450 c1bc
00000030: d328 b0bd 868b a6bd 6c51 ce3c 7aa9 173d
00000040: ac11 b4bd fc90 c63c 28cb 843c e527 86bd
00000050: 3f92 3abd c060 debb b0f3 ed3b e421 1fbd
00000060: 36b5 2b3d c8d5 1ebc 13ed 49bd a881 83bd
00000070: a49a b0bc 003d 00bd d449 74bd 781d a6bd
00000080: 8276 0b3d 0225 fdbc 4c83 0a3d 504b 38bc
00000090: 543c afbd 00d4 cbbc 4566 0cbd 0513 38bd
000000a0: ceda 89bd 763c 7f3d 52bc 0f3d 10ab f8bb
000000b0: 6ec0 3f3d 37e2 2dbd c9ae 82bd 8f6d 993d
000000c0: 0b9b 993d 4853 87bc 867b 0dbd c1c2 843d
000000d0: 68b0 1a3c 0087 ed39 3e55 45bd 72d6 103d
000000e0: 3e94 5a3d 46f9 393d 40eb b03c ccea e93c
000000f0: d015 e33b 6094 edbc 1822 afbd 528f 753d
00000100: a891 2ebd 1a8c 16bd 664b 0abd ef2a 923d
00000110: b4b6 efbc abae 843d 60a1 213c ef04 51bd
00000120: 4027 8d3c 6ed4 d4bc ceb5 2cbd 49e0 a83d
00000130: 6071 a1bc db52 993d e9fe a33d b0a9 c23c
00000140: 486c 773c 0b4a 853d 20d8 c2bc 4b82 943d
00000150: 1e81 91bd 2a10 4abd 9a39 b1bd 64e4 f53c
00000160: dec6 7f3d d46e 4abd 66f9 89bd 08aa 123c
00000170: fb57 873d 5ea0 debc cae4 1b3d 76ba 373d
00000180: 50a4 fa3b 7fe8 1bbd 31fc 99bd 58e7 27bc
00000190: 4a96 603d ece0 9dbc 8301 af3d 70f6 81bb
000001a0: 9c8d 94bc 8fe6 b13d 500f 3ebc 3897 47bc
000001b0: 4e51 6a3d 1e80 033d a554 56bd 685f 87bc
000001c0: c344 9a3d 8056 afbc 0cf5 78bd a68c 473d
000001d0: f5f4 b4bd b9ca aebd 9348 4bbd 6ffb 56bd
000001e0: 94db e33c 1091 babc 0e7d 1f3d 6c59 883c
000001f0: db2a ae3d f004 7dbd 81d5 8e3d 405a f63b
00000200: c6fd be3d 8f69 a63a 85cf 013e 3169 043e
00000210: f2bb fd3d 1f53 c53d ac7f 1e3e fe64 603d
00000220: a1b7 fc3d 116a f63d ac95 d63d b296 9e3c
00000230: 4a67 8d3d e173 e13d b925 043d 0ee2 f63c
00000240: f353 993d ec97 89bc 3501 9ebc a775 153e
00000250: 2451 eab9 71c1 df3d 185f 90bc ce3a 8dbd
00000260: 8fed 79bc 94c9 ba3d 6eb0 183e 862f 613d
00000270: 1e80 0d3c ed41 973d c00a 003c 00d7 a6bc
00000280: 5bff 353d 1008 063e bc20 0d3e c165 1e3e
00000290: 8f71 1a3e 5101 133e aafa 28bd 3ea9 823d
000002a0: 42eb f63c 8813 a0bb 85ad 803d d63e 5ebc
000002b0: 7646 973d 47f8 acbc 57c9 ca3d 873a 093e
000002c0: c36a f33c ee50 853d 7c2c c03d fd03 053e
000002d0: 52d8 c33c 245c 1c3d 071e f43d 11b4 c13d
000002e0: 340d ca3d f861 ed3d f702 67bc 972a 963d
000002f0: 8a57 193c a822 df3d bdfd fdbb 488a 58bc
00000300: 3a13 7c3d 42e7 01bc 0bd0 023e ae46 003e
00000310: f5ba 0b3e 08bd 493d f99f 263e 35a8 c6bc
00000320: 233b 2f3d 1a78 3b3d 4483 033d 2fb6 b43d
00000330: e40a 623d 80cd 8cbc 0ed9 203d e904 0bbd
00000340: 7bd0 f83d 2e10 c53c c7ee 91bd 52e5 0a3e
00000350: ed79 08bd 18e8 52bc bcb8 fd3d 7b0a 853d
00000360: 6b8d 113e fddf b73d eb8f adbc 3fb3 01bd
00000370: 47ff 7fbd 00ec e43d 145e 023e afa3 0f3e
00000380: 1bca 063d 8094 e63d 77b6 d7bc d74f 043e
00000390: 7e4c 703d c453 043b 9071 ca3d 8568 163e
000003a0: abd2 f93d fe61 93bc c0de ad3d 3eb9 543d
000003b0: fe59 553d a315 903d 6f85 38ba 017e 323e
000003c0: daf3 153d 513a 5c3c 4437 80bc b7ec 713d
000003d0: 118c cbbb f5a1 753d 032f bfba 7fee 32bd
000003e0: ebb7 bd3c e5e3 993d d23d 3b3d a1cc 3d3c
000003f0: 211f f93d 205a 95bc c0cd e0bb 1e51 933d
0.030748487 0.06579926 0.071851395 -0.027892519 -0.05085642 -0.029001731 -0.062532075 -0.051262222
0.055734463 -0.008829989 -0.04075127 -0.023597904 -0.086015366 -0.08132081 0.02518531 0.03702686
-0.08792433 0.024239056 0.016210154 -0.06550578 -0.045549627 -0.006786436 0.007261716 -0.03885068
0.041920863 -0.009694524 -0.049298357 -0.06421214 -0.021558113 -0.031308174 -0.05964072 -0.081110895
0.034048565 -0.030901436 0.03381662 -0.011248425 -0.085564286 -0.024881363 -0.03427722 -0.044940013
-0.06731187 0.06231352 0.035091706 -0.0075887516 0.046814375 -0.042452063 -0.06380994 0.074916
0.07500275 -0.016519204 -0.03454163 0.06482459 0.009441473 0.00045304745 -0.048176996 0.03536076
0.05336403 0.04540374 0.021596551 0.028554343 0.0069300905 -0.029001415 -0.08551425 0.059951134
-0.042619377 -0.036754705 -0.03376331 0.07137095 -0.029261924 0.06478628 0.009865135 -0.051030096
0.01723063 -0.0259802 -0.04216557 0.08245904 -0.019707382 0.074865066 0.08007605 0.023762554
0.0151015 0.06508263 -0.023784697 0.07251414 -0.07104705 -0.04933182 -0.08653565 0.030016132
0.062445514 -0.0494221 -0.06737022 0.008951671 0.06608578 -0.027176078 0.038059987 0.044855557
0.007648982 -0.038063522 -0.07518805 -0.010248028 0.054830827 -0.01927229 0.0854521 -0.003966145
-0.01813393 0.08686554 -0.0116003305 -0.012182049 0.057206444 0.032104604 -0.052326817 -0.016524985
0.075326465 -0.021403551 -0.06078057 0.048718117 -0.08835784 -0.0853476 -0.04962976 -0.05248588
0.027814664 -0.02277425 0.03893762 0.016644202 0.08504268 -0.061772287 0.069743164 0.007518083
0.09325747 0.0012696254 0.12676819 0.12930752 0.12389363 0.09634995 0.1547839 0.054783814
0.12339712 0.12031949 0.104777664 0.019358966 0.069044665 0.1100843 0.032262538 0.030137088
0.07486715 -0.016796075 -0.019287685 0.14595662 -0.00044692412 0.10925568 -0.01762347 -0.06895982
-0.015254392 0.09120479 0.14911053 0.054976963 0.008636503 0.07385621 0.007815063 -0.020366192
0.04443298 0.13089013 0.13782018 0.15468504 0.15082382 0.14355971 -0.041254677 0.06379937
0.030141477 -0.004885141 0.06283096 -0.013564786 0.07386486 -0.021114482 0.09901684 0.13401233
0.029713994 0.06509577 0.09383485 0.12989803 0.02390686 0.03817381 0.1191979 0.09458173
0.098657995 0.11590952 -0.014099828 0.07332342 0.00935925 0.10895282 -0.007751195 -0.013216563
0.061541773 -0.007928671 0.12774675 0.12526962 0.13645537 0.04925254 0.16271962 -0.02425013
0.042781007 0.045768835 0.032107607 0.08823811 0.055186167 -0.017187834 0.0392695 -0.03394023
0.121491395 0.024055567 -0.07125621 0.13564041 -0.033319402 -0.012872718 0.12388751 0.064961396
0.14214103 0.08978269 -0.02118679 -0.031665083 -0.06249931 0.11177826 0.127312 0.14027284
0.032907587 0.11258793 -0.026332123 0.12921081 0.0586667 0.002019153 0.098849416 0.14688309
0.12198385 -0.017991062 0.08489752 0.051934473 0.052087776 0.07035377 -0.0007038926 0.17430879
0.036609508 0.013441638 -0.015651353 0.05906364 -0.0062117656 0.059968907 -0.0014586154 -0.04368448
0.023158988 0.075141706 0.045713253 0.011584432 0.121641405 -0.018231452 -0.006860465 0.07193206

fc2.bias f4 [32]
00000000: 66d0 3e3d febf bd3c 6f48 50bd 7870 39bd
00000010: 0ae1 65bd 7c77 72bc 5dd4 67bd c07e 55bd
00000020: 09d4 acbd 7156 b33d 09d8 a6bd 0b3b c03c
00000030: a0e5 323a 51a3 a8bc 5a34 2bbd 5da2 ecbc
00000040: c2df cd3d e024 ecbc 1d74 8239 38fd 17bd
00000050: 871a 04bd 65d8 b33d 10cb 293d d37e b7bb
00000060: ae99 4abd ee4e 93bc 8427 5c3d 5d41 11bd
00000070: 9427 a2bd 37c8 4d3b 30ea 1f3d 465e 883d
0.046585463 0.023162838 -0.050850328 -0.045273274 -0.056122817 -0.014798995 -0.05659901 -0.05212283
-0.0843888 0.08756722 -0.08146674 0.023465654 0.0006824378 -0.020585688 -0.041797973 -0.028886015
0.10052444 -0.028826177 0.00024882043 -0.037106723 -0.03225186 0.08781508 0.04145342 -0.0055998354
-0.049462967 -0.017981973 0.053748623 -0.035462726 -0.07917705 0.0031399855 0.039041698 0.06658606

ln2.weight f4 [32]
00000000: 0000 803f 0000 803f 0000 803f 0000 803f
00000010: 0000 803f 0000 803f 0000 803f 0000 803f
00000020: 0000 803f 0000 803f 0000 803f 0000 803f
00000030: 0000 803f 0000 803f 0000 803f 0000 803f
00000040: 0000 803f 0000 803f 0000 803f 0000 803f
00000050: 0000 803f 0000 803f 0000 803f 0000 803f
00000060: 0000 803f 0000 803f 0000 803f 0000 803f
00000070: 0000 803f 0000 803f 0000 803f 0000 803f
1.0 1.0 1.0 1.0 1.0 1.0 1.0 1.0
1.0 1.0 1.0 1.0 1.0 1.0 1.0 1.0
1.0 1.0 1.0 1.0 1.0 1.0 1.0 1.0
1.0 1.0 1.0 1.0 1.0 1.0 1.0 1.0

ln2.bias f4 [32]
00000000: 0000 0000 0000 0000 0000 0000 0000 0000
00000010: 0000 0000 0000 0000 0000 0000 0000 0000
00000020: 0000 0000 0000 0000 0000 0000 0000 0000
00000030: 0000 0000 0000 0000 0000 0000 0000 0000
00000040: 0000 0000 0000 0000 0000 0000 0000 0000
00000050: 0000 0000 0000 0000 0000 0000 0000 0000
00000060: 0000 0000 0000 0000 0000 0000 0000 0000
00000070: 0000 0000 0000 0000 0000 0000 0000 0000
0.0 0.0 0.0 0.0 0.0 0.0 0.0 0.0
0.0 0.0 0.0 0.0 0.0 0.0 0.0 0.0
0.0 0.0 0.0 0.0 0.0 0.0 0.0 0.0
0.0 0.0 0.0 0.0 0.0 0.0 0.0 0.0

action1.weight f4 [2, 32]
00000000: 08d4 5b39 cd20 b339 845c 083b 1df0 49bb
00000010: 6099 36b8 bd7c ce3a c468 a839 f126 533b
00000020: 8cfa 2b3a 2a28 1e3b cef4 823a e6a8 88ba
00000030: a5d3 3a3a 1f2d e23a 0160 4b3b 9aba 033b
00000040: bb44 97b9 ed07 1039 42d1 353b 85e6 9e3a
00000050: d7a7 de3a 9124 b83a aad3 6eb8 fff9 923a
00000060: 996d b5b9 5b31 063b 8bfe 213a f49c 763a
00000070: e728 0d3b 0241 17bb 3515 1e3b 36fc 6e3b
00000080: d81c 32ba 579f b236 e337 feba ba9b 7d3b
00000090: 9a40 26ba 3b7d 66b9 489e 8db9 6fa7 22bb
000000a0: 26c2 303a 4e64 f1ba ceee 8139 c39e dc3a
000000b0: 27d6 1eba 81d5 07bb 7768 2dbb a38d 4abb
000000c0: 5563 b83a cea5 b1b9 2df8 daba 30aa c5ba
000000d0: 8853 06bb efac 20bb c248 5c3a 46be c5ba
000000e0: 1561 3cb9 acd7 e3ba 6cc4 02bb 9faf 77b9
000000f0: 4086 8dba aa3e c23a f75f 2fbb d346 8bbb
0.00020964455 0.0003416598 0.0020807097 -0.0030813285 -4.3535023e-05 0.0015753728 0.00032121514 0.0032219256
0.0006560467 0.0024132826 0.000999117 -0.0010426312 0.00071268744 0.0017255879 0.0031032565 0.0020100237
-0.00028852173 0.00013735863 0.0027743136 0.0012123144 0.0016987276 0.0014048984 -5.694075e-05 0.0011213421
-0.00034604667 0.0020476195 0.00061795925 0.0009407543 0.0021539272 -0.002307952 0.0024121527 0.0036466247
-0.0006794459 5.323363e-06 -0.0019395318 0.0038697557 -0.0006342024 -0.00021981161 -0.00027011544 -0.0024819036
0.00067427976 -0.0018416734 0.0002478272 0.0016831983 -0.0006059133 -0.0020726623 -0.002645997 -0.0030907176
0.0014067689 -0.00033883605 -0.0016706042 -0.0015080627 -0.0020496566 -0.002451714 0.0008403176 -0.0015086613
-0.00017965243 -0.0017383001 -0.0019953502 -0.0002362118 -0.0010797456 0.0014819701 -0.002676008 -0.0042503863

action1.bias f4 [2]
00000000: 2bcd 0b3b 07e8 3fbb
0.0021332006 -0.0029282586

action2_mu.weight f4 [1, 32]
00000000: 3117 0bbe 5a9a afbc c125 dcbc 7826 1cbe
00000010: cbf3 f7bd 5e09 bf3d 7c3c d0bc 0dd8 06bb
00000020: ab67 1dbe 4711 b33c ca96 8e3c 260b 6a3d
00000030: 9f9e dabd 31a3 94bd 074a 253e 9721 15bd
00000040: a6a5 74bd bf53 43bd 87ab e83d ca67 d0bc
00000050: 55d9 0ebe c0b7 c03c a5da 01be 37c2 92bd
00000060: 90ea e4bd e8cd 0e3d d1d1 b63d a19c 833a
00000070: 338a f03d 54fc d33d 2a3d cd3d 2463 62bc
-0.13583066 -0.021435905 -0.026873471 -0.1524905 -0.12107047 0.093279585 -0.025419466 -0.0020575554
-0.15371577 0.021858824 0.017405886 0.05713954 -0.10674786 -0.07257689 0.1614152 -0.036408987
-0.059728287 -0.04768729 0.11360841 -0.025440115 -0.13950093 0.023525119 -0.12681063 -0.0716595
-0.11177552 0.034864336 0.08926738 0.0010041186 0.117451094 0.10350862 0.10021432 -0.013817582

action2_std.weight f4 [1, 32]
00000000: a35a a3bd 83b8 59be 17ff 423d 5167 1cbe
00000010: d84a 11be e7c2 9a3d 4977 0dbe bb35 a63d
00000020: 2df7 cabd f2f0 2fbe 0b6e 943d 154f 64bd
00000030: b014 7cbd b4ef c43d 9654 f93d 1d84 fb3d
00000040: 3e36 42be 3dd4 30be 4f97 a6bd 1d3f dfbd
00000050: 392f 20be bb62 f9bd 6aca d2bd 2aff e73c
00000060: f4f6 d9bd 90bb 0ebe e384 90bd bd00 30bd
00000070: 6963 c83d 9ddb 0cbe ba78 3fbe 6bcb 203d
-0.07976272 -0.21261792 0.047606554 -0.15273787 -0.14188707 0.07556706 -0.13815035 0.08115717
-0.09910426 -0.17181757 0.072475515 -0.05573948 -0.061543167 0.09616032 0.121743366 0.12281058
-0.18966004 -0.17268462 -0.081343286 -0.1090071 -0.15643014 -0.121770345 -0.10292514 0.028319914
-0.10642806 -0.13938737 -0.07056596 -0.042969454 0.09784586 -0.13755651 -0.18698397 0.039256494

action3_mu.weight f4 [1, 32]
00000000: 3a33 d43d 4f9e 603d ade8 24be 48c2 0bbe
00000010: 90c7 18bc b04d 063e f832 a23d d9a5 22be
00000020: 18b5 903d 5001 273e 297a 053e 006d 363d
00000030: c30a 573d a70e 903d 5c66 083d 98c5 de3d
00000040: e545 96bc 5546 783d 3342 88bc 433e e63d
00000050: 9552 00be b712 943d b7e5 633e 7610 443d
00000060: 323c 373e b62c 923d bcc5 503d c513 623d
00000070: ea75 0a3e f43a 3ebd 274f 89bd a939 28bd
0.10361333 0.054838475 -0.16104384 -0.13648331 -0.009324923 0.13115573 0.07919878 -0.15883578
0.07065791 0.16309094 0.13034882 0.044537544 0.052500498 0.07034045 0.033300743 0.10877532
-0.018343875 0.06061395 -0.016633129 0.11242344 -0.12531503 0.07230132 0.22255598 0.04786726
0.17894056 0.07137434 0.050969824 0.055194635 0.13521543 -0.04644294 -0.0670455 -0.041070614

action3_std.weight f4 [1, 32]
00000000: 455e bfbd 5551 593e fc13 223d e6ef 833d
00000010: 982b bebd 03b9 b0bd 9e5f 393e bfcc 5e3d
00000020: 6b2f d9bd f733 e6bd e6f3 c23c 84a4 a13d
00000030: d841 e63d 3b60 c73c 8b53 c83c b01f abbd
00000040: 3c98 343e b67a 0f3e 0bb2 5d3d 626d 2bbd
00000050: 8a19 3fbd d436 8f3d 1219 043e bb76 2bbe
00000060: 59b7 9e3d db17 1d3e 947f 5f3e ece8 cb3d
00000070: cb3b 213e 43a4 353e ebe4 443e 5f66 d13d
-0.09344152 0.21222432 0.03956984 0.06442241 -0.092856586 -0.08629038 0.18102881 0.05439448
-0.106047474 -0.1124038 0.02379794 0.07892707 0.112430274 0.024337878 0.024453899 -0.08355653
0.17636198 0.14011654 0.054124873 -0.041852362 -0.046655215 0.069928795 0.12900189 -0.16744511
0.077498145 0.15341131 0.21826011 0.09956536 0.15745465 0.17738442 0.1922795 0.10224604
