s10lre4e3CCM_MADRL_MEC/model/HYASP_RMAPPO/9-Actor.pth (torch, 161391 bytes, 18 tensors)

fc1.weight f4 [256, 7]
000000 d2 41 c5 be 11 89 cf 3d c2 ab 93 3e 67 ab a4 be
       -0.3852678 0.10133565 0.28841978 -0.3216202
000010 4d 11 b3 be 21 f1 33 bd 4d 68 9d be 5b c1 08 3e
       -0.34974137 -0.04393113 -0.30743638 0.1335501
000020 d5 dd 03 be b5 b3 37 3e 8d ed 60 3e 43 23 47 3e
       -0.12877591 0.17939647 0.21965618 0.19447045
000030 13 fd 8a 3e 88 86 ed 3d 4f 5d 2c 3c ac 78 6b be
       0.27146205 0.115979254 0.010520293 -0.22995251
000040 be 31 20 3d 61 c9 aa 3e cd de 9e bc 54 53 e9 3d
       0.039109938 0.33356765 -0.019393349 0.11392847
000050 9c ee 4b be 9b 85 91 3e 95 2a 27 3e 01 50 d6 3d
       -0.19915241 0.28422245 0.16324838 0.10464478
000060 20 e7 b8 be 1b 27 9d 3d 06 b4 8c 3e 91 64 82 be
       -0.36113834 0.076734744 0.27481097 -0.2546735
000070 60 5e 64 3c ee c7 2f be e1 24 c1 be be 1b 5e be
       0.013938516 -0.17166111 -0.3772345 -0.2169027
000080 c4 ac 90 3d d0 7d a0 be 3e a4 05 3e e8 03 bd 3e
       0.070642024 -0.31345987 0.13050935 0.36917043
000090 4e 88 50 be ea 19 e4 3d 08 69 bf bd 0e e9 aa be
       -0.20364496 0.11137755 -0.09346205 -0.33380932
0000a0 36 ef 8a 3d 5e 96 98 3b 60 97 44 3e 59 05 b8 3e
       0.06783907 0.004656597 0.1919837 0.3594158
0000b0 fa 8c 82 3e 85 37 5a be 8f bc 98 3e 1b 48 9a 3e
       0.25498182 -0.21310242 0.2983136 0.30133137
0000c0 21 86 a0 3d ea 6c 39 3d 42 dd af 3d 89 75 ff 3d
       0.07838083 0.045269884 0.085871235 0.1247359
0000d0 b8 1a 10 bd 33 23 93 3e 7f 05 42 3e 6b 84 d4 3e
       -0.03518173 0.28737792 0.18947409 0.41507277
0000e0 2a 3f d9 3e 23 0a 4e 3e 34 c8 b4 3e 44 55 84 3e
       0.42431003 0.20121054 0.35308993 0.25846303
0000f0 7c ce e3 bd 70 d3 80 be a3 2f 82 3e 85 dd 01 3e
       -0.11123368 -0.25161314 0.2542697 0.12682159
000100 bc bb ed 3e b9 5b cd bd 2e 6e bf be c2 49 86 be
       0.46432292 -0.1002726 -0.37388748 -0.26228148
000110 b0 8b df bc 40 89 17 be ab 41 0e be ce 35 b9 3d
       -0.027288288 -0.1479845 -0.13892238 0.090434656
000120 cd 4f 95 3c 60 d8 a0 3e 73 07 0a bd 05 f4 54 3e
       0.018226529 0.3141508 -0.03369851 0.20796211
000130 5d be 6e 3e c4 f0 3f 3e 71 d3 88 3e 90 92 93 3e
       0.23314805 0.18744189 0.26723817 0.28822756
000140 26 cd e3 3b d6 47 4a 3e 42 f3 83 3e 7a f7 62 3e
       0.006951946 0.19753966 0.25771528 0.22164717
000150 0b de c6 be 5c 4b ae 3d 37 e4 73 3e 60 86 77 3e
       -0.3884128 0.085104674 0.23817526 0.24172354
000160 91 5f 58 be 9f 96 15 3e 3f cc 9c bd 08 98 b3 3e
       -0.21130206 0.14608239 -0.07656144 0.35076928
000170 11 dc 4c 3e 5f 72 90 be 3f fd 8b 3d b3 ef a0 be
       0.20005824 -0.28212258 0.06835412 -0.31432876
000180 06 74 39 3e 22 95 47 3e 82 e5 bc 3e c8 cd 8e 3e
       0.18110666 0.19490483 0.3689385 0.27891374
000190 be 9d 8b 3e 04 6c ee 3d 88 a0 ad 3d bc b2 39 3d
       0.27268785 0.11641696 0.084778845 0.04533647
0001a0 e4 84 fc bd aa b9 34 3e b2 c7 2a be ba b3 c6 bd
       -0.123300344 0.1764895 -0.1667774 -0.09702249
0001b0 cc fa b0 3b fe 0b a2 bd 0a 0f fe bd 53 12 0a 3d
       0.005400991 -0.079124436 -0.12405212 0.03370888
0001c0 94 09 03 be b7 56 bd 3e 49 a7 5f be 8b 74 73 bd
       -0.12796623 0.3698022 -0.21841158 -0.059437316
0001d0 38 75 90 be eb f8 80 3d 45 33 94 3e 97 6b 46 be
       -0.2821443 0.06297477 0.28945366 -0.1937698
0001e0 15 ed 91 3e f2 bb 8f be 4a 89 7e 3d f4 1f 4c 3e
       0.28501192 -0.28073078 0.062142648 0.19934064
0001f0 33 0a 98 3e eb 28 5e be 08 26 52 3e 3f 85 48 be
       0.2969528 -0.21695296 0.2052232 -0.1958208
000200 be 50 6d 3e 5e 14 5d 3e c0 12 c9 3e 46 34 34 3e
       0.23175332 0.215898 0.39272118 0.17598066
000210 1e bd 8f 3e 8d 57 7d 3e 62 2f 18 be d4 2a a5 3e
       0.28073972 0.24740429 -0.14861825 0.32259238
000220 bd 67 71 3d 7a 75 5a 3e 76 8d 83 3d e8 8a 6b 3e
       0.058936823 0.21333876 0.06423466 0.23002207
000230 8a 68 1b bf 6c 64 6f 3e d8 65 5c be b4 78 8d 3e
       -0.6070639 0.23378152 -0.21523225 0.27631152
000240 73 1d 97 bd c4 48 a4 be d5 0a a0 3e de f7 87 3c
       -0.07378664 -0.32086766 0.31258264 0.016597684
000250 af b0 bb be 5c 86 38 be d2 4a 79 bd de 4b 12 3a
       -0.36658236 -0.18020004 -0.06086237 0.0005580763
000260 80 f7 7a 3c 4a 9c 98 3e d1 96 72 bd 29 c8 65 3d
       0.015317798 0.2980674 -0.05922586 0.05609909
000270 95 2a 31 3e d1 5d 5a be 22 ea 4c be 60 f2 9a bd
       0.173014 -0.2132485 -0.2001119 -0.075657606
000280 88 2b 99 bd b9 fa d3 3e 44 37 9a 3e 19 9c 52 3e
       -0.07479006 0.41402224 0.3012029 0.20567359
000290 e0 1d b8 3e 8f 62 81 bd cf 25 81 bc d0 23 d4 3e
       0.35960293 -0.06317627 -0.015765099 0.41433573
0002a0 59 e7 a8 3e fa c3 cf bd 8d 48 80 3e 18 22 b3 be
       0.32989004 -0.101448014 0.25055352 -0.3498695
0002b0 77 af 0d 3e 08 c8 c7 3e 57 9b 5b be 77 1f c3 3b
       0.13836466 0.390198 -0.21445976 0.0059546786
0002c0 04 21 25 be b0 d9 3d be 17 1b 19 3d 7d a3 0a be
       -0.16125876 -0.18540072 0.03737935 -0.13538928
0002d0 1e 8d 6e 3e 09 39 75 3e d0 17 82 be 3d 09 fa bd
       0.2329602 0.23947538 -0.25408792 -0.12208793
0002e0 9f 8b a0 3e 6f 22 b8 bb 32 d5 74 bd 84 3d 7e 3e
       0.31356522 -0.005619339 -0.05977363 0.24828154
0002f0 3b ac e6 bd e4 4c 94 3e ee db 92 bc a2 dc a2 3e
       -0.11263319 0.28964913 -0.017927136 0.31808954
000300 44 82 14 bc c7 96 86 3d 6a 98 85 3e ce 9d c2 be
       -0.009064261 0.06571727 0.26092845 -0.3801102
000310 4f a4 be be 4a 82 cc bd 85 aa 09 bf d8 cb ee 3e
       -0.37234733 -0.09985788 -0.5377582 0.46639895
000320 13 39 d4 3c ef 0a 33 be 15 4d 69 bd 48 db 92 3d
       0.025906121 -0.1748464 -0.056958277 0.07170731
000330 a8 f0 0a bc fc 24 a6 3e e8 d5 88 3e 84 4f 6c 3e
       -0.0084802285 0.32450092 0.26725698 0.23077208
000340 a4 c5 6c be 96 77 19 3e ad d5 1e bd 68 1c a5 3e
       -0.23122269 0.14987025 -0.038777996 0.32248235
000350 62 bd af 3e f7 99 ba bd ae d2 b7 be 7c 06 c5 be
       0.34324175 -0.09111398 -0.35902923 -0.3848151
000360 54 6e 55 be cb 42 d4 be b2 75 5e 3e 31 81 aa 3e
       -0.20842868 -0.4145721 0.21724585 0.3330169
000370 12 8f b5 3e 85 37 78 be a6 3c 5e 3e e4 cf 68 3d
       0.35460716 -0.24239929 0.21702823 0.056838885
000380 b2 fc d2 3e 45 c2 d0 3e 09 23 88 3d a5 4f 3b be
       0.41208416 0.40773216 0.066473074 -0.182921
000390 54 8e c6 3e 1b 3d 69 3e 1d 08 8a 3e cd 00 1e 3e
       0.38780463 0.22777216 0.26959315 0.15429993
0003a0 ab c7 5c bd 89 ce 80 3e d9 e6 44 3e 54 d6 3d be
       -0.053901356 0.25157574 0.19228686 -0.18538791
0003b0 7a e3 14 bf 23 4c d7 be 88 1a aa 3e 8d aa 4d be
       -0.581596 -0.42050275 0.33223367 -0.20084591
0003c0 9c b8 c3 3e f3 d8 8d 3e 09 a6 83 3d 05 11 ba 3e
       0.38226783 0.27704582 0.06428153 0.3634111
0003d0 58 fd 21 3e fe 83 c5 bd 34 a4 ab bd 2e bf 61 3e
       0.15819299 -0.09644316 -0.08380929 0.22045586
0003e0 1c 69 9f be e8 7d 11 3d 52 ea 9c be 44 00 65 3e
       -0.3113488 0.035520464 -0.30647522 0.22363383
0003f0 9d 74 aa 3d 64 8e 22 be 8c f3 df bd 76 47 a8 be
       0.083230235 -0.1587463 -0.10935125 -0.3286702

fc1.bias f4 [256]
000000 d6 b7 7f be 6c 3b c7 3e 40 65 06 bc b1 ce b2 3d
       -0.24972472 0.38912523 -0.008202851 0.087308295
000010 44 6b a2 be f5 80 96 3e 63 f1 41 3d 22 72 d0 bd
       -0.31722462 0.2939526 0.047349345 -0.10178019
000020 5e f3 7f be 96 1f 6c 3e 73 ce eb bd bd ef 69 3e
       -0.24995181 0.23058924 -0.115139864 0.22845359
000030 5c 3a 68 3e bf 1f 97 3e 2f b1 90 be 7f 33 9b 3e
       0.22678512 0.29516408 -0.2826018 0.30312726
000040 87 c1 b9 3e aa 7c ad be f0 e8 8e 3e 16 25 0c 3e
       0.36280462 -0.33884174 0.27912092 0.13686022
000050 ea c9 0a bd 89 60 a7 3c ec e8 f4 3e 33 d3 6f 3e
       -0.033883967 0.020431774 0.47833955 0.2342041
000060 77 09 b5 bc 01 65 97 3e b0 2f bf 3e 7b 15 a9 be
       -0.02209924 0.29569247 0.3734107 -0.330242
000070 fc f1 d9 3d b9 f4 4b 3c 9b 13 b8 bd f5 87 b2 3d
       0.10641858 0.012448483 -0.089881144 0.08717338
000080 ac 69 c5 3c a7 67 be bd 00 dd ae be 55 77 90 3e
       0.02409824 -0.09297114 -0.34152985 0.28216043
000090 0a 2b d1 3d c7 74 e1 bd ca 93 b8 be 54 a4 a4 3e
       0.10213287 -0.11008602 -0.36050254 0.32156622
0000a0 2a a9 6b bc f0 9c 9c 3e 98 46 55 be 4e 7a c5 3e
       -0.014383594 0.30588484 -0.2082771 0.38569874
0000b0 9c 0f 44 be 92 e5 72 be f1 a7 cb 3e 69 df 6e 3e
       -0.1914658 -0.23720387 0.39776567 0.23327412
0000c0 9e 71 2a be 1e 68 46 3e 24 08 8a 3e 8c 08 84 3e
       -0.16644904 0.19375655 0.26959336 0.2578777
0000d0 30 eb d1 3e cf e8 24 3e e2 dd 8c be 81 88 88 bc
       0.40999746 0.16104434 -0.27513033 -0.016666653
0000e0 90 3e 98 3d 6b fc 6d 3e eb 01 71 3b d2 b3 14 be
       0.07433808 0.23240821 0.0036774825 -0.14521721
0000f0 a0 86 06 be 5a 3b 0c bd a3 ca 87 3d a1 29 0b 3e
       -0.13137293 -0.03423629 0.06630447 0.13590099
000100 50 4b 97 bc 05 c4 22 bd 2f ba be 3e c3 b7 a5 be
       -0.018468529 -0.03973772 0.37251422 -0.32366762
000110 1e c8 d1 bd 69 db 2f bd 23 85 a5 3e e1 a5 9e be
       -0.102432474 -0.042933855 0.32328138 -0.3098593
000120 5d 3b 92 be f8 8c b8 3e fa f5 a7 3e 63 65 99 3d
       -0.28560916 0.3604505 0.32804853 0.07490041
000130 01 a3 87 be 7d c0 85 3e 92 e5 98 3e 88 ef 0e 3b
       -0.2649155 0.2612342 0.29862648 0.0021810252
000140 17 09 97 3e aa 0b 95 be dc b2 d6 3e 5c a9 8b 3e
       0.29499123 -0.2911046 0.41933334 0.27277648
000150 69 14 9b bc 5d 77 b0 3e 32 d8 30 3e db cc a0 be
       -0.01893063 0.34466067 0.17269972 -0.31406292
000160 cd 5e 54 3e 06 68 93 be b2 4b 3d 3e ae fb ab bc
       0.20739289 -0.287903 0.18485907 -0.020994034
000170 c7 7c 16 be 04 58 96 3e 29 ff 93 be 5e 6a 93 be
       -0.14696036 0.29364026 -0.2890561 -0.2879209
000180 56 59 59 3e 6d da 7e bd c3 a8 91 be c6 09 8b 3e
       0.21225485 -0.062220026 -0.28449067 0.27155894
000190 d8 a0 9f be 3c 01 9d 3e 7c 51 9d be 22 18 bd 3e
       -0.31177402 0.30665004 -0.3072623 0.36932474
0001a0 2f 0e 56 3e b8 3e b5 3e 20 07 b5 3d 6c 19 30 be
       0.20903848 0.35399413 0.088392496 -0.17197198
0001b0 5a 26 84 be 97 c0 5a bd d2 54 ca bd 0e 49 d2 3e
       -0.2581051 -0.053406324 -0.098794594 0.4107136
0001c0 db fa a9 3e 62 fd 2f bc d9 66 03 bd 62 f0 00 3d
       0.331992 -0.0107415635 -0.032080505 0.031479247
0001d0 fc 3e 55 be 08 63 86 3e d8 7e 6e be 91 4f 5c be
       -0.20824808 0.2624743 -0.23290575 -0.21514727
0001e0 d8 25 86 be de ca 5d 3e 03 81 7e be 01 2e 65 be
       -0.26200747 0.21659419 -0.24853902 -0.2238083
0001f0 c0 95 3d 3e a0 d4 80 3e ca 93 b3 bd ba b9 0a bd
       0.18514156 0.2516222 -0.08768423 -0.03386853
000200 9f c4 c4 3e 9b 2e 7a 3e 78 2c 4b 3d b7 12 93 3e
       0.3843126 0.24431841 0.049602956 0.28725216
000210 7d aa 94 3d d2 38 8b 3e d8 bf 5c 3e 8f e7 77 be
       0.072590806 0.27191788 0.21557558 -0.24209426
000220 38 ac 84 3e b9 df 64 3e 52 1c f5 bc 8a e9 49 be
       0.25912642 0.22350968 -0.02992073 -0.19717994
000230 38 96 17 3e 7e b7 c3 bd cd a0 ad 3e b1 47 6e 3d
       0.14803398 -0.09556483 0.33911744 0.05817384
000240 d8 51 dc 3e 8a eb 3e be 91 e2 6b 3d e8 f1 a8 bd
       0.43031192 -0.18644539 0.057589117 -0.08249265
000250 0a fc bb 3e f3 e6 0e be 58 8f 59 bd b5 c0 24 3d
       0.36715728 -0.13955288 -0.05311522 0.040222842
000260 6c 23 c7 3e 66 05 f8 3d dd ed d7 3d 16 1a 95 be
       0.38894212 0.12110405 0.10543416 -0.29121464
000270 fe 50 69 be c4 a3 a5 be 12 4e cd 3e c3 7a cc 3e
       -0.22784802 -0.32351506 0.40098625 0.3993741
000280 42 63 c0 be b4 41 17 bd ea 4b 09 3e 0c e6 6b be
       -0.37575728 -0.036927894 0.13407865 -0.23036975
000290 2f 23 97 3e 42 83 52 3e 02 dc 0a 3e a6 24 52 be
       0.2951903 0.20557883 0.13560489 -0.20521793
0002a0 ec 13 88 3e b4 b8 06 bd 1b bf 32 3e 09 56 bc 3e
       0.265777 -0.03289099 0.17455713 0.3678439
0002b0 23 23 49 be 41 32 9e be 1c 65 d0 3e 0b 4a dd 3d
       -0.1964231 -0.30897716 0.4070214 0.10805138
0002c0 9c b0 95 3c 2f d1 a2 3e 71 92 4c bd 0e e7 2e 3c
       0.01827269 0.3180022 -0.049944345 0.010675205
0002d0 2a da 3d bc 32 26 91 3c 97 ce 06 be f3 6d 60 be
       -0.011587659 0.017718408 -0.13164745 -0.21916942
0002e0 47 58 89 3e 0e 56 9f 3e 37 ee 92 be 98 60 e7 bd
       0.26825163 0.31120342 -0.28697369 -0.11297721
0002f0 f3 2c ee 3d c4 e0 83 3e d7 64 88 be 36 5d 5c 3e
       0.11629667 0.2575742 -0.26639435 0.21519932
000300 9b 62 11 3e 04 56 71 3e 1a 81 b6 3e dd e0 53 3e
       0.14197771 0.23567969 0.35645372 0.20691247
000310 19 ab 29 be ba 1f 33 bc 18 c2 90 3e 52 df 2c 3e
       -0.16569175 -0.010932857 0.28273082 0.16882065
000320 3d 04 a3 3e 76 6b 71 be 82 57 b9 3e aa 35 35 be
       0.3183917 -0.2357615 0.36199576 -0.17696252
000330 c2 7e b1 bd d3 78 02 be d9 41 1f 3d ae 20 b0 be
       -0.08666755 -0.12741403 0.038881157 -0.34399933
000340 c5 43 9a 3e 96 78 c5 be e9 2d f0 bc a4 39 d3 be
       0.3012983 -0.38568562 -0.029318767 -0.41254914
000350 d8 ab 0a be 3f 18 97 3e b4 a8 29 be 80 bd 85 bd
       -0.13542116 0.29510686 -0.16568261 -0.06530285
000360 72 88 0e be 49 80 9d 3e 72 33 d4 3e ce f0 3e 3e
       -0.13919237 0.30761936 0.414455 0.18646547
000370 25 f1 9b 3e 95 aa 59 be e5 fa 68 bd 2e 03 9e be
       0.30457416 -0.21256478 -0.056879897 -0.308618
000380 d3 1d a1 3d a7 c9 58 3c 64 92 ab 3e 91 12 74 3d
       0.07867017 0.013231671 0.33510125 0.05958802
000390 e1 d1 98 3d 52 78 53 be 7c 7f eb bc 0e 37 a3 3d
       0.07461906 -0.20651367 -0.028747313 0.07969485
0003a0 46 ef b2 3d 1a 79 ab bc a1 a1 6a 3e d5 7d 39 3e
       0.08737044 -0.02093177 0.22913219 0.18114407
0003b0 80 27 f5 bd d7 9a 41 bc 8d 45 95 3d 55 97 a7 be
       -0.11970425 -0.011816702 0.072886564 -0.32732645
0003c0 e4 23 ad bc 95 53 92 3e 8a 2c f0 3e 9a 1b ce 3e
       -0.021135278 0.28579393 0.4690898 0.40255433
0003d0 34 12 81 bd 2e f2 95 bd d8 86 6d be d8 9c 7f 3e
       -0.063023 -0.07321583 -0.2319597 0.24962175
0003e0 71 e1 a5 3e cd 06 65 bd 8a a7 79 bc 4e 17 c0 3d
       0.3239856 -0.05591469 -0.015237698 0.09379445
0003f0 a2 2d af bc 8d 5a a2 be 68 b8 15 3d e7 1d 9e be
       -0.021384064 -0.3170971 0.036552817 -0.3088219

ln1.alpha f4 [256]
000000 00 00 80 3f 00 00 80 3f 00 00 80 3f 00 00 80 3f
       1.0 1.0 1.0 1.0
000010 00 00 80 3f 00 00 80 3f 00 00 80 3f 00 00 80 3f
       1.0 1.0 1.0 1.0
000020 00 00 80 3f 00 00 80 3f 00 00 80 3f 00 00 80 3f
       1.0 1.0 1.0 1.0
000030 00 00 80 3f 00 00 80 3f 00 00 80 3f 00 00 80 3f
       1.0 1.0 1.0 1.0
000040 00 00 80 3f 00 00 80 3f 00 00 80 3f 00 00 80 3f
       1.0 1.0 1.0 1.0
000050 00 00 80 3f 00 00 80 3f 00 00 80 3f 00 00 80 3f
       1.0 1.0 1.0 1.0
000060 00 00 80 3f 00 00 80 3f 00 00 80 3f 00 00 80 3f
       1.0 1.0 1.0 1.0
000070 00 00 80 3f 00 00 80 3f 00 00 80 3f 00 00 80 3f
       1.0 1.0 1.0 1.0
000080 00 00 80 3f 00 00 80 3f 00 00 80 3f 00 00 80 3f
       1.0 1.0 1.0 1.0
000090 00 00 80 3f 00 00 80 3f 00 00 80 3f 00 00 80 3f
       1.0 1.0 1.0 1.0
0000a0 00 00 80 3f 00 00 80 3f 00 00 80 3f 00 00 80 3f
       1.0 1.0 1.0 1.0
0000b0 00 00 80 3f 00 00 80 3f 00 00 80 3f 00 00 80 3f
       1.0 1.0 1.0 1.0
0000c0 00 00 80 3f 00 00 80 3f 00 00 80 3f 00 00 80 3f
       1.0 1.0 1.0 1.0
0000d0 00 00 80 3f 00 00 80 3f 00 00 80 3f 00 00 80 3f
       1.0 1.0 1.0 1.0
0000e0 00 00 80 3f 00 00 80 3f 00 00 80 3f 00 00 80 3f
       1.0 1.0 1.0 1.0
0000f0 00 00 80 3f 00 00 80 3f 00 00 80 3f 00 00 80 3f
       1.0 1.0 1.0 1.0
000100 00 00 80 3f 00 00 80 3f 00 00 80 3f 00 00 80 3f
       1.0 1.0 1.0 1.0
000110 00 00 80 3f 00 00 80 3f 00 00 80 3f 00 00 80 3f
       1.0 1.0 1.0 1.0
000120 00 00 80 3f 00 00 80 3f 00 00 80 3f 00 00 80 3f
       1.0 1.0 1.0 1.0
000130 00 00 80 3f 00 00 80 3f 00 00 80 3f 00 00 80 3f
       1.0 1.0 1.0 1.0
000140 00 00 80 3f 00 00 80 3f 00 00 80 3f 00 00 80 3f
       1.0 1.0 1.0 1.0
000150 00 00 80 3f 00 00 80 3f 00 00 80 3f 00 00 80 3f
       1.0 1.0 1.0 1.0
000160 00 00 80 3f 00 00 80 3f 00 00 80 3f 00 00 80 3f
       1.0 1.0 1.0 1.0
000170 00 00 80 3f 00 00 80 3f 00 00 80 3f 00 00 80 3f
       1.0 1.0 1.0 1.0
000180 00 00 80 3f 00 00 80 3f 00 00 80 3f 00 00 80 3f
       1.0 1.0 1.0 1.0
000190 00 00 80 3f 00 00 80 3f 00 00 80 3f 00 00 80 3f
       1.0 1.0 1.0 1.0
0001a0 00 00 80 3f 00 00 80 3f 00 00 80 3f 00 00 80 3f
       1.0 1.0 1.0 1.0
0001b0 00 00 80 3f 00 00 80 3f 00 00 80 3f 00 00 80 3f
       1.0 1.0 1.0 1.0
0001c0 00 00 80 3f 00 00 80 3f 00 00 80 3f 00 00 80 3f
       1.0 1.0 1.0 1.0
0001d0 00 00 80 3f 00 00 80 3f 00 00 80 3f 00 00 80 3f
       1.0 1.0 1.0 1.0
0001e0 00 00 80 3f 00 00 80 3f 00 00 80 3f 00 00 80 3f
       1.0 1.0 1.0 1.0
0001f0 00 00 80 3f 00 00 80 3f 00 00 80 3f 00 00 80 3f
       1.0 1.0 1.0 1.0
000200 00 00 80 3f 00 00 80 3f 00 00 80 3f 00 00 80 3f
       1.0 1.0 1.0 1.0
000210 00 00 80 3f 00 00 80 3f 00 00 80 3f 00 00 80 3f
       1.0 1.0 1.0 1.0
000220 00 00 80 3f 00 00 80 3f 00 00 80 3f 00 00 80 3f
       1.0 1.0 1.0 1.0
000230 00 00 80 3f 00 00 80 3f 00 00 80 3f 00 00 80 3f
       1.0 1.0 1.0 1.0
000240 00 00 80 3f 00 00 80 3f 00 00 80 3f 00 00 80 3f
       1.0 1.0 1.0 1.0
000250 00 00 80 3f 00 00 80 3f 00 00 80 3f 00 00 80 3f
       1.0 1.0 1.0 1.0
000260 00 00 80 3f 00 00 80 3f 00 00 80 3f 00 00 80 3f
       1.0 1.0 1.0 1.0
000270 00 00 80 3f 00 00 80 3f 00 00 80 3f 00 00 80 3f
       1.0 1.0 1.0 1.0
000280 00 00 80 3f 00 00 80 3f 00 00 80 3f 00 00 80 3f
       1.0 1.0 1.0 1.0
000290 00 00 80 3f 00 00 80 3f 00 00 80 3f 00 00 80 3f
       1.0 1.0 1.0 1.0
0002a0 00 00 80 3f 00 00 80 3f 00 00 80 3f 00 00 80 3f
       1.0 1.0 1.0 1.0
0002b0 00 00 80 3f 00 00 80 3f 00 00 80 3f 00 00 80 3f
       1.0 1.0 1.0 1.0
0002c0 00 00 80 3f 00 00 80 3f 00 00 80 3f 00 00 80 3f
       1.0 1.0 1.0 1.0
0002d0 00 00 80 3f 00 00 80 3f 00 00 80 3f 00 00 80 3f
       1.0 1.0 1.0 1.0
0002e0 00 00 80 3f 00 00 80 3f 00 00 80 3f 00 00 80 3f
       1.0 1.0 1.0 1.0
0002f0 00 00 80 3f 00 00 80 3f 00 00 80 3f 00 00 80 3f
       1.0 1.0 1.0 1.0
000300 00 00 80 3f 00 00 80 3f 00 00 80 3f 00 00 80 3f
       1.0 1.0 1.0 1.0
000310 00 00 80 3f 00 00 80 3f 00 00 80 3f 00 00 80 3f
       1.0 1.0 1.0 1.0
000320 00 00 80 3f 00 00 80 3f 00 00 80 3f 00 00 80 3f
       1.0 1.0 1.0 1.0
000330 00 00 80 3f 00 00 80 3f 00 00 80 3f 00 00 80 3f
       1.0 1.0 1.0 1.0
000340 00 00 80 3f 00 00 80 3f 00 00 80 3f 00 00 80 3f
       1.0 1.0 1.0 1.0
000350 00 00 80 3f 00 00 80 3f 00 00 80 3f 00 00 80 3f
       1.0 1.0 1.0 1.0
000360 00 00 80 3f 00 00 80 3f 00 00 80 3f 00 00 80 3f
       1.0 1.0 1.0 1.0
000370 00 00 80 3f 00 00 80 3f 00 00 80 3f 00 00 80 3f
       1.0 1.0 1.0 1.0
000380 00 00 80 3f 00 00 80 3f 00 00 80 3f 00 00 80 3f
       1.0 1.0 1.0 1.0
000390 00 00 80 3f 00 00 80 3f 00 00 80 3f 00 00 80 3f
       1.0 1.0 1.0 1.0
0003a0 00 00 80 3f 00 00 80 3f 00 00 80 3f 00 00 80 3f
       1.0 1.0 1.0 1.0
0003b0 00 00 80 3f 00 00 80 3f 00 00 80 3f 00 00 80 3f
       1.0 1.0 1.0 1.0
0003c0 00 00 80 3f 00 00 80 3f 00 00 80 3f 00 00 80 3f
       1.0 1.0 1.0 1.0
0003d0 00 00 80 3f 00 00 80 3f 00 00 80 3f 00 00 80 3f
       1.0 1.0 1.0 1.0
0003e0 00 00 80 3f 00 00 80 3f 00 00 80 3f 00 00 80 3f
       1.0 1.0 1.0 1.0
0003f0 00 00 80 3f 00 00 80 3f 00 00 80 3f 00 00 80 3f
       1.0 1.0 1.0 1.0

ln1.bias f4 [256]
000000 00 00 00 00 00 00 00 00 00 00 00 00 00 00 00 00
       0.0 0.0 0.0 0.0
000010 00 00 00 00 00 00 00 00 00 00 00 00 00 00 00 00
       0.0 0.0 0.0 0.0
000020 00 00 00 00 00 00 00 00 00 00 00 00 00 00 00 00
       0.0 0.0 0.0 0.0
000030 00 00 00 00 00 00 00 00 00 00 00 00 00 00 00 00
       0.0 0.0 0.0 0.0
000040 00 00 00 00 00 00 00 00 00 00 00 00 00 00 00 00
       0.0 0.0 0.0 0.0
000050 00 00 00 00 00 00 00 00 00 00 00 00 00 00 00 00
       0.0 0.0 0.0 0.0
000060 00 00 00 00 00 00 00 00 00 00 00 00 00 00 00 00
       0.0 0.0 0.0 0.0
000070 00 00 00 00 00 00 00 00 00 00 00 00 00 00 00 00
       0.0 0.0 0.0 0.0
000080 00 00 00 00 00 00 00 00 00 00 00 00 00 00 00 00
       0.0 0.0 0.0 0.0
000090 00 00 00 00 00 00 00 00 00 00 00 00 00 00 00 00
       0.0 0.0 0.0 0.0
0000a0 00 00 00 00 00 00 00 00 00 00 00 00 00 00 00 00
       0.0 0.0 0.0 0.0
0000b0 00 00 00 00 00 00 00 00 00 00 00 00 00 00 00 00
       0.0 0.0 0.0 0.0
0000c0 00 00 00 00 00 00 00 00 00 00 00 00 00 00 00 00
       0.0 0.0 0.0 0.0
0000d0 00 00 00 00 00 00 00 00 00 00 00 00 00 00 00 00
       0.0 0.0 0.0 0.0
0000e0 00 00 00 00 00 00 00 00 00 00 00 00 00 00 00 00
       0.0 0.0 0.0 0.0
0000f0 00 00 00 00 00 00 00 00 00 00 00 00 00 00 00 00
       0.0 0.0 0.0 0.0
000100 00 00 00 00 00 00 00 00 00 00 00 00 00 00 00 00
       0.0 0.0 0.0 0.0
000110 00 00 00 00 00 00 00 00 00 00 00 00 00 00 00 00
       0.0 0.0 0.0 0.0
000120 00 00 00 00 00 00 00 00 00 00 00 00 00 00 00 00
       0.0 0.0 0.0 0.0
000130 00 00 00 00 00 00 00 00 00 00 00 00 00 00 00 00
       0.0 0.0 0.0 0.0
000140 00 00 00 00 00 00 00 00 00 00 00 00 00 00 00 00
       0.0 0.0 0.0 0.0
000150 00 00 00 00 00 00 00 00 00 00 00 00 00 00 00 00
       0.0 0.0 0.0 0.0
000160 00 00 00 00 00 00 00 00 00 00 00 00 00 00 00 00
       0.0 0.0 0.0 0.0
000170 00 00 00 00 00 00 00 00 00 00 00 00 00 00 00 00
       0.0 0.0 0.0 0.0
000180 00 00 00 00 00 00 00 00 00 00 00 00 00 00 00 00
       0.0 0.0 0.0 0.0
000190 00 00 00 00 00 00 00 00 00 00 00 00 00 00 00 00
       0.0 0.0 0.0 0.0
0001a0 00 00 00 00 00 00 00 00 00 00 00 00 00 00 00 00
       0.0 0.0 0.0 0.0
0001b0 00 00 00 00 00 00 00 00 00 00 00 00 00 00 00 00
       0.0 0.0 0.0 0.0
0001c0 00 00 00 00 00 00 00 00 00 00 00 00 00 00 00 00
       0.0 0.0 0.0 0.0
0001d0 00 00 00 00 00 00 00 00 00 00 00 00 00 00 00 00
       0.0 0.0 0.0 0.0
0001e0 00 00 00 00 00 00 00 00 00 00 00 00 00 00 00 00
       0.0 0.0 0.0 0.0
0001f0 00 00 00 00 00 00 00 00 00 00 00 00 00 00 00 00
       0.0 0.0 0.0 0.0
000200 00 00 00 00 00 00 00 00 00 00 00 00 00 00 00 00
       0.0 0.0 0.0 0.0
000210 00 00 00 00 00 00 00 00 00 00 00 00 00 00 00 00
       0.0 0.0 0.0 0.0
000220 00 00 00 00 00 00 00 00 00 00 00 00 00 00 00 00
       0.0 0.0 0.0 0.0
000230 00 00 00 00 00 00 00 00 00 00 00 00 00 00 00 00
       0.0 0.0 0.0 0.0
000240 00 00 00 00 00 00 00 00 00 00 00 00 00 00 00 00
       0.0 0.0 0.0 0.0
000250 00 00 00 00 00 00 00 00 00 00 00 00 00 00 00 00
       0.0 0.0 0.0 0.0
000260 00 00 00 00 00 00 00 00 00 00 00 00 00 00 00 00
       0.0 0.0 0.0 0.0
000270 00 00 00 00 00 00 00 00 00 00 00 00 00 00 00 00
       0.0 0.0 0.0 0.0
000280 00 00 00 00 00 00 00 00 00 00 00 00 00 00 00 00
       0.0 0.0 0.0 0.0
000290 00 00 00 00 00 00 00 00 00 00 00 00 00 00 00 00
       0.0 0.0 0.0 0.0
0002a0 00 00 00 00 00 00 00 00 00 00 00 00 00 00 00 00
       0.0 0.0 0.0 0.0
0002b0 00 00 00 00 00 00 00 00 00 00 00 00 00 00 00 00
       0.0 0.0 0.0 0.0
0002c0 00 00 00 00 00 00 00 00 00 00 00 00 00 00 00 00
       0.0 0.0 0.0 0.0
0002d0 00 00 00 00 00 00 00 00 00 00 00 00 00 00 00 00
       0.0 0.0 0.0 0.0
0002e0 00 00 00 00 00 00 00 00 00 00 00 00 00 00 00 00
       0.0 0.0 0.0 0.0
0002f0 00 00 00 00 00 00 00 00 00 00 00 00 00 00 00 00
       0.0 0.0 0.0 0.0
000300 00 00 00 00 00 00 00 00 00 00 00 00 00 00 00 00
       0.0 0.0 0.0 0.0
000310 00 00 00 00 00 00 00 00 00 00 00 00 00 00 00 00
       0.0 0.0 0.0 0.0
000320 00 00 00 00 00 00 00 00 00 00 00 00 00 00 00 00
       0.0 0.0 0.0 0.0
000330 00 00 00 00 00 00 00 00 00 00 00 00 00 00 00 00
       0.0 0.0 0.0 0.0
000340 00 00 00 00 00 00 00 00 00 00 00 00 00 00 00 00
       0.0 0.0 0.0 0.0
000350 00 00 00 00 00 00 00 00 00 00 00 00 00 00 00 00
       0.0 0.0 0.0 0.0
000360 00 00 00 00 00 00 00 00 00 00 00 00 00 00 00 00
       0.0 0.0 0.0 0.0
000370 00 00 00 00 00 00 00 00 00 00 00 00 00 00 00 00
       0.0 0.0 0.0 0.0
000380 00 00 00 00 00 00 00 00 00 00 00 00 00 00 00 00
       0.0 0.0 0.0 0.0
000390 00 00 00 00 00 00 00 00 00 00 00 00 00 00 00 00
       0.0 0.0 0.0 0.0
0003a0 00 00 00 00 00 00 00 00 00 00 00 00 00 00 00 00
       0.0 0.0 0.0 0.0
0003b0 00 00 00 00 00 00 00 00 00 00 00 00 00 00 00 00
       0.0 0.0 0.0 0.0
0003c0 00 00 00 00 00 00 00 00 00 00 00 00 00 00 00 00
       0.0 0.0 0.0 0.0
0003d0 00 00 00 00 00 00 00 00 00 00 00 00 00 00 00 00
       0.0 0.0 0.0 0.0
0003e0 00 00 00 00 00 00 00 00 00 00 00 00 00 00 00 00
       0.0 0.0 0.0 0.0
0003f0 00 00 00 00 00 00 00 00 00 00 00 00 00 00 00 00
       0.0 0.0 0.0 0.0

fc2.weight f4 [128, 256]
000000 57 18 02 3d 24 12 7b 3d f6 0e d3 bc 53 a5 cf bd
       0.031761494 0.061296597 -0.02576397 -0.10138955
000010 08 60 71 bc 45 a0 b8 bd fc 30 93 bd 3f 51 9a 3d
       -0.014732368 -0.09014944 -0.071870774 0.07535028
000020 0f 9b 08 3d 21 df 2a be 24 67 8f 3b 86 23 1a 3c
       0.033351 -0.1668668 0.004376309 0.0094078835
000030 82 b6 04 b8 16 f4 57 bd eb 1b 12 3d 31 90 91 bd
       -3.1641226e-05 -0.052723013 0.035671156 -0.071075805
000040 d4 89 90 bd a4 c6 88 3e 2f ce 44 3c ca f4 06 bc
       -0.07057539 0.2671405 0.012012049 -0.008237073
000050 33 af bc bd cb 85 e0 3b 28 b2 da bd d9 b4 a7 bc
       -0.09213104 0.006851887 -0.10678512 -0.020471977
000060 2a cc 18 be 76 c4 69 bd 97 d2 75 bc b6 90 bc 3d
       -0.14921632 -0.057072125 -0.015003822 0.09207289
000070 28 e4 7b be 74 fe b1 3d 5e ec c7 bd de 9e 4d 3d
       -0.24598753 0.08691111 -0.0976188 0.050200336
000080 d0 2c ec bb 76 be 87 be 94 f8 77 3d 42 02 4e bd
       -0.0072074905 -0.26512498 0.060539797 -0.050295122
000090 e0 6c 5c bd 5a 6e 59 be 86 45 5c bd b0 b9 16 bd
       -0.05381477 -0.21233502 -0.05377724 -0.03679818
0000a0 e8 28 20 be d5 6a b2 bd 94 87 47 3e a8 23 cc bd
       -0.15640604 -0.08711783 0.19485313 -0.099677384
0000b0 91 97 d7 3c aa f2 8c 3d ed 1d 94 bc 26 9c 20 3d
       0.02631739 0.06882222 -0.018080676 0.039211415
0000c0 98 67 aa bd 7a 92 8a bd 19 90 26 bd 51 b8 23 be
       -0.0832054 -0.067662194 -0.040664766 -0.1598828
0000d0 05 6e 37 3d 0a 20 3d bd 07 e5 ed 3d ae 79 4f 3c
       0.044782657 -0.046173133 0.11615949 0.012663288
0000e0 d1 84 19 bd ed 89 68 3d f6 96 a5 be c6 51 c8 3b
       -0.03748018 0.05677216 -0.32341737 0.006113264
0000f0 86 9a 79 be be 02 86 be cc f5 25 bd f6 4f e5 bd
       -0.24375352 -0.26173967 -0.040517613 -0.11196892
000100 60 a2 01 bb 2f fe 36 be 68 d4 1a bd a2 ce 1b 3e
       -0.001978062 -0.17870401 -0.037800223 0.15215543
000110 0b 91 2b bd 47 dc a1 3b 46 df d0 bc 72 1c 00 3e
       -0.04188637 0.004939589 -0.02549709 0.12510851
000120 ee 66 59 be 9c 02 4d 3d af 64 49 3d 08 2a ae 3d
       -0.21230671 0.050051317 0.049168285 0.085041106
000130 60 0a 60 3c 9a 31 a7 3d 06 84 ff 3c 58 b3 8e be
       0.013674349 0.081637576 0.031190883 -0.27871203
000140 be 35 d5 3b 02 45 45 3d 1f 4e 1d 3d ea 8d 11 3d
       0.0065066507 0.048161514 0.03840458 0.03553573
000150 aa a0 48 3e 98 7e 2e bd 6e 8e e0 3c f5 bb 81 bd
       0.19592538 -0.042601198 0.027411666 -0.06334678
000160 35 85 49 bc 8f b7 a2 be 22 5d 61 3e 7a 1b 20 bd
       -0.012299825 -0.3178067 0.22008184 -0.039088704
000170 8c 4b 13 3d da 56 57 3c ec a8 54 3e bb bb c3 3d
       0.03596072 0.013143266 0.20767564 0.09557291
000180 50 64 e1 bd 8e d4 c0 bd 77 05 8e be 8b 48 de bc
       -0.11005461 -0.094155416 -0.27738544 -0.0271342
000190 a4 65 92 bc 06 2c 30 be 68 21 01 3e a6 9f 83 bd
       -0.017870732 -0.17204294 0.126104 -0.06426935
0001a0 5d 01 04 be 77 a0 e9 3b 1f 51 23 bd d0 b8 4d 3d
       -0.12891145 0.0071297246 -0.039872285 0.05022508
0001b0 5a d2 53 3d 1b 13 1d 3e cc 80 0f 3e e5 5f c4 bb
       0.05171428 0.1533932 0.14013976 -0.005992877
0001c0 a2 47 e9 bc fc 68 47 3c 1b c9 a6 3c 14 fe 6b be
       -0.02847654 0.012171026 0.020359566 -0.23046142
0001d0 0e 53 09 be 38 81 9d bd 56 9b 2b 3d 57 c5 f7 3d
       -0.13410589 -0.07690662 0.041896187 0.120981865
0001e0 20 24 ad bb 26 21 f1 bd 10 a8 37 bd fe db 7c 3d
       -0.0052838475 -0.11773901 -0.04483801 0.06173324
0001f0 1c e9 84 bd 25 8a 86 3d 9c a3 b7 3e 3a 71 46 3e
       -0.064897746 0.06569318 0.35867012 0.1937913
000200 e9 20 a7 3c e4 a5 a5 bc a5 3b b3 bd a5 1a 15 3d
       0.020401435 -0.020220704 -0.08751611 0.036402363
000210 ab 59 90 3d 23 bf c5 3c 05 fb 8d bd 04 cb 31 be
       0.07048353 0.024138993 -0.06932644 -0.173626
000220 00 0a 01 3d de f4 ce 3c c9 65 98 bc 49 1f 21 3d
       0.031503677 0.025263246 -0.018603222 0.039336476
000230 66 e5 af bc 34 06 23 bd 30 31 4e bd 1c eb f7 3d
       -0.02147169 -0.039800838 -0.050339878 0.121053904
000240 26 9f 28 be e6 cc 0c 3e ae 64 2e bd b6 7c 22 3d
       -0.1646696 0.13750038 -0.042576484 0.039669715
000250 b2 4b 7c 3c 9c 75 03 3e 9d 29 d0 3b 99 90 bc 3c
       0.015398907 0.12837833 0.006352617 0.023018168
000260 0b 67 cc 3c cf 68 20 bd e7 2e 81 bd 86 31 1d bd
       0.024951478 -0.039162453 -0.06307774 -0.038377307
000270 38 a9 13 3d 3e 43 a8 ba 1f c5 ad bc 8d bf b4 3d
       0.03605005 -0.0012837423 -0.021212159 0.08825598
000280 7b 3d 94 3d 57 72 49 be 53 6d 64 3d 0e 48 53 bd
       0.07238289 -0.19672523 0.055768322 -0.05158239
000290 60 a8 ad 3d 25 a6 18 be ac dd 9f 3d eb b8 c5 3c
       0.084793806 -0.14907129 0.078059524 0.024136027
0002a0 8d 97 31 3c 48 e4 0c 3d 89 33 af 3d 30 a0 78 bd
       0.010839355 0.034397393 0.085547514 -0.06069964
0002b0 60 ff e1 bb 92 05 95 3d 34 6d 57 bd f0 96 28 3c
       -0.006896898 0.07276453 -0.05259438 0.010289893
0002c0 f3 9f 2b be 37 a7 16 bd 0c 46 96 be 1f 2b 9a be
       -0.16760235 -0.036780562 -0.29350317 -0.30111024
0002d0 c9 c2 0e 3d d4 70 7a 3e 05 5c ae 3d 86 7a 21 be
       0.03485373 0.24457103 0.08513645 -0.15769395
0002e0 3d ed d7 3c dd 7c 6c 3d 7d bf 70 bc 66 01 d7 3d
       0.026358241 0.057736266 -0.014694092 0.104983136
0002f0 a8 58 ee bd 2f 94 36 bd 92 d1 2b 3d 8c 48 17 bd
       -0.116380036 -0.044574913 0.04194791 -0.03693442
000300 95 06 ef bd c0 6d 5a 3e 46 6e 98 bc e1 ab 38 bd
       -0.11671177 0.21330929 -0.01860727 -0.04508579
000310 14 ea 56 3e e6 fa 31 3e 2a 90 d2 3c aa 40 64 bc
       0.20987731 0.17380866 0.025703508 -0.013931433
000320 d7 f3 c1 3d be e8 38 3d fb 13 54 3d 54 72 93 bc
       0.09470337 0.045143835 0.051776867 -0.017998852
000330 8a 22 53 be 13 d7 83 3d 9a 7e 2c 3d 94 ff f7 3c
       -0.20618644 0.064375065 0.042112924 0.030273236
000340 ee 4a 19 3d 44 bc c6 3d 47 bd 40 3e 7a 29 da 3d
       0.037424974 0.097038776 0.18822204 0.10652442
000350 a4 eb 64 3d b4 9e 63 bd d1 36 22 3d 59 8b d0 be
       0.055888787 -0.055571273 0.03960306 -0.40731314
000360 65 72 0f be 32 ca 2a 3c d9 01 75 bd 75 43 63 3d
       -0.14008482 0.010424184 -0.059816215 0.055484254
000370 b6 c9 5a 3c 3e e6 7f be 49 0b 9a 3e e9 7e 04 3e
       0.013353756 -0.24990174 0.30086735 0.12939037
000380 dc 95 87 bc 58 de 5b be d0 39 0e 3d 9e 72 98 3b
       -0.01655095 -0.21471536 0.034723103 0.0046523353
000390 a9 27 09 3d b9 57 9f bc b3 6b f6 3c 8a 34 f5 bb
       0.03348509 -0.01945101 0.030080652 -0.00748307
0003a0 21 ef c8 3c 0a fc 5d be 49 36 48 3d 8f f9 ec bd
       0.024528088 -0.21678177 0.048879895 -0.11571037
0003b0 fe f7 e7 3c c2 3c 3c 3e 35 34 23 be 2b 84 89 3d
       0.028316494 0.18382552 -0.15937884 0.06714662
0003c0 58 50 04 3e 63 dc 9f bb ee 3f c7 bc 59 69 b3 bd
       0.12921274 -0.004878567 -0.024322476 -0.08760328
0003d0 c0 80 8f ba 9a e6 6d bd 31 47 4e be 6b e7 ed bd
       -0.0010948405 -0.058081247 -0.20144345 -0.11616405
0003e0 2e 4c 31 bc c1 69 d5 3d 8f 9b 3d 3d 6e 07 c7 bd
       -0.010821385 0.104205616 0.04629093 -0.09718214
0003f0 9e 98 94 bd 8a 92 09 3e e2 51 c8 bd e4 93 68 bc
       -0.07255672 0.13434806 -0.09781243 -0.014195416

fc2.bias f4 [128]
000000 27 bc 40 3d e8 c7 5d bd 7e 9f 54 3d 4f 2a ce 3c
       0.047054436 -0.054145724 0.051909916 0.025166659
000010 05 9c 0f 3c fd 08 44 3d 94 16 c0 bc 0e ad c8 bc
       0.008765225 0.047860134 -0.023448266 -0.024496581
000020 e9 14 5a 3d b8 5b 6e bd e5 3c 1b 3d 1c 24 3d 3d
       0.053242598 -0.05819294 0.03789987 0.046177015
000030 a5 9a 93 bc b6 03 a2 3c 3d 5a 4c bd 36 b8 81 3d
       -0.018018076 0.01977716 -0.049890745 0.063339636
000040 94 29 02 bd f3 6b 28 bd 34 63 d3 3c 0a cf 5d 3d
       -0.031777933 -0.041118573 0.02580414 0.054152526
000050 3d ce 3c 3d 7a 77 f9 3c 67 8a 24 bc 76 20 f7 3c
       0.04609512 0.030452479 -0.010042763 0.030166846
000060 15 63 a3 3d 68 69 1b 3d 89 a7 40 3d c3 fb 67 bc
       0.07977883 0.03794232 0.047034774 -0.014159146
000070 59 2d 4f 3b 34 af 11 3d ac 16 23 3d 04 5f 0d 3d
       0.0031612723 0.035567477 0.039816543 0.034514442
000080 c0 e6 94 3d 15 44 14 3d bf 1f 5b 3a 4c 3f 3d bd
       0.072705746 0.03619774 0.00083589175 -0.046202943
000090 ff 0b 6f bd b4 78 e2 bc 17 ca 3c bc 77 33 dd 3c
       -0.05836105 -0.027645446 -0.011522791 0.02700208
0000a0 8b cc 3e bd 5f f2 47 3d 22 e1 64 3d 12 18 e4 3c
       -0.046581786 0.048815127 0.055878766 0.027843509
0000b0 75 c4 34 3d 54 57 b9 bc 7d 43 61 bc 4f 92 ce bc
       0.04413267 -0.02262465 -0.013749001 -0.02521625
0000c0 3e 1d 01 3d 98 37 5c bd fb dc ae bc b2 6d 7a ba
       0.03152203 -0.053763956 -0.021345606 -0.0009553089
0000d0 c8 b6 59 3d 61 5b 31 bd 38 85 78 bc 60 bd a2 3c
       0.05315283 -0.043300036 -0.015168481 0.019865692
0000e0 9b ca 44 3d 3d da 4d bd 6c d3 0d 3b 23 b7 84 3c
       0.048044782 -0.050256956 0.002164091 0.016200608
0000f0 b2 90 4c bd 6c 31 9b 3d d6 4b 02 bd 13 09 85 bd
       -0.04994268 0.07577786 -0.031810604 -0.064958714
000100 84 d1 35 3d a5 4c 75 3c e3 3c 97 3d 9f fa 59 bd
       0.044389263 0.014971887 0.0738466 -0.053217527
000110 a0 6f 8d 3b 28 1f 0d bd 04 16 b7 bc 85 9a 21 bd
       0.0043162853 -0.03445354 -0.022349365 -0.039454002
000120 c2 aa 08 3d bf 51 57 3d f6 2c 8c 3a 38 4c a6 3b
       0.033365972 0.052568194 0.0010694552 0.005075004
000130 b3 ff 95 3d 4d 73 a1 bc c9 fd 1e 3d a1 04 c1 bb
       0.073241614 -0.0197083 0.038816247 -0.0058904444
000140 31 d3 e2 3d d6 57 d3 bc c9 69 7f bc 1c c0 2c 3d
       0.11075438 -0.02579872 -0.015589186 0.042175397
000150 8e c5 70 bd 17 19 c6 bc 1c 97 23 bd f5 f2 a6 bc
       -0.058782153 -0.024181886 -0.03993903 -0.020379523
000160 ed 31 ea b8 9d f0 b4 3d ce 42 9b 3b 92 ef 0e 3d
       -0.00011167289 0.08834956 0.0047381883 0.03489644
000170 38 96 fb bc 91 cf 1c 3d 78 98 27 bd f1 bf 6a bd
       -0.030711278 0.03828389 -0.04091689 -0.057311956
000180 52 58 6d bd ae d5 00 3d 0a b8 2c 3d a9 bd 6d bb
       -0.057945557 0.03145378 0.0421677 -0.0036276376
000190 82 3a bf 3c 4c 30 4f bd 58 71 79 bd b9 22 91 bc
       0.023343328 -0.05058317 -0.06089911 -0.017716752
0001a0 9c c9 d5 3c 99 f1 d4 3d e7 68 b2 3d fa 2d 6f 3b
       0.026097111 0.103976436 0.08711415 0.003649591
0001b0 d4 83 c7 3d dd 65 17 bd 45 46 0d 3d 82 63 f8 bc
       0.09741941 -0.03696238 0.034490842 -0.030320887
0001c0 90 76 2d bb bf 55 22 bd 27 8e 61 3d c3 93 b2 3a
       -0.0026468374 -0.039632555 0.055067208 0.0013624359
0001d0 cc 65 c1 3c 6d ab 55 3d 59 5d ef 3c 99 fc 00 3d
       0.02360811 0.052165437 0.029219316 0.031490896
0001e0 3e 5b 83 bd 3d c4 12 bd 6c e6 5a bc a0 36 f9 bc
       -0.064138874 -0.03583168 -0.013360601 -0.030421555
0001f0 91 7f 17 bc ce 5c 0e bd 4b 14 19 bd 46 ad 24 3d
       -0.009246723 -0.034756474 -0.03737287 0.04020431

ln2.alpha f4 [128]
000000 00 00 80 3f 00 00 80 3f 00 00 80 3f 00 00 80 3f
       1.0 1.0 1.0 1.0
000010 00 00 80 3f 00 00 80 3f 00 00 80 3f 00 00 80 3f
       1.0 1.0 1.0 1.0
000020 00 00 80 3f 00 00 80 3f 00 00 80 3f 00 00 80 3f
       1.0 1.0 1.0 1.0
000030 00 00 80 3f 00 00 80 3f 00 00 80 3f 00 00 80 3f
       1.0 1.0 1.0 1.0
000040 00 00 80 3f 00 00 80 3f 00 00 80 3f 00 00 80 3f
       1.0 1.0 1.0 1.0
000050 00 00 80 3f 00 00 80 3f 00 00 80 3f 00 00 80 3f
       1.0 1.0 1.0 1.0
000060 00 00 80 3f 00 00 80 3f 00 00 80 3f 00 00 80 3f
       1.0 1.0 1.0 1.0
000070 00 00 80 3f 00 00 80 3f 00 00 80 3f 00 00 80 3f
       1.0 1.0 1.0 1.0
000080 00 00 80 3f 00 00 80 3f 00 00 80 3f 00 00 80 3f
       1.0 1.0 1.0 1.0
000090 00 00 80 3f 00 00 80 3f 00 00 80 3f 00 00 80 3f
       1.0 1.0 1.0 1.0
0000a0 00 00 80 3f 00 00 80 3f 00 00 80 3f 00 00 80 3f
       1.0 1.0 1.0 1.0
0000b0 00 00 80 3f 00 00 80 3f 00 00 80 3f 00 00 80 3f
       1.0 1.0 1.0 1.0
0000c0 00 00 80 3f 00 00 80 3f 00 00 80 3f 00 00 80 3f
       1.0 1.0 1.0 1.0
0000d0 00 00 80 3f 00 00 80 3f 00 00 80 3f 00 00 80 3f
       1.0 1.0 1.0 1.0
0000e0 00 00 80 3f 00 00 80 3f 00 00 80 3f 00 00 80 3f
       1.0 1.0 1.0 1.0
0000f0 00 00 80 3f 00 00 80 3f 00 00 80 3f 00 00 80 3f
       1.0 1.0 1.0 1.0
000100 00 00 80 3f 00 00 80 3f 00 00 80 3f 00 00 80 3f
       1.0 1.0 1.0 1.0
000110 00 00 80 3f 00 00 80 3f 00 00 80 3f 00 00 80 3f
       1.0 1.0 1.0 1.0
000120 00 00 80 3f 00 00 80 3f 00 00 80 3f 00 00 80 3f
       1.0 1.0 1.0 1.0
000130 00 00 80 3f 00 00 80 3f 00 00 80 3f 00 00 80 3f
       1.0 1.0 1.0 1.0
000140 00 00 80 3f 00 00 80 3f 00 00 80 3f 00 00 80 3f
       1.0 1.0 1.0 1.0
000150 00 00 80 3f 00 00 80 3f 00 00 80 3f 00 00 80 3f
       1.0 1.0 1.0 1.0
000160 00 00 80 3f 00 00 80 3f 00 00 80 3f 00 00 80 3f
       1.0 1.0 1.0 1.0
000170 00 00 80 3f 00 00 80 3f 00 00 80 3f 00 00 80 3f
       1.0 1.0 1.0 1.0
000180 00 00 80 3f 00 00 80 3f 00 00 80 3f 00 00 80 3f
       1.0 1.0 1.0 1.0
000190 00 00 80 3f 00 00 80 3f 00 00 80 3f 00 00 80 3f
       1.0 1.0 1.0 1.0
0001a0 00 00 80 3f 00 00 80 3f 00 00 80 3f 00 00 80 3f
       1.0 1.0 1.0 1.0
0001b0 00 00 80 3f 00 00 80 3f 00 00 80 3f 00 00 80 3f
       1.0 1.0 1.0 1.0
0001c0 00 00 80 3f 00 00 80 3f 00 00 80 3f 00 00 80 3f
       1.0 1.0 1.0 1.0
0001d0 00 00 80 3f 00 00 80 3f 00 00 80 3f 00 00 80 3f
       1.0 1.0 1.0 1.0
0001e0 00 00 80 3f 00 00 80 3f 00 00 80 3f 00 00 80 3f
       1.0 1.0 1.0 1.0
0001f0 00 00 80 3f 00 00 80 3f 00 00 80 3f 00 00 80 3f
       1.0 1.0 1.0 1.0

ln2.bias f4 [128]
000000 00 00 00 00 00 00 00 00 00 00 00 00 00 00 00 00
       0.0 0.0 0.0 0.0
000010 00 00 00 00 00 00 00 00 00 00 00 00 00 00 00 00
       0.0 0.0 0.0 0.0
000020 00 00 00 00 00 00 00 00 00 00 00 00 00 00 00 00
       0.0 0.0 0.0 0.0
000030 00 00 00 00 00 00 00 00 00 00 00 00 00 00 00 00
       0.0 0.0 0.0 0.0
000040 00 00 00 00 00 00 00 00 00 00 00 00 00 00 00 00
       0.0 0.0 0.0 0.0
000050 00 00 00 00 00 00 00 00 00 00 00 00 00 00 00 00
       0.0 0.0 0.0 0.0
000060 00 00 00 00 00 00 00 00 00 00 00 00 00 00 00 00
       0.0 0.0 0.0 0.0
000070 00 00 00 00 00 00 00 00 00 00 00 00 00 00 00 00
       0.0 0.0 0.0 0.0
000080 00 00 00 00 00 00 00 00 00 00 00 00 00 00 00 00
       0.0 0.0 0.0 0.0
000090 00 00 00 00 00 00 00 00 00 00 00 00 00 00 00 00
       0.0 0.0 0.0 0.0
0000a0 00 00 00 00 00 00 00 00 00 00 00 00 00 00 00 00
       0.0 0.0 0.0 0.0
0000b0 00 00 00 00 00 00 00 00 00 00 00 00 00 00 00 00
       0.0 0.0 0.0 0.0
0000c0 00 00 00 00 00 00 00 00 00 00 00 00 00 00 00 00
       0.0 0.0 0.0 0.0
0000d0 00 00 00 00 00 00 00 00 00 00 00 00 00 00 00 00
       0.0 0.0 0.0 0.0
0000e0 00 00 00 00 00 00 00 00 00 00 00 00 00 00 00 00
       0.0 0.0 0.0 0.0
0000f0 00 00 00 00 00 00 00 00 00 00 00 00 00 00 00 00
       0.0 0.0 0.0 0.0
000100 00 00 00 00 00 00 00 00 00 00 00 00 00 00 00 00
       0.0 0.0 0.0 0.0
000110 00 00 00 00 00 00 00 00 00 00 00 00 00 00 00 00
       0.0 0.0 0.0 0.0
000120 00 00 00 00 00 00 00 00 00 00 00 00 00 00 00 00
       0.0 0.0 0.0 0.0
000130 00 00 00 00 00 00 00 00 00 00 00 00 00 00 00 00
       0.0 0.0 0.0 0.0
000140 00 00 00 00 00 00 00 00 00 00 00 00 00 00 00 00
       0.0 0.0 0.0 0.0
000150 00 00 00 00 00 00 00 00 00 00 00 00 00 00 00 00
       0.0 0.0 0.0 0.0
000160 00 00 00 00 00 00 00 00 00 00 00 00 00 00 00 00
       0.0 0.0 0.0 0.0
000170 00 00 00 00 00 00 00 00 00 00 00 00 00 00 00 00
       0.0 0.0 0.0 0.0
000180 00 00 00 00 00 00 00 00 00 00 00 00 00 00 00 00
       0.0 0.0 0.0 0.0
000190 00 00 00 00 00 00 00 00 00 00 00 00 00 00 00 00
       0.0 0.0 0.0 0.0
0001a0 00 00 00 00 00 00 00 00 00 00 00 00 00 00 00 00
       0.0 0.0 0.0 0.0
0001b0 00 00 00 00 00 00 00 00 00 00 00 00 00 00 00 00
       0.0 0.0 0.0 0.0
0001c0 00 00 00 00 00 00 00 00 00 00 00 00 00 00 00 00
       0.0 0.0 0.0 0.0
0001d0 00 00 00 00 00 00 00 00 00 00 00 00 00 00 00 00
       0.0 0.0 0.0 0.0
0001e0 00 00 00 00 00 00 00 00 00 00 00 00 00 00 00 00
       0.0 0.0 0.0 0.0
0001f0 00 00 00 00 00 00 00 00 00 00 00 00 00 00 00 00
       0.0 0.0 0.0 0.0

discrete_action.weight f4 [2, 128]
000000 37 df 34 bf 0f 65 93 b9 76 3f 07 bf 92 2f fe be
       -0.706531 -0.0002811332 -0.5283121 -0.49645668
000010 6a 46 28 bf dd 95 08 bf 81 bf 1e bf 04 70 e2 b8
       -0.65732443 -0.53353673 -0.6201096 -0.00010797384
000020 63 03 17 bb 32 5b 1e bf 8d 86 2d 3f 1e d9 f5 be
       -0.002304279 -0.61857903 0.67783433 -0.4801721
000030 7b cf 2d bf a6 75 1f bc 6b 8d 20 bf 6d 2f 18 bf
       -0.67894715 -0.009732639 -0.62715787 -0.59447366
000040 ff 11 01 bf 36 b6 88 3a 17 41 00 bf 6b 5c 04 bf
       -0.50418085 0.001043028 -0.5009932 -0.5170352
000050 e3 85 14 bf 4a bb dd be 75 a1 20 bf 1b 38 11 bf
       -0.58016795 -0.43306953 -0.62746364 -0.56726235
000060 26 53 4e 3f a9 dd 32 3f e7 4a 94 3c ba 92 0b 3f
       0.80595624 0.69869477 0.018102122 0.5452076
000070 86 c6 9d 3a 3a 0f 74 bc 03 a3 27 3f 7c 4a c7 bb
       0.0012037314 -0.014896208 0.6548311 -0.0060818773
000080 b9 52 2b 3f 3c 3c 24 bf e9 78 8a 3b 6e ea df be
       0.669231 -0.6415441 0.0042258394 -0.43733543
000090 ab b7 38 bf 06 4e 7f ba 4d bc 94 3a 2e e1 d8 bc
       -0.72155255 -0.00097391044 0.0011347622 -0.026474562
0000a0 ea 01 02 3b 96 55 11 3a 11 c0 b3 3b 41 e0 77 be
       0.0019837567 0.00055440643 0.0054855426 -0.2420664
0000b0 8e 95 7a be 94 9b ea be d5 64 2d 3e 79 97 79 ba
       -0.24471113 -0.45821822 0.16932996 -0.00095211674
0000c0 24 15 81 3c 2c 6c 43 3c be b2 da 3e 48 f6 0a bc
       0.015757151 0.011927646 0.42714494 -0.00848157
0000d0 85 6f e4 3e 5d 33 1f bf 6c 92 09 3a c5 92 b4 bc
       0.44616333 -0.6218775 0.0005247954 -0.022042641
0000e0 50 af 31 bf 61 19 2b bf 42 d2 08 3b fb 93 2a 3b
       -0.6940813 -0.668356 0.0020877277 0.0026028145
0000f0 10 0e ba 39 17 b0 33 3f 11 d8 25 bf 9e a4 75 b9
       0.00035487162 0.70190567 -0.64782816 -0.00023426345
000100 be 16 46 bb 99 c9 a4 3b 56 a3 34 3f 10 21 7b 39
       -0.0030225958 0.005028915 0.7056173 0.00023949542
000110 e3 6f 16 bf f8 7b 21 ba 1f ad a4 bb 4b 92 70 3b
       -0.58764476 -0.00061601354 -0.0050255205 0.003670829
000120 64 9a 6e bc cc ec 21 3e cc 33 7c 3b e3 f5 0b bf
       -0.014563177 0.15812987 0.0038483022 -0.5467207
000130 c5 be 51 be 6d da bf 3c fe 74 b4 3e 06 96 ec be
       -0.20482929 0.023419583 0.35245508 -0.4620821
000140 70 a8 08 3f 6a 18 59 bb b2 b7 53 3f 85 26 13 bf
       0.53382015 -0.0033126124 0.8270217 -0.5748065
000150 4f 72 11 bf 1e 88 61 3a 10 0a e7 be 58 b8 0b 3b
       -0.56815046 0.0008603352 -0.45124865 0.0021319594
000160 7c 44 f5 be 83 c1 1f 3f 64 47 56 b9 6d c2 51 3e
       -0.47903812 0.6240465 -0.00020435225 0.20484324
000170 a9 a4 69 3a bd b1 02 bf 4d 0b 11 3b 88 5b dd b8
       0.0008912781 -0.5105246 0.002213198 -0.0001055515
000180 31 58 0b 3b ec 1e e2 be d1 aa 59 3f 11 33 20 bf
       0.0021262283 -0.44164217 0.8502627 -0.6257792
000190 8d ac 20 bf 6d ad 5c ba 36 e4 a4 b9 ae d7 cb be
       -0.6276329 -0.00084181764 -0.00031450548 -0.39812988
0001a0 28 4f f3 be cd d6 3d 3f 91 de 0b 3e 9f 47 3a 3f
       -0.4752133 0.74155885 0.13659121 0.72765535
0001b0 3f f3 3b 3f f6 08 b7 3c 2c 19 67 3b 90 90 56 bb
       0.7341804 0.02234314 0.0035262806 -0.0032739975
0001c0 68 21 0c bf a4 cc 2e ba ed f1 16 3c e0 d9 ce be
       -0.54738474 -0.0006668067 0.009212953 -0.404006
0001d0 6c e0 fa be 47 67 38 3f e5 5d cc 3b 24 f7 ab be
       -0.48999345 0.7203259 0.006236779 -0.3358699
0001e0 89 69 3a bf d4 77 a1 3a 62 91 cc be 02 73 10 3a
       -0.72817284 0.0012319037 -0.39954668 0.00055103016
0001f0 fb f7 a5 3a 31 88 3c bf 10 d8 e6 38 1d 75 bb 3b
       0.0012662405 -0.7364531 0.000110074994 0.005720748
000200 97 d9 34 3f 7d ed b0 39 02 9f 07 3f f0 ad fe 3e
       0.70644516 0.00033746278 0.52977 0.4974208
000210 a3 a7 28 3f bd a1 08 3f 5f a5 1e 3f 2f 50 b0 3a
       0.65880793 0.53371793 0.61971086 0.0013451631
000220 90 b5 45 3a 0f 6e 1e 3f 7f 99 2d bf 93 3f f6 3e
       0.00075420085 0.61886686 -0.6781234 0.48095378
000230 8f 33 2e 3f c8 60 26 3c 4f 63 20 3f a1 1e 18 3f
       0.6804742 0.01015491 0.6265153 0.59421736
000240 b8 36 01 3f b1 9e 0f b9 61 24 00 3f 6d d2 04 3f
       0.5047412 -0.0001369666 0.5005551 0.51883584
000250 4d 8f 14 3f 24 73 dd 3e c3 62 20 3f 7f 65 11 3f
       0.5803116 0.43251908 0.626507 0.56795496
000260 07 1c 4e bf 51 08 33 bf ed 46 92 bc 0b dd 0b bf
       -0.80511516 -0.69934565 -0.017856086 -0.5463416
000270 9f 07 a7 ba 2a ef 82 3c c5 a9 27 bf 3b df b0 3b
       -0.001274336 0.015983183 -0.6549342 0.005397705
000280 51 4c 2b bf b5 62 24 3f 17 77 a1 bb 86 b8 e0 3e
       -0.66913325 0.64213115 -0.0049275267 0.4389078
000290 57 f2 38 3f 30 37 a3 38 60 01 eb ba 88 e2 dc 3c
       0.7224478 7.782725e-05 -0.0017929487 0.026963487
0002a0 70 45 0b bb 8e 0c 68 ba f1 00 b6 bb 6b 26 76 3e
       -0.0021251105 -0.00088519685 -0.0055543114 0.24038093
0002b0 1e 26 7b 3e be bc ea 3e 4a c7 2d be 00 d4 11 ba
       0.2452626 0.45847124 -0.16970554 -0.00055629015
0002c0 8c a0 7c bc 92 0a 53 bc a0 c7 da be 48 28 ff 3b
       -0.015419137 -0.012880938 -0.42730427 0.0077867843
0002d0 8d 80 e4 be 7b 65 1f 3f 0f e3 30 ba 4f c0 b1 3c
       -0.44629326 0.6226422 -0.00067477016 0.021698145
0002e0 59 b1 31 3f ed e2 2a 3f 52 fa c8 ba 80 96 f9 ba
       0.69411236 0.6675251 -0.001533339 -0.0019042045
0002f0 b3 7f 80 ba e7 d5 33 bf 23 d5 25 3f 68 20 79 b9
       -0.0009803682 -0.70248264 0.64778346 -0.00023758563
000300 b0 9b 2b 3b 33 d1 b7 bb 63 86 34 bf 40 da 65 38
       0.0026185326 -0.0056096553 -0.7051756 5.4801116e-05
000310 47 e8 16 3f 6e c1 76 ba b1 ea a2 3b 9a 98 a6 bb
       0.5894818 -0.00094129785 0.004971825 -0.0050841095
000320 58 0a 5b 3c 42 a3 22 be 96 0b 53 bb 0d f4 0b 3f
       0.013369165 -0.1588259 -0.003220295 0.54669267
000330 bd 6f 53 3e ea e2 bd bc ed 61 b4 be ec 9b ec 3e
       0.20648094 -0.02317949 -0.3523096 0.4621271
000340 99 75 08 bf bf 3e 9b 3b 38 f0 53 bf 73 47 13 3f
       -0.5330444 0.0047377045 -0.8278842 0.575309
000350 99 9b 11 3f a3 27 51 ba a0 b6 e6 3e 32 3c 4f bb
       0.5687805 -0.00079786236 0.45061207 -0.0031621573
000360 8c 20 f5 3e 03 ba 1f bf ee 87 a4 39 58 0f 52 be
       0.47876394 -0.62393206 0.00031381793 -0.20513666
000370 7d 5f e2 b7 d0 a8 02 3f 58 f0 42 bb bd 47 c4 37
       -2.6985765e-05 0.5103884 -0.0029745307 2.3398426e-05
000380 04 4d 02 bb 4f ba e2 3e 84 ba 59 bf 05 35 20 3f
       -0.001988233 0.44282767 -0.85050225 0.625809
000390 1f ac 20 3f 20 c2 04 39 40 6a 1e 3a 04 36 cc 3e
       0.62762636 0.00012660818 0.0006043054 0.3988496
0003a0 b0 d6 f2 3e 9f be 3d bf 7b 13 0b be 97 15 3a bf
       0.4742942 -0.7411899 -0.1358165 -0.72689193
0003b0 53 df 3b bf f8 65 ad bc 4f 1e 54 bb 9f 33 2d 3b
       -0.7338764 -0.021166787 -0.0032366698 0.0026428474
0003c0 21 62 0c 3f dc 3f 9f 3a d3 a0 2c bc 22 4c cf 3e
       0.5483723 0.0012149769 -0.01053639 0.40487772
0003d0 c6 9a fa 3e 2d 54 38 bf c6 60 ad bb 9f 07 ac 3e
       0.48946208 -0.7200344 -0.0052910773 0.33599564
0003e0 eb 5c 3a 3f 14 34 25 bb f6 c5 cc 3e ae d7 bc 39
       0.7279803 -0.0025208043 0.39994782 0.00036018848
0003f0 0e a6 4f ba ff 7d 3c 3f 90 4c 93 38 31 1c 81 bb
       -0.00079211674 0.73629755 7.023767e-05 -0.0039401283

discrete_action.bias f4 [2]
000000 5d 45 20 bc 89 5e 26 3c
       -0.0097821625 0.010154375
