s10lre4e3CCM_MADRL_MEC/model/50-800-16-20-80/Com_DDPG/3-actors.pth (torch, 90707 bytes, 9 tensors)

fc1.weight f4 [128, 7]
0.112550534 0.29925588 -0.2668191 0.11691311 -0.2601072 -0.23655479 -0.2996413 0.07124989
-0.31549126 -0.14744113 0.08162735 -0.20106962 0.33314106 -0.3061138 -0.030125935 0.019638512
0.23097005 -0.311525 -0.19548753 0.10539931 -0.06845317 0.19797836 0.2819279 -0.28973076
0.36048782 -0.00907808 -0.085410096 -0.029762303 -0.34994397 0.043469056 0.052662615 -0.19338235
-0.1462458 -0.25449914 -0.23183642 -0.40717486 0.054809522 -0.13770685 -0.22911204 0.0021371765
-0.07454835 -0.2626084 -0.038880814 0.33797023 0.081165984 -0.047172323 -0.1487817 0.26709136
-0.29971468 -0.10276956 0.26406226 -0.33166468 0.035339817 -0.0392196 -0.070589215 -0.21007147
0.23053768 -0.3778572 0.21673472 0.20374925 -0.37947175 -0.35091856 0.18350089 -0.101202995
0.05356585 -0.1798009 -0.13583651 -0.3979377 -0.16141964 0.016615124 0.0096097775 -0.21666588
0.27745533 -0.17220357 0.3624068 0.1138767 0.12262152 0.3274896 -0.31797162 -0.15940939
-0.23050581 0.07634439 0.31923354 -0.24783374 -0.30638292 0.31921288 -0.077162795 -0.05714039
-0.27446958 0.04465724 0.18396229 -0.26474497 0.13368812 0.21325745 0.0089065125 0.11889561
0.20575562 -0.1017116 0.039722346 0.02750952 -0.031102287 -0.372337 0.20673962 0.00057598454
0.1555711 0.017985132 -0.20561494 -0.019209566 0.14375214 -0.11363203 -0.28675738 0.15849854
0.17149185 0.2044989 -0.16025555 -0.18275508 -0.40990657 -0.29836163 -0.10941559 0.1341754
-0.10172278 0.27476764 0.16149749 -0.3521179 0.028507289 -0.03643178 -0.2282751 -0.3654654
-0.081721075 -0.030541401 0.12880239 0.35972852 -0.12086402 0.2624881 -0.10529258 0.09819234
-0.31396565 -0.051508307 -0.27139267 0.18554048 0.23007308 -0.061979905 0.010477017 -0.0630845
0.30919412 0.26600662 -0.16109212 0.18402097 -0.036069065 0.19330318 -0.04724356 -0.34740707
-0.4382008 0.21889795 -0.31578723 -0.31206128 -0.18807118 0.11031477 0.29888454 -0.3428454
0.16055715 0.018896293 -0.12908621 0.36152256 -0.009645602 -0.21058409 0.25009853 0.2755089
-0.36798993 0.071836434 0.23247917 -0.25521255 0.27579814 -0.1746844 0.3940371 -0.38324028
0.001484115 0.0027565025 0.062043846 -0.41547287 -0.43473142 0.33408967 -0.011266005 0.025026305
-0.038660496 0.29937565 0.06641505 -0.17860541 0.3085902 -0.05490138 -0.37542292 0.12055874
-0.056490228 0.014184749 0.07298386 0.24794574 0.38309366 0.066913515 -0.042449176 -0.10719258
-0.28313228 0.339704 -0.17663112 0.28817862 0.12445909 0.12115603 -0.060732894 0.31365255
-0.1626037 -0.21651243 0.2752902 0.18440564 -0.021482525 0.050606128 0.2368382 0.3019582
0.33414605 -0.22466429 -0.055423453 -0.09747506 0.07213512 -0.2166614 -0.20338804 -0.34010798
0.094849415 -0.17484102 0.09421042 0.198544 0.18936194 0.33115417 0.2657737 0.08512408
0.066070214 0.07054849 -0.070838064 0.121928975 0.21548434 -0.14560293 0.10421455 -0.12096173
0.24473514 -0.13303113 -0.26196134 -0.25808513 0.39040226 0.16989623 -0.40466616 -0.099416696
0.18659742 -0.09911828 -0.06671781 -0.31110054 0.030408693 -0.2533514 -0.30921173 0.28784582
00000000: e580 e63d 1138 993e 839c 88be 2470 ef3d
00000010: c52c 85be 6b3b 72be 966a 99be 76eb 913d
00000020: 1288 a1be cffa 16be 3d2c a73d 32e5 4dbe
00000030: 7791 aa3e f3ba 9cbe aaca f6bc f2e0 a03c
00000040: 6a83 6c3e 3480 9fbe e22d 48be 98db d73d
00000050: 2d31 8cbd d7ba 4a3e db58 903e 9757 94be
00000060: dc91 b83e 3abc 14bc 7deb aebd 13d0 f3bc
00000070: db2b b3be 9c0c 323d c1b4 573d 0606 46be
00000080: 76c1 15be b64d 82be 8766 6dbe 3979 d0be
00000090: f37f 603d 0603 0dbe 599c 6abe df0f 0c3b
000000a0: ceac 98bd 9c74 86be 7d41 1fbd 6f0a ad3e
000000b0: 5a3a a63d c437 41bd 3b5a 18be 33c0 883e
000000c0: 3474 99be d978 d2bd 2b33 873e f4cf a9be
000000d0: 7cc0 103d bba4 20bd 1491 90bd fa1c 57be
000000e0: 1212 6c3e 8076 c1be b5ef 5d3e a5a3 503e
000000f0: 1f4a c2be 99ab b3be a8e7 3b3e 8443 cfbd
00000100: dd67 5b3d ba1d 38be ba18 0bbe 7dbe cbbe
00000110: 314b 25be 711c 883c 5472 1d3c a9dd 5dbe
00000120: a00e 8e3e 2256 30be 628d b93e 3038 e93d
00000130: fe20 fb3d b8ac a73e 2dcd a2be 373c 23be
00000140: b709 6cbe 735a 9c3d 9472 a33e 21c8 7dbe
00000150: 39de 9cbe df6f a33e 8707 9ebd 0b0c 6abd
00000160: 4787 8cbe 83ea 363d 9c60 3c3e a78c 87be
00000170: 8ae5 083e 2960 5a3e 9fec 113c 8b7f f33d
00000180: 9ab1 523e 2c4e d0bd e6b3 223d a55b e13c
00000190: 39ca febc f5a2 bebe 8db3 533e abfd 163a
000001a0: 084e 1f3e 8e55 933c b98c 52be 615d 9dbc
000001b0: c333 133e e9b7 e8bd ddd1 92be 714d 223e
000001c0: 8f9b 2f3e 2968 513e 081a 24be 2624 3bbe
000001d0: 46df d1be dbc2 98be 4815 e0bd 4765 093e
000001e0: 0854 d0bd 58ae 8c3e 995f 253e cc48 b4be
000001f0: 1e88 e93c 7d39 15bd f3c0 69be 481e bbbe
00000200: 615d a7bd f631 fabc c6e4 033e 562e b83e
00000210: 8e87 f7bd d764 863e a3a3 d7bd 1119 c93d
00000220: 1bc0 a0be 60fa 52bd fbf3 8abe 53fe 3d3e
00000230: 4798 6b3e a4de 7dbd cba7 2b3c 7232 81bd
00000240: b14e 9e3e 0532 883e 55f5 24be fe6f 3c3e
00000250: 28bd 13bd 45f1 453e 7782 41bd 57df b1be
00000260: db5b e0be c926 603e ddae a1be 7fc6 9fbe
00000270: bb95 40be b6ec e13d 6507 993e 6f89 afbe
00000280: 1869 243e 66cc 9a3c 2d2f 04be 7c19 b93e
00000290: 9608 1ebc 5ba3 57be ea0c 803e 810f 8d3e
000002a0: 2d69 bcbe fb1e 933d 050f 6e3e 38ab 82be
000002b0: 6a35 8d3e 78e0 32be 3bbf c93e 1238 c4be
000002c0: a386 c23a 70a6 343b b021 7e3d dcb8 d4be
000002d0: 1e95 debe cd0d ab3e 0d95 38bc f703 cd3c
000002e0: 785a 1ebd c447 993e 9d04 883d 56e4 36be
000002f0: 89ff 9d3e 45e0 60bd 6f37 c0be 80e7 f63d
00000300: 4c62 67bd 2667 683c 9078 953d 7de5 7d3e
00000310: da24 c43e f409 893d 30df 2dbd c987 dbbd
00000320: b7f6 90be afed ad3e cade 34be 268c 933e
00000330: 68e4 fe3d a720 f83d 0ec3 78bd 1197 a03e
00000340: 9681 26be 6fb5 5dbe d6f2 8c3e d5d4 3c3e
00000350: 1ffc afbc 5f48 4f3d b785 723e 449a 9a3e
00000360: 3115 ab3e 650e 66be b403 63bd 01a1 c7bd
00000370: 94bb 933d 7cdc 5dbe f444 50be a222 aebe
00000380: 6940 c23d 8609 33be 65f1 c03d 1e4f 4b3e
00000390: 19e8 413e 0a8d a93e 7e13 883e 8955 ae3d
000003a0: d24f 873d ba7b 903d 8c13 91bd e6b5 f93d
000003b0: eda7 5c3e ef18 15be 706e d53d c9ba f7bd
000003c0: d99b 7a3e 5039 08be cc1f 86be bc23 84be
000003d0: cee2 c73e 47f9 2d3e 6730 cfbe fb9a cbbd
000003e0: 6513 3f3e 86fe cabd 59a3 88bd 9248 9fbe
000003f0: a71b f93c 46b7 81be 0051 9ebe 8760 933e

fc1.bias f4 [128]
0.21088974 -0.16306867 0.0015458654 0.36919612 0.30268243 -0.21933441 0.15248336 -0.35991928
0.1562937 -0.24951465 -0.27656102 -0.04748872 -0.043915577 -0.15344363 -0.01871219 0.16591199
-0.25883886 -0.14348434 -0.10249581 0.03245953 0.298362 -0.40337384 0.1010911 -0.0945111
-0.3425713 -0.31413326 0.3336615 -0.08477649 -0.21402682 0.0056736716 0.15387133 -0.37563094
0.0011988399 0.12468329 0.08230634 -0.4127403 0.17928371 -0.2883484 0.12851791 -0.06931493
-0.3606256 0.38025704 0.029751388 0.186238 0.06725331 0.36748978 0.20393038 -0.19556427
-0.33136243 -0.30340773 -0.35899147 -0.07476882 -0.27026865 -0.15927622 -0.15502371 -0.20535637
-0.028867377 0.3416792 -0.2141154 0.34664083 0.40272948 0.3478454 -0.046949573 0.16652882
0.3156964 0.19234698 -0.2882044 -0.04743258 -0.0032898132 0.1720768 -0.08164203 0.06719011
0.2954332 0.10015028 0.1869951 0.3385737 -0.036355693 -0.035451535 0.16140175 -0.03751501
0.19287796 -0.012819227 -0.15713102 0.10242344 -0.394697 -0.08793994 0.25930864 -0.36154655
0.1767042 -0.0026252738 0.19850272 -0.29692614 -0.26054373 0.31807357 -0.32831597 -0.09195969
0.13484018 -0.28907493 0.18331484 -0.27053958 -0.06313319 0.16653703 0.23472421 0.24679464
0.24132498 -0.15427348 0.2987645 -0.18649319 0.107649215 -0.121793814 0.15661925 -0.17734194
0.060644805 -0.3373976 -0.12718543 0.29748484 0.16301093 -0.26195696 -0.36525282 0.28255478
0.035679802 -0.0099756345 -0.2159175 -0.26091778 -0.08238294 -0.109364934 -0.102749914 -0.054805826
00000000: 7bf3 573e 79fb 26be a39e ca3a 4607 bd3e
00000010: 31f9 9a3e 3399 60be 9924 1c3e 5747 b8be
00000020: 750b 203e c580 7fbe 6899 8dbe 8883 42bd
00000030: d2e0 33bd 5420 1dbe 4f4a 99bc d5e4 293e
00000040: 8786 84be 8fed 12be 53e9 d1bd 49f4 043d
00000050: e7c2 983e 0487 cebe da08 cf3d 098f c1bd
00000060: 8165 afbe 13d6 a0be aed5 aa3e 4c9f adbd
00000070: d929 5bbe 35ea b93b 7290 1d3e b352 c0be
00000080: 6422 9d3a f459 ff3d 3a90 a83d b252 d3be
00000090: 2696 373e 67a2 93be 339a 033e fcf4 8dbd
000000a0: eba3 b8be 0db1 c23e 2fb9 f33c 2db5 3e3e
000000b0: 1abc 893d 9f27 bc3e 20d3 503e 0042 48be
000000c0: 56a8 a9be 4258 9bbe bbcd b7be 6520 99bd
000000d0: a760 8abe 4e19 23be 89be 1ebe f148 52be
000000e0: 477b ecbc 93f0 ae3e 1141 5bbe e87a b13e
000000f0: 8f32 ce3e cb18 b23e 324e 40bd 8886 2a3e
00000100: f5a2 a13e 9bf6 443e 878f 93be aa48 42bd
00000110: e899 57bb e734 303e f033 a7bd f89a 893d
00000120: 0543 973e 971b cd3d a57b 3f3e 8859 ad3e
00000130: b5e9 14bd a135 11bd 8046 253e 57a9 19bd
00000140: cd81 453e bc07 52bc f4e6 20be 61c3 d13d
00000150: ba15 cabe db19 b4bd 1ac4 843e a11c b9be
00000160: f2f1 343e c90c 2cbb 4c44 4b3e b406 98be
00000170: fd65 85be 8ada a23e 0819 a8be 5d55 bcbd
00000180: 8b13 0a3e a101 94be e3b6 3b3e 2a84 8abe
00000190: f94b 81bd af88 2a3e 8b5b 703e bcb7 7c3e
000001a0: e51d 773e def9 1dbe a9f7 983e 12f8 3ebe
000001b0: 3177 dc3d 096f f9bd cc60 203e 2099 35be
000001c0: b066 783d 61bf acbe e63c 02be ef4f 983e
000001d0: 56ec 263e 391f 86be 6b02 bbbe 05ab 903e
000001e0: fc24 123d d870 23bc 7a19 5dbe 0497 85be
000001f0: 63b8 a8bd b9fa dfbd 8c6e d2bd 137c 60bd

lstm.weight_ih f4 [128, 128]
0.10090434 -0.033526655 -0.18591529 -0.08322265 0.003675122 -0.022478774 -0.028813396 0.0063574165
-0.13115373 0.045016333 -0.0077752075 0.05500642 0.08495137 -0.058491427 0.1556875 0.06478253
-0.14347555 -0.097195625 0.111646675 -0.20953637 -0.03531924 0.09184891 0.014216887 0.095715545
-0.12381475 -0.11144629 0.14612013 0.1839463 0.07287167 -0.031819057 -0.0050437986 -0.019867986
-0.016211463 -0.17187907 -0.06422642 0.13740271 0.06706026 0.051263917 0.12377115 -0.08027466
0.05079714 0.066967994 0.05011223 0.15662809 0.025281074 -0.06478463 0.083385006 -0.07385926
-0.16736707 0.024941728 0.030038789 0.09250703 -0.0096740555 0.08671045 0.09860005 0.065718435
-0.08737263 -0.045588493 -0.16212444 0.055520505 0.16082674 -0.043330867 -0.08073789 -0.030776788
-0.0464564 0.1634482 0.13731416 -0.14851132 0.06046566 0.12856776 0.12035304 -0.06620293
0.08860371 -0.0001835607 0.15045558 -0.0052425116 -0.0647249 -0.0801561 0.14680326 -0.17490599
-0.08496069 -0.11096934 -0.10839754 0.06937972 0.07226543 0.11627563 0.06190724 0.046694722
0.16188484 -0.0714958 0.1505559 -0.12731245 0.01489922 0.121043675 -0.027063074 -0.19698936
0.10385443 -0.103143506 0.01977536 -0.14203687 -0.084980205 -0.08425232 0.015605288 -0.16989715
0.10746583 -0.17771037 -0.024652718 -0.11168058 0.15078796 0.16232131 0.025940865 -0.003420231
-0.012885797 0.11084171 -0.16863863 -0.11381005 -0.0768834 -0.11020859 0.041807238 0.20897382
0.063069806 0.100045584 0.14847459 0.16762152 0.037445534 0.034499872 -0.008584079 -0.10411723
0.07494183 -0.16778626 0.13623963 0.13738611 -0.077931136 0.104654655 -0.15821749 0.07988663
-0.062109098 -0.061647266 0.1796343 -0.0612434 -0.01929634 -0.15818752 0.14973004 0.056989394
0.15072714 0.16188928 -0.13254598 0.0031587717 -0.13416998 0.1943029 -0.19820823 0.07632121
0.12770174 -0.09018344 -0.042879526 0.088168666 0.17517473 0.08141351 -0.06979612 0.012228236
-0.07780993 -0.10489978 -0.10356823 0.09701049 0.13058479 0.029092336 -0.07922211 0.015457004
0.07981219 0.10861495 0.05332722 0.046565812 -0.1472305 -0.052069824 0.07253612 -0.069974154
-0.113668494 -0.031422347 0.010597944 -0.12736413 0.12516546 -0.10804483 0.06686741 0.1267192
0.15814915 -0.07966064 -0.08795764 0.15487279 0.09918135 -0.06861486 0.042355835 -0.049167406
0.06072868 0.12875766 -0.15088588 -0.17533065 -0.05649536 0.017923433 0.14881468 0.046412073
-0.10814293 0.14895211 0.10641165 -0.13004945 0.08854173 -0.1334269 -0.062150776 0.10201045
0.11135155 -0.10489319 0.07277584 -0.10745322 0.019538268 0.06426979 -0.07535863 0.03307976
0.05141253 0.13245916 0.15427944 -0.020366292 0.08738647 0.026062837 -0.0014289268 -0.18330027
-0.0012179101 0.023074599 0.12723663 0.17692782 -0.16765092 0.1246558 -0.16926716 0.14724907
-0.18212514 0.15107857 0.07173546 -0.1483148 0.035427175 0.07909482 -0.04916263 -0.13692017
-0.14114416 0.15091993 -0.0014199506 -0.10833325 -0.0299509 0.026819194 -0.10386995 -0.03677246
0.04675219 -0.05461605 -0.13043514 0.012281159 0.10385156 0.19163059 0.005618924 0.14037204
00000000: efa6 ce3d 3f53 09bd 9460 3ebe a370 aabd
00000010: 51da 703b 6825 b8bc 120a ecbc e051 d03b
00000020: 2a4d 06be 0c63 383d 2bc7 febb 694e 613d
00000030: fcfa ad3d b594 6fbd 8b6c 1f3e b4ac 843d
00000040: 41eb 12be 800e c7bd 03a7 e43d b490 56be
00000050: e8aa 10bd 481b bc3d f2ed 683c 8306 c43d
00000060: 9692 fdbd f43d e4bd 84a0 153e 6b5c 3c3e
00000070: be3d 953d b354 02bd 7346 a5bb 30c2 a2bc
00000080: e7cd 84bc 1101 30be 2489 83bd 4cb3 0c3e
00000090: e456 893d 1dfa 513d bb7b fd3d 0a67 a4bd
000000a0: a910 503d 8426 893d 7b42 4d3d 1d63 203e
000000b0: 411a cf3c cead 84bd c2c5 aa3d 8643 97bd
000000c0: 4662 2bbe 9852 cc3c e813 f63c 5374 bd3d
000000d0: ee7f 1ebc 4095 b13d d3ee c93d 6397 863d
000000e0: 6cf0 b2bd 00bb 3abd f303 26be 7869 633d
000000f0: c4af 243e b57b 31bd e859 a5bd 9a1f fcbc
00000100: 1149 3ebd f75e 273e 159c 0c3e 5a13 18be
00000110: d7aa 773d 44a7 033e a87b f63d 6795 87bd
00000120: dd75 b53d 337a 40b9 0711 1a3e 60c9 abbb
00000130: 7d8e 84bd e228 a4bd 9853 163e 8e1a 33be
00000140: dfff adbd e543 e3bd 88ff ddbd f416 8e3d
00000150: e6ff 933d eb21 ee3d 7292 7d3d f742 3f3d
00000160: 24c5 253e 646c 92bd 532b 1a3e 325e 02be
00000170: dc1b 743c bfe5 f73d 61b3 ddbc 94b7 49be
00000180: a2b1 d43d e73c d3bd f0ff a13c 1d72 11be
00000190: 1a0a aebd 7b8c acbd 52ad 7f3c 85f9 2dbe
000001a0: 0c17 dc3d b5f9 35be 7ff4 c9bc cab8 e4bd
000001b0: 2968 1a3e 8f37 263e f081 d43c f425 60bb
000001c0: f31e 53bc fa00 e33d 9baf 2cbe 3e15 e9bd
000001d0: 0b75 9dbd 0bb5 e1bd 113e 2b3d 3cfd 553e
000001e0: be2a 813d b3e4 cc3d b909 183e faa4 2b3e
000001f0: 7d60 193d bd4f 0d3d 3da4 0cbc 6a3b d5bd
00000200: 1a7b 993d 29d0 2bbe 6782 0b3e f2ae 0c3e
00000210: 5c9a 9fbd 2e55 d63d c403 22be 9a9b a33d
00000220: 1c66 7ebd d881 7cbd 0ef2 373e 5cda 7abd
00000230: 5c13 9ebc e9fb 21be d552 193e b66d 693d
00000240: 3758 1a3e 4ec6 253e 22ba 07be 6503 4f3b
00000250: db63 09be 57f7 463e 19f7 4abe 4b4e 9c3d
00000260: 3fc4 023e 18b2 b8bd 71a2 2fbd c691 b43d
00000270: 0161 333e 20bc a63d 45f1 8ebd f058 483c
00000280: d05a 9fbd b2d5 d6bd 951b d4bd 70ad c63d
00000290: 05b8 053e 0d53 ee3c 343f a2bd 603f 7d3c
000002a0: 9374 a33d 8471 de3d a56d 5a3d cbbb 3e3d
000002b0: 98c3 16be 2b47 55bd d18d 943d 9c4e 8fbd
000002c0: 07cb e8bd b8b4 00bd 00a3 2d3c be6b 02be
000002d0: 602b 003e 9c46 ddbd c8f1 883d aec2 013e
000002e0: daf1 213e 1e25 a3bd 2323 b4bd f996 1e3e
000002f0: 971f cb3d f385 8cbd 507d 2d3d c363 49bd
00000300: a3be 783d 0cd9 033e d481 1abe e189 33be
00000310: ae67 67bd 2ad4 923c e062 183e 961a 3e3d
00000320: 0a7a ddbd e786 183e 5aee d93d af2b 05be
00000330: 5e55 b53d 10a1 08be d091 7ebd dbea d03d
00000340: 480c e43d 3ed2 d6bd 800b 953d 6f10 dcbd
00000350: b80e a03c e19f 833d a055 9abd a47e 073d
00000360: f295 523d 60a3 073e 6efb 1d3e 36d7 a6bc
00000370: adf7 b23d bb81 d53c d44a bbba 11b3 3bbe
00000380: 48a2 9fba f106 bd3c 524a 023e 912c 353e
00000390: afac 2bbe 8a4b ff3d 5f54 2dbe 76c8 163e
000003a0: 037f 3abe 57b4 1a3e 0aea 923d d6df 17be
000003b0: 161c 113d 77fc a13d c15e 49bd cd34 0cbe
000003c0: 1888 10be c18a 1a3e a31d baba d3dd ddbd
000003d0: 975b f5bc edb3 db3c c5b9 d4bd b89e 16bd
000003e0: 397f 3f3d 14b5 5fbd ca90 05be ea36 493c
000003f0: 20b0 d43d cf3a 443e f31e b83b b0bd 0f3e

lstm.weight_hh f4 [128, 32]
0.10963239 0.09635388 -0.19524755 -0.12711552 0.15981248 -0.080778 0.13897584 0.1505088
-0.024603527 -0.16366445 0.13673414 -0.11316527 -0.048961274 -0.13947448 -0.15430814 0.111095764
-0.01753167 -0.024920734 -0.033331078 -0.046604276 -0.007784912 0.008712098 0.06311557 0.19485046
-0.12499178 0.14573619 -0.06794693 0.021101251 -0.1667728 0.03435661 0.055369604 -0.05279689
0.06524184 0.09984573 -0.10323178 -0.10129401 -0.06789782 -0.22300641 0.014859152 0.027146064
-0.11309048 -0.11702727 0.13384885 -0.13686937 0.05870781 0.1353309 0.062146626 -0.09268761
-0.06710717 -0.062573165 0.054460235 0.16941093 0.11797172 0.12312967 -0.10088989 0.0032272849
-0.09793462 -0.110264674 -0.17408828 0.005878174 -0.12134655 0.07606371 0.015845891 -0.023985535
0.04101606 -0.100287504 -0.049394935 0.13735102 0.17467967 0.038476553 0.20476961 0.0019941924
0.17595728 -0.12269169 0.012558277 0.14166214 -0.18842158 -0.110604115 -0.0046448633 0.081938595
-0.12266876 -0.040135756 0.013264555 -0.019748047 -0.101130016 -0.06075916 -0.06395399 -0.08665227
-0.124894515 -0.15745042 -0.11288098 -0.09207993 -0.095905595 -0.09419174 -0.038485173 -0.044565123
0.124862954 0.07937398 -0.17312658 0.17665987 0.05492592 0.11786243 0.069604896 0.015120075
-0.13667336 0.07563261 0.08525884 0.20490657 -0.06448377 -0.044056978 -0.13872847 0.014457199
-0.023253608 -0.07727823 -0.045347385 0.1553338 -0.16947664 -0.1365955 -0.04494372 -0.12249383
0.0027427883 0.10472788 -0.13881513 0.036327668 0.055225007 -0.0058064475 -0.11489075 -0.109835
0.13628545 0.10024876 -0.14013161 0.1285133 -0.045019243 -0.049082376 -0.118146494 -0.14578718
-0.04776514 -0.12760922 0.16400418 0.029834028 -0.23050515 -0.09190447 -0.13897403 0.040301606
0.17180613 -0.046674173 -0.058813054 0.033814684 0.09473059 0.04451657 0.1709546 -0.055468004
-0.17651422 -0.16019788 -0.09629889 0.09856738 -0.057511147 -0.070683345 -0.009663698 0.116041884
-0.0749156 0.15466289 0.016803084 -0.047980186 0.20731702 0.029919198 0.033307508 0.13225847
0.053698957 0.16767347 0.06659455 0.14849544 -0.11132094 -0.093281254 0.16659658 0.17490543
-0.10005345 0.08115599 0.061240867 0.12129469 0.025014278 0.087147765 -0.088492565 -0.074252054
-0.0998855 -0.09369558 -0.026939547 0.101474985 0.0024582108 -0.01730018 0.0012771252 0.02832812
0.06302745 -0.036936846 0.007888974 -0.13142541 0.07021486 -0.06807138 -0.15029387 0.008693228
0.14102176 -0.17135096 -0.00056902564 0.13781975 -0.20478286 -0.07169646 -0.11411609 -0.11464271
-0.09864197 -0.04638819 -0.060795095 -0.08075001 -0.11248609 0.07119537 -0.0430722 -0.006156682
0.07837593 -0.05843822 -0.043264113 -0.17489184 0.18803781 -0.08578591 0.007431958 -0.058456123
-0.09858718 -0.058676302 -0.1288835 -0.05314852 0.0019955796 -0.11935665 0.036864646 -0.105285846
0.11548441 -0.025232356 0.09563137 0.05615401 -0.14644489 -0.1435353 -0.04220431 -0.10129488
0.011865022 0.12033855 0.13421859 -0.020449981 0.024083748 0.14433448 0.12887517 -0.12207396
-0.0005542646 0.010048297 -0.115393095 -0.041639414 0.17475994 0.08615249 -0.088641286 0.1219341
00000000: f286 e03d 2f55 c53d f9ee 47be 922a 02be
00000010: e2a5 233e f06e a5bd af4f 0e3e fb1e 1a3e
00000020: 568d c9bc a797 27be 0904 0c3e 31c3 e7bd
00000030: 9e8b 48bd 66d2 0ebe f402 1ebe 2d86 e33d
00000040: 949e 8fbc 9126 ccbc 2b86 08bd 20e4 3ebd
00000050: 9318 ffbb 30bd 0e3c bc42 813d e186 473e
00000060: b1fb ffbd de3b 153e c327 8bbd 88dc ac3c
00000070: 7dc6 2abe 84b9 0c3d 3dcb 623d 8d41 58bd
00000080: 849d 853d eb7b cc3d 2f6b d3bd 3c73 cfbd
00000090: 030e 8bbd cb5b 64be cd73 733c 6c61 de3c
000000a0: fb9b e7bd feab efbd ac0f 093e 7c27 0cbe
000000b0: 9a77 703d 2f94 0a3e 768d 7e3d 00d3 bdbd
000000c0: 7c6f 89bd 5c26 80bd b211 5f3d 0f7a 2d3e
000000d0: 289b f13d 692b fc3d 5c9f cebd db80 533b
000000e0: f291 c8bd 72d2 e1bd 3344 32be b39d c03b
000000f0: 8a84 f8bd 4ac7 9b3d 3ecf 813c 507d c4bc
00000100: 7500 283d 8963 cdbd 5852 4abd bfa5 0c3e
00000110: 3adf 323e 9799 1d3d 20af 513e ffb0 023b
00000120: 252e 343e c845 fbbd 3bc1 4d3c e10f 113e
00000130: 96f1 40be 6984 e2bd f033 98bb 6ccf a73d
00000140: c239 fbbd 6465 24bd 9353 593c a8c6 a1bc
00000150: 411d cfbd 99de 78bd 4ffa 82bd bf76 b1bd
00000160: b2c8 ffbd af3a 21be 252e e7bd 6794 bcbd
00000170: 276a c4bd 99e7 c0bd a1a2 1dbd eb89 36bd
00000180: 26b8 ff3d d38e a23d 1848 31be 53e6 343e
00000190: 00fa 603d dc61 f13d 038d 8e3d 31ba 773c
000001a0: 1af4 0bbe 45e5 9a3d 309c ae3d 07d3 513e
000001b0: 1110 84bd 1775 34bd d60e 0ebe e3dd 6c3c
000001c0: 5a7e bebc 0c44 9ebd 2ebe 39bd d30f 1f3e
000001d0: 498b 2dbe b1df 0bbe e816 38bd 0cde fabd
000001e0: 5ac0 333b 927b d63d 8e25 0ebe 52cc 143d
000001f0: 9e33 623d 0344 bebb d74b ebbd 2cf1 e0bd
00000200: 6a8e 0b3e 394f cd3d a97e 0fbe fe98 033e
00000210: 1966 38bd 9a0a 49bd caf6 f1bd 3c49 15be
00000220: 61a5 43bd feab 02be b6f0 273e 7e66 f43c
00000230: 8b09 6cbe 6938 bcbd 354f 0ebe 4c13 253d
00000240: f2ed 2f3e 6b2d 3fbd f5e5 70bd 4481 0a3d
00000250: 1d02 c23d 0257 363d b90e 2f3e 6b32 63bd
00000260: 25c0 34be ea0a 24be 5a38 c5bd b2dd c93d
00000270: cf90 6bbd 6ec2 90bd 7d54 1ebc 5ea7 ed3d
00000280: 5a6d 99bd f35f 1e3e 9fa6 893c df86 44bd
00000290: ea4a 543e 1b19 f53c 746d 083d c46e 073e
000002a0: 70f3 5b3d 98b2 2b3e b962 883d 300f 183e
000002b0: 3cfc e3bd 3e0a bfbd 4b98 2a3e 691a 333e
000002c0: d3e8 ccbd 1d35 a63d b4d7 7a3d 5a69 f83d
000002d0: beea cc3c 877a b23d 973b b5bd 7611 98bd
000002e0: c590 ccbd 78e3 bfbd 53b0 dcbc 1ed2 cf3d
000002f0: ef19 213b 1bb9 8dbc 3665 a73a 6010 e83c
00000300: 8914 813d 174b 17bd c140 013c 6294 06be
00000310: cfcc 8f3d 0269 8bbd a3e6 19be 0a6e 0e3c
00000320: 0268 103e a076 2fbe aa2a 15ba 9f20 0d3e
00000330: 99b2 51be 98d5 92bd b2b5 e9bd ccc9 eabd
00000340: cd04 cabd 8b01 3ebd 4704 79bd 4360 a5bd
00000350: 1b5f e6bd e1ce 913d 7a6c 30bd febd c9bb
00000360: 8f83 a03d ea5c 6fbd b635 31bd d916 33be
00000370: fc8c 403e 86b0 afbd c887 f33b b06f 6fbd
00000380: 13e8 c9bd 9056 70bd 09fa 03be 43b2 59bd
00000390: 45c8 023b 4271 f4bd 62ff 163d 1ba0 d7bd
000003a0: 1783 ec3d 16b4 cebc 61da c33d bf01 663d
000003b0: a6f5 15be ebfa 12be 6dde 2cbd b173 cfbd
000003c0: 8265 423c 0f74 f63d 9970 093e b886 a7bc
000003d0: 484b c53c 6bcc 133e daf7 033e ea01 fabd
000003e0: 114c 11ba 9da1 243c 3753 ecbd 178e 2abd
000003f0: 45f4 323e b770 b03d 9089 b5bd 96b8 f93d

lstm.bias_ih f4 [128]
-0.18296838 -0.057380382 0.1860157 -0.12877855 -0.0507893 0.023551548 -0.13110673 0.040443584
0.11672236 -0.09107252 -0.051768895 0.15954813 0.15856726 0.15149015 0.17502242 -0.06515054
0.0780425 -0.045586005 -0.06548395 0.055396594 -0.021114092 0.12088235 -0.034193207 -0.03657747
0.18798614 -0.15844975 0.031344306 -0.124281466 -0.08563823 -0.013107742 0.119715214 0.028123403
0.08257264 0.01531888 -0.13348334 0.02090422 0.102642044 0.19345447 -0.11140983 -0.08164748
-0.14132652 -0.15039234 0.1439103 -0.13100721 0.15202454 0.03338817 -0.009156921 0.07283366
-0.099097185 0.10797714 -0.18199725 -0.01965984 0.13769339 -0.101307884 0.09279595 0.0104703875
-0.052883632 0.15637761 0.12358266 -0.09098757 -0.034646887 -0.002479082 0.0024536406 0.026241792
-0.07059344 0.021555835 -0.020991268 0.08884809 0.011702328 0.016043592 0.05869295 0.14606388
0.13664986 -0.020542534 0.05848897 -0.024088828 -0.07174618 0.12229376 -0.11491609 0.13103159
-0.14283659 0.1245539 -0.012348304 -0.0014020054 -0.17724878 -0.09978306 -0.10866023 -0.068973236
-0.12581491 0.011466967 0.13272287 -0.08702921 -0.16027011 0.061253376 -0.10610462 0.0761316
-0.14234589 -0.1165854 -0.10603714 0.026605684 0.09984852 6.163581e-05 0.18990181 0.12470344
0.019975586 0.054889724 0.051471654 0.06889998 -0.14482957 0.10522854 -0.03364375 0.009385668
0.07829742 0.07476303 0.17124169 0.15978286 -0.06424262 0.033804514 0.089356214 -0.0993241
0.09226968 -0.12205568 -0.08938658 -0.064284 0.111864224 0.09091618 -0.04858743 -0.09259422
00000000: 105c 3bbe b107 6bbd e67a 3e3e 86de 03be
00000010: 7108 50bd 2def c03c d840 06be 2ca8 253d
00000020: 220c ef3d 3b84 babd 9f0b 54bd 9660 233e
00000030: 755f 223e 3c20 1b3e 1439 333e a56d 85bd
00000040: bfd4 9f3d 64b8 3abd 731c 86bd 8ae7 623d
00000050: 76f7 acbc 2a91 f73d 2d0e 0cbd 42d2 15bd
00000060: 707f 403e a740 22be e362 003d 4887 febd
00000070: 1963 afbd dbc1 56bc 402d f53d 0d63 e63c
00000080: d81b a93d 0afc 7a3c dbaf 08be 543f ab3c
00000090: fe35 d23d ee18 463e d62a e4bd cb36 a7bd
000000a0: e6b7 10be 7300 1abe 395d 133e c126 06be
000000b0: 52ac 1b3e 09c2 083d e906 16bc d029 953d
000000c0: 77f3 cabd 1e23 dd3d 7d5d 3abe ac0d a1bc
000000d0: 7fff 0c3e 827a cfbd ce0b be3d fd8b 2b3c
000000e0: 829c 58bd 7421 203e e818 fd3d b157 babd
000000f0: e5e9 0dbd 1878 22bb 42cd 203b 07f9 d63c
00000100: 4b93 90bd dd95 b03c e1f5 abbc fdf5 b53d
00000110: 1fbb 3f3c da6d 833c 0568 703d c591 153e
00000120: f1ed 0b3e d148 a8bc 2192 6f3d ef55 c5bc
00000130: a9ef 92bd 2775 fa3d 2159 ebbd 252d 063e
00000140: c143 12be 1d16 ff3d 8a50 4abc 7fc3 b7ba
00000150: b480 35be 105b ccbd 4189 debd d741 8dbd
00000160: a0d5 00be f2df 3b3c 81e8 073e 5f3c b2bd
00000170: d91d 24be d2e4 7a3d 614d d9bd e2ea 9b3d
00000180: 1fc3 11be 54c4 eebd 002a d9bd 2af4 d93c
00000190: 617d cc3d 7942 8138 9f75 423e 8464 ff3d
000001a0: d7a3 a33c 0cd4 603d f1d3 523d 6f1b 8d3d
000001b0: 344e 14be 1082 d73d 07ce 09bd 58c6 193c
000001c0: 665a a03d 5c1d 993d fb59 2f3e 1e9e 233e
000001d0: a291 83bd 9a76 0a3d 6400 b73d 6f6a cbbd
000001e0: e3f7 bc3d 54f8 f9bd 5010 b7bd 54a7 83bd
000001f0: 1219 e53d 4332 ba3d 9d03 47bd 0aa2 bdbd

lstm.bias_hh f4 [128]
0.14900917 -0.050837968 0.0027028508 0.15936992 -0.11070662 0.20574388 -0.011455588 -0.16352037
-0.02959517 -0.1742697 0.047000233 0.1805447 -0.038700294 0.074137256 -0.08451229 0.038226712
0.014390981 -0.059302367 0.0784139 -0.17494766 -0.1361292 0.06344694 0.12155442 -0.16342828
-0.12251488 0.17412733 -0.14603914 0.099362984 0.08100269 -0.085667074 0.13144396 -0.11953687
0.08480722 -0.07121392 0.045418613 -0.08126587 0.08068608 -0.052066755 -0.08572585 -0.007380741
-0.1667601 -0.06644095 0.01186622 -0.12774305 0.052392915 0.013685355 0.00996407 -0.16767305
0.09016577 -0.11086415 -0.026973704 0.044161595 0.10252907 -0.19116601 -0.15819637 0.045593534
-0.15822771 0.07455377 -0.14305879 0.18939637 -0.1580568 -0.06908636 0.12092957 -0.07194701
-0.040233348 0.015298732 -0.105320685 0.02152399 0.01737076 -0.059121232 -0.100166455 -0.033165887
0.14563553 -0.07889908 -0.15232246 0.14328103 -0.07411643 0.15540454 0.00059145445 -0.19495136
-0.11905412 -0.14307778 -0.03871412 -0.044465035 -0.0724582 -0.016421169 0.03995384 0.1442602
0.15512072 0.036395695 -0.00021631668 -0.12383989 0.0015099056 0.075704545 0.049289893 0.018716067
0.074847005 -0.04897618 -0.12641634 0.11813942 -0.018109651 0.19294484 -0.14007628 -0.0017704968
-0.1419107 0.10090547 -0.05266721 -0.07891501 -0.06519594 0.053452045 -0.1776255 0.12203809
0.1686398 0.16271545 -0.14969556 0.11356074 -0.1310448 0.11592119 -0.1382106 0.0064446717
0.13353834 0.038954087 0.09093094 -0.13648784 -0.1825074 0.11512271 -0.029037077 0.15060994
00000000: dc95 183e 793b 50bd 5022 313b de31 233e
00000010: 27ba e2bd 86ae 523e 38b0 3bbc e271 27be
00000020: 9271 f2bc c273 32be 5183 403d b6e0 383e
00000030: 3384 1ebd 46d5 973d c814 adbd 9d93 1c3d
00000040: 26c8 6b3c 0ae7 72bd 7897 a03d 7b25 33be
00000050: 7465 0bbe 78f0 813d 86f1 f83d be59 27be
00000060: 15e9 fabd 6f4e 323e 498b 15be d27e cb3d
00000070: bde4 a53d 3872 afbd 3f99 063e bfcf f4bd
00000080: 68af ad3d 9bd8 91bd de08 3a3d b86e a6bd
00000090: be3e a53d f343 55bd 0991 afbd 25da f1bb
000000a0: 29c3 2abe 3112 88bd 896a 423c 13cf 02be
000000b0: f499 563d 8a38 603c 5740 233c 7cb2 2bbe
000000c0: d5a8 b83d be0c e3bd f5f7 dcbc cae2 343d
000000d0: c3fa d13d 06c1 43be 3bfe 21be 49c0 3a3d
000000e0: 7206 22be a6af 983d 017e 12be 1ff1 413e
000000f0: a4d9 21be 267d 8dbd eca9 f73d f458 93bd
00000100: b9cb 24bd 88a7 7a3c 5fb2 d7bd 1453 b03c
00000110: 204d 8e3c 1b29 72bd 1224 cdbd f4d8 07bd
00000120: 7b21 153e d795 a1bd 6bfa 1bbe 43b8 123e
00000130: 5bca 97bd 5e22 1f3e d60b 1b3a 54a1 47be
00000140: a5d2 f3bd fb82 12be b292 1ebd f820 36bd
00000150: f764 94bd b085 86bc a3a6 233d f2b8 133e
00000160: f7d7 1e3e a713 153d 11d3 62b9 c59f fdbd
00000170: 06e8 c53a fc0a 9b3d 33e4 493d 7052 993c
00000180: 6349 993d 3f9b 48bd 4973 01be 15f3 f13d
00000190: b15a 94bc 5593 453e 2870 0fbe 0410 e8ba
000001a0: 0a51 11be 87a7 ce3d 93b9 57bd 319e a1bd
000001b0: 7385 85bd 88f0 5a3d 76e3 35be 1bef f93d
000001c0: e9af 2c3e e19e 263e cb49 19be 8992 e83d
000001d0: 9c30 06be 1768 ed3d 1487 0dbe d32d d33b
000001e0: 46be 083e 528e 1f3d 003a ba3d 78c3 0bbe
000001f0: 38e3 3abe 75c5 eb3d 2adf edbc 7e39 1a3e

action1.weight f4 [1, 32]
-0.06372074 -0.04586739 0.021230055 0.102478996 -0.04069029 0.08654652 -0.00617709 -0.06054208
-0.024412058 0.006070963 -0.0047016446 -0.058033857 0.048884533 0.03562296 -0.004445697 -0.014000524
-0.005774428 -0.046279714 -0.03586466 -0.00024878315 -0.05920147 -0.031634897 -0.052988585 -0.036063083
0.007943259 -0.0060666725 0.0037939453 0.071767196 -0.034195215 -0.06326156 0.101481296 0.00885143
00000000: 0580 82bd 72df 3bbd a7ea ad3c 82e0 d13d
00000010: ddaa 26bd 4d3f b13d 3069 cabb f9fa 77bd
00000020: ccfb c7bc eeee c63b 4110 9abb e9b4 6dbd
00000030: 263b 483d 62e9 113d 36ad 91bb 7462 65bc
00000040: 6a37 bdbb cc8f 3dbd d2e6 12bd 1c6f 82b9
00000050: 3e7d 72bd 9893 01bd 8f0a 59bd e2b6 13bd
00000060: 7124 023c f0ca c6bb d7a3 783b aefa 923d
00000070: 4810 0cbd 478f 81bd 6dd5 cf3d 9705 113c

action2.weight f4 [2, 32]
-0.008944851 -0.018118646 -0.030106021 0.019648466 -0.0014426042 0.025444638 0.0021857612 0.0024261887
-0.011548015 -0.0069306307 0.002283381 -0.0028388347 -0.010972126 -0.008555955 0.0022875932 -0.0005863687
-0.002743178 -0.011404749 -0.015612817 -0.0003898535 0.0005760382 -0.0052234307 0.0048687076 0.014494397
0.0496614 0.00018949014 -0.0025896125 0.015435186 -0.008278623 0.0032289156 0.050622117 0.019537924
0.0074958173 0.008048328 -0.03226458 -0.041340612 -0.005577507 0.037902754 0.0033832449 -0.0052697593
0.0036502702 0.003088646 0.0044163107 -0.01221341 0.004594784 0.0064716856 0.0026597434 -0.0021319923
0.004337268 -0.0037974422 0.0010096715 -0.00093656965 -0.005458969 -0.00035035232 -0.0059371586 0.0061773653
0.052979678 0.0036743586 0.00544842 -0.024542466 0.006354809 -0.003665015 0.020745117 0.018034888
00000000: 6d8d 12bc 8e6d 94bc e7a0 f6bc d2f5 a03c
00000010: c415 bdba 4671 d03c fd3e 0f3b b100 1f3b
00000020: e333 3dbc 581a e3bb c7a4 153b be0b 3abb
00000030: 6fc4 33bc 472e 0cbc 72eb 153b 8ab6 19ba
00000040: e4c6 33bb fcda 3abc e7cc 7fbc 4065 ccb9
00000050: 4501 173a 5029 abbb ae89 9f3b e879 6d3c
00000060: c169 4b3d dfb1 4639 7db6 29bb dde3 7c3c
00000070: 10a3 07bc 379c 533b 2359 4f3d ff0d a03c
00000080: 799f f53b 22dd 033c dd27 04bd c654 29bd
00000090: 85c3 b6bb eb3f 1b3d 6eb9 5d3b f2ad acbb
000000a0: 5f39 6f3b e26a 4a3b b3b6 903b c11a 48bc
000000b0: d88f 963b 6f10 d43b 174f 2e3b e5b8 0bbb
000000c0: a41f 8e3b 82de 78bb f456 843a 2084 75ba
000000d0: 27e1 b2bb 7eaf b7b9 7f8c c2bb 7f6b ca3b
000000e0: 3801 593d 82cd 703b a988 b23b 480d c9bc
000000f0: 003c d03b c030 70bb aaf1 a93c e7bd 933c

action2.bias f4 [2]
-0.0030925905 -0.000116880794
00000000: 0fad 4abb e61d f5b8
