s10lre4e3CCM_MADRL_MEC/model/standard/HYASP_RMAPPO/9-Actor.pth (torch, 161199 bytes, 18 tensors)

fc1.weight f4 [256, 7]
0	0xbda67e82	-0.08129598
1	0xbbb07180	-0.005384624
2	0xbea12430	-0.3147292
3	0xbdd4c1b4	-0.103885084
4	0xbeb58784	-0.35454953
5	0xbe7a0821	-0.24417163
6	0xbe7d3bbc	-0.24729818
7	0x3e8af7d7	0.27142212
8	0xbdf0b97b	-0.117541276
9	0x3d362071	0.044464532
10	0x3c166211	0.009178654
11	0x3ea84c2c	0.32870615
12	0xbdb01b5a	-0.08598967
13	0x3e71e0d5	0.23620923
14	0xbe5719c9	-0.2100593
15	0x3ec64564	0.38724816
16	0xbd42e8f6	-0.04758545
17	0xbdc48508	-0.09595686
18	0x3d403a83	0.0469308
19	0xbeb84a40	-0.35994148
20	0x3e009d4c	0.12560004
21	0xbe79523e	-0.24347779
22	0xbc1afce3	-0.009459707
23	0xbecf1f9a	-0.40453798
24	0xbe779ded	-0.24181338
25	0x3eb079aa	0.34467822
26	0x3f0b3f21	0.543932
27	0xbe166f89	-0.14690985
28	0xbdc65ec3	-0.09686043
29	0x3dc80502	0.0976658
30	0x3e9c4ac1	0.30525783
31	0xbeab6636	-0.33476418
32	0xbeb37ccd	-0.35056153
33	0x3e8f7c0b	0.28024325
34	0x3d851db8	0.06499809
35	0x3de8db40	0.113699436
36	0xbe7bd7e1	-0.2459407
37	0x3dabeddc	0.083949775
38	0x3e4d922c	0.20075291
39	0x3c8331d7	0.016014976
40	0x3dc917ed	0.098190166
41	0xbd9d3caa	-0.076775864
42	0x3e933ef9	0.28758982
43	0xbcf162a5	-0.029465983
44	0x3dc00209	0.09375388
45	0x3e1bd8d8	0.15219438
46	0xbf0d14b0	-0.5510969
47	0xbf2457e3	-0.64196604
48	0x3def0ce9	0.11672384
49	0x3e871bfe	0.26388544
50	0x3e5423f2	0.20716837
51	0xbe8ff540	-0.28116798
52	0xbe8b910c	-0.272591
53	0xbcea815d	-0.028626138
54	0x3e941b0d	0.28926888
55	0xbc00880b	-0.007844935
56	0x3dec2506	0.11530499
57	0xbf5f3e84	-0.87204766
58	0xbebcfdef	-0.36912486
59	0x3f0d47f4	0.55187917
60	0xbf473293	-0.77811545
61	0x3db17623	0.08665111
62	0xbeb62abd	-0.35579482
63	0x3ec7f755	0.39055887
64	0xbd5109f3	-0.05103488
65	0x3e952575	0.2913014
66	0xbdf3dc67	-0.11907273
67	0x3ed42fc6	0.41442698
68	0x3edc2685	0.42998138
69	0x3e14932b	0.14509265
70	0xbbd1a7c0	-0.006398171
71	0x3e3d0436	0.18458638
72	0x3e486d57	0.1957296
73	0xbeae586d	-0.3405184
74	0xbe25f1dc	-0.16205543
75	0xbe632b75	-0.22184546
76	0xbdb1ef38	-0.086882055
77	0x3c3b4d81	0.011432053
78	0x3ddc9ef4	0.107725054
79	0xbe6a16d7	-0.22860275
80	0x3e95d49e	0.29263777
81	0x3e52cd3e	0.20586106
82	0xbd0387e0	-0.032112002
83	0x3e961787	0.29314825
84	0xbdf4d685	-0.11954979
85	0x3de808b6	0.113297865
86	0xbe19e1cc	-0.15027541
87	0x3eccec20	0.400239
88	0xbe292ed4	-0.1652177
89	0x3ebf0b00	0.3731308
90	0x3eca9b1e	0.3957147
91	0x3e9f2511	0.31082967
92	0xbe150ada	-0.14554921
93	0x3ef1efbe	0.4725322
94	0xbd73b538	-0.059498996
95	0xbead0cd5	-0.33798853
96	0xbf23a8bb	-0.6392934
97	0xbeca43d9	-0.3950489
98	0x3ef69a79	0.48164728
99	0x3db07062	0.08615185
100	0x3eb14007	0.3461916
101	0x3e9cb6eb	0.30608305
102	0x3cb8b70b	0.02254822
103	0xbeb5493c	-0.35407436
104	0x3d041952	0.03225071
105	0xbdbd75ba	-0.0925097
106	0x3e59d05c	0.21270889
107	0x3ec05596	0.37565297
108	0xbc4e87ba	-0.012605602
109	0x3eaabda9	0.33347824
110	0x3ea7ef24	0.32799637
111	0x3d2975ee	0.041372232
112	0x3e939d1d	0.28830805
113	0xbe4b7f98	-0.19872892
114	0xbddc4467	-0.10755234
115	0x3e9da961	0.30793288
116	0x3df54760	0.11976504
117	0x3e095e44	0.13414866
118	0x3dd9cfb2	0.10635318
119	0xbebf255e	-0.37333196
120	0xbe95c5a7	-0.2925236
121	0x3ebf5404	0.37368786
122	0x3cff57ee	0.031169858
123	0x3d37ebd7	0.04490265
124	0x3e38f063	0.1806045
125	0xbddad1db	-0.10684558
126	0xbe4fc998	-0.20291746
127	0x3ebdb1b0	0.37049627
128	0x3ebbf528	0.36710477
129	0xbeadf0af	-0.3397269
130	0x3db1422d	0.086552
131	0x3e3cfd57	0.18456016
132	0xbe16e5e5	-0.14736135
133	0xbd2dda1c	-0.042444333
134	0x3d7779d6	0.060418926
135	0xbe526bef	-0.20548986
136	0x3e18cc07	0.1492158
137	0x3d9ec61a	0.077526286
138	0x3e5293d1	0.205642
139	0x3ce64d92	0.02811316
140	0xbd690a43	-0.056894552
141	0x3e503c9a	0.20335618
142	0xbe56ff93	-0.20995931
143	0x3de628d4	0.11238256
144	0x3ee6759f	0.45011613
145	0xbe45c170	-0.19312072
146	0x3ea9bb2e	0.3315062
147	0xbded6304	-0.11591151
148	0xbd58d9df	-0.052942153
149	0x3db009e4	0.085956365
150	0x3e9fbf0c	0.31200445
151	0xbdf34c40	-0.11879778
152	0xbebe9c21	-0.37228492
153	0xbe5f9b13	-0.218365
154	0x3e1599d1	0.14609458
155	0x3da81f6d	0.08209119
156	0xbe081170	-0.13287902
157	0xbe74f18d	-0.2392027
158	0xbd868e82	-0.0657015
159	0x3eb9a0df	0.36255547
160	0x3e8c3539	0.27384356
161	0x3eb6f8ac	0.35736597
162	0x3ea014ca	0.3126586
163	0xbe169379	-0.14704694
164	0xbe25c623	-0.16188864
165	0xbeac6e6e	-0.33678
166	0x3dc25d31	0.09490431
167	0xbd2836f1	-0.04106802
168	0x3df8f237	0.12155574
169	0x3e9396d3	0.28826007
170	0xbe9a2f11	-0.30114034
171	0x3db83ed8	0.089963615
172	0x3ddab1f2	0.106784716
173	0xbd3b2487	-0.045689132
174	0xbe25a64c	-0.16176718
175	0x3da6d6b9	0.08146424
176	0xbdecd21a	-0.11563511
177	0xbe40c616	-0.18825564
178	0xbe85bfec	-0.26122987
179	0x3ecf2af8	0.4046247
180	0xbe3597dd	-0.17733712
181	0x3e6b98a9	0.23007454
182	0xbd90b27d	-0.07065294
183	0x3e810952	0.25202423
184	0xbd905dcc	-0.0704914
185	0xbd73c4d7	-0.059513893
186	0x3d0c8477	0.034306016
187	0x3e5ca11c	0.21545833
188	0xbe046aec	-0.12931412
189	0xbe3a9b36	-0.18223271
190	0x3e51629f	0.20447777
191	0xbe28ed70	-0.16496825
192	0xbd519620	-0.05116856
193	0xbda07a10	-0.078357816
194	0xbe803c19	-0.2504585
195	0x3ddd9ecf	0.10821306
196	0x3e015731	0.12630917
197	0x3e5fd325	0.21857889
198	0x3e9b00f3	0.30274162
199	0x3e81841e	0.2529611
200	0xbe531dd4	-0.20616847
201	0x3d520ce6	0.051281832
202	0x3e34a782	0.17642024
203	0x3eb14056	0.34619397
204	0x3ec619d6	0.38691586
205	0x3e04f323	0.12983374
206	0xbeaa9f77	-0.33324787
207	0x3d6154d9	0.055012558
208	0x3ce43253	0.027856028
209	0x3e89d141	0.2691746
210	0x3e030275	0.12793906
211	0xbe845e8a	-0.25853378
212	0x3d1cda77	0.03829428
213	0x3e607736	0.21920475
214	0x3e936522	0.28788096
215	0x3e1fafb2	0.15594366
216	0x3eb63da5	0.35593906
217	0xbe897358	-0.26845813
218	0x3c6b52bd	0.014362988
219	0x3dac609a	0.08416863
220	0xbe64a936	-0.22330174
221	0xbd9a9bb2	-0.07549228
222	0xbe8d994e	-0.27656025
223	0xbe08c787	-0.13357364
224	0xbebf3fc7	-0.37353346
225	0x3d3f4017	0.04669198
226	0xbef3531a	-0.4752434
227	0x3dd7b102	0.105318084
228	0x3e920fb1	0.28527597
229	0x3dceb491	0.10093034
230	0xbec7f2ba	-0.39052373
231	0xbd4130c0	-0.047165632
232	0xbcef0a40	-0.029179692
233	0x3e727813	0.23678617
234	0xbe4cc8e3	-0.19998507
235	0xbe27d6be	-0.16390511
236	0x3c8db050	0.017295986
237	0xbdf3af08	-0.11898619
238	0xbeaac328	-0.33352017
239	0xbe8097e1	-0.25115874
240	0xbe1fe3d8	-0.15614259
241	0x3e9719e1	0.29511932
242	0xbd8737e8	-0.0660246
243	0xbeb34856	-0.35016125
244	0xbe8b4a5c	-0.2720517
245	0x3e6c7b7a	0.23093978
246	0x3e275496	0.1634086
247	0xbdf0ec91	-0.117638715
248	0xbeb28018	-0.34863353
249	0xbe299475	-0.16560538
250	0xbe6baef7	-0.23015963
251	0xbd1bcd78	-0.038037747
252	0xbe91625e	-0.2839536
253	0x3d547f48	0.051879197
254	0xbe09c652	-0.1345456
255	0xbe6729c7	-0.2257453

fc1.bias f4 [256]
0	0xbe1a4b39	-0.15067758
1	0x3e7a8632	0.24465254
2	0xbda14a7b	-0.07875534
3	0xbe00effa	-0.12591544
4	0x3e7024e2	0.2345157
5	0x3ec833ba	0.39101964
6	0xbe13f64a	-0.1444942
7	0xbeb726cf	-0.35771796
8	0x3e2d9084	0.1694966
9	0x3ea5e67b	0.32402405
10	0xbeb05e52	-0.3444696
11	0x3e17f68d	0.14840145
12	0xbd29b926	-0.041436337
13	0xbe18809a	-0.14892808
14	0xbe8e86d8	-0.27837253
15	0x3edb094a	0.42780524
16	0x3de829b8	0.11336082
17	0x3ee2d486	0.44302768
18	0x3e88e8bb	0.2674006
19	0x3ed9d3de	0.42544454
20	0xbc011a6c	-0.007879835
21	0xbe803932	-0.25043637
22	0x3e1fcd26	0.15605602
23	0x3e848bae	0.25887817
24	0x3e8c5810	0.27410936
25	0x3e3a8c4c	0.18217582
26	0xbc431dc2	-0.01190895
27	0xbe570183	-0.2099667
28	0x3d98df2b	0.07464441
29	0x3e6b6240	0.22986698
30	0xbe5a0428	-0.21290648
31	0xbd2f5fd0	-0.042815983
32	0x3ea76e46	0.3270132
33	0xbe914e86	-0.2838022
34	0xbe497de1	-0.19676925
35	0xbeb93740	-0.36174965
36	0x3c54b000	0.012981415
37	0xbe678486	-0.22609147
38	0x3d47ad4b	0.04874925
39	0x3e1021bf	0.14075373
40	0x3ea902a8	0.3300984
41	0x3e7e99d1	0.24863364
42	0xbe91dbeb	-0.28488097
43	0xbe88ce6c	-0.26719987
44	0x3e37f81a	0.17965737
45	0x3e0426c2	0.1290541
46	0x3e8ecf08	0.27892327
47	0x3ea6b80e	0.32562298
48	0x3e9ba00c	0.30395544
49	0x3ea91495	0.33023515
50	0xbe2b81fd	-0.16748805
51	0xbe039aa7	-0.12851964
52	0x3dc2a828	0.095047295
53	0xbe1777c0	-0.14791775
54	0x3e37c5f2	0.17946604
55	0x3d45de57	0.048307743
56	0xbe979ef8	-0.2961347
57	0x3e03c507	0.12868129
58	0xbe900008	-0.28125024
59	0xbe5947e2	-0.21218827
60	0xbd93e04c	-0.072205156
61	0x3cfc1c1d	0.030775124
62	0xbd447956	-0.047967277
63	0xbb8f2700	-0.004368663
64	0xbb58da0c	-0.003308895
65	0x3e7deed7	0.24798141
66	0x3d27b23f	0.040941473
67	0xbe237fbe	-0.15966699
68	0xbed1e950	-0.40998316
69	0xbe9322fe	-0.28737634
70	0xbe3e71a5	-0.1859804
71	0x3e073efd	0.13207622
72	0x3d9e9993	0.07744136
73	0x3e9e6936	0.30939645
74	0x3daaa80e	0.08332835
75	0xbedf622e	-0.43629593
76	0x3e60cef2	0.21953943
77	0xbc146457	-0.009057126
78	0xbea81aba	-0.3283289
79	0xbd0f2387	-0.03494599
80	0x3e496ee2	0.19671205
81	0x3d247cc9	0.040158067
82	0x3e4921e3	0.19641833
83	0x3e0aff76	0.13574013
84	0xbe933912	-0.2875448
85	0x3eb5d5b3	0.35514602
86	0x3e30e6b9	0.17275514
87	0x3d4d6f5f	0.05015504
88	0xbc83ef6c	-0.016105376
89	0x3e425e02	0.18981174
90	0x3e9da000	0.30786133
91	0xbe533972	-0.20627382
92	0xbd595640	-0.05306077
93	0x3e8c2d2e	0.2737822
94	0x3eab270c	0.33428228
95	0x3e75e84c	0.24014395
96	0xbdcb71dc	-0.09933826
97	0x3c9b0ffa	0.018928517
98	0xbe1193a1	-0.14216472
99	0x3e1b09db	0.15140478
100	0x3e361874	0.17782766
101	0xbe581b9a	-0.21104279
102	0xbe7b8b98	-0.2456497
103	0x3d028f9f	0.03187525
104	0xbd9ad834	-0.07560769
105	0xbe5c5e1c	-0.21520275
106	0xbd56f272	-0.052477308
107	0x3e4bd9c0	0.19907284
108	0x3ddda877	0.10823148
109	0xbd64086e	-0.0556721
110	0x3d95e4c9	0.07319028
111	0x3d935320	0.07193589
112	0xbe7a0993	-0.24417715
113	0xbda8544b	-0.082192026
114	0xbdeddf23	-0.116148256
115	0x3e641116	0.22272143
116	0x3db788b3	0.0896162
117	0x3ee15a6f	0.44014308
118	0xbd751844	-0.059837595
119	0xbe81871f	-0.25298402
120	0x3e3f0a61	0.18656303
121	0xbe8ecbf2	-0.27889973
122	0x3cc90dc6	0.0245427
123	0xbe0bd5a9	-0.13655724
124	0xbe32e0dc	-0.1746859
125	0xbdf41e7c	-0.11919877
126	0xbe814bb6	-0.25253075
127	0x3eb23466	0.34805602
128	0xbcae6710	-0.021289378
129	0xbd1e49a6	-0.038644455
130	0xbce81432	-0.028329942
131	0xbe6b729e	-0.22992942
132	0xbe48620d	-0.19568653
133	0x3e558c4a	0.20854297
134	0xbb81917b	-0.00395411
135	0xbe4ce124	-0.2000776
136	0xbe61cc26	-0.22050533
137	0x3eab9fd2	0.3352037
138	0xbdf0db6c	-0.117606014
139	0xbdabc8ec	-0.08387932
140	0x3eaa695d	0.3328351
141	0xbe163c57	-0.14671455
142	0xbe5dd776	-0.21664223
143	0x3eb8c178	0.36085105
144	0x3e150a84	0.14554793
145	0x3e815dc7	0.2526686
146	0xbebe6588	-0.37186837
147	0x3df5efe1	0.12008644
148	0x3ee58c58	0.44833636
149	0x3ed0388a	0.40668136
150	0xbeb000f7	-0.34375736
151	0x3db5f1f2	0.08884038
152	0xbe8af7b0	-0.27142096
153	0xbddec25c	-0.10876915
154	0xbe50f1a7	-0.20404683
155	0xbd3ae86e	-0.04563182
156	0x3e5dc7c4	0.21658236
157	0x3e1f2674	0.15542012
158	0x3cea01f2	0.02856538
159	0xbd9b82d4	-0.07593313
160	0x3eafdbc6	0.3434736
161	0xbc628100	-0.013824701
162	0x3d7c77c7	0.061637666
163	0xbe03840d	-0.12843342
164	0xbeaa7064	-0.33288872
165	0x3e143948	0.14474976
166	0x3e97e220	0.29664707
167	0xbe4f1a48	-0.20224869
168	0x3ed43e76	0.41453904
169	0x3ea0e9ae	0.31428283
170	0xbe755373	-0.23957615
171	0xbd8f077c	-0.069838494
172	0x3e8c9d72	0.2746387
173	0xbeb68354	-0.3564707
174	0xbc341b36	-0.010992816
175	0xbecd3a53	-0.4008356
176	0xbddd9eec	-0.108213276
177	0x3d1508f1	0.03638548
178	0x3ea19c32	0.3156448
179	0x3d3a0c54	0.045421913
180	0x3e4e2c0c	0.2013399
181	0xbdb3dee0	-0.087827444
182	0x3e1294c8	0.14314568
183	0xbe04315e	-0.12909457
184	0xbe19964a	-0.14998737
185	0x396db8a3	0.00022670864
186	0x3ec45a06	0.38349932
187	0xbe1bfdd7	-0.15233551
188	0x3e82329c	0.25429237
189	0x3d5398c2	0.051659353
190	0x3e3a9c5a	0.18223706
191	0x3d3ebe20	0.046568036
192	0x3e4633b2	0.19355658
193	0x3e76c8c4	0.24100024
194	0xbdad8525	-0.08472661
195	0x3d0bbd46	0.034116052
196	0x3e15103e	0.14556977
197	0x3e76bba2	0.24095014
198	0xbcba7070	-0.022758693
199	0xbeb61dfb	-0.35569748
200	0x3e65f10c	0.22455233
201	0xbea7901b	-0.3272713
202	0x3eb76472	0.3581882
203	0xbe8d05ba	-0.27543432
204	0xbe9c8c9c	-0.30576026
205	0xbd085852	-0.033287354
206	0x3eaac8f3	0.33356437
207	0xbec505dc	-0.38481033
208	0xbe9e4690	-0.3091321
209	0xbeaa5cf0	-0.3327403
210	0x3e783e97	0.24242626
211	0xbe6d6964	-0.23184735
212	0xbe53d7fe	-0.20687863
213	0xbc3ba3ab	-0.011452596
214	0xbd86fa7e	-0.06590746
215	0x3ea6eca2	0.32602412
216	0xbd3319bc	-0.043725714
217	0xbe18e561	-0.14931251
218	0xbea8d115	-0.32972017
219	0x3bcbe12e	0.006221912
220	0xbe553719	-0.208218
221	0xbe7aba55	-0.24485143
222	0xbebe6136	-0.3718354
223	0x3d1965d8	0.03745064
224	0x3e4d19fc	0.20029444
225	0xbec89dd1	-0.39182904
226	0x3dbe444a	0.09290369
227	0xbda2d278	-0.079503
228	0x3d082775	0.033240754
229	0x3e2a55f2	0.16634348
230	0x3d721356	0.05910047
231	0x3e773c3c	0.24144071
232	0x3d2f72b5	0.042834003
233	0x3eaa3d1a	0.33249742
234	0x3ebfc40a	0.37454253
235	0x3e1318b1	0.14364888
236	0x3e8d1d5b	0.2756146
237	0x3e90eeb5	0.2830712
238	0xbbebdade	-0.007197722
239	0x3d099a0c	0.033594176
240	0x3e2ade3d	0.1668634
241	0xbd4f2cf1	-0.05057997
242	0xbe18bcdf	-0.14915799
243	0xbebd3b18	-0.36959147
244	0xbe21fccc	-0.1581909
245	0xba178eae	-0.0005781454
246	0x3ea92d62	0.33042437
247	0xbe0ea06f	-0.13928388
248	0xbdefc038	-0.11706585
249	0x3d83ef00	0.0644207
250	0x3ed446a0	0.41460133
251	0x3d8b210c	0.067934126
252	0xbdaf03af	-0.085456245
253	0x3d8dc9d5	0.06923262
254	0x3eb56f0a	0.3543628
255	0xbe8746b9	-0.26421145

ln1.alpha f4 [256]
0	0x3f800000	1.0
1	0x3f800000	1.0
2	0x3f800000	1.0
3	0x3f800000	1.0
4	0x3f800000	1.0
5	0x3f800000	1.0
6	0x3f800000	1.0
7	0x3f800000	1.0
8	0x3f800000	1.0
9	0x3f800000	1.0
10	0x3f800000	1.0
11	0x3f800000	1.0
12	0x3f800000	1.0
13	0x3f800000	1.0
14	0x3f800000	1.0
15	0x3f800000	1.0
16	0x3f800000	1.0
17	0x3f800000	1.0
18	0x3f800000	1.0
19	0x3f800000	1.0
20	0x3f800000	1.0
21	0x3f800000	1.0
22	0x3f800000	1.0
23	0x3f800000	1.0
24	0x3f800000	1.0
25	0x3f800000	1.0
26	0x3f800000	1.0
27	0x3f800000	1.0
28	0x3f800000	1.0
29	0x3f800000	1.0
30	0x3f800000	1.0
31	0x3f800000	1.0
32	0x3f800000	1.0
33	0x3f800000	1.0
34	0x3f800000	1.0
35	0x3f800000	1.0
36	0x3f800000	1.0
37	0x3f800000	1.0
38	0x3f800000	1.0
39	0x3f800000	1.0
40	0x3f800000	1.0
41	0x3f800000	1.0
42	0x3f800000	1.0
43	0x3f800000	1.0
44	0x3f800000	1.0
45	0x3f800000	1.0
46	0x3f800000	1.0
47	0x3f800000	1.0
48	0x3f800000	1.0
49	0x3f800000	1.0
50	0x3f800000	1.0
51	0x3f800000	1.0
52	0x3f800000	1.0
53	0x3f800000	1.0
54	0x3f800000	1.0
55	0x3f800000	1.0
56	0x3f800000	1.0
57	0x3f800000	1.0
58	0x3f800000	1.0
59	0x3f800000	1.0
60	0x3f800000	1.0
61	0x3f800000	1.0
62	0x3f800000	1.0
63	0x3f800000	1.0
64	0x3f800000	1.0
65	0x3f800000	1.0
66	0x3f800000	1.0
67	0x3f800000	1.0
68	0x3f800000	1.0
69	0x3f800000	1.0
70	0x3f800000	1.0
71	0x3f800000	1.0
72	0x3f800000	1.0
73	0x3f800000	1.0
74	0x3f800000	1.0
75	0x3f800000	1.0
76	0x3f800000	1.0
77	0x3f800000	1.0
78	0x3f800000	1.0
79	0x3f800000	1.0
80	0x3f800000	1.0
81	0x3f800000	1.0
82	0x3f800000	1.0
83	0x3f800000	1.0
84	0x3f800000	1.0
85	0x3f800000	1.0
86	0x3f800000	1.0
87	0x3f800000	1.0
88	0x3f800000	1.0
89	0x3f800000	1.0
90	0x3f800000	1.0
91	0x3f800000	1.0
92	0x3f800000	1.0
93	0x3f800000	1.0
94	0x3f800000	1.0
95	0x3f800000	1.0
96	0x3f800000	1.0
97	0x3f800000	1.0
98	0x3f800000	1.0
99	0x3f800000	1.0
100	0x3f800000	1.0
101	0x3f800000	1.0
102	0x3f800000	1.0
103	0x3f800000	1.0
104	0x3f800000	1.0
105	0x3f800000	1.0
106	0x3f800000	1.0
107	0x3f800000	1.0
108	0x3f800000	1.0
109	0x3f800000	1.0
110	0x3f800000	1.0
111	0x3f800000	1.0
112	0x3f800000	1.0
113	0x3f800000	1.0
114	0x3f800000	1.0
115	0x3f800000	1.0
116	0x3f800000	1.0
117	0x3f800000	1.0
118	0x3f800000	1.0
119	0x3f800000	1.0
120	0x3f800000	1.0
121	0x3f800000	1.0
122	0x3f800000	1.0
123	0x3f800000	1.0
124	0x3f800000	1.0
125	0x3f800000	1.0
126	0x3f800000	1.0
127	0x3f800000	1.0
128	0x3f800000	1.0
129	0x3f800000	1.0
130	0x3f800000	1.0
131	0x3f800000	1.0
132	0x3f800000	1.0
133	0x3f800000	1.0
134	0x3f800000	1.0
135	0x3f800000	1.0
136	0x3f800000	1.0
137	0x3f800000	1.0
138	0x3f800000	1.0
139	0x3f800000	1.0
140	0x3f800000	1.0
141	0x3f800000	1.0
142	0x3f800000	1.0
143	0x3f800000	1.0
144	0x3f800000	1.0
145	0x3f800000	1.0
146	0x3f800000	1.0
147	0x3f800000	1.0
148	0x3f800000	1.0
149	0x3f800000	1.0
150	0x3f800000	1.0
151	0x3f800000	1.0
152	0x3f800000	1.0
153	0x3f800000	1.0
154	0x3f800000	1.0
155	0x3f800000	1.0
156	0x3f800000	1.0
157	0x3f800000	1.0
158	0x3f800000	1.0
159	0x3f800000	1.0
160	0x3f800000	1.0
161	0x3f800000	1.0
162	0x3f800000	1.0
163	0x3f800000	1.0
164	0x3f800000	1.0
165	0x3f800000	1.0
166	0x3f800000	1.0
167	0x3f800000	1.0
168	0x3f800000	1.0
169	0x3f800000	1.0
170	0x3f800000	1.0
171	0x3f800000	1.0
172	0x3f800000	1.0
173	0x3f800000	1.0
174	0x3f800000	1.0
175	0x3f800000	1.0
176	0x3f800000	1.0
177	0x3f800000	1.0
178	0x3f800000	1.0
179	0x3f800000	1.0
180	0x3f800000	1.0
181	0x3f800000	1.0
182	0x3f800000	1.0
183	0x3f800000	1.0
184	0x3f800000	1.0
185	0x3f800000	1.0
186	0x3f800000	1.0
187	0x3f800000	1.0
188	0x3f800000	1.0
189	0x3f800000	1.0
190	0x3f800000	1.0
191	0x3f800000	1.0
192	0x3f800000	1.0
193	0x3f800000	1.0
194	0x3f800000	1.0
195	0x3f800000	1.0
196	0x3f800000	1.0
197	0x3f800000	1.0
198	0x3f800000	1.0
199	0x3f800000	1.0
200	0x3f800000	1.0
201	0x3f800000	1.0
202	0x3f800000	1.0
203	0x3f800000	1.0
204	0x3f800000	1.0
205	0x3f800000	1.0
206	0x3f800000	1.0
207	0x3f800000	1.0
208	0x3f800000	1.0
209	0x3f800000	1.0
210	0x3f800000	1.0
211	0x3f800000	1.0
212	0x3f800000	1.0
213	0x3f800000	1.0
214	0x3f800000	1.0
215	0x3f800000	1.0
216	0x3f800000	1.0
217	0x3f800000	1.0
218	0x3f800000	1.0
219	0x3f800000	1.0
220	0x3f800000	1.0
221	0x3f800000	1.0
222	0x3f800000	1.0
223	0x3f800000	1.0
224	0x3f800000	1.0
225	0x3f800000	1.0
226	0x3f800000	1.0
227	0x3f800000	1.0
228	0x3f800000	1.0
229	0x3f800000	1.0
230	0x3f800000	1.0
231	0x3f800000	1.0
232	0x3f800000	1.0
233	0x3f800000	1.0
234	0x3f800000	1.0
235	0x3f800000	1.0
236	0x3f800000	1.0
237	0x3f800000	1.0
238	0x3f800000	1.0
239	0x3f800000	1.0
240	0x3f800000	1.0
241	0x3f800000	1.0
242	0x3f800000	1.0
243	0x3f800000	1.0
244	0x3f800000	1.0
245	0x3f800000	1.0
246	0x3f800000	1.0
247	0x3f800000	1.0
248	0x3f800000	1.0
249	0x3f800000	1.0
250	0x3f800000	1.0
251	0x3f800000	1.0
252	0x3f800000	1.0
253	0x3f800000	1.0
254	0x3f800000	1.0
255	0x3f800000	1.0

ln1.bias f4 [256]
0	0x00000000	0.0
1	0x00000000	0.0
2	0x00000000	0.0
3	0x00000000	0.0
4	0x00000000	0.0
5	0x00000000	0.0
6	0x00000000	0.0
7	0x00000000	0.0
8	0x00000000	0.0
9	0x00000000	0.0
10	0x00000000	0.0
11	0x00000000	0.0
12	0x00000000	0.0
13	0x00000000	0.0
14	0x00000000	0.0
15	0x00000000	0.0
16	0x00000000	0.0
17	0x00000000	0.0
18	0x00000000	0.0
19	0x00000000	0.0
20	0x00000000	0.0
21	0x00000000	0.0
22	0x00000000	0.0
23	0x00000000	0.0
24	0x00000000	0.0
25	0x00000000	0.0
26	0x00000000	0.0
27	0x00000000	0.0
28	0x00000000	0.0
29	0x00000000	0.0
30	0x00000000	0.0
31	0x00000000	0.0
32	0x00000000	0.0
33	0x00000000	0.0
34	0x00000000	0.0
35	0x00000000	0.0
36	0x00000000	0.0
37	0x00000000	0.0
38	0x00000000	0.0
39	0x00000000	0.0
40	0x00000000	0.0
41	0x00000000	0.0
42	0x00000000	0.0
43	0x00000000	0.0
44	0x00000000	0.0
45	0x00000000	0.0
46	0x00000000	0.0
47	0x00000000	0.0
48	0x00000000	0.0
49	0x00000000	0.0
50	0x00000000	0.0
51	0x00000000	0.0
52	0x00000000	0.0
53	0x00000000	0.0
54	0x00000000	0.0
55	0x00000000	0.0
56	0x00000000	0.0
57	0x00000000	0.0
58	0x00000000	0.0
59	0x00000000	0.0
60	0x00000000	0.0
61	0x00000000	0.0
62	0x00000000	0.0
63	0x00000000	0.0
64	0x00000000	0.0
65	0x00000000	0.0
66	0x00000000	0.0
67	0x00000000	0.0
68	0x00000000	0.0
69	0x00000000	0.0
70	0x00000000	0.0
71	0x00000000	0.0
72	0x00000000	0.0
73	0x00000000	0.0
74	0x00000000	0.0
75	0x00000000	0.0
76	0x00000000	0.0
77	0x00000000	0.0
78	0x00000000	0.0
79	0x00000000	0.0
80	0x00000000	0.0
81	0x00000000	0.0
82	0x00000000	0.0
83	0x00000000	0.0
84	0x00000000	0.0
85	0x00000000	0.0
86	0x00000000	0.0
87	0x00000000	0.0
88	0x00000000	0.0
89	0x00000000	0.0
90	0x00000000	0.0
91	0x00000000	0.0
92	0x00000000	0.0
93	0x00000000	0.0
94	0x00000000	0.0
95	0x00000000	0.0
96	0x00000000	0.0
97	0x00000000	0.0
98	0x00000000	0.0
99	0x00000000	0.0
100	0x00000000	0.0
101	0x00000000	0.0
102	0x00000000	0.0
103	0x00000000	0.0
104	0x00000000	0.0
105	0x00000000	0.0
106	0x00000000	0.0
107	0x00000000	0.0
108	0x00000000	0.0
109	0x00000000	0.0
110	0x00000000	0.0
111	0x00000000	0.0
112	0x00000000	0.0
113	0x00000000	0.0
114	0x00000000	0.0
115	0x00000000	0.0
116	0x00000000	0.0
117	0x00000000	0.0
118	0x00000000	0.0
119	0x00000000	0.0
120	0x00000000	0.0
121	0x00000000	0.0
122	0x00000000	0.0
123	0x00000000	0.0
124	0x00000000	0.0
125	0x00000000	0.0
126	0x00000000	0.0
127	0x00000000	0.0
128	0x00000000	0.0
129	0x00000000	0.0
130	0x00000000	0.0
131	0x00000000	0.0
132	0x00000000	0.0
133	0x00000000	0.0
134	0x00000000	0.0
135	0x00000000	0.0
136	0x00000000	0.0
137	0x00000000	0.0
138	0x00000000	0.0
139	0x00000000	0.0
140	0x00000000	0.0
141	0x00000000	0.0
142	0x00000000	0.0
143	0x00000000	0.0
144	0x00000000	0.0
145	0x00000000	0.0
146	0x00000000	0.0
147	0x00000000	0.0
148	0x00000000	0.0
149	0x00000000	0.0
150	0x00000000	0.0
151	0x00000000	0.0
152	0x00000000	0.0
153	0x00000000	0.0
154	0x00000000	0.0
155	0x00000000	0.0
156	0x00000000	0.0
157	0x00000000	0.0
158	0x00000000	0.0
159	0x00000000	0.0
160	0x00000000	0.0
161	0x00000000	0.0
162	0x00000000	0.0
163	0x00000000	0.0
164	0x00000000	0.0
165	0x00000000	0.0
166	0x00000000	0.0
167	0x00000000	0.0
168	0x00000000	0.0
169	0x00000000	0.0
170	0x00000000	0.0
171	0x00000000	0.0
172	0x00000000	0.0
173	0x00000000	0.0
174	0x00000000	0.0
175	0x00000000	0.0
176	0x00000000	0.0
177	0x00000000	0.0
178	0x00000000	0.0
179	0x00000000	0.0
180	0x00000000	0.0
181	0x00000000	0.0
182	0x00000000	0.0
183	0x00000000	0.0
184	0x00000000	0.0
185	0x00000000	0.0
186	0x00000000	0.0
187	0x00000000	0.0
188	0x00000000	0.0
189	0x00000000	0.0
190	0x00000000	0.0
191	0x00000000	0.0
192	0x00000000	0.0
193	0x00000000	0.0
194	0x00000000	0.0
195	0x00000000	0.0
196	0x00000000	0.0
197	0x00000000	0.0
198	0x00000000	0.0
199	0x00000000	0.0
200	0x00000000	0.0
201	0x00000000	0.0
202	0x00000000	0.0
203	0x00000000	0.0
204	0x00000000	0.0
205	0x00000000	0.0
206	0x00000000	0.0
207	0x00000000	0.0
208	0x00000000	0.0
209	0x00000000	0.0
210	0x00000000	0.0
211	0x00000000	0.0
212	0x00000000	0.0
213	0x00000000	0.0
214	0x00000000	0.0
215	0x00000000	0.0
216	0x00000000	0.0
217	0x00000000	0.0
218	0x00000000	0.0
219	0x00000000	0.0
220	0x00000000	0.0
221	0x00000000	0.0
222	0x00000000	0.0
223	0x00000000	0.0
224	0x00000000	0.0
225	0x00000000	0.0
226	0x00000000	0.0
227	0x00000000	0.0
228	0x00000000	0.0
229	0x00000000	0.0
230	0x00000000	0.0
231	0x00000000	0.0
232	0x00000000	0.0
233	0x00000000	0.0
234	0x00000000	0.0
235	0x00000000	0.0
236	0x00000000	0.0
237	0x00000000	0.0
238	0x00000000	0.0
239	0x00000000	0.0
240	0x00000000	0.0
241	0x00000000	0.0
242	0x00000000	0.0
243	0x00000000	0.0
244	0x00000000	0.0
245	0x00000000	0.0
246	0x00000000	0.0
247	0x00000000	0.0
248	0x00000000	0.0
249	0x00000000	0.0
250	0x00000000	0.0
251	0x00000000	0.0
252	0x00000000	0.0
253	0x00000000	0.0
254	0x00000000	0.0
255	0x00000000	0.0

fc2.weight f4 [128, 256]
0	0x3d5e817a	0.054322697
1	0x3a885cce	0.0010403635
2	0x3cd22260	0.025651157
3	0x3b9c011e	0.0047608754
4	0xbcb74943	-0.022373801
5	0x3d78febd	0.060789812
6	0xbd0c9b98	-0.034328073
7	0xbc860f98	-0.016364858
8	0xbc470ee8	-0.01214955
9	0x3a6b579f	0.0008977595
10	0x3ca7c72c	0.020480715
11	0xbd6c3a3a	-0.057672717
12	0x3d1383fe	0.03601455
13	0x3d68d7c7	0.056846406
14	0xbd2928f2	-0.041298814
15	0x3b67ce45	0.003537075
16	0xbc9e3278	-0.019311175
17	0xbd56fbde	-0.052486293
18	0x3c9cc842	0.01913846
19	0x3d606de8	0.054792315
20	0x3cbf39f4	0.023343064
21	0xbb004260	-0.0019570813
22	0xbba9774c	-0.005171692
23	0xbd691f08	-0.05691436
24	0xbd7175fe	-0.058950417
25	0xbc4356e8	-0.0119225755
26	0xbd045d6f	-0.032315668
27	0xbd78b0d6	-0.06071552
28	0xbd6a3f50	-0.057189286
29	0xbc356eb2	-0.011073755
30	0xbbab0f7e	-0.0052203527
31	0x3bcaf290	0.0061934665
32	0xbd1e154f	-0.03859454
33	0x3cea3030	0.02858743
34	0x3c3bc810	0.011461273
35	0xb9397e00	-0.00017689914
36	0xbd1da950	-0.038491547
37	0xbc75db9e	-0.015005974
38	0xbd399cce	-0.045315556
39	0xbd241698	-0.04006061
40	0xbd523388	-0.051318675
41	0x3bedbe4f	0.0072553526
42	0xbc45e818	-0.012079261
43	0x3d0b2d38	0.03397867
44	0xbd8047f2	-0.062637225
45	0xbd1cbd98	-0.03826675
46	0xbaa7e327	-0.0012808786
47	0xbd769b9c	-0.060206994
48	0xbd78ad56	-0.06071218
49	0xbba95ea6	-0.0051687537
50	0x3d186d88	0.037213832
51	0x3cc463dc	0.023973398
52	0x3d7606e5	0.06006517
53	0x3d435c77	0.047695603
54	0x3caeb872	0.021328185
55	0xbd48ab56	-0.048991524
56	0x3cdc9f40	0.026931405
57	0xbd7709c4	-0.060312048
58	0xb9c37e00	-0.00037287176
59	0xbd2f6f50	-0.042830765
60	0xbc0601ce	-0.008179141
61	0xbcf695de	-0.03010076
62	0xbd493952	-0.04912693
63	0xbc958754	-0.018253006
64	0x3d799930	0.060937107
65	0x3b765cb7	0.0037591883
66	0x3b40e5a0	0.0029433742
67	0x3d4e3377	0.05034205
68	0xbbafe013	-0.005367288
69	0x3d586d26	0.052838467
70	0x3d38cf6a	0.04511968
71	0xbd08037a	-0.03320644
72	0xbd2645cb	-0.040593904
73	0xbd672f86	-0.056441806
74	0xbbbb5763	-0.0057172044
75	0x3d0bae4e	0.034101777
76	0x3c249266	0.01004467
77	0xbd076cfd	-0.033062924
78	0x3d744168	0.05963269
79	0xbbd30c0e	-0.006440646
80	0x3c76c868	0.015062429
81	0xbc48dfe8	-0.012260415
82	0x3d14e0dc	0.036347255
83	0x3d3922d0	0.045199215
84	0x3a25da80	0.00063268095
85	0xbd58179e	-0.052756898
86	0xbd2b02c4	-0.041750684
87	0x3c96a9d0	0.01839152
88	0xbcc8cf6e	-0.024512973
89	0x3d3d1426	0.046161793
90	0x3b90c5b0	0.0044180974
91	0xbbbce580	-0.005764663
92	0xbd19ac8e	-0.037518077
93	0x3d0e5db6	0.03475734
94	0xbcae0559	-0.021242784
95	0xbcd59bf3	-0.026075339
96	0x3c77c680	0.01512301
97	0x3ca4b188	0.020104185
98	0x3cffffa1	0.031249823
99	0xbb8419f0	-0.0040314123
100	0x3cf11531	0.02942905
101	0x3c84b16f	0.016197888
102	0x3d00d356	0.031451546
103	0x3cf17a2b	0.0294772
104	0xbd16a252	-0.036775894
105	0x3c95ed78	0.01830171
106	0xbcfb770c	-0.030696414
107	0x3d6c4eac	0.057692215
108	0xbcfd1c20	-0.0308972
109	0xbd139cf8	-0.03603837
110	0x3be30100	0.0069276094
111	0x3c82e8e4	0.015980192
112	0x3cda5d23	0.02665574
113	0x3cf51720	0.029918253
114	0xbbd3f7a0	-0.006468728
115	0x3d7ebbeb	0.06219093
116	0xbd3d7499	-0.046253774
117	0x3d19381c	0.037407026
118	0x3c9d3200	0.01918888
119	0x3d4009ae	0.04688423
120	0xbd4552ee	-0.04817479
121	0xbd5285f4	-0.05139728
122	0x3d4051df	0.04695308
123	0xbd7bff74	-0.061522916
124	0xbd22fafb	-0.039790135
125	0xbd0287e6	-0.031867884
126	0xbc2f83f6	-0.010712614
127	0x3d4e2855	0.050331432
128	0x3b811440	0.0039391816
129	0xbd631c48	-0.055446893
130	0x3d451193	0.048112463
131	0xbd1d80cb	-0.038452905
132	0xbd2ea0b2	-0.04263372
133	0xba073fd0	-0.000515935
134	0x3c88c308	0.01669456
135	0xbc107748	-0.008817501
136	0x3d263f94	0.040587977
137	0x3d7fd046	0.062454484
138	0x3d1835dc	0.03716074
139	0xbcf0fec5	-0.029418359
140	0xbd20d307	-0.03926375
141	0xbd416efc	-0.047224984
142	0x3d77a562	0.060460456
143	0xbba7e45d	-0.0051236586
144	0xbd6acb36	-0.057322703
145	0x3d3e0a24	0.04639639
146	0xbd097683	-0.033560287
147	0x3d2be286	0.041964076
148	0xbcf1c7fc	-0.029514305
149	0x3d1f445a	0.038883545
150	0xbc9c697f	-0.019093273
151	0xbd4626c3	-0.04837681
152	0x3caf3144	0.021385796
153	0x3d248b76	0.040172063
154	0x3d38d2f2	0.045123048
155	0xbd4e395e	-0.05034768
156	0x3d3a1d7e	0.045438282
157	0xbd1d0731	-0.038336936
158	0xbcef41e4	-0.029206224
159	0x3caa69fc	0.02080249
160	0x3c9eff68	0.019408897
161	0xbd34c3e6	-0.044132136
162	0x3c6a1db7	0.014289311
163	0x3d7de77f	0.06198835
164	0xbd060674	-0.032720998
165	0xbaf1f0ec	-0.0018458641
166	0xbd53d859	-0.051719997
167	0x3d713022	0.058883794
168	0x3d135c8a	0.035976924
169	0x3d625bd1	0.055263344
170	0xbb62d43f	-0.0034611372
171	0xbd0fcb6b	-0.035106104
172	0x3cc5ea50	0.02415958
173	0xbd3cabb6	-0.046062194
174	0x3cd169c5	0.02556313
175	0x3ba5b880	0.0050573945
176	0x3d414ca4	0.04719223
177	0x3d753e1d	0.05987369
178	0x3c8fe5c8	0.017565623
179	0x3cdca0dd	0.026932174
180	0x3bac7b0c	0.005263692
181	0x3d749c65	0.059719462
182	0x3b110e12	0.002213363
183	0xbd1c0286	-0.038088344
184	0xbca8f794	-0.020625867
185	0x3b55a5de	0.0032600085
186	0x3b0371e0	0.0020056888
187	0x3ce4a099	0.02790861
188	0x3d12ef52	0.035872765
189	0x3cad2cf0	0.021139592
190	0x3bfc1f0d	0.007694131
191	0x3d4a23bd	0.04935049
192	0xbd46843c	-0.048465952
193	0xbcba41cf	-0.022736458
194	0xbd82a056	-0.06378238
195	0xbd215b68	-0.039393812
196	0xbd266216	-0.040620886
197	0x3d1366ee	0.035986833
198	0xbd0b4772	-0.034003682
199	0xbd098050	-0.033569634
200	0xbd68ecfe	-0.05686664
201	0x3d6c375c	0.057669982
202	0x3c4892af	0.012242003
203	0xbcc2e048	-0.023788586
204	0xbcd3572c	-0.025798403
205	0xbcf2c448	-0.02963461
206	0x3c4858c8	0.012228198
207	0x3d481ef1	0.048857633
208	0x3d163f3c	0.0366814
209	0xbd44b563	-0.048024546
210	0xbd4fab04	-0.050700203
211	0x3d655fc4	0.055999532
212	0xbb9b11f0	-0.004732363
213	0x3bacce30	0.005273603
214	0x3c6cd0cf	0.014454081
215	0xbd0404c2	-0.0322311
216	0xbbdbf4d0	-0.0067125335
217	0xbcd7d05e	-0.026344474
218	0x3d089a0a	0.033350028
219	0xbd3a888d	-0.04554038
220	0xbcc42264	-0.02394218
221	0xbd2bf11f	-0.041977998
222	0xbd1cc622	-0.03827489
223	0x3ce67420	0.028131545
224	0xbc57f52a	-0.01318101
225	0xbcc022f6	-0.02345417
226	0xbcbe94cd	-0.023264313
227	0x3c096d86	0.008387929
228	0xbd08ca72	-0.033396192
229	0x3d153f72	0.03643746
230	0x3cf62c1f	0.030050335
231	0x3d02a850	0.031898797
232	0x3c922932	0.01784191
233	0x3cc53443	0.024072772
234	0xbd7372e6	-0.059435748
235	0x3c8ae1cf	0.016953377
236	0xbd79fc23	-0.061031472
237	0x3cee4b21	0.029088559
238	0xbc1a1110	-0.009403482
239	0xbb8dd070	-0.004327826
240	0x3d6133cd	0.05498104
241	0x3d6248e9	0.055245314
242	0xbc4d033f	-0.012512981
243	0x3c9dd7bc	0.01926791
244	0x3d12e656	0.035864197
245	0xbd01aeda	-0.031660892
246	0x3d6596b0	0.05605191
247	0xbc699f10	-0.014259115
248	0xbce81892	-0.028332029
249	0xbd1aaa6d	-0.037760187
250	0xbd75ea26	-0.060037754
251	0x3c82c26c	0.015961848
252	0x3d684050	0.05670196
253	0x3a170380	0.00057607144
254	0xbbdff0ea	-0.006834139
255	0xbd202eca	-0.03910712

fc2.bias f4 [128]
0	0xbc9e91e1	-0.01935667
1	0xbd51e112	-0.051240034
2	0x3d979e58	0.074032485
3	0xbd4989e0	-0.049203753
4	0x3cd2de63	0.025740808
5	0x3cf82a78	0.030293688
6	0xbd3f8ccf	-0.046765145
7	0x3bf29e28	0.0074041076
8	0xbd410e96	-0.04713305
9	0xbd6bb4f2	-0.05754561
10	0x3cdce3ef	0.026964156
11	0x3cd72e87	0.026267303
12	0x3d8bf2ea	0.068334416
13	0xbcff0ce1	-0.03113407
14	0x3d54b981	0.051934723
15	0xbcc91d7a	-0.024550188
16	0xbc9c3be4	-0.019071527
17	0xbcb3b0b0	-0.021934837
18	0xbcc92005	-0.0245514
19	0x3caafc90	0.020872384
20	0x3cab4a58	0.020909473
21	0x3c0823e7	0.008309341
22	0xbc0d1446	-0.008610791
23	0x3d3f7efa	0.046751954
24	0xba9275c0	-0.0011174008
25	0x3d94753e	0.07248925
26	0xbc6dd566	-0.01451621
27	0xbc656b10	-0.0140025765
28	0xb8e809d0	-0.0001106445
29	0x3b866f4c	0.004102623
30	0xbcc2cfe2	-0.023780767
31	0xbd0b540d	-0.034015704
32	0x3d378610	0.044805586
33	0xbd85d41a	-0.06534596
34	0x3c321b26	0.0108707305
35	0x3b742d60	0.003725849
36	0xbc1fd335	-0.0097549455
37	0x3d3f9584	0.04677345
38	0xbd650788	-0.055915385
39	0x3d591276	0.05299612
40	0x3d7f0557	0.06226095
41	0x3d127be6	0.03576269
42	0x3cdf16e5	0.027232597
43	0x3d58962e	0.052877598
44	0xbd51667e	-0.051123135
45	0xbc946134	-0.018112756
46	0xbd05c7e6	-0.03266134
47	0x3cc85b2c	0.024457537
48	0xbcb8439e	-0.02249318
49	0x3d8be3d6	0.06830566
50	0x3d2d5a0d	0.042322207
51	0x3d748e7c	0.059706196
52	0xbafa09bc	-0.0019076387
53	0x3dbdddb8	0.09270805
54	0x3d545a13	0.051843714
55	0x3cd2bacd	0.02572384
56	0xbc530163	-0.012878749
57	0x3aefb4d4	0.0018288144
58	0x3d74bbb1	0.05974931
59	0xbd426ffc	-0.047470078
60	0xbd800ac2	-0.06252052
61	0x39a87696	0.0003213181
62	0x3d359265	0.044329066
63	0x3da1c054	0.07898012
64	0x3ce65a82	0.02811933
65	0xbcaa681d	-0.020801598
66	0x3ce36765	0.027759263
67	0xbcc4c3cc	-0.024019144
68	0x3cd5ed88	0.02611424
69	0x3bc285f8	0.0059363805
70	0xbd11db20	-0.035609365
71	0x3d49347b	0.049122315
72	0x3d4cda6e	0.050013
73	0x395f14e5	0.00021274721
74	0xbbc17e49	-0.005904947
75	0xbc058e24	-0.008151565
76	0xbd01675d	-0.031592716
77	0x3d443896	0.047905527
78	0x3d4d9c87	0.050198104
79	0x3d3e7a82	0.04650355
80	0x3c305ac4	0.010763828
81	0x3cb69ea2	0.022292439
82	0xbc632350	-0.0138634
83	0x3d8d9a64	0.06914213
84	0xbb35390f	-0.0027652418
85	0xbd1b5cd3	-0.03793032
86	0x3d6b3409	0.05742267
87	0x3d971c13	0.073784016
88	0x3d0d61ac	0.034516975
89	0xbcbea341	-0.023271205
90	0x3d63b9b2	0.055597015
91	0x3d2c195b	0.04201637
92	0xbd4a3caa	-0.04937426
93	0x3ca4a1ca	0.020096678
94	0xbcb7940a	-0.022409458
95	0x3d9dfb18	0.07713908
96	0xbd3890f4	-0.045060113
97	0x3aef5ee8	0.0018262537
98	0x3d133f20	0.035948873
99	0xbc7e8c94	-0.015536446
100	0xbc4525a7	-0.012032903
101	0x3d26119a	0.04054413
102	0xbd2c85e8	-0.04211989
103	0x3d3d9145	0.046281118
104	0xbd6d3213	-0.057909083
105	0xbc9421e8	-0.018082574
106	0x3c9798eb	0.018505534
107	0x3cf1f037	0.029533489
108	0x3dafb755	0.0857989
109	0xbcff3f2d	-0.031158054
110	0x3c4aca11	0.012377278
111	0x3d6ebbf0	0.0582847
112	0x3d925a6a	0.07146151
113	0xbc67eca2	-0.014155539
114	0xbc3c1b8b	-0.011481176
115	0x3d75254f	0.059850033
116	0x3d8abb9c	0.06774065
117	0xbc72650d	-0.0147946
118	0x3cfc3edc	0.030791692
119	0x3ccf8079	0.025329815
120	0x3d93d139	0.072176404
121	0x3d085577	0.03328463
122	0xbd250ed4	-0.040297344
123	0xbb230fff	-0.002488136
124	0x3d465692	0.048422404
125	0x3d33bed6	0.043883167
126	0x3d4c1867	0.04982796
127	0xbcb15e90	-0.021651536

ln2.alpha f4 [128]
0	0x3f800000	1.0
1	0x3f800000	1.0
2	0x3f800000	1.0
3	0x3f800000	1.0
4	0x3f800000	1.0
5	0x3f800000	1.0
6	0x3f800000	1.0
7	0x3f800000	1.0
8	0x3f800000	1.0
9	0x3f800000	1.0
10	0x3f800000	1.0
11	0x3f800000	1.0
12	0x3f800000	1.0
13	0x3f800000	1.0
14	0x3f800000	1.0
15	0x3f800000	1.0
16	0x3f800000	1.0
17	0x3f800000	1.0
18	0x3f800000	1.0
19	0x3f800000	1.0
20	0x3f800000	1.0
21	0x3f800000	1.0
22	0x3f800000	1.0
23	0x3f800000	1.0
24	0x3f800000	1.0
25	0x3f800000	1.0
26	0x3f800000	1.0
27	0x3f800000	1.0
28	0x3f800000	1.0
29	0x3f800000	1.0
30	0x3f800000	1.0
31	0x3f800000	1.0
32	0x3f800000	1.0
33	0x3f800000	1.0
34	0x3f800000	1.0
35	0x3f800000	1.0
36	0x3f800000	1.0
37	0x3f800000	1.0
38	0x3f800000	1.0
39	0x3f800000	1.0
40	0x3f800000	1.0
41	0x3f800000	1.0
42	0x3f800000	1.0
43	0x3f800000	1.0
44	0x3f800000	1.0
45	0x3f800000	1.0
46	0x3f800000	1.0
47	0x3f800000	1.0
48	0x3f800000	1.0
49	0x3f800000	1.0
50	0x3f800000	1.0
51	0x3f800000	1.0
52	0x3f800000	1.0
53	0x3f800000	1.0
54	0x3f800000	1.0
55	0x3f800000	1.0
56	0x3f800000	1.0
57	0x3f800000	1.0
58	0x3f800000	1.0
59	0x3f800000	1.0
60	0x3f800000	1.0
61	0x3f800000	1.0
62	0x3f800000	1.0
63	0x3f800000	1.0
64	0x3f800000	1.0
65	0x3f800000	1.0
66	0x3f800000	1.0
67	0x3f800000	1.0
68	0x3f800000	1.0
69	0x3f800000	1.0
70	0x3f800000	1.0
71	0x3f800000	1.0
72	0x3f800000	1.0
73	0x3f800000	1.0
74	0x3f800000	1.0
75	0x3f800000	1.0
76	0x3f800000	1.0
77	0x3f800000	1.0
78	0x3f800000	1.0
79	0x3f800000	1.0
80	0x3f800000	1.0
81	0x3f800000	1.0
82	0x3f800000	1.0
83	0x3f800000	1.0
84	0x3f800000	1.0
85	0x3f800000	1.0
86	0x3f800000	1.0
87	0x3f800000	1.0
88	0x3f800000	1.0
89	0x3f800000	1.0
90	0x3f800000	1.0
91	0x3f800000	1.0
92	0x3f800000	1.0
93	0x3f800000	1.0
94	0x3f800000	1.0
95	0x3f800000	1.0
96	0x3f800000	1.0
97	0x3f800000	1.0
98	0x3f800000	1.0
99	0x3f800000	1.0
100	0x3f800000	1.0
101	0x3f800000	1.0
102	0x3f800000	1.0
103	0x3f800000	1.0
104	0x3f800000	1.0
105	0x3f800000	1.0
106	0x3f800000	1.0
107	0x3f800000	1.0
108	0x3f800000	1.0
109	0x3f800000	1.0
110	0x3f800000	1.0
111	0x3f800000	1.0
112	0x3f800000	1.0
113	0x3f800000	1.0
114	0x3f800000	1.0
115	0x3f800000	1.0
116	0x3f800000	1.0
117	0x3f800000	1.0
118	0x3f800000	1.0
119	0x3f800000	1.0
120	0x3f800000	1.0
121	0x3f800000	1.0
122	0x3f800000	1.0
123	0x3f800000	1.0
124	0x3f800000	1.0
125	0x3f800000	1.0
126	0x3f800000	1.0
127	0x3f800000	1.0

ln2.bias f4 [128]
0	0x00000000	0.0
1	0x00000000	0.0
2	0x00000000	0.0
3	0x00000000	0.0
4	0x00000000	0.0
5	0x00000000	0.0
6	0x00000000	0.0
7	0x00000000	0.0
8	0x00000000	0.0
9	0x00000000	0.0
10	0x00000000	0.0
11	0x00000000	0.0
12	0x00000000	0.0
13	0x00000000	0.0
14	0x00000000	0.0
15	0x00000000	0.0
16	0x00000000	0.0
17	0x00000000	0.0
18	0x00000000	0.0
19	0x00000000	0.0
20	0x00000000	0.0
21	0x00000000	0.0
22	0x00000000	0.0
23	0x00000000	0.0
24	0x00000000	0.0
25	0x00000000	0.0
26	0x00000000	0.0
27	0x00000000	0.0
28	0x00000000	0.0
29	0x00000000	0.0
30	0x00000000	0.0
31	0x00000000	0.0
32	0x00000000	0.0
33	0x00000000	0.0
34	0x00000000	0.0
35	0x00000000	0.0
36	0x00000000	0.0
37	0x00000000	0.0
38	0x00000000	0.0
39	0x00000000	0.0
40	0x00000000	0.0
41	0x00000000	0.0
42	0x00000000	0.0
43	0x00000000	0.0
44	0x00000000	0.0
45	0x00000000	0.0
46	0x00000000	0.0
47	0x00000000	0.0
48	0x00000000	0.0
49	0x00000000	0.0
50	0x00000000	0.0
51	0x00000000	0.0
52	0x00000000	0.0
53	0x00000000	0.0
54	0x00000000	0.0
55	0x00000000	0.0
56	0x00000000	0.0
57	0x00000000	0.0
58	0x00000000	0.0
59	0x00000000	0.0
60	0x00000000	0.0
61	0x00000000	0.0
62	0x00000000	0.0
63	0x00000000	0.0
64	0x00000000	0.0
65	0x00000000	0.0
66	0x00000000	0.0
67	0x00000000	0.0
68	0x00000000	0.0
69	0x00000000	0.0
70	0x00000000	0.0
71	0x00000000	0.0
72	0x00000000	0.0
73	0x00000000	0.0
74	0x00000000	0.0
75	0x00000000	0.0
76	0x00000000	0.0
77	0x00000000	0.0
78	0x00000000	0.0
79	0x00000000	0.0
80	0x00000000	0.0
81	0x00000000	0.0
82	0x00000000	0.0
83	0x00000000	0.0
84	0x00000000	0.0
85	0x00000000	0.0
86	0x00000000	0.0
87	0x00000000	0.0
88	0x00000000	0.0
89	0x00000000	0.0
90	0x00000000	0.0
91	0x00000000	0.0
92	0x00000000	0.0
93	0x00000000	0.0
94	0x00000000	0.0
95	0x00000000	0.0
96	0x00000000	0.0
97	0x00000000	0.0
98	0x00000000	0.0
99	0x00000000	0.0
100	0x00000000	0.0
101	0x00000000	0.0
102	0x00000000	0.0
103	0x00000000	0.0
104	0x00000000	0.0
105	0x00000000	0.0
106	0x00000000	0.0
107	0x00000000	0.0
108	0x00000000	0.0
109	0x00000000	0.0
110	0x00000000	0.0
111	0x00000000	0.0
112	0x00000000	0.0
113	0x00000000	0.0
114	0x00000000	0.0
115	0x00000000	0.0
116	0x00000000	0.0
117	0x00000000	0.0
118	0x00000000	0.0
119	0x00000000	0.0
120	0x00000000	0.0
121	0x00000000	0.0
122	0x00000000	0.0
123	0x00000000	0.0
124	0x00000000	0.0
125	0x00000000	0.0
126	0x00000000	0.0
127	0x00000000	0.0

discrete_action.weight f4 [2, 128]
0	0xb8b231b5	-8.49696e-05
1	0x3b9906d1	0.004670002
2	0x3f5430dd	0.8288706
3	0x3bce4cdb	0.006295783
4	0x3a819461	0.0009886139
5	0xbec153b0	-0.3775916
6	0x3c5276c1	0.012845696
7	0xbeb2c6cf	-0.34917304
8	0xba1a4180	-0.0005884394
9	0xbb1b95e5	-0.0023740467
10	0x3bf30d24	0.007417338
11	0xbbbbcc7f	-0.005731165
12	0xbee2949e	-0.4425401
13	0x3f61119d	0.879175
14	0xbecfb644	-0.40568745
15	0x3b7f2de7	0.0038937272
16	0x3d8453b4	0.064612776
17	0x3f197ec7	0.5995907
18	0xbed9c1de	-0.4253072
19	0xba531c3e	-0.00080532196
20	0x3f1aa487	0.604073
21	0xbed90ed8	-0.42394137
22	0xbe9c8b21	-0.30574897
23	0x3f562f4c	0.8366592
24	0x3a335912	0.00068415806
25	0x3f55f0cc	0.8357055
26	0xbd739879	-0.05947158
27	0x3a354387	0.00069146644
28	0xbef0a6e0	-0.47002316
29	0xbe674ac7	-0.22587119
30	0x3c8c3b48	0.017118111
31	0xbb15289e	-0.0022759805
32	0x3ec428c4	0.38312352
33	0xbc8c105f	-0.01709765
34	0xbedeaaf0	-0.4348979
35	0xb9419473	-0.00018461216
36	0xbcc4a362	-0.024003688
37	0x3b211c13	0.0024583384
38	0x3b57ac00	0.0032908916
39	0x3f5e03f2	0.8672477
40	0x3f693c8f	0.9110803
41	0xbead6d47	-0.33872434
42	0xbeb856c1	-0.36003688
43	0xbec04060	-0.37549114
44	0xbc9282b0	-0.017884582
45	0x3f36c1f3	0.71389693
46	0xbf256128	-0.64601374
47	0xbee86374	-0.45388377
48	0x3f0ee31d	0.558153
49	0x3f72daac	0.94864917
50	0x3f293beb	0.6610705
51	0xbec6ac8e	-0.38803524
52	0xbb0dcb98	-0.0021636244
53	0x3f137a4f	0.57608503
54	0x3a1e23f0	0.0006032577
55	0xbb4db934	-0.0031390907
56	0x3f3bca13	0.73355216
57	0xbef25d16	-0.47336644
58	0xbef15805	-0.47137466
59	0xb9c4bb72	-0.0003752369
60	0xb9327142	-0.00017017595
61	0xbeed1a5a	-0.46309167
62	0x3f1540e1	0.5830212
63	0x3f3a05c5	0.72665054
64	0xbea26343	-0.31716356
65	0x3b4262fa	0.0029661045
66	0x3f3c923b	0.7366063
67	0x3a075648	0.0005162698
68	0xbebaf921	-0.36518195
69	0x3e5e69a0	0.2171998
70	0xbef92d9e	-0.48667616
71	0xbde1d28e	-0.11026488
72	0xbec085fc	-0.37602222
73	0xbe951d5f	-0.2912397
74	0xbec21980	-0.3791008
75	0xbc94a0d8	-0.018143103
76	0xbeef581e	-0.46746916
77	0x3f53b0e6	0.826918
78	0x3a115074	0.00055432995
79	0xb9958cef	-0.00028524498
80	0xbc57f840	-0.013181746
81	0x3b0f8bdd	0.0021903433
82	0xbacba1e4	-0.0015535918
83	0x3f4ea484	0.8071978
84	0xbe9f8728	-0.31157804
85	0xbb0e52e4	-0.0021716887
86	0x3b796f1f	0.0038060618
87	0xbeae95eb	-0.34098753
88	0x3f122ff5	0.57104427
89	0x3b1dd36a	0.0024082311
90	0xbf1bff17	-0.6093611
91	0xbeeccc1b	-0.4624947
92	0x3a0959a5	0.00052394933
93	0x3c0c8e67	0.008578873
94	0xbecc188f	-0.39862487
95	0x3f64e7ee	0.89416397
96	0xbe878827	-0.26471063
97	0xbe9818d9	-0.29706457
98	0xbb799f90	-0.0038089491
99	0xbee96792	-0.4558683
100	0x3f50f798	0.816278
101	0xbc3d7665	-0.011563872
102	0x39cc60b0	0.0003898195
103	0xbeb96f7f	-0.36217877
104	0x38c8b000	9.569526e-05
105	0xbecdd400	-0.40200806
106	0xbefd7ce5	-0.4950935
107	0xbc1848ef	-0.0092947325
108	0x3edc6baa	0.4305089
109	0xbf1639fb	-0.5868222
110	0xbcae099b	-0.021244815
111	0xbec083d6	-0.37600583
112	0x3f369a39	0.71329075
113	0x3f3a32d9	0.7273384
114	0xbede47fe	-0.434143
115	0x3f592e54	0.84836316
116	0x3f04d597	0.5188841
117	0x3f321bb7	0.6957354
118	0xbe9aec71	-0.30258515
119	0xbec62b2e	-0.38704818
120	0x3e768ca6	0.2407709
121	0xbbcadc59	-0.0061908183
122	0xbee8905b	-0.45422634
123	0xbafc27ce	-0.0019237937
124	0x3ee04fa4	0.4381076
125	0x3f2aae09	0.66671807
126	0x3f29b855	0.66296893
127	0xbf046bc5	-0.51726943
128	0xba068733	-0.00051318406
129	0xbbcbe0dc	-0.0062218737
130	0xbf545ac8	-0.8295102
131	0xbbb17cce	-0.005416489
132	0xb9b9ec4a	-0.00035462
133	0x3ec14e6a	0.37755138
134	0xbc4ee60f	-0.012628092
135	0x3eb2f217	0.34950325
136	0x3a4fe6db	0.00079308235
137	0x3b6f5efe	0.0036525126
138	0xbc01aa11	-0.007914082
139	0x3bcaa154	0.0061837826
140	0x3ee2c022	0.4428721
141	0xbf60ec98	-0.87861013
142	0x3ecfdf52	0.40600067
143	0xbb8d4055	-0.0043106475
144	0xbd850ae8	-0.06496221
145	0xbf198205	-0.5996402
146	0x3ed9c1a0	0.42530537
147	0x3a265802	0.00063455116
148	0xbf1aad0b	-0.6042029
149	0x3ed91946	0.42402095
150	0x3e9c93ff	0.30581662
151	0xbf563564	-0.8367522
152	0xb9a2b928	-0.00031037
153	0xbf560076	-0.83594453
154	0x3d768e71	0.060194436
155	0xba614aa8	-0.00085941935
156	0x3ef0f8d4	0.4706484
157	0x3e686649	0.22695269
158	0xbc8c4403	-0.017122274
159	0x3b20cc08	0.0024535675
160	0xbec4291e	-0.3831262
161	0x3c95a851	0.018268736
162	0x3edf514e	0.43616718
163	0x390ea220	0.00013602572
164	0x3cc000fa	0.023437966
165	0xba8e26f1	-0.0010845346
166	0xbb1fa563	-0.0024360053
167	0xbf5e03e7	-0.86724705
168	0xbf690ef0	-0.9103842
169	0x3eacb1f9	0.33729532
170	0x3eb85c89	0.360081
171	0x3ec06b3a	0.37581807
172	0x3c8e556e	0.01737472
173	0xbf369efd	-0.71336347
174	0x3f25313b	0.64528245
175	0x3ee86f04	0.45397198
176	0xbf0e9ead	-0.5571087
177	0xbf729fe2	-0.9477521
178	0xbf294b31	-0.6613036
179	0x3ec64d66	0.38730925
180	0x3ad94ccc	0.0016578673
181	0xbf13c6e9	-0.5772539
182	0xba81b61c	-0.0009896192
183	0x3b3e238f	0.0029012894
184	0xbf3bf547	-0.7342114
185	0x3ef216e4	0.4728309
186	0x3ef0fc62	0.47067553
187	0xb9c785a9	-0.00038055822
188	0x37544195	1.2651454e-05
189	0x3eeccf5d	0.46251956
190	0xbf157bdd	-0.58392125
191	0xbf39fe1d	-0.7265337
192	0x3ea281e3	0.3173972
193	0xbb32bd15	-0.0027273346
194	0xbf3c6973	-0.735984
195	0x38e7593d	0.0001103156
196	0x3ebb03fd	0.3652648
197	0xbe5e7cec	-0.21727341
198	0x3ef9d32a	0.48793918
199	0x3de1431b	0.109991275
200	0x3ec0b57c	0.37638462
201	0x3e94d1fa	0.2906645
202	0x3ec1c930	0.37848806
203	0x3c9ba4e6	0.018999528
204	0x3eef58d1	0.4674745
205	0xbf53ecaa	-0.82782996
206	0xb9a30674	-0.0003109459
207	0x39a98944	0.00032336463
208	0x3c5782c0	0.013153732
209	0xbb3b0d21	-0.002854176
210	0x3a74b91c	0.0009335445
211	0xbf4ee552	-0.80818665
212	0x3e9f7a8a	0.31148177
213	0x3adaabbb	0.001668326
214	0xbb24f850	-0.002517242
215	0x3eae8ba5	0.34090915
216	0xbf122401	-0.5708619
217	0xbb01b9de	-0.0019794623
218	0x3f1babf6	0.60809267
219	0x3eed21bd	0.46314803
220	0xbaaae103	-0.001303703
221	0xbc1fe89c	-0.009760048
222	0x3ecc6692	0.39922005
223	0xbf64ff34	-0.8945191
224	0x3e87a9c5	0.2649671
225	0x3e98376f	0.29729792
226	0x3b8e8427	0.00434925
227	0x3ee93bbe	0.45553392
228	0xbf50e9ce	-0.8160676
229	0x3c4149e2	0.0117974
230	0xb8854468	-6.354676e-05
231	0x3eb8cff7	0.36096165
232	0xb9512555	-0.000199457
233	0x3ecddf90	0.40209627
234	0x3efd8cab	0.49521384
235	0x3c10f5bd	0.008847651
236	0xbedc6a4c	-0.43049848
237	0x3f163951	0.5868121
238	0x3ca24e21	0.019812645
239	0x3ec0b72a	0.37639743
240	0xbf36d107	-0.714127
241	0xbf3a64bb	-0.7280995
242	0x3edec120	0.43506718
243	0xbf58fbaa	-0.8475901
244	0xbf04a49b	-0.5181367
245	0xbf3258cf	-0.6966676
246	0x3e9aefc3	0.3026105
247	0x3ec6b472	0.38809544
248	0xbe772698	-0.24135816
249	0x3beef111	0.007291921
250	0x3ee8ca20	0.4546671
251	0x3adefc26	0.0017012402
252	0xbee06a20	-0.43830967
253	0xbf2a7ebb	-0.66599625
254	0xbf2969b3	-0.6617691
255	0x3f044b36	0.5167726

discrete_action.bias f4 [2]
0	0xbd63c8f7	-0.055611577
1	0x3d65a21e	0.05606281
