s10lre4e3CCM_MADRL_MEC/model/50-800-16-20-80/CCM_MADRL/2-actors.pth (torch, 143519 bytes, 6 tensors)

fc1.weight f4 [256, 7]
-0.24529317 0.37901285 -0.14063752 0.2309569 0.16811961 0.36930978 0.070817806 -0.2280906
-0.38184753 0.15128782 0.2265507 -0.2260359 0.052255977 -0.11760053 -0.008655017 -0.29205233
0.35154894 -0.12063436 0.33684516 -0.21150678 0.35184932 -0.31056038 -0.038289458 -0.21756262
0.25611147 -0.0004272759 -0.21330416 -0.21659015 -0.3931745 -0.06463082 0.27341425 -0.21361716
0.19409065 0.27339673 -0.18237413 0.05882164 0.065087944 0.35032815 -0.19939767 -0.005593609
0.024897272 -0.034750845 0.27904868 0.0041414993 0.41227016 -0.22519514 -0.091270715 0.12474309
0.2745299 0.0074557774 0.33891177 -0.016660353 -0.2993756 0.3482714 0.32456827 -0.19212936
-0.20235799 0.019787353 0.3794623 -0.037797116 0.19115275 -0.23842652 0.120209076 -0.046913758
-0.3823034 0.3314232 0.1451741 0.01874496 0.27632105 0.2440861 0.28442612 -0.1358981
-0.10806232 -0.22411993 0.37911144 -0.004370891 0.24714985 -0.021782607 -0.11654246 -0.07124552
-0.08828917 -0.1795735 0.067674845 -0.33096448 0.07176833 0.18255267 -0.20446782 -0.36771086
0.09165297 -0.13378847 -0.2779983 -0.21291934 -0.21134175 -0.019967876 0.2604033 0.11537305
-0.034514412 0.081125826 -0.095539585 0.33442497 -0.31043187 0.3456695 -0.24212243 -0.20229591
0.22737981 0.27912563 -0.39014912 -0.36058512 0.36950734 0.27575326 0.35309806 -0.2892354
-0.2149142 -0.12278716 -0.39275718 0.009138599 -0.2811114 0.28601912 0.1711145 0.18083057
0.30321777 0.12588322 0.3220335 -0.17628475 -0.2636769 -0.0005544334 0.36075193 -0.36773384
-0.30810663 0.25483358 -0.105874404 0.104114056 0.1667015 0.103084594 -0.33877888 -0.28833044
0.3334474 0.2525256 0.2741828 0.11679645 -0.2517598 0.16131884 -0.25307778 -0.2053801
0.35718566 0.37433836 -0.015189993 0.21108462 -0.11555606 -0.33133915 0.21300593 -0.33907408
0.38481835 -0.012272218 0.42101794 -0.31876868 -0.3051728 0.09717418 -0.07999122 -0.06311371
0.3578991 0.38994694 -0.13783418 0.31649688 -0.20204285 0.35941178 -0.07365389 0.30529875
0.10793014 0.112830564 -0.1849927 0.06050109 0.338605 0.2564073 0.044162422 -0.05171689
0.051734094 -0.3621469 0.14142695 -0.23377307 0.047175977 0.10323618 0.12554775 -0.2429675
0.1839858 0.30029434 0.17553338 0.11917515 -0.27040935 -0.17108062 -0.013853379 -0.04014402
-0.2185147 -0.21898621 -0.10848218 0.3447365 -0.19124195 0.13401571 -0.28246227 -0.014167259
-0.16306202 -0.06320629 -0.1396454 0.40099186 -0.42825642 0.3740262 -0.2553836 0.25221142
0.06752077 0.13429092 -0.100911915 -0.26164654 -0.2653234 -0.2082368 0.060100496 0.08980057
-0.35236487 0.076387316 -0.27366656 0.08756329 -0.26730284 -0.1313717 -0.027782748 -0.35743818
0.40120238 -0.38320458 -0.09161629 0.20333005 0.043753337 0.007695212 -0.23551592 -0.041461356
-0.024468435 0.3646025 -0.30821705 0.085194625 -0.10334916 -0.27761018 -0.03518825 0.37606087
-0.16920376 -0.18944868 0.26763856 0.10510173 -0.2295487 -0.32158116 0.3601455 -0.17151283
0.16909935 -0.12240594 -0.024280753 0.31048194 -0.28546146 0.22296187 -0.29429275 0.054550648
00000000: 222e 7bbe f90d c23e 4803 10be f77f 6c3e
00000010: 8c27 2c3e 2c16 bd3e ed08 913d 9590 69be
00000020: 8581 c3be 32eb 1a3e e8fc 673e f475 67be
00000030: 5d0a 563d 8cd8 f0bd c6cd 0dbc e287 95be
00000040: 39fe b33e 260f f7bd f876 ac3e 3c95 58be
00000050: 9825 b43e c501 9fbe 68d5 1cbd bcc8 5ebe
00000060: 0b21 833e 0004 e0b9 686c 5abe cfc9 5dbe
00000070: 2b4e c9be 2a5d 84bd f4fc 8b3e 75be 5abe
00000080: b3bf 463e a8fa 8b3e 49c0 3abe f6ee 703d
00000090: d44c 853d 365e b33e e72e 4cbe 984a b7bb
000000a0: 5df5 cb3c e756 0ebd 78df 8e3e 6ab5 873b
000000b0: 1315 d33e 8e99 66be 24ec babd 4e79 ff3d
000000c0: 2f8f 8c3e 984f f43b d885 ad3e 4b7b 88bc
000000d0: c247 99be a150 b23e d02d a63e 8fbd 44be
000000e0: ef36 4fbe 1619 a23c e248 c23e 26d1 1abd
000000f0: 8cbd 433e 1526 74be 2d30 f63d a428 40bd
00000100: 45bd c3be 4db0 a93e 85a8 143e 088f 993c
00000110: f479 8d3e b5f1 793e 4da0 913e df28 0bbe
00000120: c74f ddbd b27f 65be e51a c23e b139 8fbb
00000130: da14 7d3e 7071 b2bc d0ad eebd 2ce9 91bd
00000140: f4d0 b4bd 1ee2 37be 1c99 8a3d 2d74 a9be
00000150: 46fb 923d 16ef 3a3e 0360 51be 9944 bcbe
00000160: 8db4 bb3d d8ff 08be cb55 8ebe 8707 5abe
00000170: f969 58be ac93 a3bc 9553 853e b548 ec3d
00000180: fc5e 0dbd 4c25 a63d 42aa c3bd c039 ab3e
00000190: edf0 9ebe 98fb b03e f1ee 77be a926 4fbe
000001a0: 41d6 683e 8ee9 8e3e a0c1 c7be 9d9e b8be
000001b0: 1130 bd3e 882f 8d3e 45c9 b43e aa16 94be
000001c0: 7812 5cbe d677 fbbd 7817 c9be 10ba 153c
000001d0: d5ed 8fbe 1971 923e a438 2f3e a62b 393e
000001e0: 5c3f 9b3e 88e7 003e 93e1 a43e fd83 34be
000001f0: a900 87be 6557 11ba 7ab4 b83e 9c47 bcbe
00000200: 27c0 9dbe 8c79 823e aed4 d8bd c039 d53d
00000210: ccb3 2a3e 041e d33d 6d74 adbe 0ca0 93be
00000220: 9eb9 aa3e 094b 813e b061 8c3e fa32 ef3d
00000230: a9e6 80be c430 253e 6993 81be 294f 52be
00000240: 0ae1 b63e 47a9 bf3e 73df 78bc 9126 583e
00000250: a8a8 ecbd 49a5 a9be 3a1e 5a3e 1e9b adbe
00000260: e906 c53e 6a11 49bc aa8f d73e a635 a3be
00000270: 9c3f 9cbe 4203 c73d 70d2 a3bd c341 81bd
00000280: 8d3e b73e 20a7 c73e 6724 0dbe e10b a23e
00000290: 52e4 4ebe d204 b83e dad7 96bd 1e50 9c3e
000002a0: 7a0a dd3d b613 e73d ba6e 3dbe fecf 773d
000002b0: a25d ad3e d147 833e a8e3 343d 17d5 53bd
000002c0: 21e7 533d 526b b9be 3ad2 103e 3562 6fbe
000002d0: 993b 413d 7e6d d33d 978f 003e 79cc 78be
000002e0: c666 3c3e 2ec0 993e 06bf 333e 1a12 f43d
000002f0: 1873 8abe c22f 2fbe 48f9 62bc 0e6e 24bd
00000300: 51c2 5fbe ec3d 60be e82b debd 4d81 b03e
00000310: eed4 43be 6a3b 093e e59e 90be cb1d 68bc
00000320: bbf9 26be 4d72 81bd 34ff 0ebe ce4e cd3e
00000330: 6d44 dbbe 5d80 bf3e a4c1 82be db21 813e
00000340: 5448 8a3d 8f83 093e e8aa cebd 89f6 85be
00000350: 78d8 87be 073c 55be f02b 763d 5ce9 b73d
00000360: 2b69 b4be f470 9c3d 061e 8cbe 6254 b33d
00000370: ebdb 88be 4e86 06be a598 e3bc 2302 b7be
00000380: 666a cd3e 6433 c4be 52a1 bbbd c135 503e
00000390: b336 333d 1e28 fc3b 162b 71be 62d3 29bd
000003a0: 0772 c8bc 2ead ba3e a0ce 9dbe 857a ae3d
000003b0: b9a8 d3bd ec22 8ebe 8e21 10bd 0d8b c03e
000003c0: c043 2dbe d6fe 41be ec07 893e 933f d73d
000003d0: d00e 6bbe 49a6 a4be fe64 b83e 0fa1 2fbe
000003e0: 6128 2d3e f7af fabd 6ee8 c6bc 7df7 9e3e
000003f0: 0128 92be 1e50 643e 8aad 96be 8070 5f3d

fc1.bias f4 [256]
0.07551239 0.22136302 0.09566881 -0.12919113 0.12095696 -0.1371277 -0.02033098 0.06546645
-0.29871884 -0.15378717 -0.17871255 -0.12562609 0.10331214 0.29249287 -0.06334221 0.29362366
0.063476026 -0.0016648594 -0.10973923 0.028116629 0.06582366 -0.02152379 -0.12216671 -0.33191985
-0.22781162 0.39290014 -0.009736065 0.04789149 0.3082146 -0.11943652 -0.121462286 0.33974144
0.22618505 0.049998242 0.058191642 0.04348092 -0.3249749 -0.05328512 -0.025862105 0.1652562
-0.175745 -0.3743295 -0.34016436 0.015250513 0.24587591 0.021442916 -0.23654737 -0.35582078
-0.0650963 0.22183123 -0.17025612 0.32922366 -0.21359654 0.33770034 0.21900207 0.17435679
0.16532533 -0.046577264 -0.1255648 0.068449624 -0.09455329 0.30537224 0.38226315 -0.25390938
-0.26718807 0.22819701 -0.19997025 0.018224826 0.37274817 -0.23673747 -0.060215127 -0.3520392
0.10937229 -0.19637112 0.29503283 0.3763444 0.104325704 0.21580485 -0.17719012 0.019594522
0.23433867 0.06802225 -0.2553298 -0.124404 0.21901348 -0.28821096 -0.32722336 -0.20147784
-0.25341088 -0.334935 0.3400447 0.23435336 0.0121705765 -0.22709088 -0.24552707 -0.015230978
0.25817195 -0.039105676 -0.031185145 -0.23477413 0.37725627 0.38695148 0.21766184 -0.18301909
0.38359115 0.13529752 -0.17981677 -0.0061285426 -0.02546306 0.28336033 0.022483798 -0.10116773
-0.0078067933 -0.24446398 0.27978113 0.2516016 -0.07897372 -0.36155528 0.082492314 -0.3596921
-0.21768759 0.31976864 0.2888485 -0.10242473 -0.31477168 -0.15441409 -0.19817457 0.1497873
0.27865446 -0.24248713 0.060068805 0.08566045 0.21161264 -0.24104877 -0.23666108 -0.2234435
0.14928333 0.06756696 -0.029964354 0.23020215 -0.16485518 0.3593636 0.14125426 0.09840732
0.111995436 -0.12149774 -0.089245684 0.31491426 0.04283697 0.3096616 0.17702226 -0.1522657
-0.25515306 0.21343246 0.15211728 0.056012776 0.02428345 0.32792312 0.036950544 0.2856853
0.09605638 -0.22302479 0.16025886 0.29174343 0.012561552 -0.040985513 0.13682215 0.16864678
0.22268449 0.21923152 -0.16729318 0.31441042 0.09925198 -0.22992523 0.25445387 -0.0053567947
-0.000922937 0.34124014 -0.03963308 0.3850087 -0.053568136 0.21923509 -0.2616277 -0.10400315
-0.07551791 -0.08181422 0.09692401 -0.25659984 -0.064719126 -0.10727175 -0.3712254 -0.15330209
0.28696516 -0.31300014 0.2644632 0.12435441 0.35473922 -0.34041902 -0.14034829 -0.302182
0.29137057 0.2534281 0.22016475 0.30905876 -0.0169704 0.16627303 -0.2064559 -0.17688473
-0.015361288 0.10256177 0.021685569 0.18363559 0.19876048 -0.21676005 -0.08181097 0.24105269
0.28454754 0.252071 0.071611024 0.2725497 0.1761115 -0.02085208 0.03401281 -0.11532612
0.04102483 0.19666944 -0.16861203 -0.17078009 0.39911565 -0.07096217 0.28023273 0.3735663
-0.22049555 -0.21726365 0.15844129 -0.34408295 0.34569982 -0.03047512 0.090706415 -0.26146987
0.063540585 -0.33604658 -0.13534203 0.05000467 0.09484788 0.35947773 0.017543867 -0.17426078
-0.21252061 0.014511962 0.36998668 -0.2994253 -0.04193312 -0.3317599 0.26815403 -0.0016214589
00000000: 3da6 9a3d fdac 623e 02ee c33d ae4a 04be
00000010: 48b8 f73d 346b 0cbe 288d a6bc 4613 863d
00000020: adf1 98be 627a 1dbe 6c00 37be 20a4 00be
00000030: 5195 d33d a0c1 953e 90b9 81bd d755 963e
00000040: b8ff 813d 6937 daba f6be e0bd d854 e63c
00000050: 8ece 863d a952 b0bc 8a32 fabd 66f1 a9be
00000060: 7347 69be 352a c93e 0484 1fbc de29 443d
00000070: 4ece 9d3e 229b f4bd 38c1 f8bd 97f2 ad3e
00000080: 0e9d 673e f5ca 4c3d 5c5a 6e3d 0d19 323d
00000090: 1c63 a6be 7f41 5abd c4dc d3bc ec38 293e
000000a0: 7ff6 33be 1ea8 bfbe 062a aebe 4add 793c
000000b0: e5c6 7b3e 0ea9 af3c 7939 72be 242e b6be
000000c0: 3551 85bd ba27 633e 9f57 2ebe 0190 a83e
000000d0: 0db9 5abe 0fe7 ac3e 1442 603e 968a 323e
000000e0: 0b4b 293e cdc7 3ebd 0f94 00be 512f 8c3d
000000f0: 28a5 c1bd c059 9c3e ffb7 c33e 6900 82be
00000100: e0cc 88be 7aac 693e 00c5 4cbe 3b4c 953c
00000110: d9d8 be3e 4f6b 72be 23a4 76bd 7b3e b4be
00000120: 94fe df3d 8315 49be 8b0e 973e 37b0 c03e
00000130: b7a8 d53d f2fb 5c3e 5471 35be b184 a03c
00000140: 7af6 6f3e 404f 8b3d 96ba 82be 86c7 febd
00000150: 1245 603e 6390 93be d289 a7be 3550 4ebe
00000160: 12bf 81be 9a7c abbe 571a ae3e 54fa 6f3e
00000170: 1967 473c 838a 68be 736b 7bbe 5a8b 79bc
00000180: 1d2f 843e 462d 20bd fd77 ffbc a168 70be
00000190: bc27 c13e 811e c63e bfe2 5e3e 5b69 3bbe
000001a0: 0f66 c43e 6f8b 0a3e e321 38be f1d1 c8bb
000001b0: e897 d0bc 9b14 913e f12f b83c 0731 cfbd
000001c0: 21d0 ffbb c454 7abe 793f 8f3e edd1 803e
000001d0: f9bc a1bd c61d b9be bbf1 a83d 9029 b8be
000001e0: 7fe9 5ebe b7b8 a33e f3e3 933e 0fc4 d1bd
000001f0: c129 a1be ba1e 1ebe 46ee 4abe d861 193e
00000200: ccab 8e3e 8c4e 78be b50a 763d bf6e af3d
00000210: fcb0 583e 7dd5 76be 4857 72be 5fce 64be
00000220: bbdd 183e 8c60 8a3d ce77 f5bc 1dba 6b3e
00000230: cccf 28be 81fe b73e f5a4 103e c789 c93d
00000240: dd5d e53d cfd3 f8bd 71c6 b6bd 713c a13e
00000250: d275 2f3d f78b 9e3e 5345 353e 8aeb 1bbe
00000260: 6ca3 82be 0a8e 5a3e a2c4 1b3e a76d 653d
00000270: 16ee c63c 8ae5 a73e 7459 173d 5845 923e
00000280: 35b9 c43d 9c60 64be e61a 243e 655f 953e
00000290: f8ce 4d3c 6de0 27bd 1b1b 0c3e beb1 2c3e
000002a0: 6707 643e 3a7e 603e e74e 2bbe 67fa a03e
000002b0: 9f44 cb3d 8571 6bbe c747 823e 0d88 afbb
000002c0: 41f1 71ba 07b7 ae3e 4c56 22bd dc1f c53e
000002d0: 436a 5bbd 2a7f 603e 11f4 85be 9aff d4bd
000002e0: 22a9 9abd 378e a7bd 1880 c63d 0e61 83be
000002f0: 768b 84bd 4bb1 dbbd 4111 bebe 39fb 1cbe
00000300: 19ed 923e 8e41 a0be b867 873e 86ad fe3d
00000310: 61a0 b53e 674b aebe 76b7 0fbe 99b7 9abe
00000320: 862e 953e 54c1 813e de72 613e f33c 9e3e
00000330: 8205 8bbc 7a43 2a3e 2d69 53be 4521 35be
00000340: e9ad 7bbc e80b d23d efa5 b13c f80a 3c3e
00000350: de87 4b3e 59f6 5dbe 838c a7bd 84d6 763e
00000360: 37b0 913e 730f 813e cda8 923d a28b 8b3e
00000370: 9356 343e fbd1 aabc 0451 0b3d 1a30 ecbd
00000380: a709 283d b763 493e a2a8 2cbe fae0 2ebe
00000390: e358 cc3e 9d54 91bd aa7a 8f3e 1544 bf3e
000003a0: 96c9 61be 5d7a 5ebe 6f3e 223e a42b b0be
000003b0: 91ff b03e f5a6 f9bc 49c4 b93d 61df 85be
000003c0: 9121 823d 4c0e acbe 1a97 0abe b2d1 4c3d
000003d0: 9b3f c23d 770d b83e 28b8 8f3c 6b71 32be
000003e0: 019f 59be 95c3 6d3c e56e bd3e 464e 99be
000003f0: 10c2 2bbd 6fdc a9be 7c4b 893e 2287 d4ba

fc2.weight f4 [128, 256]
0.0031322339 0.10086062 0.01052751 0.0023105592 0.04587306 0.025798922 0.028466748 0.04275125
-0.011047103 0.06459524 0.13954821 -0.028675929 0.05246531 -0.050851237 0.065406926 -0.02886151
-0.10569146 0.027592873 0.021227201 -0.019025175 0.001625512 0.026619067 0.15831178 0.026208013
0.005805909 -0.0023272163 0.0126139475 0.014441664 0.13593836 0.11645985 0.05291477 0.026424771
-0.019692915 -0.027671391 0.03280927 -0.02386156 0.116114594 0.11795815 -0.07320966 -0.110868804
0.083851695 0.0357811 -0.006945431 0.09843533 -0.0025220644 0.010182229 0.04477041 -0.0708605
-0.07878878 0.07337742 0.16957517 0.09205228 -0.037354127 -0.056063175 0.066630624 -0.09369824
0.021291288 -0.046883903 -0.022410652 0.009874166 0.006112453 -0.0018769224 0.057613343 0.04856588
-0.0058533847 0.06707885 0.077088945 0.0013199849 0.012505371 0.101823896 -0.042394385 0.022987723
0.030633412 0.044128 -0.043822076 0.01600804 0.11932707 0.07603023 0.031876653 -0.07868887
-0.0114073185 -0.0069202636 0.0064102486 0.08412498 0.03826933 0.10452439 0.03964422 0.14093958
0.0043183416 -0.033480555 0.048710085 0.025222484 0.01578833 0.048706528 -0.09735384 0.0074354364
-0.059914924 0.041766085 -0.0043915203 0.014384064 0.024934875 0.043778025 0.051808078 0.16983278
-0.06522125 -0.028352518 0.05758199 0.040268812 0.12814543 0.001271845 0.092786886 -0.0060763275
0.06374574 0.068075225 -0.06406944 0.13007562 0.11985221 -0.026505567 -0.013132013 -0.04261747
0.1109116 0.06695254 -0.01043966 -0.06796588 -0.053096883 0.15159146 0.003266898 0.016520912
0.0071420255 0.12166132 -0.006417489 0.097499296 0.013771636 0.03341905 -0.00055792736 -0.02460175
0.08447628 0.053008765 0.013061855 -0.04244348 -0.052690703 0.060685996 0.0070618223 -0.002284924
-0.0692475 0.08120043 0.098881364 0.06227927 0.0046440456 -0.05075994 -0.010569842 0.02169236
-0.045554575 0.066626355 0.01965645 0.010613233 0.041623008 0.025348013 -0.024010211 0.05643278
0.036098912 0.026652042 0.036067527 0.08397533 0.09826694 -0.06282931 0.0686013 0.065903
0.08107263 0.0405902 0.095850214 -0.0019871807 0.04321612 -0.008640993 -0.057891596 -0.009683924
-0.045754027 0.050598565 0.03384574 0.0076217307 -0.052517276 0.11156853 -0.089938715 -0.0033148145
-0.13614628 0.025288656 0.06880484 0.030846268 0.16587885 0.055261478 0.04221007 0.11136026
0.10968775 0.010325438 -0.035544854 -0.020663772 -0.007937043 0.02582588 0.0372454 -0.05217943
0.012447482 0.03815509 0.022594547 -0.01675277 -0.081772976 -0.0016397489 0.017096769 0.06696076
0.0047666146 0.040514488 -0.045429472 -0.0039044644 -0.03531875 -0.05527109 0.037165936 0.067264535
0.022213712 0.011080787 0.016439412 0.10990902 -0.040116288 -0.075913295 0.06522436 -0.030551996
-0.17567153 0.041060623 -0.033226673 0.015564519 0.03609863 -0.057308268 -0.043358225 0.04569286
0.04618206 0.11531227 0.012748877 -0.040493518 -0.036680337 0.07546475 0.015860256 0.10077606
0.011808706 -0.0642487 0.088229485 -0.05218729 -0.054105185 0.09112728 0.04455878 0.0063613714
0.02261765 -0.097530045 0.05771101 0.04615303 0.06834239 0.101970725 -0.020629082 0.07761251
00000000: 2a46 4d3b 0390 ce3d 947b 2c3c c06c 173b
00000010: 64e5 3b3d 4358 d33c 1933 e93c ef1b 2f3d
00000020: e9fe 34bc 824a 843d bae5 0e3e c8e9 eabc
00000030: dde5 563d 6349 50bd 11f4 853d f96e ecbc
00000040: c474 d8bd 730a e23c abe4 ad3c afda 9bbc
00000050: 220f d53a 3b10 da3c 7c1c 223e 30b2 d63c
00000060: 7f3f be3b 3684 18bb bbaa 4e3c bb9c 6c3c
00000070: 6d33 0b3e 8082 ee3d 28bd 583d c378 d83c
00000080: 0953 a1bc 1daf e2bc 0363 063d 5179 c3bc
00000090: 7dcd ed3d 0b94 f13d f2ee 95bd 2f0f e3bd
000000a0: 70ba ab3d 348f 123d 8096 e3bb 7698 c93d
000000b0: 3849 25bb 5dd3 263c 2d61 373d 4f1f 91bd
000000c0: 035c a1bd e746 963d 1da5 2d3e e885 bc3d
000000d0: a400 19bd 80a2 65bd a375 883d dde4 bfbd
000000e0: 116b ae3c 5609 40bd 8b96 b7bc 41c7 213c
000000f0: f94a c83b 1103 f6ba f8fb 6b3d 04ed 463d
00000100: c0cd bfbb a360 893d cfe0 9d3d 5803 ad3a
00000110: 54e3 4c3c 0c89 d03d bca5 2dbd c050 bc3c
00000120: ecf2 fa3c 90bf 343d c77e 33bd 4b23 833c
00000130: c061 f43d bdb5 9b3d 1891 023d a127 a1bd
00000140: c3e5 3abc 61c3 e2bb 100d d23b b849 ac3d
00000150: 4dc0 1c3d e210 d63d fa61 223d 7752 103e
00000160: e080 8d3b e822 09bd 3a84 473d 629f ce3c
00000170: 8756 813c 7f80 473d 7361 c7bd f6a4 f33b
00000180: 5a69 75bd ea12 2b3d bee6 8fbb 23ab 6b3c
00000190: 3944 cc3c 9650 333d b534 543d a5e8 2d3e
000001a0: b892 85bd 8a43 e8bc 18db 6b3d e9f0 243d
000001b0: 8e38 033e 09b4 a63a 0d07 be3d ee1b c7bb
000001c0: 208d 823d 066b 8b3d d736 83bd 8b32 053e
000001d0: 1375 f53d 3422 d9bc a827 57bc a88f 2ebd
000001e0: 9f25 e33d 6a1e 893d 1c0b 2bbc b231 8bbd
000001f0: 1e7c 59bd cb3a 1b3e 7419 563b dd56 873c
00000200: a707 ea3b 9229 f93d cd49 d2bb b6ad c73d
00000210: 6ea2 613c 6ae2 083d df41 12ba 9c89 c9bc
00000220: e601 ad3d b81f 593d 6401 563c 37d9 2dbd
00000230: 35d2 57bd e191 783d dc66 e73b aabe 15bb
00000240: a2d1 8dbd 694c a63d 5082 ca3d 8c18 7f3d
00000250: 142d 983b a8e9 4fbd 212d 2dbc 2db4 b13c
00000260: 6f97 3abd 6673 883d 9006 a13c 20e3 2d3c
00000270: e37c 2a3d a3a6 cf3c 10b1 c4bc 0f26 673d
00000280: 74dc 133d 6255 da3c 8bbb 133d 42fb ab3d
00000290: 2d40 c93d a7ac 80bd d77e 8c3d 27f8 863d
000002a0: 6809 a63d e941 263d 1e4d c43d 5c3b 02bb
000002b0: 6303 313d f492 0dbc bd1f 6dbd 52a9 1ebc
000002c0: 9368 3bbd 7140 4f3d d5a1 0a3d b6bf f93b
000002d0: 5b1c 57bd 0b7e e43d ca31 b8bd 5c3d 59bb
000002e0: ee69 0bbe 282a cf3c 8de9 8c3d 50b1 fc3c
000002f0: 25dc 293e dc59 623d 77e4 2c3d d910 e43d
00000300: f9a3 e03d 072c 293c 7b97 11bd 1247 a9bc
00000310: 5f0a 02bc cc90 d33c a28e 183d 19ba 55bd
00000320: 86f0 4b3c 8348 1c3d 3318 b93c 1b3d 89bc
00000330: 9778 a7bd d8ec d6ba 860e 8c3c b922 893d
00000340: 4331 9c3b 85f2 253d 4114 3abd 0be2 7fbb
00000350: 65aa 10bd f063 62bd 4f3b 183d fdc1 893d
00000360: 88f9 b53c 308c 353c f2ab 863c fb17 e13d
00000370: fa50 24bd 6e78 9bbd 5994 853d 2e48 fabc
00000380: 3de3 33be 2f2f 283d b118 08bd 5302 7f3c
00000390: 28dc 133d 13bc 6abd 6598 31bd 7028 3b3d
000003a0: 6629 3d3d d728 ec3d aae0 503c 88dc 25bd
000003b0: 1f3e 16bd 438d 9a3d 5eed 813c ae63 ce3d
000003c0: 4e79 413c d394 83bd a9b1 b43d 57c2 55bd
000003d0: 669d 5dbd f0a0 ba3d 4483 363d 0d73 d03b
000003e0: a648 b93c d5bd c7bd 6162 6c3d f60a 3d3d
000003f0: 18f7 8b3d 07d6 d03d 52fe a8bc 4ff3 9e3d

fc2.bias f4 [128]
0.027840171 -0.0045502484 -0.020919958 -0.018719167 -0.0256714 0.0020808135 0.0023332515 0.06380813
-0.0062100575 0.016366221 0.016947484 -0.0348941 0.025877517 0.029403845 -0.052022293 -0.04903224
0.028028058 -0.0204314 0.013602062 -0.046093576 -0.034226477 0.018633 -0.021337628 0.020559944
0.019788926 0.0019029283 0.04964026 0.0077503645 -0.019721435 -0.07260639 -0.027407145 -0.019258475
-0.0469177 -0.037394688 -0.06414961 0.02136022 0.020079108 0.02638704 0.05140451 0.02068562
0.019530613 0.050868854 -0.019009123 0.03512922 0.0155153405 -0.054669302 0.03945287 -0.03253244
-0.05923711 0.035502657 -0.06031755 -0.05898287 0.01341615 -0.0030477087 0.048596792 0.0037110217
0.054294243 -0.029795885 -0.007062565 0.05407958 0.0067856745 -0.03655262 0.024051106 -0.037780788
0.068501376 0.016860671 -0.037230942 0.07899331 -0.021061465 -0.06079627 0.054829963 -0.015889129
0.059200518 0.00041597956 -0.0096503375 0.045432486 0.0042150235 -0.030543335 -0.07113542 0.0073402934
0.011509913 0.0002022565 -0.028003298 0.005311565 0.048161168 0.0068191905 0.033685572 0.045208465
-0.03772574 -0.022492453 0.036544852 0.013127773 -0.0012907389 -0.025223045 -0.054892756 0.057395067
0.006259303 -0.04899072 0.052544784 -0.048640326 -0.039325498 0.051866937 -0.037092015 -0.039649233
0.04360207 -0.05900246 0.06352683 0.067233935 0.023177305 -0.032399897 -0.011511617 -0.059678886
-0.054510754 0.03139931 0.024457898 -0.034717456 0.011290736 -0.025305115 0.0057023615 -0.017053492
-0.0040075895 0.030569112 -0.012484777 -0.0279371 -0.013912488 -0.03464988 -0.027691096 -0.054436736
00000000: 1211 e43c 401a 95bb 5560 abbc f058 99bc
00000010: d44c d2bc 425e 083b 77e9 183b d6ad 823d
00000020: bd7d cbbb 7412 863c 73d5 8a3c 1eed 0ebd
00000030: 16fd d33c 55e0 f03c 5415 55bd 08d6 48bd
00000040: 199b e53c c05f a7bc 2fdb 5e3c 9ecc 3cbd
00000050: 1031 0cbd 3ca4 983c 40cc aebc 546d a83c
00000060: 631c a23c ae6b f93a 9653 4b3d c5f6 fd3b
00000070: d98e a1bc a9b2 94bd f384 e0bc f3c3 9dbc
00000080: c62c 40bd 2c2b 19bd df60 83bd a1fb ae3c
00000090: f17c a43c a229 d83c 898d 523d e474 a93c
000000a0: aafe 9f3c dc5b 503d 05b9 9bbc a8e3 0f3d
000000b0: 0e34 7e3c ebec 5fbd 5599 213d bc40 05bd
000000c0: 9da2 72bd 3c6b 113d 890f 77bd 0698 71bd
000000d0: 69cf 5b3c 11bc 47bb 6e0d 473d 9d34 733b
000000e0: a463 5e3d 8016 f4bc 176d e7bb 8d82 5d3d
000000f0: 5d5a de3b 33b8 15bd d306 c53c 07c0 1abd
00000100: 734a 8c3d 641f 8a3c 797f 18bd 3fc7 a13d
00000110: 1889 acbc 8205 79bd 6295 603d eb29 82bc
00000120: 3e7c 723d d517 da39 731c 1ebc 6a17 3a3d
00000130: 2e1e 8a3b 0436 fabc 72af 91bd d886 f03b
00000140: 1394 3c3c d114 5439 2c67 e5bc a30c ae3b
00000150: a544 453d 8473 df3b e2f9 093d 832c 393d
00000160: 4e86 1abd 1842 b8bc 0eb0 153d df15 573c
00000170: 032e a9ba 8fa0 cebc 3ad7 60bd 1717 6b3d
00000180: d71a cd3b 7eaa 48bd 3339 573d 143b 47bd
00000190: c613 21bd 6d72 543d cced 17bd 3c67 22bd
000001a0: 1698 323d 90ac 71bd 5b1a 823d f2b1 893d
000001b0: 55de bd3c c1b5 04bd 399b 3cbc d971 74bd
000001c0: ab46 5fbd 909c 003d ee5b c83c e433 0ebd
000001d0: c7fc 383c ac4c cfbc e0da ba3b c4b3 8bbc
000001e0: 1952 83bb 136c fa3c f38c 4cbc 58dc e4bc
000001f0: 34f1 63bc 08ed 0dbd 70d8 e2bc 0ef9 5ebd

fc3.weight f4 [3, 128]
0.009502765 0.0003632094 -0.0057706796 0.0008908425 0.012039691 -0.02398124 -0.0063661477 -0.018957812
-0.009959991 0.0105158 -0.022100555 0.000906158 0.009289976 -0.0148806255 -0.00056069234 -0.0005350865
0.016330682 0.015321621 0.009080982 -0.0027129136 0.00096927385 -0.0052918624 0.00018851052 0.013054198
0.02275868 -0.0006926939 -0.00040543632 -0.0042932276 -0.0069134915 0.010313887 0.010706846 -0.013084822
0.008799287 0.000103393686 0.0022532542 -0.009969714 0.017478276 -0.022934703 0.01325576 -0.0006356123
0.006678254 0.00059976836 -0.011854394 -0.0051585403 -0.01919823 0.02481114 -0.0031314944 0.010955611
0.0062904176 -0.010573987 -0.009339413 0.0013033625 0.015777512 -0.009091931 0.007026906 -0.022342829
-0.021228373 -0.008195681 -0.00862102 -0.014984643 0.0015680243 0.012966796 -0.01864215 0.036194514
-0.016442787 -0.009054191 -0.0118067 -0.02859541 -0.0071293907 0.005590476 -0.010032276 0.004220256
-0.0002837868 -0.0022799268 -0.00370677 0.017924607 -0.0125025725 0.027214384 -0.0030765107 -0.00011695413
-0.012322358 0.006317123 0.0017056032 -0.024441311 0.009114499 0.013423044 -0.010800794 -0.0070984014
0.0092420485 0.0052538146 0.029423742 0.012108775 -0.010390214 -0.021822773 0.0030434115 -0.009220925
-0.047787607 -0.020365855 0.010492406 0.011633048 0.022835618 -0.016173238 0.012031957 0.009803202
-0.016313996 -0.0025904332 -0.031031597 -0.020783266 0.014526882 0.0537 0.019684887 0.0015653978
0.012422443 -0.0070201973 0.0020192133 0.0005643434 0.005966988 0.00084118766 0.00081231154 0.00075715524
-0.009017866 -0.0116099 -0.0018119721 9.7612734e-05 0.018492075 -0.0066296826 0.00054866844 0.013861051
0.0059755635 -0.00045337644 -0.0024061748 -0.00011406734 -0.0133314235 0.056978147 0.023300072 0.026952652
0.020581199 -0.018250361 0.014249483 0.00091426214 -0.007038205 0.011046806 -0.00044145132 0.00089053996
-0.011345352 -0.016444495 -0.0048927474 0.0028901538 0.000896005 -0.002623041 4.716101e-05 -0.0060780686
-0.04073683 -0.0018143548 0.009407601 0.018753564 0.0016569386 -0.011088514 -0.011667303 0.009495616
-0.0013021601 0.0005240076 -0.008543165 0.018779526 -0.036116626 0.013415922 -0.026656725 0.000112838345
-0.013154891 -0.022384413 0.012397741 0.0077788616 0.04024296 -0.06512277 0.006838512 -0.009727563
-0.008062626 0.032887254 -0.0009339314 0.003219179 -0.013319339 0.020009989 -0.013456093 0.016848862
0.0051177484 0.022005022 0.015697565 0.0077677835 -0.0063128104 -0.035699602 0.0075041815 -0.067074545
0.011405693 0.009449043 0.008201682 0.031988293 0.009475866 -0.021696916 0.039558746 -0.004357555
-0.0009281519 0.017690225 0.009518491 -0.0038090346 -0.0010596014 -0.020649375 -0.004325415 -0.012569826
0.030821973 -0.023760894 -0.0010315487 0.014345126 -0.012506151 -0.009843921 0.019858846 0.0015200784
-0.0101040695 -0.009479241 -0.040391516 -0.0018820289 0.01603665 0.012842097 0.011095065 0.011495563
-0.09575929 0.023386935 0.005290482 -0.025120478 -0.031453867 0.014629102 -0.022130527 -0.021571824
0.01629918 -0.018382061 0.035969965 0.023710405 -0.053056557 -0.06582945 -0.009880479 -0.014442128
-0.026279736 0.022242077 -0.0016208154 -0.00032083382 -0.0062711574 -0.017595382 0.00085024245 0.0004911623
0.01747551 0.013567919 0.015228547 -0.0005495464 -0.015500331 0.018435225 -0.0007550565 -0.018653266
00000000: 7cb1 1b3c 246d be39 f817 bdbb 6e87 693a
00000010: 2042 453c 4e74 c4bc 1e9b d0bb 6a4d 9bbc
00000020: 3b2f 23bc 764a 2c3c 390c b5bc 3c8b 6d3a
00000030: fc34 183c decd 73bc 6dfb 12ba 0c45 0cba
00000040: ecc7 853c 8907 7b3c 66c8 143c 23cb 31bb
00000050: de16 7e3a 5c67 adbb e8aa 4539 46e1 553c
00000060: 6970 ba3c e795 35ba be90 d4b9 34ae 8cbb
00000070: 928a e2bb 94fb 283c c46b 2f3c b961 56bc
00000080: e22a 103c 10d5 d838 55ab 133b 0358 23bc
00000090: 9a2e 8f3c 8fe1 bbbc b02e 593c 389f 26ba
000000a0: 41d5 da3b c639 1d3a ef38 42bc f908 a9bb
000000b0: 9b45 9dbc bb40 cb3c c239 4dbb 2a7f 333c
000000c0: d91f ce3b 843e 2dbc 5604 19bc 97d5 aa3a
000000d0: d73f 813c 53f6 14bc f641 e63b 4f08 b7bc
000000e0: 20e7 adbc 2d47 06bc 2e3f 0dbc 2682 75bc
000000f0: 2a86 cd3a af72 543c 6cb7 98bc b340 143d
00000100: 06b3 86bc 0858 14bc e470 41bc ec40 eabc
00000110: aa9d e9bb 5030 b73b 6a5e 24bc 134a 8a3b
00000120: 38c9 94b9 d36a 15bb 48ed 72bb a0d6 923c
00000130: 97d7 4cbc b3f0 de3c 499f 49bb 4545 f5b8
00000140: b7e3 49bc deff ce3b 8c8e df3a 2539 c8bc
00000150: fb54 153c 54ec 5b3c d0f5 30bc b599 e8bb
00000160: f66b 173c 3128 ac3b 0f0a f13c e263 463c
00000170: b73b 2abc acc5 b2bc f973 473b 5d13 17bc
00000180: f0bc 43bd 4bd6 a6bc 57e8 2b3c 8a98 3e3c
00000190: c311 bb3c bd7d 84bc af21 453c 9c9d 203c
000001a0: eea4 85bc 42c4 29bb fa35 febc ab41 aabc
000001b0: 2902 6e3c 88f4 5b3d 3342 a13c 092e cd3a
000001c0: 8187 4b3c af09 e6bb c754 043b 72f0 133a
000001d0: b986 c33b 2683 5c3a 4ef1 543a d47b 463a
000001e0: acbf 13bc 7337 3ebc b27f edba 70b5 cc38
000001f0: b17c 973c cf3d d9bb 84d4 0f3a 7619 633c
00000200: a9ce c33b 28b3 edb9 eab0 1dbb 7037 efb8
00000210: 0b6c 5abc eb61 693d cbdf be3c cfcb dc3c
00000220: e799 a83c c881 95bc aa76 693c 18ab 6f3a
00000230: bea0 e6bb aafd 343c 9872 e7b9 2073 693a
00000240: dbe1 39bc 9bb6 86bc 5753 a0bb bc68 3d3b
00000250: e1e1 6a3a 53e7 2bbb c0ce 4538 892a c7bb
00000260: aadb 26bd a5cf edba 5722 1a3c 13a1 993c
00000270: a22d d93a 99ac 35bc 3728 3fbc 8093 1b3c
00000280: 3ead aaba 8e5d 093a a2f8 0bbc 85d7 993c
00000290: 07ef 13bd 75ce 5b3c 345f dabc a0a3 ec38
000002a0: 9d87 57bc 845f b7bc e51f 4b3c d2e5 fe3b
000002b0: cdd5 243d 165f 85bd 9915 e03b 5b60 1fbc
000002c0: 1b19 04bc c9b4 063d 13d3 74ba ddf8 523b
000002d0: 5b39 5abc fdeb a33c f276 5cbc a006 8a3c
000002e0: c9b2 a73b e043 b43c 2e98 803c e488 fe3b
000002f0: b1db cebb bf39 12bd a3e5 f53b 615e 89bd
00000300: f2de 3a3c 29d0 1a3c 5960 063c 2806 033d
00000310: aa40 1b3c bbbd b1bc 5a08 223d d2c9 8ebb
00000320: 384f 73ba 17eb 903c 72f3 1b3c ffa0 79bb
00000330: 53e2 8aba e128 a9bc 36bc 8dbb acf1 4dbc
00000340: 5d7e fc3c 35a6 c2bc 0835 87ba d207 6b3c
00000350: 99e6 4cbc 6648 21bc 05af a23c 5e3d c73a
00000360: 8a8b 25bc d24e 1bbc 9371 25bd 69ae f6ba
00000370: 4b5f 833c a967 523c 13c8 353c e357 3c3c
00000380: 721d c4bd f595 bf3c c85b ad3b 76c9 cdbc
00000390: c5d5 00bd e7ae 6f3c 144b b5bc 65b7 b0bc
000003a0: dc85 853c fa95 96bc 3e55 133d 533c c23c
000003b0: d551 59bd 97d1 86bd bce1 21bc ad9e 6cbc
000003c0: 9a48 d7bc 0435 b63c 8a71 d4ba 9635 a8b9
000003d0: 487e cdbb 3124 90bc cee2 5e3a 58c1 003a
000003e0: cd28 8f3c fa4b 5e3c 2881 793c 6f0f 10ba
000003f0: 1af5 7dbc 7805 973c fcee 45ba bcce 98bc

fc3.bias f4 [3]
-0.012701954 0.013174647 -0.017317895
00000000: db1b 50bc 7ada 573c 42de 8dbc
