s10lre4e3CCM_MADRL_MEC/model/PDQN/1-continue_actors.pth (torch, 147199 bytes, 10 tensors)

fc1.weight f4 [256, 7]
-0.13998938 0.20171812 0.35079655 -0.1799592 -0.37094474 -0.18808863 0.21016046 0.34433553
0.1963745 0.34033594 0.32113615 -0.11635956 -0.29389715 0.3674197 0.28983662 -0.35064018
0.008368224 0.11417082 -0.28545666 0.21120784 -0.007856309 0.25330642 -0.26287776 0.058564216
0.12830248 -0.15413168 -0.07155362 -0.23728186 0.13234398 0.2717183 0.12689802 -0.22071822
-0.34218106 0.11716774 0.067394495 0.21101847 0.30989388 0.23115793 0.30449876 -0.25009504
-0.33829415 -0.33250087 -0.043066084 0.057697594 0.33765164 -0.31309587 0.34016672 -0.02020806
0.30542544 0.37216517 0.23636338 0.010280669 -0.35865742 -0.25867346 0.0967454 -0.20169827
-0.31769946 -0.06686261 0.22527364 0.065772414 -0.036105752 -0.2237747 0.0067153275 0.101890326
-0.22008927 -0.35939202 0.06523624 -0.22489828 0.2285603 0.20296767 -0.022824198 -0.3195991
-0.3689202 -0.1118772 0.05652696 0.35257956 -0.22212237 0.229664 -0.046797246 -0.2757456
-0.37523568 -0.13873115 0.024031669 0.32469526 0.35997245 -0.3126531 0.3586984 0.31858805
0.16615656 0.12881693 -0.12642509 -0.14065377 0.2996814 0.18233082 -0.10390583 0.2737805
-0.069634765 -0.14508566 -0.17357716 0.34015086 -0.21120523 -0.3472849 -0.017553568 -0.053116202
-0.31237358 -0.010627061 -0.3432293 0.08798602 -0.01133585 0.32087198 -0.32508639 0.22301069
0.12053588 0.29487827 0.32850227 0.31066045 -0.2874571 -0.16238886 -0.0034085214 0.0146819055
0.32978544 -0.3523767 0.19110128 -0.015523225 0.09032583 0.19214824 -0.31906298 0.23212335
0.34777382 0.32420412 0.10771406 -0.14023565 -0.28302315 0.32123843 -0.2053883 0.2831857
0.35201326 0.24068168 0.08196786 -0.363362 -0.086823255 0.05612871 0.104653865 0.21187147
0.011256278 0.17721298 0.00947842 -0.268742 -0.27591586 -0.22875525 0.23111376 -0.007781446
-0.21807447 0.15518698 0.21721879 -0.097611755 -0.04725799 -0.35988823 0.025892913 0.3196052
-0.3015068 -0.35173813 -0.12470162 -0.29514223 0.37315944 -0.30573738 -0.0904071 -0.16256097
0.10481942 -0.09807232 0.13695177 0.025299072 -0.19950274 0.011068314 0.005951613 0.14690283
0.07322851 -0.28554094 0.23279092 0.17976919 -0.110924095 0.121655464 0.3424838 0.02820614
0.081481904 -0.20533969 -0.16759636 0.21675166 0.32199344 0.34697607 -0.3215426 0.32550815
0.33559313 -0.19165519 -0.26310784 0.06214744 -0.36435872 0.21633634 -0.033527464 -0.21634446
0.067101955 -0.25062203 -0.15480286 0.29449806 -0.18557927 -0.3000657 -0.03189999 0.09506571
-0.22788803 -0.10858545 -0.108303875 -0.009045631 -0.22356474 0.36190334 0.30897108 -0.22968797
0.31692544 0.19146058 0.28252366 0.14132532 -0.08774164 0.1405271 -0.32565078 -0.22099325
-0.028090358 0.2549995 0.23022541 0.14568183 0.36822513 -0.10004586 -0.058747917 0.07645282
-0.3225235 0.25458077 -0.32125348 0.27452388 0.31698814 -0.17425863 0.3618727 0.009259462
-0.31961486 0.12470552 0.0887323 -0.28204915 0.0828774 -0.3682479 -0.24176565 0.22804806
-0.30123764 -0.11592084 0.28169253 -0.1173287 -0.15697184 0.0842399 0.3636568 -0.18522295
00000000: 6059 0fbe 328f 4e3e 9b9b b33e 3947 38be
00000010: 78ec bdbe 4e9a 40be 4e34 573e bf4c b03e
00000020: 6616 493e 8340 ae3e f56b a43e ec4d eebd
00000030: b079 96be 6f1e bc3e 7765 943e 1c87 b3be
00000040: e01a 093c 64d2 e93d 6027 92be de46 583e
00000050: c0b7 00bc 61b1 813e ea97 86be 08e1 6f3d
00000060: ba61 033e b2d4 1dbe b48a 92bd 04fa 72be
00000070: 2e85 073e a91e 8b3e 8ef1 013e f503 62be
00000080: 5b32 afbe a4f5 ef3d 2006 8a3d 3a15 583e
00000090: 69aa 9e3e aab4 6c3e 43e7 9b3e 750c 80be
000000a0: e434 adbe 8e3d aabe 1066 30bd 5054 6c3d
000000b0: ade0 ac3e 1a4e a0be 552a ae3e 608b a5bc
000000c0: b960 9c3e 6f8c be3e 3e09 723e 4070 283c
000000d0: f2a1 b7be d970 84be 7422 c63d fe89 4ebe
000000e0: 81a9 a2be 44ef 88bd 22ae 663e b0b3 863d
000000f0: a0e3 13bd 3225 65be 400c dc3b e0ab d03d
00000100: 155f 61be 3b02 b8be 949a 853d bc4b 66be
00000110: b60b 6a3e c2d6 4f3e d0f9 babc 7ea2 a3be
00000120: 1ce3 bcbe e01f e5bd d088 673d 4f85 b43e
00000130: 0c74 63be 0a2d 6b3e 78ae 3fbd 872e 8dbe
00000140: e41e c0be 8a0f 0ebe 10de c43c 753e a63e
00000150: 4f4e b83e 1114 a0be 51a7 b73e f91d a33e
00000160: f224 2a3e 96e8 033e 9475 01be 8b07 10be
00000170: d76f 993e eeb4 3a3e 94cc d4bd f52c 8c3e
00000180: ac9c 8ebd 5691 14be 36be 31be 4128 ae3e
00000190: 2f46 58be 54cf b1be 80cc 8fbc 6090 59bd
000001a0: 6eef 9fbe 201d 2ebc c0bb afbe 0432 b43d
000001b0: 00ba 39bc 5549 a43e b971 a6be ea5c 643e
000001c0: 84db f63d 49fa 963e 7331 a83e e30e 9f3e
000001d0: 942d 93be 4449 26be 8061 5fbb 608c 703c
000001e0: a3d9 a83e b86a b4be 0eb0 433e 2055 7ebc
000001f0: c0fc b83d 82c2 443e 395c a3be beb1 6d3e
00000200: 690f b23e 15fe a53e 3099 dc3d ef99 0fbe
00000210: 69e8 90be 5d79 a43e 4f51 52be b7fd 903e
00000220: 153b b43e 4275 763e c4de a73d 960a babe
00000230: 64d0 b1bd 38e7 653d c454 d63d d6f4 583e
00000240: 406c 383c 5277 353e 604b 1b3c 8d98 89be
00000250: d844 8dbe d13e 6abe 16a9 6c3e 80fb febb
00000260: ea4e 5fbe 56e9 1e3e 9a6e 5e3e ace8 c7bd
00000270: 9891 41bd 4543 b8be 601d d43c 4ba3 a33e
00000280: 195f 9abe 0517 b4be 9063 ffbd e21c 97be
00000290: c10e bf3e 9c89 9cbe 5c27 b9bd 6276 26be
000002a0: 90ab d63d 24da c8bd 163d 0c3e 0040 cf3c
000002b0: 724a 4cbe e057 353c c005 c33b b26d 163e
000002c0: d4f8 953d 6c32 92be be60 6e3e 6a15 383e
000002d0: 2c2c e3bd 8026 f93d 095a af3e 9010 e73c
000002e0: fcdf a63d 9144 52be 619e 2bbe 26f4 5d3e
000002f0: 53dc a43e d9a6 b13e 3ba1 a4be 01a9 a63e
00000300: ddd2 ab3e 4241 44be 12b6 86be 508e 7e3d
00000310: 3a8d babe 4687 5d3e 1854 09bd 6789 5dbe
00000320: c06c 893d 8851 80be a484 1ebe 73c8 963e
00000330: 7e08 3ebe 36a2 99be 90a9 02bd d0b1 c23d
00000340: 7b5b 69be 0c62 debd 6cce ddbd 2034 14bc
00000350: 28ee 64be 654b b93e 7531 9e3e 5333 6bbe
00000360: 0d44 a23e 3e0e 443e f1a6 903e 96b7 103e
00000370: e4b1 b3bd 56e6 0f3e b3bb a6be 0e4c 62be
00000380: c01d e6bc 4b8f 823e 36c0 6b3e 9e2d 153e
00000390: 0188 bc3e d8e4 ccbd a8a1 70bd 4c93 9c3d
000003a0: cd21 a5be 6958 823e 567b a4be 658e 8c3e
000003b0: 454c a23e db70 32be 6147 b93e 00b5 173c
000003c0: 8fa4 a3be 9c65 ff3d 48b9 b53d bf68 90be
000003d0: a0bb a93d fd8a bcbe 6a91 77be 6e85 693e
000003e0: d23b 9abe e867 edbd 013a 903e 084a f0bd
000003f0: 3abd 20be f885 ac3d 3931 ba3e 16ab 3dbe

fc1.bias f4 [256]
-0.10924381 0.18179855 0.14566997 0.11151609 -0.14525904 -0.07774937 -0.21289292 -0.3735157
-0.09633592 0.027825147 -0.21730188 -0.2669467 -0.2459753 0.14037594 -0.12174335 -0.344817
0.27400133 0.3668191 0.155386 0.08164629 -0.19584723 0.25095662 -0.08610454 -0.037697613
0.045497805 0.15735081 -0.24500063 0.3088849 -0.09752706 0.14141306 -0.31836814 0.23499879
0.048567265 0.2704915 0.16727802 -0.028912634 0.23813489 -0.37512243 0.25558797 -0.3548861
-0.28193656 -0.040308654 0.32980117 -0.32458192 -0.1621192 0.28006867 0.26578048 -0.13662317
0.21135733 0.27450368 0.13449916 0.36095783 -0.15702394 0.13223293 -0.21690078 0.17134771
0.057612956 -0.28548008 0.10613805 -0.23632516 -0.12263435 -0.1740772 0.21432826 0.25046894
-0.32860282 -0.18528694 -0.3317032 -0.08735892 -0.3556938 -0.0024566352 -0.33269194 -0.21488002
0.33591315 -0.040230244 0.28576943 -0.03878942 0.24394563 -0.15089507 0.1320943 0.15981153
-0.14398266 -0.20966703 -0.121783644 0.016874552 -0.011115938 0.2679341 0.3124368 0.22943363
-0.095541984 0.3537208 -0.20104572 0.1469445 -0.0971899 0.33179775 0.012662649 0.29949698
0.29158226 -0.033635557 0.11272004 0.014527589 0.10944122 -0.22189082 -0.18732275 -0.04261735
0.093536854 0.037905723 0.17703906 -0.17845505 0.15141663 0.29507872 -0.124524444 -0.27748916
0.09050837 0.0527319 0.019945055 -0.2646896 0.06540412 0.036183327 -0.3466917 -0.037323236
0.19195077 0.07651189 0.32049832 0.3149663 -0.22830896 -0.14598356 -0.054535568 -0.17032883
-0.24273229 0.17369351 0.06741589 0.37098882 -0.2083999 0.21843049 -0.3285371 0.25578627
0.26673743 -0.34386605 0.2132149 -0.1497363 -0.22132266 0.24299267 -0.2515248 -0.14518501
0.3427736 0.040206283 -0.3123979 -0.31346488 0.114967614 -0.35816923 0.06514865 0.28500524
-0.24739312 -0.25013825 -0.2821347 -0.14335269 0.32267943 -0.33982298 -0.010963589 0.33024535
-0.17587915 0.23240599 0.3437601 0.26628712 -0.2222169 0.19668338 0.23579827 0.32377025
0.020261496 -0.004477471 -0.28478122 -0.36325356 0.09976363 0.29345897 0.046607107 -0.017492801
-0.06178713 -0.316184 0.051337272 -0.0048618317 -0.3362391 -0.102904946 0.16377255 -0.2739034
-0.13680065 0.19716653 -0.05944404 0.10226849 0.2836134 0.098445475 0.33505747 -0.09947005
0.2805905 -0.3151646 0.37005118 -0.018416107 -0.34229645 0.31484422 0.27543655 -0.23871832
0.36114517 -0.069547266 0.038099468 0.13414744 0.050302356 -0.11650056 -0.006543696 -0.026245058
0.1270279 0.23817179 0.2862704 -0.23662145 -0.32227898 0.18386462 -0.24220288 0.10959095
-0.10819903 0.060127497 0.33204803 -0.37260157 0.30283114 0.14862588 -0.068950415 0.17510328
-0.15039034 -0.17372814 -0.105003595 0.06352681 0.22842458 -0.29834116 0.3590611 0.26976362
0.2575464 0.34146526 -0.28766063 0.33664122 0.34183982 -0.2938899 0.28919235 -0.114126265
0.3721895 -0.14308988 -0.02800554 -0.3342679 0.113457054 -0.0487625 0.26350543 -0.036400586
0.2531421 0.067768365 0.37746462 0.12278727 0.22227809 -0.21147256 -0.023719817 0.23740777
00000000: 38bb dfbd 6629 3a3e 822a 153e 8c62 e43d
00000010: c9be 14be 103b 9fbd 9a00 5abe 733d bfbe
00000020: c44b c5bd 90f1 e33c 6284 5ebe 3dad 88be
00000030: f3e0 7bbe b6be 0f3e 9454 f9bd db8b b0be
00000040: e749 8c3e b7cf bb3e 821d 1f3e 2c36 a73d
00000050: 2d8c 48be 637d 803e 9457 b0bd d068 1abd
00000060: e85b 3a3d 9220 213e 72e1 7abe 2926 9e3e
00000070: 44bc c7bd 96ce 103e 2601 a3be 86a3 703e
00000080: 78ee 463d dd7d 8a3e ee4a 2b3e 30da ecbc
00000090: a2d9 733e 0c10 c0be 6ddc 823e a2b3 b5be
000000a0: fd59 90be b01a 25bd b3db a83e 9a2f a6be
000000b0: 9302 26be 2965 8f3e 6114 883e f2e6 0bbe
000000c0: 0e6e 583e bf8b 8c3e 26ba 093e 77cf b83e
000000d0: e2ca 20be 1268 073e 3d1b 5ebe c675 2f3e
000000e0: 90fb 6b3d 722a 92be e85e d93d 39ff 71be
000000f0: b827 fbbd 4b41 32be de78 5b3e 773d 803e
00000100: a13e a8be dcbb 3dbe 00d5 a9be 3ce9 b2bd
00000110: 7f1d b6be 80ff 20bb 9956 aabe 8209 5cbe
00000120: cffc ab3e 78c8 24bd 5f50 923e a8e1 1ebd
00000130: e2cc 793e 3d84 1abe ba43 073e a2a5 233e
00000140: 3170 13be f4b2 56be b469 f9bd 803c 8a3c
00000150: a01f 36bc a92e 893e b7f7 9f3e a6f0 6a3e
00000160: 84ab c3bd e51a b53e eede 4dbe 9e78 163e
00000170: 800b c7bd 65e1 a93e 0077 4f3c ab57 993e
00000180: 454a 953e 70c5 09bd c4d9 e63d 2005 6e3c
00000190: b822 e03d 5937 63be 89d1 3fbe 888f 2ebd
000001a0: 4090 bf3d 0843 1b3d ba49 353e ecbc 36be
000001b0: f60c 1b3e 8f14 973e ac06 ffbd 0f13 8ebe
000001c0: 745c b93d 68fd 573d d063 a33c 6585 87be
000001d0: 98f2 853d f834 143d 9381 b1be 40e0 18bd
000001e0: be8e 443e 44b2 9c3d 5b18 a43e 4343 a13e
000001f0: d3c9 69be b77c 15be b060 5fbd ae6a 2ebe
00000200: d08e 78be b6dc 313e 5811 8a3d 3ff2 bd3e
00000210: c966 55be 3eac 5f3e 0436 a8be 6bf6 823e
00000220: cf91 883e 360f b0be 0255 5a3e 7954 19be
00000230: 68a2 62be 12d3 783e dcc7 80be 61ab 14be
00000240: 0580 af3e 58af 243d 9ef2 9fbe 787e a0be
00000250: 2474 eb3d f561 b7be a86c 853d 35ec 913e
00000260: 9f54 7dbe 1f12 80be f673 90be 0ccb 12be
00000270: 3d36 a53e 47fd adbe a0a0 33bc eb15 a93e
00000280: aa19 34be d6fb 6d3e 5301 b03e c956 883e
00000290: d48c 63be 5e67 493e 1a75 713e 37c5 a53e
000002a0: 70fb a53c c0b7 92bb d8ce 91be 5ffc b9be
000002b0: e050 cc3d 4140 963e 18e7 3e3d 104d 8fbc
000002c0: 8014 7dbd dfe2 a1be 0847 523d 0050 9fbb
000002d0: 8827 acbe d4bf d2bd feb3 273e 113d 8cbe
000002e0: 7815 0cbe 06e6 493e 987b 73bd 2472 d13d
000002f0: c735 913e c89d c93d a78c ab3e f4b6 cbbd
00000300: 8fa9 8f3e 415d a1be 5977 bd3e 60dd 96bc
00000310: 7b41 afbe 4333 a13e 0506 8d3e 9372 74be
00000320: 05e8 b83e cc6e 8ebd 300e 1c3d f25d 093e
00000330: d809 4e3d d897 eebd 806c d6bb e0ff d6bc
00000340: 9a13 023e 4ee3 733e 0992 923e e54c 72be
00000350: c001 a5be 0247 3c3e 0804 78be 3871 e03d
00000360: 7497 ddbd 4048 763d 3302 aa3e a2c5 bebe
00000370: af0c 9b3e 6231 183e e035 8dbd 464e 333e
00000380: edff 19be cae5 31be 200c d7bd 581a 823d
00000390: 22e8 693e 2cc0 98be dbd6 b73e 751e 8a3e
000003a0: 1fdd 833e 89d4 ae3e 4148 93be 3d5c ac3e
000003b0: a105 af3e bd78 96be 0511 943e 08bb e9bd
000003c0: 9f8f be3e 2786 12be e06b e5bc 2a25 abbe
000003d0: 2c5c e83d 30bb 47bd 2fea 863e c818 15bd
000003e0: d79b 813e 24ca 8a3d 0b43 c13e e477 fb3d
000003f0: de9c 633e 438c 58be 1050 c2bc 061b 733e

ln1.weight f4 [256]
1.0 1.0 1.0 1.0 1.0 1.0 1.0 1.0
1.0 1.0 1.0 1.0 1.0 1.0 1.0 1.0
1.0 1.0 1.0 1.0 1.0 1.0 1.0 1.0
1.0 1.0 1.0 1.0 1.0 1.0 1.0 1.0
1.0 1.0 1.0 1.0 1.0 1.0 1.0 1.0
1.0 1.0 1.0 1.0 1.0 1.0 1.0 1.0
1.0 1.0 1.0 1.0 1.0 1.0 1.0 1.0
1.0 1.0 1.0 1.0 1.0 1.0 1.0 1.0
1.0 1.0 1.0 1.0 1.0 1.0 1.0 1.0
1.0 1.0 1.0 1.0 1.0 1.0 1.0 1.0
1.0 1.0 1.0 1.0 1.0 1.0 1.0 1.0
1.0 1.0 1.0 1.0 1.0 1.0 1.0 1.0
1.0 1.0 1.0 1.0 1.0 1.0 1.0 1.0
1.0 1.0 1.0 1.0 1.0 1.0 1.0 1.0
1.0 1.0 1.0 1.0 1.0 1.0 1.0 1.0
1.0 1.0 1.0 1.0 1.0 1.0 1.0 1.0
1.0 1.0 1.0 1.0 1.0 1.0 1.0 1.0
1.0 1.0 1.0 1.0 1.0 1.0 1.0 1.0
1.0 1.0 1.0 1.0 1.0 1.0 1.0 1.0
1.0 1.0 1.0 1.0 1.0 1.0 1.0 1.0
1.0 1.0 1.0 1.0 1.0 1.0 1.0 1.0
1.0 1.0 1.0 1.0 1.0 1.0 1.0 1.0
1.0 1.0 1.0 1.0 1.0 1.0 1.0 1.0
1.0 1.0 1.0 1.0 1.0 1.0 1.0 1.0
1.0 1.0 1.0 1.0 1.0 1.0 1.0 1.0
1.0 1.0 1.0 1.0 1.0 1.0 1.0 1.0
1.0 1.0 1.0 1.0 1.0 1.0 1.0 1.0
1.0 1.0 1.0 1.0 1.0 1.0 1.0 1.0
1.0 1.0 1.0 1.0 1.0 1.0 1.0 1.0
1.0 1.0 1.0 1.0 1.0 1.0 1.0 1.0
1.0 1.0 1.0 1.0 1.0 1.0 1.0 1.0
1.0 1.0 1.0 1.0 1.0 1.0 1.0 1.0
00000000: 0000 803f 0000 803f 0000 803f 0000 803f
00000010: 0000 803f 0000 803f 0000 803f 0000 803f
00000020: 0000 803f 0000 803f 0000 803f 0000 803f
00000030: 0000 803f 0000 803f 0000 803f 0000 803f
00000040: 0000 803f 0000 803f 0000 803f 0000 803f
00000050: 0000 803f 0000 803f 0000 803f 0000 803f
00000060: 0000 803f 0000 803f 0000 803f 0000 803f
00000070: 0000 803f 0000 803f 0000 803f 0000 803f
00000080: 0000 803f 0000 803f 0000 803f 0000 803f
00000090: 0000 803f 0000 803f 0000 803f 0000 803f
000000a0: 0000 803f 0000 803f 0000 803f 0000 803f
000000b0: 0000 803f 0000 803f 0000 803f 0000 803f
000000c0: 0000 803f 0000 803f 0000 803f 0000 803f
000000d0: 0000 803f 0000 803f 0000 803f 0000 803f
000000e0: 0000 803f 0000 803f 0000 803f 0000 803f
000000f0: 0000 803f 0000 803f 0000 803f 0000 803f
00000100: 0000 803f 0000 803f 0000 803f 0000 803f
00000110: 0000 803f 0000 803f 0000 803f 0000 803f
00000120: 0000 803f 0000 803f 0000 803f 0000 803f
00000130: 0000 803f 0000 803f 0000 803f 0000 803f
00000140: 0000 803f 0000 803f 0000 803f 0000 803f
00000150: 0000 803f 0000 803f 0000 803f 0000 803f
00000160: 0000 803f 0000 803f 0000 803f 0000 803f
00000170: 0000 803f 0000 803f 0000 803f 0000 803f
00000180: 0000 803f 0000 803f 0000 803f 0000 803f
00000190: 0000 803f 0000 803f 0000 803f 0000 803f
000001a0: 0000 803f 0000 803f 0000 803f 0000 803f
000001b0: 0000 803f 0000 803f 0000 803f 0000 803f
000001c0: 0000 803f 0000 803f 0000 803f 0000 803f
000001d0: 0000 803f 0000 803f 0000 803f 0000 803f
000001e0: 0000 803f 0000 803f 0000 803f 0000 803f
000001f0: 0000 803f 0000 803f 0000 803f 0000 803f
00000200: 0000 803f 0000 803f 0000 803f 0000 803f
00000210: 0000 803f 0000 803f 0000 803f 0000 803f
00000220: 0000 803f 0000 803f 0000 803f 0000 803f
00000230: 0000 803f 0000 803f 0000 803f 0000 803f
00000240: 0000 803f 0000 803f 0000 803f 0000 803f
00000250: 0000 803f 0000 803f 0000 803f 0000 803f
00000260: 0000 803f 0000 803f 0000 803f 0000 803f
00000270: 0000 803f 0000 803f 0000 803f 0000 803f
00000280: 0000 803f 0000 803f 0000 803f 0000 803f
00000290: 0000 803f 0000 803f 0000 803f 0000 803f
000002a0: 0000 803f 0000 803f 0000 803f 0000 803f
000002b0: 0000 803f 0000 803f 0000 803f 0000 803f
000002c0: 0000 803f 0000 803f 0000 803f 0000 803f
000002d0: 0000 803f 0000 803f 0000 803f 0000 803f
000002e0: 0000 803f 0000 803f 0000 803f 0000 803f
000002f0: 0000 803f 0000 803f 0000 803f 0000 803f
00000300: 0000 803f 0000 803f 0000 803f 0000 803f
00000310: 0000 803f 0000 803f 0000 803f 0000 803f
00000320: 0000 803f 0000 803f 0000 803f 0000 803f
00000330: 0000 803f 0000 803f 0000 803f 0000 803f
00000340: 0000 803f 0000 803f 0000 803f 0000 803f
00000350: 0000 803f 0000 803f 0000 803f 0000 803f
00000360: 0000 803f 0000 803f 0000 803f 0000 803f
00000370: 0000 803f 0000 803f 0000 803f 0000 803f
00000380: 0000 803f 0000 803f 0000 803f 0000 803f
00000390: 0000 803f 0000 803f 0000 803f 0000 803f
000003a0: 0000 803f 0000 803f 0000 803f 0000 803f
000003b0: 0000 803f 0000 803f 0000 803f 0000 803f
000003c0: 0000 803f 0000 803f 0000 803f 0000 803f
000003d0: 0000 803f 0000 803f 0000 803f 0000 803f
000003e0: 0000 803f 0000 803f 0000 803f 0000 803f
000003f0: 0000 803f 0000 803f 0000 803f 0000 803f

ln1.bias f4 [256]
0.0 0.0 0.0 0.0 0.0 0.0 0.0 0.0
0.0 0.0 0.0 0.0 0.0 0.0 0.0 0.0
0.0 0.0 0.0 0.0 0.0 0.0 0.0 0.0
0.0 0.0 0.0 0.0 0.0 0.0 0.0 0.0
0.0 0.0 0.0 0.0 0.0 0.0 0.0 0.0
0.0 0.0 0.0 0.0 0.0 0.0 0.0 0.0
0.0 0.0 0.0 0.0 0.0 0.0 0.0 0.0
0.0 0.0 0.0 0.0 0.0 0.0 0.0 0.0
0.0 0.0 0.0 0.0 0.0 0.0 0.0 0.0
0.0 0.0 0.0 0.0 0.0 0.0 0.0 0.0
0.0 0.0 0.0 0.0 0.0 0.0 0.0 0.0
0.0 0.0 0.0 0.0 0.0 0.0 0.0 0.0
0.0 0.0 0.0 0.0 0.0 0.0 0.0 0.0
0.0 0.0 0.0 0.0 0.0 0.0 0.0 0.0
0.0 0.0 0.0 0.0 0.0 0.0 0.0 0.0
0.0 0.0 0.0 0.0 0.0 0.0 0.0 0.0
0.0 0.0 0.0 0.0 0.0 0.0 0.0 0.0
0.0 0.0 0.0 0.0 0.0 0.0 0.0 0.0
0.0 0.0 0.0 0.0 0.0 0.0 0.0 0.0
0.0 0.0 0.0 0.0 0.0 0.0 0.0 0.0
0.0 0.0 0.0 0.0 0.0 0.0 0.0 0.0
0.0 0.0 0.0 0.0 0.0 0.0 0.0 0.0
0.0 0.0 0.0 0.0 0.0 0.0 0.0 0.0
0.0 0.0 0.0 0.0 0.0 0.0 0.0 0.0
0.0 0.0 0.0 0.0 0.0 0.0 0.0 0.0
0.0 0.0 0.0 0.0 0.0 0.0 0.0 0.0
0.0 0.0 0.0 0.0 0.0 0.0 0.0 0.0
0.0 0.0 0.0 0.0 0.0 0.0 0.0 0.0
0.0 0.0 0.0 0.0 0.0 0.0 0.0 0.0
0.0 0.0 0.0 0.0 0.0 0.0 0.0 0.0
0.0 0.0 0.0 0.0 0.0 0.0 0.0 0.0
0.0 0.0 0.0 0.0 0.0 0.0 0.0 0.0
00000000: 0000 0000 0000 0000 0000 0000 0000 0000
00000010: 0000 0000 0000 0000 0000 0000 0000 0000
00000020: 0000 0000 0000 0000 0000 0000 0000 0000
00000030: 0000 0000 0000 0000 0000 0000 0000 0000
00000040: 0000 0000 0000 0000 0000 0000 0000 0000
00000050: 0000 0000 0000 0000 0000 0000 0000 0000
00000060: 0000 0000 0000 0000 0000 0000 0000 0000
00000070: 0000 0000 0000 0000 0000 0000 0000 0000
00000080: 0000 0000 0000 0000 0000 0000 0000 0000
00000090: 0000 0000 0000 0000 0000 0000 0000 0000
000000a0: 0000 0000 0000 0000 0000 0000 0000 0000
000000b0: 0000 0000 0000 0000 0000 0000 0000 0000
000000c0: 0000 0000 0000 0000 0000 0000 0000 0000
000000d0: 0000 0000 0000 0000 0000 0000 0000 0000
000000e0: 0000 0000 0000 0000 0000 0000 0000 0000
000000f0: 0000 0000 0000 0000 0000 0000 0000 0000
00000100: 0000 0000 0000 0000 0000 0000 0000 0000
00000110: 0000 0000 0000 0000 0000 0000 0000 0000
00000120: 0000 0000 0000 0000 0000 0000 0000 0000
00000130: 0000 0000 0000 0000 0000 0000 0000 0000
00000140: 0000 0000 0000 0000 0000 0000 0000 0000
00000150: 0000 0000 0000 0000 0000 0000 0000 0000
00000160: 0000 0000 0000 0000 0000 0000 0000 0000
00000170: 0000 0000 0000 0000 0000 0000 0000 0000
00000180: 0000 0000 0000 0000 0000 0000 0000 0000
00000190: 0000 0000 0000 0000 0000 0000 0000 0000
000001a0: 0000 0000 0000 0000 0000 0000 0000 0000
000001b0: 0000 0000 0000 0000 0000 0000 0000 0000
000001c0: 0000 0000 0000 0000 0000 0000 0000 0000
000001d0: 0000 0000 0000 0000 0000 0000 0000 0000
000001e0: 0000 0000 0000 0000 0000 0000 0000 0000
000001f0: 0000 0000 0000 0000 0000 0000 0000 0000
00000200: 0000 0000 0000 0000 0000 0000 0000 0000
00000210: 0000 0000 0000 0000 0000 0000 0000 0000
00000220: 0000 0000 0000 0000 0000 0000 0000 0000
00000230: 0000 0000 0000 0000 0000 0000 0000 0000
00000240: 0000 0000 0000 0000 0000 0000 0000 0000
00000250: 0000 0000 0000 0000 0000 0000 0000 0000
00000260: 0000 0000 0000 0000 0000 0000 0000 0000
00000270: 0000 0000 0000 0000 0000 0000 0000 0000
00000280: 0000 0000 0000 0000 0000 0000 0000 0000
00000290: 0000 0000 0000 0000 0000 0000 0000 0000
000002a0: 0000 0000 0000 0000 0000 0000 0000 0000
000002b0: 0000 0000 0000 0000 0000 0000 0000 0000
000002c0: 0000 0000 0000 0000 0000 0000 0000 0000
000002d0: 0000 0000 0000 0000 0000 0000 0000 0000
000002e0: 0000 0000 0000 0000 0000 0000 0000 0000
000002f0: 0000 0000 0000 0000 0000 0000 0000 0000
00000300: 0000 0000 0000 0000 0000 0000 0000 0000
00000310: 0000 0000 0000 0000 0000 0000 0000 0000
00000320: 0000 0000 0000 0000 0000 0000 0000 0000
00000330: 0000 0000 0000 0000 0000 0000 0000 0000
00000340: 0000 0000 0000 0000 0000 0000 0000 0000
00000350: 0000 0000 0000 0000 0000 0000 0000 0000
00000360: 0000 0000 0000 0000 0000 0000 0000 0000
00000370: 0000 0000 0000 0000 0000 0000 0000 0000
00000380: 0000 0000 0000 0000 0000 0000 0000 0000
00000390: 0000 0000 0000 0000 0000 0000 0000 0000
000003a0: 0000 0000 0000 0000 0000 0000 0000 0000
000003b0: 0000 0000 0000 0000 0000 0000 0000 0000
000003c0: 0000 0000 0000 0000 0000 0000 0000 0000
000003d0: 0000 0000 0000 0000 0000 0000 0000 0000
000003e0: 0000 0000 0000 0000 0000 0000 0000 0000
000003f0: 0000 0000 0000 0000 0000 0000 0000 0000

fc2.weight f4 [128, 256]
-0.012335062 0.050165676 -0.020571902 -0.012264401 -0.038052246 0.041881077 0.021753632 0.040111043
0.042908184 0.021460705 -0.039056458 -0.018667005 -0.051383317 0.059282057 0.04398472 -0.020332165
-0.05175308 0.043976583 0.043651305 0.008644693 0.058939308 -3.027916e-05 0.045035772 -0.013113238
0.05998893 -0.010651231 -0.0028006881 -0.018543944 -0.025723837 0.058390148 0.014760844 0.035156503
-0.015473634 -0.019473754 -0.061445117 -0.058926426 0.0125945285 0.014617935 0.033352718 -0.04346972
0.016080417 -0.039182737 -0.016282588 -0.02517043 0.02023442 -0.023475759 -0.048238806 -0.014280997
0.01567106 0.046735026 -0.023329243 -0.030303925 -0.048995905 -0.02590248 0.037249953 0.04140465
0.037561543 -0.02383519 -0.050506018 0.015450992 0.044579417 0.015318915 -0.05394116 -0.007807322
-0.011745535 0.0031897575 0.026321054 0.028438285 0.047212176 -0.062056415 -0.058884814 -0.05493644
0.0277123 -0.022205941 -0.025337927 -0.060141742 -0.038951866 -0.024061225 0.025201544 -0.04435049
-0.05015984 0.0046853796 0.026300661 0.026426785 0.048975334 0.013373233 0.03027691 0.05031132
0.040842295 -0.05762106 -0.0306537 -0.046156764 0.040059566 0.039806426 0.02837053 -0.01864373
0.01701282 0.059778936 0.0075987205 0.051131345 -0.031755045 -0.04466574 0.04806596 -0.0073000267
0.03138607 0.038032405 0.034404367 -0.01010295 0.0068090186 -0.03686802 0.0027163923 0.046784095
-0.009646207 -0.01960475 -0.04635077 0.061238565 0.039869986 0.00010897964 -0.04183785 -0.0042434335
-0.0075870156 0.049084246 0.0049908683 0.019919708 -0.019251816 0.047350988 0.04862816 0.0066527724
0.05464965 0.04428777 0.05468136 0.041193552 0.006885618 -0.037798725 -0.05607903 0.02457188
-0.012428373 0.029375464 -0.042554133 -0.0070048645 0.019022085 -0.012738563 0.06117069 -0.04500448
0.04658269 -0.04903499 0.012123093 -0.0208631 0.023699768 -0.06073802 0.027810216 -0.047417283
-0.008433171 0.040033653 0.054183155 -0.04411546 -0.021559075 0.026027024 -0.04564181 -0.06220009
0.04951652 -0.00024291128 0.047749363 -0.05347258 0.052824147 -0.05986345 -0.037871763 0.025024079
-0.043730408 0.051682286 -0.062391564 -0.029697813 0.045573235 0.038616307 -0.019491889 0.012521818
0.030789316 0.039877303 -0.036913216 0.028663434 0.056068607 -0.008464687 0.044878952 0.036760665
0.00013318658 -0.016137987 0.05179642 -0.036495782 0.021610104 -0.00013935566 0.042076834 -0.037517317
-0.06116724 0.0031700432 0.04410556 0.0041512996 0.005301535 -0.015450135 0.052576542 0.03653226
-0.03637012 0.04686845 -0.026340954 0.006113425 -0.00055172294 -0.055358566 -0.025696278 0.029870749
0.043407395 -0.043637857 0.050769307 0.0005173832 0.053104132 0.05913984 0.053746216 -0.017232671
0.026478477 -0.056188628 -0.03661628 0.06171479 -0.02212073 0.035867803 0.03705255 -0.010397054
0.012274653 0.029803656 0.013758533 0.042268544 -0.0061799735 0.041514754 -0.01669398 -0.017209418
-0.04554218 0.022610366 0.0044055507 -0.0034029111 -0.02123557 -0.0022744164 0.011552207 0.02668821
0.039144672 -0.040297538 -0.014192335 0.046840414 -0.0026069954 0.016991653 -0.044275783 -0.0021885708
0.05978643 -0.016575858 0.018372118 0.0026074797 0.02589275 -0.011894681 0.017917305 0.028427675
00000000: 0019 4abc 867a 4d3d 6886 a8bc a0f0 48bc
00000010: acdc 1bbd 7e8b 2b3d ac34 b23c 7a4b 243d
00000020: 7ec0 2f3d 5cce af3c aaf9 1fbd 8ceb 98bc
00000030: 5077 52bd bed1 723d 5229 343d a48f a6bc
00000040: 0afb 53bd ca20 343d b6cb 323d 78a2 0d3c
00000050: 586a 713d 0000 feb7 6e77 383d e8d8 56bc
00000060: f4b6 753d 8082 2ebc c08b 37bb 78e9 97bc
00000070: ccba d2bc 822a 6f3d 78d7 713c 4400 103d
00000080: 2085 7dbc 6c87 9fbc e0ad 7bbd d65c 71bd
00000090: 4859 4e3c 1080 6f3c dc9c 083d 4e0d 32bd
000000a0: 14bb 833c 147e 20bd 1063 85bc 3832 cebc
000000b0: a8c2 a53c 3c50 c0bc 0e96 45bd d8fa 69bc
000000c0: 9860 803c 3a6d 3f3d f81c bfbc f03f f8bc
000000d0: eeaf 48bd 7031 d4bc 6893 183d ec97 293d
000000e0: 22da 193d 0442 c3bc 66df 4ebd 2826 7d3c
000000f0: e898 363d 30fc 7a3c 68f1 5cbd 90d4 ffbb
00000100: 5870 40bc 400b 513b 409f d73c 68f7 e83c
00000110: 8e61 413d de2e 7ebd 3431 71bd 0805 61bd
00000120: e804 e33c 3ce9 b5bc 7c91 cfbc 3057 76bd
00000130: fe8b 1fbd 0c1c c5bc 7873 ce3c dca8 35bd
00000140: 6874 4dbd d087 993b 7c74 d73c fc7c d83c
00000150: 5c9a 483d 681b 5b3c 4807 f83c 3e13 4e3d
00000160: 404a 273d 1004 6cbd 781d fbbc e00e 3dbd
00000170: 8015 243d 100c 233d 5069 e83c bcba 98bc
00000180: 785e 8b3c c2da 743d b0fe f83b 1a6f 513d
00000190: 9411 02bd 6cf3 36bd d0e0 443d 1035 efbb
000001a0: ae8e 003d dec7 1b3d 98eb 0c3d d886 25bc
000001b0: 301e df3b ec02 17bd 8005 323b aea0 3f3d
000001c0: 200b 1ebc 249a a0bc 4eda 3dbd 4ad5 7a3d
000001d0: b64e 233d 008c e438 2a5e 2bbd 800c 8bbb
000001e0: 809c f8bb 900c 493d 708a a33b a82e a33c
000001f0: fcb5 9dbc 1cf3 413d 522e 473d 80ff d93b
00000200: 50d8 5f3d 1867 353d 90f9 5f3d 92ba 283d
00000210: c0a0 e13b d6d2 1abd 20b3 65bd f84a c93c
00000220: 60a0 4bbc d0a4 f03c 3e4d 2ebd 1089 e5bb
00000230: 34d4 9b3c 68b5 50bc 1e8e 7a3d 9e56 38bd
00000240: 7ecd 3e3d ead8 48bd f09f 463c 18e9 aabc
00000250: 0426 c23c 6ec8 78bd 40d2 e33c a038 42bd
00000260: 482b 0abc 54fa 233d 28ef 5d3d 6ab2 34bd
00000270: a89c b0bc a036 d53c e8f2 3abd 86c5 7ebd
00000280: d6d1 4a3d 00b6 7eb9 d694 433d 1006 5bbd
00000290: 225e 583d 6033 75bd 6c1f 1bbd 4cff cc3c
000002a0: a81e 33bd ceb0 533d 4c8e 7fbd d448 f3bc
000002b0: 00ab 3a3d 222c 1e3d 74ad 9fbc 5028 4d3c
000002c0: e039 fc3c 6256 233d 5032 17bd 94cf ea3c
000002d0: 32a8 653d 78af 0abc fed2 373d 5a92 163d
000002e0: 00a8 0b39 d033 84bc 7c28 543d 9a7c 15bd
000002f0: ac07 b13c 0020 12b9 c258 2c3d c2ab 19bd
00000300: 808a 7abd 80c0 4f3b 08a8 343d a007 883b
00000310: 80b8 ad3b 9022 7dbc 805a 573d daa2 153d
00000320: d6f8 14bd 22f9 3f3d fcc8 d7bc 2053 c83b
00000330: 80a1 10ba aabf 62bd 0081 d2bc 80b3 f43c
00000340: f4cb 313d 9cbd 32bd 7af3 4f3d 00a1 073a
00000350: b883 593d 9e3c 723d fe24 5c3d 882b 8dbc
00000360: 64e9 d83c 0c26 66bd f4fa 15bd a6c8 7c3d
00000370: 8836 b5bc 1eea 123d 6ac4 173d 6858 2abc
00000380: a01b 493c cc26 f43c 786b 613c c821 2d3d
00000390: 6081 cabb 600b 2a3d d0c1 88bc c4fa 8cbc
000003a0: 708a 3abd 6039 b93c 705c 903b 6003 5fbb
000003b0: 38f6 adbc 600e 15bb 7845 3d3c 3ca1 da3c
000003c0: 2a56 203d 080f 25bd f886 68bc bcdb 3f3d
000003d0: 20da 2abb 1432 8b3c 865a 35bd 206e 0fbb
000003e0: 9ee2 743d 18ca 87bc 2081 963c 40e2 2a3b
000003f0: 081d d43c e8e1 42bc 50c7 923c 28e1 e83c

fc2.bias f4 [128]
0.060370617 -0.036977723 0.05077844 0.00035239756 0.013942599 -0.058945253 0.02761726 -0.011945672
0.03042546 0.01014743 0.021001503 0.05544558 0.033869863 -0.011139639 -0.013981059 0.05038201
-0.039098106 -0.010236219 0.019102626 0.027918346 -0.031150773 -0.02451858 -0.027894437 0.008163653
0.021093182 -0.039968736 -0.029563539 -0.009365141 0.059063964 0.026549548 0.011611268 -0.03278192
-0.010376997 0.055417396 -0.02703926 0.0072515905 0.06115543 -0.02438856 -0.05955398 -0.044231042
-0.016130053 -0.008866712 0.03905295 0.0055458248 0.0034668073 -0.011163622 -0.02422224 -0.0073872283
-0.022640213 0.053053483 -0.03595954 -0.023726344 0.036751837 0.008944169 0.015750498 -0.040415913
0.0517973 0.019462362 0.021440804 0.060340606 0.04951822 0.01750853 -0.012975067 0.010967813
0.009531222 -0.003157638 -0.028591141 -0.02361326 0.05663739 0.04911071 -0.019677497 -0.02989164
0.007449098 -0.051333673 -0.035781875 0.055005766 -0.040025398 -0.027712695 -0.055097304 0.007025026
-0.04256337 0.011568613 -0.032865524 0.039989278 -0.019038163 0.058648117 0.019322015 -0.039670594
-0.05941347 -0.04181873 -0.013463825 0.04862617 -0.011525027 -0.025147974 0.011300519 -0.011134893
0.04745101 -0.04206241 -0.0034406781 -0.024224862 -0.026559107 -0.0052452907 0.031389534 0.010190211
-0.016963385 -0.051671743 0.034317866 -0.05381517 -0.05259382 -0.041252054 0.059420027 -0.018273152
-0.005724989 0.0020387396 0.04355382 -0.031393677 0.011154555 0.057649173 -0.025637083 -0.02736684
0.03645891 0.033460893 -0.056574002 0.050791442 0.055176362 0.053590134 -0.058960572 0.034906387
00000000: 2e47 773d f475 17bd 0efd 4f3d 00c2 b839
00000010: 806f 643c 9470 71bd 983d e23c c8b7 43bc
00000020: d03e f93c 6841 263c 580b ac3c e81a 633d
00000030: 20bb 0a3d 0883 36bc d010 65bc 5e5d 4e3d
00000040: 5625 20bd d0b5 27bc 1c7d 9c3c 04b5 e43c
00000050: e82f ffbc 30db c8bc e082 e4bc d8c0 053c
00000060: 9ccb ac3c 42b6 23bd 3c2f f2bc 4070 19bc
00000070: 0eed 713d 707e d93c 303d 3e3c 5646 06bd
00000080: 4804 2abc 5afd 623d 7081 ddbc c09e ed3b
00000090: 1e7e 7a3d 84ca c7bc e0ee 73bd 9c2b 35bd
000000a0: 2c23 84bc b045 11bc fcf5 1f3d c0b9 b53b
000000b0: 6033 633b a0e7 36bc b86d c6bc 9010 f2bb
000000c0: f877 b9bc 9c4e 593d 504a 13bd c05d c2bc
000000d0: 1889 163d 908a 123c 3007 813c 288b 25bd
000000e0: 6829 543d 886f 9f3c a0a4 af3c b627 773d
000000f0: 9ed3 4a3d 0c6e 8f3c 6095 54bc 58b2 333c
00000100: d828 1c3c 60f0 4ebb f837 eabc 9870 c1bc
00000110: 9cfc 673d 5028 493d b432 a1bc 50df f4bc
00000120: 9017 f43b 4243 52bd 0490 12bd ba4d 613d
00000130: acf1 23bd bc05 e3bc b6ad 61bd 3032 e63b
00000140: ee56 2ebd 488a 3d3c 009e 06bd cccb 233d
00000150: ecf5 9bbc 0239 703d 3449 9e3c a27d 22bd
00000160: 8a5b 73bd 1e4a 2bbd 6097 5cbc 3c2c 473d
00000170: 78d3 3cbc 2003 cebc d025 393c 206f 36bc
00000180: fe5b 423d a249 2cbd 007d 61bb 3873 c6bc
00000190: 7c92 d9bc b0e0 abbb 5092 003d d8f4 263c
000001a0: ccf6 8abc c0a5 53bd e490 0c3d 4c6d 5cbd
000001b0: 9e6c 57bd eaf7 28bd 6a62 733d 94b1 95bc
000001c0: b098 bbbb 609c 053b 7e65 323d a896 00bd
000001d0: 98c1 363c 8a21 6c3d dc04 d2bc 6c30 e0bc
000001e0: f055 153d 4a0e 093d 24ba 67bd b00a 503d
000001f0: 9c00 623d 5481 5b3d a480 71bd 00fa 0e3d

ln2.weight f4 [128]
1.0 1.0 1.0 1.0 1.0 1.0 1.0 1.0
1.0 1.0 1.0 1.0 1.0 1.0 1.0 1.0
1.0 1.0 1.0 1.0 1.0 1.0 1.0 1.0
1.0 1.0 1.0 1.0 1.0 1.0 1.0 1.0
1.0 1.0 1.0 1.0 1.0 1.0 1.0 1.0
1.0 1.0 1.0 1.0 1.0 1.0 1.0 1.0
1.0 1.0 1.0 1.0 1.0 1.0 1.0 1.0
1.0 1.0 1.0 1.0 1.0 1.0 1.0 1.0
1.0 1.0 1.0 1.0 1.0 1.0 1.0 1.0
1.0 1.0 1.0 1.0 1.0 1.0 1.0 1.0
1.0 1.0 1.0 1.0 1.0 1.0 1.0 1.0
1.0 1.0 1.0 1.0 1.0 1.0 1.0 1.0
1.0 1.0 1.0 1.0 1.0 1.0 1.0 1.0
1.0 1.0 1.0 1.0 1.0 1.0 1.0 1.0
1.0 1.0 1.0 1.0 1.0 1.0 1.0 1.0
1.0 1.0 1.0 1.0 1.0 1.0 1.0 1.0
00000000: 0000 803f 0000 803f 0000 803f 0000 803f
00000010: 0000 803f 0000 803f 0000 803f 0000 803f
00000020: 0000 803f 0000 803f 0000 803f 0000 803f
00000030: 0000 803f 0000 803f 0000 803f 0000 803f
00000040: 0000 803f 0000 803f 0000 803f 0000 803f
00000050: 0000 803f 0000 803f 0000 803f 0000 803f
00000060: 0000 803f 0000 803f 0000 803f 0000 803f
00000070: 0000 803f 0000 803f 0000 803f 0000 803f
00000080: 0000 803f 0000 803f 0000 803f 0000 803f
00000090: 0000 803f 0000 803f 0000 803f 0000 803f
000000a0: 0000 803f 0000 803f 0000 803f 0000 803f
000000b0: 0000 803f 0000 803f 0000 803f 0000 803f
000000c0: 0000 803f 0000 803f 0000 803f 0000 803f
000000d0: 0000 803f 0000 803f 0000 803f 0000 803f
000000e0: 0000 803f 0000 803f 0000 803f 0000 803f
000000f0: 0000 803f 0000 803f 0000 803f 0000 803f
00000100: 0000 803f 0000 803f 0000 803f 0000 803f
00000110: 0000 803f 0000 803f 0000 803f 0000 803f
00000120: 0000 803f 0000 803f 0000 803f 0000 803f
00000130: 0000 803f 0000 803f 0000 803f 0000 803f
00000140: 0000 803f 0000 803f 0000 803f 0000 803f
00000150: 0000 803f 0000 803f 0000 803f 0000 803f
00000160: 0000 803f 0000 803f 0000 803f 0000 803f
00000170: 0000 803f 0000 803f 0000 803f 0000 803f
00000180: 0000 803f 0000 803f 0000 803f 0000 803f
00000190: 0000 803f 0000 803f 0000 803f 0000 803f
000001a0: 0000 803f 0000 803f 0000 803f 0000 803f
000001b0: 0000 803f 0000 803f 0000 803f 0000 803f
000001c0: 0000 803f 0000 803f 0000 803f 0000 803f
000001d0: 0000 803f 0000 803f 0000 803f 0000 803f
000001e0: 0000 803f 0000 803f 0000 803f 0000 803f
000001f0: 0000 803f 0000 803f 0000 803f 0000 803f

ln2.bias f4 [128]
0.0 0.0 0.0 0.0 0.0 0.0 0.0 0.0
0.0 0.0 0.0 0.0 0.0 0.0 0.0 0.0
0.0 0.0 0.0 0.0 0.0 0.0 0.0 0.0
0.0 0.0 0.0 0.0 0.0 0.0 0.0 0.0
0.0 0.0 0.0 0.0 0.0 0.0 0.0 0.0
0.0 0.0 0.0 0.0 0.0 0.0 0.0 0.0
0.0 0.0 0.0 0.0 0.0 0.0 0.0 0.0
0.0 0.0 0.0 0.0 0.0 0.0 0.0 0.0
0.0 0.0 0.0 0.0 0.0 0.0 0.0 0.0
0.0 0.0 0.0 0.0 0.0 0.0 0.0 0.0
0.0 0.0 0.0 0.0 0.0 0.0 0.0 0.0
0.0 0.0 0.0 0.0 0.0 0.0 0.0 0.0
0.0 0.0 0.0 0.0 0.0 0.0 0.0 0.0
0.0 0.0 0.0 0.0 0.0 0.0 0.0 0.0
0.0 0.0 0.0 0.0 0.0 0.0 0.0 0.0
0.0 0.0 0.0 0.0 0.0 0.0 0.0 0.0
00000000: 0000 0000 0000 0000 0000 0000 0000 0000
00000010: 0000 0000 0000 0000 0000 0000 0000 0000
00000020: 0000 0000 0000 0000 0000 0000 0000 0000
00000030: 0000 0000 0000 0000 0000 0000 0000 0000
00000040: 0000 0000 0000 0000 0000 0000 0000 0000
00000050: 0000 0000 0000 0000 0000 0000 0000 0000
00000060: 0000 0000 0000 0000 0000 0000 0000 0000
00000070: 0000 0000 0000 0000 0000 0000 0000 0000
00000080: 0000 0000 0000 0000 0000 0000 0000 0000
00000090: 0000 0000 0000 0000 0000 0000 0000 0000
000000a0: 0000 0000 0000 0000 0000 0000 0000 0000
000000b0: 0000 0000 0000 0000 0000 0000 0000 0000
000000c0: 0000 0000 0000 0000 0000 0000 0000 0000
000000d0: 0000 0000 0000 0000 0000 0000 0000 0000
000000e0: 0000 0000 0000 0000 0000 0000 0000 0000
000000f0: 0000 0000 0000 0000 0000 0000 0000 0000
00000100: 0000 0000 0000 0000 0000 0000 0000 0000
00000110: 0000 0000 0000 0000 0000 0000 0000 0000
00000120: 0000 0000 0000 0000 0000 0000 0000 0000
00000130: 0000 0000 0000 0000 0000 0000 0000 0000
00000140: 0000 0000 0000 0000 0000 0000 0000 0000
00000150: 0000 0000 0000 0000 0000 0000 0000 0000
00000160: 0000 0000 0000 0000 0000 0000 0000 0000
00000170: 0000 0000 0000 0000 0000 0000 0000 0000
00000180: 0000 0000 0000 0000 0000 0000 0000 0000
00000190: 0000 0000 0000 0000 0000 0000 0000 0000
000001a0: 0000 0000 0000 0000 0000 0000 0000 0000
000001b0: 0000 0000 0000 0000 0000 0000 0000 0000
000001c0: 0000 0000 0000 0000 0000 0000 0000 0000
000001d0: 0000 0000 0000 0000 0000 0000 0000 0000
000001e0: 0000 0000 0000 0000 0000 0000 0000 0000
000001f0: 0000 0000 0000 0000 0000 0000 0000 0000

action.weight f4 [2, 128]
-0.0007182794 -0.00019148196 0.00086552487 0.0008688653 0.00029689982 0.00035018066 0.000734788 0.0003373404
-0.0005702988 0.00063049607 0.00040020724 -0.0006184102 0.0007501842 -0.00027443364 0.00069794 -0.00077146245
-0.00077003473 -0.0009364945 0.0005185491 -0.00030114985 0.00036325539 -9.429944e-05 -0.0006173876 -0.0007745456
-0.0009883494 0.00038643577 -0.0002502731 -0.0007877088 5.866296e-05 -0.00089707295 0.0006654225 -0.00016172591
-0.0005822145 0.00012404367 -0.0005639567 -0.00069480005 -5.2899937e-05 -0.0001258186 -0.0007135135 0.0009010793
-0.0008729617 0.00021496101 -4.228903e-05 0.0002664968 0.00080361613 -0.00022639992 -0.00053982367 -0.0007446208
0.0006179061 -0.00051797106 -0.0006502945 0.00046379887 -0.0004712913 -0.00016625284 -0.00055010605 2.7253176e-05
0.00042150973 0.00016258098 -0.00015965855 -0.00028835074 0.00074822246 0.00040124846 -0.000998392 0.00082736986
-0.0009698606 0.00015398848 -0.0008048177 -0.0009422727 -0.00039964583 -0.00012295152 0.00042762817 -0.00013464509
-0.00048267853 0.000679575 0.00024705345 0.00013059517 -4.662323e-05 -0.0009537233 -0.0002973762 -0.00034820056
0.0008443189 0.00044415402 -0.0003375751 -0.00044061925 0.00090716407 -0.000816114 -0.00023006654 -0.00048424565
0.00018309534 0.00027620932 -0.0008841193 0.0007535727 0.00096523983 0.00035206962 -0.0003089626 -0.00085354416
0.00056284934 -0.0005541617 -0.00065200176 0.00012938981 -0.00056857173 0.00018307252 9.570399e-05 -0.00088070804
0.0007609215 0.0009049822 -0.00042020873 0.0003929726 -0.00063380797 -7.315766e-05 -0.00019368611 0.00095184264
-0.00028178026 0.00030153885 -0.0007223032 -0.0005588266 -0.0004154275 -0.00046672823 -5.565118e-05 -0.0007245597
-0.00091198285 -0.0003068869 -0.00080397405 -0.00049390364 -0.0004226822 6.7421934e-06 -0.00057373696 0.00046832534
1.6617472e-05 -6.559538e-05 0.0006233194 0.0003488583 0.000892543 0.00040135847 -5.8180827e-05 0.00087208033
-0.00082991004 -0.00012888847 0.0005472405 0.0007119344 -0.00058475905 -0.00039577152 -0.00079604436 -0.0008206417
0.00075081026 0.0009176587 0.0009872621 -1.29884575e-05 0.00013606332 -0.00022856263 0.0005936511 0.00031457143
-0.0006227414 -0.00074767927 0.0007738458 0.000432499 0.00049541367 0.0005193013 0.00012594729 0.00043350493
-5.8232807e-05 0.0004133723 -6.438e-06 0.0009860384 0.00034425408 -0.0007658793 0.00020040676 -0.0001974057
0.00080117246 0.00059808744 -0.00082691683 0.00035542168 0.0006505215 0.00021699129 -0.0008550276 -0.00048112142
0.00092948705 0.0007944299 -0.00057226396 -0.0008822753 0.00039209716 -0.00045671122 -0.00018770038 0.00047922076
-0.00062336284 -0.00025172211 -4.018034e-05 -0.0002979645 0.000795307 -0.00096516183 -0.00079036894 -0.0008589801
0.0004647798 0.000720848 0.00086663954 0.00046889135 0.00026878028 -9.385875e-05 -0.00064975023 -0.00065893034
1.9045081e-05 0.0008103269 0.0009723654 0.0006043061 0.00079321174 0.0009687544 -0.0007956524 -0.0008290322
0.00021168974 -0.0009087856 0.0009017156 0.0009461632 0.00052434823 -5.959533e-05 -0.00065696565 -5.5364973e-05
0.0005802531 0.00072398793 7.893832e-05 6.984966e-05 -0.00044993724 -0.0006484338 0.000564702 0.0002184984
-0.0002876469 0.00081194076 0.0002127667 0.0007566906 0.0006131298 -0.0006103672 -0.00090965896 0.0009104366
0.0006167785 0.0004643805 3.0044466e-05 -0.00027559535 -0.00066406815 0.0007770143 -0.00044395437 -0.00047406496
0.00082379265 -0.00043912174 -0.0002985361 0.00061543565 -0.0001363596 -8.748344e-05 -0.0006639724 -7.218373e-05
5.1565003e-05 0.0005592983 -0.00055362773 -0.00010767579 0.00018826127 0.00047809153 0.00032456568 0.00022678613
00000000: ea4a 3cba 8cc8 48b9 64e4 623a 90c4 633a
00000010: 38a9 9b39 7498 b739 ca9e 403a 10dd b039
00000020: 1b80 15ba e047 253a e8d2 d139 ce1c 22ba
00000030: 02a8 443a dce1 8fb9 f6f5 363a f83b 4aba
00000040: 28dc 49ba 157f 75ba 3eef 073a a6e3 9db9
00000050: 5073 be39 a0c2 c5b8 2ed8 21ba e00a 4bba
00000060: 818b 81ba 889a ca39 1637 83b9 3e7e 4eba
00000070: e00c 7638 8c29 6bba c06f 2e3a f894 29b9
00000080: c19f 18ba b811 0239 7ed6 13ba 3e23 36ba
00000090: e0e0 5db8 2cee 03b9 150b 3bba 6836 6c3a
000000a0: 78d7 64ba 2867 6139 805f 31b8 98b8 8b39
000000b0: c4a9 523a c465 6db9 f482 0dba a832 43ba
000000c0: fafa 213a 73c8 07ba 8678 2aba 082a f339
000000d0: a617 f7b9 2854 2eb9 fe34 10ba c09d e437
000000e0: 14fe dc39 807a 2a39 046a 27b9 c82d 97b9
000000f0: 5c24 443a a85e d239 7adc 82ba dae3 583a
00000100: 3e3e 7eba f877 2139 67fa 52ba da02 77ba
00000110: 8e87 d1b9 8cec 00b9 4833 e039 842f 0db9
00000120: 0410 fdb9 8225 323a f486 8139 60f0 0839
00000130: 508d 43b8 4a03 7aba 28e9 9bb9 b08e b6b9
00000140: 4855 5d3a 58dd e839 90fc b0b9 ea02 e7b9
00000150: c0ce 6d3a 7cf0 55ba 043e 71b9 5ae2 fdb9
00000160: 48fd 3f39 30d0 9039 3ec4 67ba 688b 453a
00000170: 2608 7d3a fc95 b839 42fc a1b9 61c0 5fba
00000180: 2e8c 133a 2a45 11ba 19eb 2aba d0ac 0739
00000190: 340c 15ba 28f7 3f39 b0b4 c838 51df 66ba
000001a0: 9478 473a 543c 6d3a 764f dcb9 e407 ce39
000001b0: 2226 26ba 386c 99b8 3818 4bb9 1485 793a
000001c0: e8bb 93b9 dc17 9e39 f258 3dba 387e 12ba
000001d0: bccd d9b9 34b3 f4b9 006b 69b8 61f0 3dba
000001e0: 2212 6fba aae5 a0b9 c9c1 52ba 5079 01ba
000001f0: 729b ddb9 003b e236 d666 16ba 9089 f539
00000200: c065 8b37 4090 89b8 4266 233a f8e6 b639
00000210: 8cf9 693a 6c6d d239 3007 74b8 529c 643a
00000220: 528e 59ba 3c26 07b9 b074 0f3a 1ca1 3a3a
00000230: 844a 19ba 8e7f cfb9 a2ad 50ba 5520 57ba
00000240: 06d2 443a 088f 703a 0567 813a 00e9 59b7
00000250: 38ac 0e39 50aa 6fb9 409f 1b3a 10ed a439
00000260: 783f 23ba e8ff 43ba eadb 4a3a 08c1 e239
00000270: a6de 013a b821 083a b810 0439 0c48 e339
00000280: 003f 74b8 e4b9 d839 0006 d8b6 f53d 813a
00000290: 007d b439 4ac5 48ba 4824 5239 b0fe 4eb9
000002a0: c605 523a f8c8 1c3a 73c5 58ba e457 ba39
000002b0: c287 2a3a 2888 6339 ee23 60ba 063f fcb9
000002c0: d2a8 733a 4a41 503a fc03 16ba 7e48 67ba
000002d0: 6492 cd39 be72 efb9 70d1 44b9 ec3f fb39
000002e0: 2c69 23ba 92f9 83b9 5087 28b8 1e38 9cb9
000002f0: 267c 503a ea02 7dba c330 4fba 2e2d 61ba
00000300: b0ad f339 4af7 3c3a 322f 633a 88d5 f539
00000310: 14eb 8c39 08d6 c4b8 0054 2aba 11bc 2cba
00000320: 00c3 9f37 1e6c 543a 56e6 7e3a 4c6a 1e3a
00000330: 8aef 4f3a 02f4 7d3a 5493 50ba 6953 59ba
00000340: 08f9 5d39 923b 6eba 1c61 6c3a f007 783a
00000350: 6a74 093a 00f6 79b8 3838 2cba b037 68b8
00000360: 201c 183a 02ca 3d3a b08b a538 407c 9238
00000370: 8ee5 ebb9 a8fb 29ba 8208 143a b81c 6539
00000380: 50cf 96b9 6cd8 543a 201a 5f39 a65c 463a
00000390: 72ba 203a 0d01 20ba 2e76 6eba 5eaa 6e3a
000003a0: 4eaf 213a 1878 f339 0008 fc37 c87d 90b9
000003b0: dc14 2eba 8cb0 4b3a 8cc2 e8b9 ec8b f8b9
000003c0: caf3 573a ec39 e6b9 d684 9cb9 3055 213a
000003d0: c0fb 0eb9 5077 b7b8 6f0e 2eba 5861 97b8
000003e0: 8047 5838 e09d 123a 5421 11ba 00d0 e1b8
000003f0: 0068 4539 5ca8 fa39 782a aa39 70cd 6d39

action.bias f4 [2]
0.00018339336 -0.0009994338
00000000: 484d 4039 6fff 82ba
