s10lre4e3CCM_MADRL_MEC/model/PDQN/7-discrete_actors.pth (torch, 145127 bytes, 6 tensors)

fc1.weight f4 [256, 9]
000000 47 d7 8a bd c3 47 d2 3d 17 b4 3d be 94 7c 32 3e
       -0.06779342 0.10267594 -0.1852573 0.17430335
000010 80 11 62 bc 50 35 9a 3d 63 85 96 be 85 fe 2d be
       -0.013798118 0.075297 -0.2939864 -0.16991623
000020 ad 98 e8 3d 96 74 44 be 6a dd 8c 3c 32 bf 00 3d
       0.113572456 -0.19185099 0.017195422 0.031432338
000030 8b 8d f2 3d 8a 58 53 bd 1f 17 ca 3d 2c a5 a1 be
       0.118434034 -0.05159811 0.09867691 -0.3157133
000040 78 b8 3f be af 87 69 3e 1e 1f 33 be 46 d1 8c be
       -0.18722713 0.22805665 -0.17492339 -0.27503413
000050 f1 b6 1f 3c f1 a6 5a 3e 9d 81 64 3e 55 0d 01 be
       0.0097482065 0.21352746 0.22315069 -0.12602742
000060 80 72 7a be a7 da 97 be 17 85 3a be 74 01 6a bd
       -0.24457741 -0.29659006 -0.18214832 -0.057130292
000070 8f 53 d1 3b 0c 25 a0 be 9b 7d d8 bb eb b7 ca bd
       0.006388135 -0.31278265 -0.00660677 -0.09898361
000080 07 43 45 be ba f6 b1 3d db 3a 06 3e 2b 79 61 be
       -0.1926385 0.086896375 0.13108389 -0.22018878
000090 df 61 0c 3e b7 6f 71 3d 57 81 a1 be 43 6a 47 be
       0.1370921 0.05894443 -0.3154399 -0.1947413
0000a0 8a c3 1d be 0f 49 00 3e b7 d1 92 3e e3 72 89 be
       -0.15406623 0.1252787 0.28675625 -0.26845464
0000b0 8a c9 27 3e 55 a5 de 3d 08 bc 4a bd 98 78 32 be
       0.16385475 0.10871378 -0.049495727 -0.17428815
0000c0 d7 b8 e2 3c 03 24 71 3e bc a5 3f bd 5f 29 9d 3d
       0.02767603 0.23548894 -0.046788916 0.076739065
0000d0 3b be 62 bd 75 c2 90 be 31 f7 a5 be 28 3f 80 3e
       -0.0553572 -0.2827336 -0.32415155 0.25048184
0000e0 03 85 0f 3c 9f 62 a0 3e d0 c9 f1 3d 19 3f 52 bd
       0.00875974 0.31325242 0.11806071 -0.051329706
0000f0 10 60 8f 3e ab c4 bf 3d 16 03 4d 3e d9 fe 7e 3e
       0.28002977 0.09363683 0.20020708 0.24901904
000100 74 39 87 bd b6 77 21 be a4 b8 5b be 0a f9 8f 3e
       -0.06602755 -0.15768322 -0.21457154 0.2811969
000110 72 1d 1e 3d 2a a4 2b 3e 4b d3 86 3e f1 88 3f 3e
       0.0386023 0.16761842 0.2633308 0.18704583
000120 c6 db ff bd a6 86 66 3e 5b 18 ab bd 4c 1d a4 bd
       -0.1249309 0.22512302 -0.08354255 -0.080134004
000130 fa 93 3c be 09 ba 26 3e 0e 64 7f 3e 35 9d 8e 3e
       -0.18415824 0.16281904 0.24940512 0.27854314
000140 a0 44 20 be 5b 38 d6 3c df 6a 89 be 82 34 37 3c
       -0.15651178 0.02614992 -0.2683935 0.011181952
000150 ad fd 0a 3e 36 28 1a 3e dd d6 66 3e c7 c5 a2 bc
       0.13573332 0.15054402 0.22542901 -0.019869698
000160 91 a5 6d 3e 6f 4d ea bd 2e 57 2a 3e bd fa 2c be
       0.2320769 -0.114405505 0.16634819 -0.16892524
000170 dd 6d 94 be 2f b5 6e 3e d0 b0 96 3e e1 46 a7 3e
       -0.2899007 0.23311304 0.29431772 0.32671264
000180 f9 01 bc 3a 1a 8e 6e 3e b2 18 2e bd 78 6e 92 3e
       0.001434385 0.23296395 -0.04250402 0.28599906
000190 a1 57 6f be 11 3f a1 3e 4a b8 42 be 1b 39 55 be
       -0.23373272 0.31493428 -0.19015613 -0.20822565
0001a0 fe e9 83 3e 97 14 67 3e 30 fc 87 3e a0 0f 76 3b
       0.2576446 0.22566448 0.2655959 0.0037545934
0001b0 5c 6f 57 3e 72 51 8a bd 48 4b 9f 3c 58 ff 8d be
       0.21038574 -0.06753816 0.019445077 -0.27733874
0001c0 89 27 ac 3d 49 ea 19 be 7e f6 70 be 45 5c 83 bd
       0.08405978 -0.15030779 -0.2353153 -0.064140834
0001d0 98 11 6e bd fc c7 50 be f0 4f 7f 3e b9 c7 0c bd
       -0.058122247 -0.20388788 0.24932837 -0.034370158
0001e0 80 d6 c7 3d e3 99 a4 be 76 2f 12 be 01 9d 88 be
       0.097577095 -0.32148656 -0.14275917 -0.26682284
0001f0 d6 07 0f be 3c a3 c2 bd 39 44 7b 3e 70 58 9b 3e
       -0.13967833 -0.09503791 0.24537744 0.3034091
000200 d6 d5 e5 3d 23 d3 3a 3e d2 a8 12 be 10 f8 29 be
       0.112224266 0.18244605 -0.14322212 -0.16598535
000210 0f a3 56 be 3d 89 29 bd 02 71 5d be d7 79 2f 3d
       -0.2096064 -0.041390646 -0.2162514 0.042840805
000220 d5 d2 f8 3d 0a a2 aa 3d 97 1e 83 be 12 48 84 be
       0.12149588 0.08331688 -0.25609276 -0.25836235
000230 4f 8f 4b be c8 d7 ac bd ef 9c 3b 3e 9a 9d 35 3e
       -0.19878887 -0.084395945 0.18321584 0.17735901
000240 eb c9 65 3e f4 00 ae b8 1d ef a5 3d aa 1f bb 3c
       0.22440307 -8.297144e-05 0.08102248 0.022842247
000250 49 8b 5a 3e 5d f7 7c 3e a8 b0 6d be ed c5 3d 3e
       0.21342196 0.24703737 -0.2321192 0.18532534
000260 89 3c c9 3c 4e fb 34 be c4 9a a4 3e ca 88 8b 3d
       0.024564998 -0.1767399 0.32149327 0.068132
000270 4e 04 1b 3e b8 14 24 3d bb 18 07 be 76 8a 3d be
       0.15138361 0.04005882 -0.13193028 -0.1850985
000280 10 6e 58 3e c6 7f 8a be 8e ac b8 bd 15 64 12 3e
       0.21135736 -0.27050608 -0.09017287 0.14295991
000290 47 0d fd bd 03 60 40 bd 97 b0 15 3c ee 0a 38 3e
       -0.12356048 -0.046966564 0.009136341 0.1797292
0002a0 fc 0c 38 be 3b 6a 57 bd 01 b2 a9 3e 8f c8 fa bd
       -0.17973703 -0.052591544 0.3314362 -0.12245285
0002b0 47 44 93 3d eb 04 9d be a6 3c 90 3e 83 fe b2 3b
       0.07190757 -0.30667815 0.2817127 0.005462469
0002c0 e7 66 f9 bd c5 ac d4 bd d6 f7 a3 3e ac 59 8f bd
       -0.1217783 -0.10384516 0.3202502 -0.069995254
0002d0 54 f9 05 bd aa 51 9c 3e 60 ee 4e be 25 a6 f2 bd
       -0.03270848 0.30531055 -0.2020812 -0.11848096
0002e0 3c fb a2 bd b0 eb a6 be 45 eb 46 be c5 98 16 be
       -0.079580754 -0.3260169 -0.19425686 -0.14706714
0002f0 9e 0d f7 bd f6 c0 8b be c4 e4 90 3e 3c 60 c9 bd
       -0.12063144 -0.27295655 0.28299534 -0.098328084
000300 7d 6b 90 3c 62 1c 8f 3e 18 d9 90 be 55 9b 9e 3c
       0.01762938 0.27951342 -0.2829063 0.019361177
000310 6a b1 9e 3e 45 ef 5c be 83 cd 66 be 2d b0 6a be
       0.3099473 -0.21575649 -0.22539334 -0.22918768
000320 7b b9 91 bc 32 e4 12 be 97 2c 96 be b9 80 e4 bd
       -0.01778864 -0.14344862 -0.29330894 -0.111573644
000330 68 09 32 be d1 57 77 be 07 e6 c0 3d 7f c1 a3 3b
       -0.173864 -0.24154593 0.09418874 0.0049974318
000340 3b ce 92 3e dc 24 a7 bd ef 5f 6f be f0 0f 1c 3d
       0.28672966 -0.08161327 -0.2337644 0.038101137
000350 05 77 f5 3d 7d db 21 be 49 6d 13 bd 82 b3 74 3e
       0.11985592 -0.15806384 -0.035992894 0.23896602
000360 b2 3d 97 3c fc a4 6a bd d2 98 45 be 12 9f 65 3e
       0.018462036 -0.057286248 -0.19296578 0.22423962
000370 5b 7b a5 be fb 8d a7 be 61 d9 a1 3e 6c ca e7 3d
       -0.32320675 -0.3272551 0.3161116 0.11317906
000380 5b f0 96 3e f1 9a 06 be ea 7d 03 3e 33 99 aa be
       0.29480252 -0.13145043 0.12841001 -0.33320007
000390 97 4f 8a be ac ff 7e bd 22 1c 6e 3e ba 21 75 be
       -0.27013847 -0.062255546 0.2325292 -0.23938647
0003a0 71 d7 6b 3e 66 32 95 be b7 80 80 be e2 d1 24 3e
       0.23031403 -0.29140013 -0.25098202 0.16095689
0003b0 8d 93 ce 3d a4 a9 f0 bd 27 4b 29 3e b5 20 45 3e
       0.10086737 -0.117511064 0.16532575 0.19250758
0003c0 30 eb 40 be 41 12 28 3e 08 38 4e 3e 02 0e 31 be
       -0.18839717 0.16413213 0.20138562 -0.172905
0003d0 dd 15 94 bc 30 fa 63 3e 59 e3 96 be 19 90 ac bc
       -0.018076831 0.22263408 -0.29470327 -0.021064805
0003e0 82 80 55 3e e9 0c a2 bd 02 4f 82 be fc 7c ac bd
       0.20849803 -0.07912619 -0.25450903 -0.084222764
0003f0 ac 0d 03 be ed 2d 6f 3e 89 c7 2e 3e b3 d4 8a 3d
       -0.12798184 0.23357363 0.17068304 0.067788504

fc1.bias f4 [256]
000000 ec 03 09 be 89 8c 93 be 6f 28 29 3e 06 53 a4 3e
       -0.13380402 -0.28818157 0.1651933 0.32094592
000010 df 08 44 be 47 8a 75 3d ed 43 97 3e 6f 37 38 bd
       -0.19144009 0.059946325 0.2954401 -0.04497474
000020 82 56 46 3e ca 00 54 be 52 98 f1 3d c4 02 6e 3d
       0.19368938 -0.20703426 0.11796631 0.058108106
000030 e3 b6 87 3e f1 50 6c be 4a e3 42 3e d2 40 9d 3c
       0.2650672 -0.23077752 0.19032016 0.019195948
000040 06 56 52 be 71 0e 13 be 08 33 5f 3e 10 43 ab be
       -0.20540628 -0.14360978 0.2179681 -0.33449602
000050 05 e0 40 be 76 ee ef bc f5 44 a7 3e 57 f1 2d bd
       -0.18835457 -0.029288512 0.32669798 -0.042466488
000060 42 26 2f 3e 72 13 17 3c 66 0f 66 be 17 b7 20 bd
       0.17104438 0.009220945 -0.22466812 -0.039237108
000070 b3 22 79 3e d5 6d c2 bd 78 77 bd bd d4 5d 68 3c
       0.24329643 -0.09493605 -0.092513025 0.014182527
000080 a5 ad e6 3b 60 4f 07 be ad d3 e2 3d e0 c0 c9 3d
       0.007039743 -0.13213873 0.1107553 0.09851241
000090 26 3b 31 be 97 aa 99 3e 0f 7d 9a be 58 bd 9a be
       -0.1730772 0.30012962 -0.30173537 -0.30222583
0000a0 34 2b e3 3d 9c 3a 82 be ed 51 ec 3d 77 f8 b6 3d
       0.11092225 -0.2543534 0.115390636 0.0893411
0000b0 da ef 49 3e 47 ef 9a be b7 fc c6 3d a6 e0 88 3e
       0.19720402 -0.3026068 0.0971617 0.26733893
0000c0 87 f5 79 be 82 6c 80 bd 47 75 79 3d 0e 03 9f bd
       -0.24410067 -0.06270696 0.06090286 -0.077642545
0000d0 39 10 56 3e 8d 21 77 3e 9f fb 96 be 0e 1a 47 3d
       0.20904626 0.24133892 -0.29488847 0.048608832
0000e0 da ea ef 3d 2e 67 45 3e 73 ef bb 3d 0f fc 97 be
       0.11714716 0.19277641 0.09176531 -0.29684493
0000f0 e5 10 7c bd 09 3d 16 3d be 8f 81 be 22 a3 97 be
       -0.06153955 0.0366793 -0.2530498 -0.29616648
000100 3e 4e 17 3e b9 04 20 3e c3 fa 99 3e c4 51 8e 3e
       0.14775941 0.15626802 0.30074129 0.27796757
000110 1d 46 95 be c3 f7 de 3d c0 5b 25 be 14 f4 94 3e
       -0.29155055 0.108871005 -0.16148281 0.29092467
000120 0e f0 32 3e f7 dc aa 3e bb ef 58 be 1f c2 88 be
       0.17474386 0.33371708 -0.211852 -0.26710603
000130 ac 09 99 3e 8d cc 6a 3e 31 a5 34 be b7 88 7b be
       0.29890192 0.22929592 -0.1764114 -0.24563871
000140 ba 0d 85 3e a6 3a 93 bc 12 4a fb 3c 11 17 d6 3d
       0.25987035 -0.017972302 0.030674968 0.10453618
000150 7e 24 67 be 77 9b 69 3d 83 0d fd bb 7c 57 42 3e
       -0.22572514 0.05703303 -0.007722558 0.18978685
000160 fc 21 92 3e b9 89 dc 3d 5f 68 56 bd 12 48 11 be
       0.28541553 0.10768456 -0.05234563 -0.14187649
000170 e7 99 2e 3e 61 75 89 3d 51 84 33 be 86 e3 e0 bd
       0.17050897 0.067118414 -0.17530943 -0.10980897
000180 d0 12 3b 3e e9 58 89 be 18 d4 6b be 5b 18 4b 3e
       0.18268895 -0.26825646 -0.23030126 0.1983351
000190 90 da 90 be e3 df 62 3e 1c 77 92 be ef d9 25 bd
       -0.2829175 0.22155719 -0.28606498 -0.04049104
0001a0 5a 1a d7 3d 47 07 90 be 49 34 fe bd 6b 83 a8 bd
       0.10503073 -0.28130552 -0.12412316 -0.08228191
0001b0 e2 71 8b 3e 94 13 86 3d dd b4 80 bd 9e 76 18 bd
       0.27235323 0.06546703 -0.06284497 -0.037222497
0001c0 d4 bb 49 be 04 df 3a be 86 b6 5c 3e 31 0d 98 bd
       -0.19700557 -0.18249136 0.21554002 -0.07424391
0001d0 6c 31 bf bc 3e ac 59 be d1 ad 3b be 33 70 7a 3e
       -0.023338996 -0.21257111 -0.18328024 0.24456863
0001e0 5c cf ec bd 7f ff 5b 3e 79 cd 9f bd da 36 31 be
       -0.11562988 0.21484183 -0.07802863 -0.1730608
0001f0 08 a0 13 be 4f 96 40 3e 51 51 a7 3e 4c e5 a0 3d
       -0.14416516 0.18807338 0.32679227 0.07856235
000200 9c f6 00 3e d3 0b f2 3a 5c 88 41 be 3d e8 73 3c
       0.12594074 0.0018466659 -0.18899673 0.014886913
000210 25 d7 93 3e fe 24 2b 3e b7 90 3a 3d c5 06 ba 3d
       0.2887508 0.1671333 0.045548167 0.090833224
000220 fd c2 04 3e c3 e9 11 3e 77 85 64 be 64 c3 15 be
       0.12965007 0.1424933 -0.22316538 -0.14625317
000230 bb e9 47 be 86 98 5b 3e f7 8f a1 be 5f 98 a7 bd
       -0.19522755 0.21444902 -0.3155515 -0.08183359
000240 2d 8c 3f be cd dc d2 3d 80 2d 03 be ab 1b 33 3d
       -0.18705817 0.10296021 -0.12810326 0.043727558
000250 8a 2b 25 3e 3d 5e 10 3e 85 d9 4a 3e 0f 56 5e be
       0.1612989 0.14098449 0.1980954 -0.21712516
000260 ed 6d 5c 3e cc 9d 73 bd 3c 15 2d be 1e a0 54 3d
       0.21526308 -0.05947666 -0.16902632 0.051910512
000270 f6 fd 21 bc 9e 46 bb bd 2d 51 61 be 06 15 83 3e
       -0.009887209 -0.091443285 -0.22003622 0.25601977
000280 f2 c2 b3 bd a7 98 52 3e a3 7a 84 3d 45 d7 8d bc
       -0.08777417 0.20566045 0.064687036 -0.017314563
000290 7d 9d 6a be 53 86 f3 bc 75 33 36 3c 93 20 b3 bd
       -0.2291164 -0.029727137 0.011120667 -0.087464474
0002a0 1a 59 91 b9 34 40 60 3d a5 54 7e 3e 11 8d 17 3b
       -0.0002772294 0.05474873 0.24836977 0.0023124854
0002b0 9a 3d 94 3e 05 2d aa bd 83 b3 a9 be 5f 10 8e 3e
       0.28953248 -0.08309368 -0.3314477 0.27746865
0002c0 4e dc 53 be c6 4e 54 3d 91 5b 97 3e 07 d9 b2 3d
       -0.20689508 0.051832937 0.29562047 0.08732801
0002d0 2f 7c 9b be 6d 89 8f 3e 96 11 0a 3e d8 bc 3e 3e
       -0.30368182 0.28034535 0.13483271 0.18626726
0002e0 80 39 4b be 41 6a 2c 3e 3d d3 fe bd d4 aa 14 be
       -0.19846153 0.16837408 -0.12442634 -0.14518291
0002f0 96 bb 02 be 17 6f 5d bd bd c8 07 bd 1f 3b 0a 3e
       -0.12766871 -0.05406102 -0.033150423 0.13499115
000300 c4 1e 4b 3e 48 a3 27 3d 7c 38 36 be 7b 8a 83 3e
       0.19835955 0.0409272 -0.17794985 0.2569159
000310 ec 6c 73 3d 08 7d 49 be c7 08 e3 bd 64 e2 94 be
       0.059430048 -0.19676602 -0.110856585 -0.29078972
000320 29 38 8a be 8b dc cd bd 4b 9e da 3d 53 ab 06 be
       -0.26995972 -0.10051831 0.10674723 -0.13151293
000330 9f 73 a2 be c5 03 53 bc 10 fe a7 be d9 4e 40 3e
       -0.31728837 -0.012879317 -0.32811022 0.18780078
000340 6e e0 76 3e 83 b2 9b 3e 4c e3 4c 3e e4 59 ad bc
       0.2410905 0.3040963 0.20008582 -0.021161027
000350 83 27 4c be b0 a3 01 be 54 a9 07 3e e0 41 92 3e
       -0.19936948 -0.12660098 0.13248187 0.28565884
000360 f8 cf 9a bd 03 88 85 be 23 39 ca 3d bc 7f 25 be
       -0.07559198 -0.2608033 0.09874179 -0.16162008
000370 28 40 6c 3e 43 47 39 3e 12 c4 3c be 7d 5b a0 3e
       0.23071349 0.1809359 -0.1843417 0.313198
000380 91 3b 99 be 19 90 2a 3e df ef a1 be 85 b5 7f 3e
       -0.29928258 0.16656531 -0.3162832 0.24971588
000390 48 d1 48 3e 2a aa 60 3e fe 74 9c 3e c1 93 75 bc
       0.19611084 0.21939912 0.30558008 -0.014988841
0003a0 8c dd 52 be 26 6c 97 be d6 4b 29 3e 09 0a 29 be
       -0.20592326 -0.29574698 0.16532835 -0.16507734
0003b0 b6 3b bf 3d 1c ab a4 3e d6 a1 21 be a3 ab 50 be
       0.09337561 0.32161796 -0.15784392 -0.20377974
0003c0 91 89 36 3e 3c 3c 96 3e 71 fd ac bc 78 cf 43 3c
       0.17825915 0.2934283 -0.021116944 0.01195132
0003d0 4b c2 03 3e 5a 3f 76 3e 52 1b 99 be 9b 21 9d 3d
       0.12867086 0.24047604 -0.29903656 0.07672425
0003e0 4c f0 51 be 2b dc b3 3c a6 55 69 3e 97 9f 49 be
       -0.20501822 0.02195557 0.22786579 -0.19689785
0003f0 de 92 9e be b3 61 07 3e 9d 0d 31 bd a0 cf 5e 3e
       -0.30971426 0.13220863 -0.043225873 0.2175889

fc2.weight f4 [128, 256]
000000 77 11 3d 3d b5 76 51 bd 61 df bd 3c 3a a4 40 3d
       0.046159234 -0.0511386 0.023177804 0.04703162
000010 96 5f 08 3d b0 5f a2 3c 1a ea 45 bd c1 83 10 bd
       0.033294283 0.019821018 -0.04831896 -0.0352819
000020 10 49 d2 bc d5 f8 99 3b 49 8a 7c 3c 94 ff 5f 3d
       -0.025669605 0.0046988525 0.015413829 0.054687098
000030 2d c0 35 3c 8e 69 30 bd 5e 54 5e bd d7 67 19 bd
       0.011093182 -0.043069415 -0.054279678 -0.037452545
000040 55 e0 66 bd f5 22 32 3d f8 03 84 3d b9 14 be bb
       -0.056366283 0.04349037 0.064460695 -0.00580081
000050 25 6b cb bb 07 10 8a 3c 6b 57 85 bd d3 e3 30 bd
       -0.006207841 0.016853346 -0.06510814 -0.04318602
000060 ad 0e db 3c 5a b1 48 3d 10 47 e9 bc ef e6 19 bd
       0.026740396 0.04899726 -0.028476268 -0.03757375
000070 d1 c5 4b bd 00 09 af bc f8 4f fe bc c5 19 b0 3c
       -0.0497492 -0.021366596 -0.031043991 0.021496663
000080 62 29 3a 3d 55 1c 49 bd 93 18 83 3d 77 32 5c bd
       0.045449622 -0.049099285 0.064011715 -0.053759065
000090 14 4f 7c 3c a6 3e 4f 3d 35 76 0e 3b 79 a0 52 bd
       0.015399713 0.050596856 0.0021737937 -0.05142257
0000a0 cb 8b 20 3c 69 b4 43 3d 58 ed 51 ba d4 6e 76 3d
       0.009798954 0.047779474 -0.0008008084 0.060164288
0000b0 48 0a 20 bd d3 d8 11 3d 86 01 7b 3d 08 26 34 bd
       -0.039072305 0.03560717 0.06128075 -0.043981582
0000c0 16 f1 f4 bc d2 4c 51 3c 6c 55 62 3d 38 f9 12 3d
       -0.029900115 0.012774663 0.055257246 0.035882205
0000d0 9b ea 65 bd bb 1e 2e 3d 0e 1f 24 3b 1d 10 67 bc
       -0.05613194 0.042509776 0.0025042924 -0.014102963
0000e0 36 32 86 bc 23 ac 7a 3d 59 39 cf bc 9c c1 5a 3d
       -0.016381364 0.06119932 -0.0252959 0.053407297
0000f0 48 45 52 3d 7e 99 3e bd 55 b9 0a bd 9e 85 76 bd
       0.051335603 -0.0465331 -0.033868153 -0.06018602
000100 d2 f9 49 3d 6d 21 71 3c e7 fb 31 3d f8 68 38 bd
       0.049310513 0.014717442 0.043453123 -0.04502198
000110 83 c5 1e 3d ff 4f b0 bb 86 04 0e bd 3c ea f4 3c
       0.03876258 -0.00538063 -0.034672283 0.029896848
000120 be 39 26 bd 7d 07 98 bb f5 7d 05 bd 72 b7 6d 3d
       -0.04058241 -0.0046395645 -0.032590825 0.058036275
000130 23 b4 56 bd d5 18 24 bd 5b 3e cc bc ce 94 0a bd
       -0.052417886 -0.040062744 -0.024932077 -0.033833317
000140 b2 a4 b9 bc 98 2f f7 3c 87 59 c7 bb 6c a4 39 bc
       -0.02266154 0.030174062 -0.0060836705 -0.011330705
000150 58 2f 56 bd f3 98 6b 3d 0c 88 3d bd fb b8 e0 3c
       -0.052291244 0.05751891 -0.046272323 0.027431956
000160 e2 67 31 bd b0 5f f7 3c 10 9b 9b bc b6 56 a1 bc
       -0.04331196 0.030196995 -0.018994838 -0.019694667
000170 48 0b 61 3d 9f 87 cd 3c e1 89 9a bc 46 78 4b 3d
       0.0549424 0.025089083 -0.018864574 0.04967525
000180 90 63 2d 3d 35 da af bb a1 3b 69 bd 07 ee 1b bd
       0.04233128 -0.0053665885 -0.056941632 -0.038068797
000190 83 07 63 3d 65 bc 71 3b 75 dd 13 bd e4 3f 6a bd
       0.055427086 0.0036885974 -0.03609987 -0.057189837
0001a0 45 7d 47 bd 73 c9 eb bc e4 67 33 3d ce 06 9b 3c
       -0.04870345 -0.028782582 0.04380025 0.018924143
0001b0 ae b9 9b 3b 17 91 08 3d 36 54 87 bc bf af 70 bd
       0.0047523594 0.033341493 -0.016519647 -0.058761355
0001c0 d1 ab 5f bd f8 76 68 bd 15 12 e9 bb c3 78 27 bd
       -0.054607216 -0.056754082 -0.0071127512 -0.04088665
0001d0 9c f7 b7 3b da a0 0e 3b 2e 3e 28 3c 42 75 44 3d
       0.005614234 0.0021763355 0.010268731 0.04796339
0001e0 5b e3 16 bd 69 0a 0d bd 5c a3 ff 3c 6d a5 39 3c
       -0.036837917 -0.034433756 0.031205826 0.0113309445
0001f0 ab ec f2 3c 68 a5 84 3d b9 b2 53 3d aa 76 52 bd
       0.029653868 0.06476861 0.051684115 -0.051382698
000200 fe b2 78 bd c7 ab c9 3c c2 66 50 3d fa 5e 5a 3b
       -0.060717575 0.024618043 0.050879247 0.003332077
000210 2f f4 84 bc 71 e5 88 3b e4 49 3e bd 21 de 16 bc
       -0.016229717 0.004177742 -0.046457186 -0.009208233
000220 56 76 d5 bb 6f 9a a3 bc bf f6 1f 3d 2f 30 f4 3c
       -0.006514351 -0.0199711 0.039053675 0.029808132
000230 6a f3 bc 3c 58 05 6f bd cf df 09 3d 17 89 0e bd
       0.023065288 -0.058354706 0.033660706 -0.034798708
000240 c4 68 13 bc 09 9a 88 bc e6 4e a3 3c 5c e9 3c bd
       -0.008997146 -0.016675012 0.019935083 -0.046120986
000250 da 34 46 bc 81 f2 49 3d 3f c6 1f 3d 28 7c 69 3d
       -0.012097562 0.049303535 0.03900742 0.05700317
000260 8c f0 2c 3d 2c 99 1f bd ad fc b8 bc fb 94 5a 3d
       0.04222159 -0.038964435 -0.022581423 0.053364735
000270 e2 3e bb bc 70 63 5c 3c 84 5c 2f bd 87 d4 82 bc
       -0.022857133 0.013451442 -0.04281284 -0.015970482
000280 e6 9c 22 3d 77 22 01 3d 29 43 a3 3c f5 46 f8 3c
       0.03970041 0.03152701 0.019929485 0.030307272
000290 02 72 b5 bc a4 27 7a bd be 94 4d bd c4 9b 20 bd
       -0.02214909 -0.06107296 -0.05019068 -0.03921105
0002a0 83 ea f6 3c d4 26 1c bd 2d c5 06 3c a0 b1 d2 bc
       0.03014112 -0.038122967 0.008225721 -0.025719464
0002b0 37 50 92 bc 77 d7 e2 bc 20 5a 2d bd d4 f6 1a bd
       -0.017860515 -0.027690632 -0.042322278 -0.03783305
0002c0 52 51 79 bd ed eb cf bc c9 a7 11 3d c6 ba c4 3c
       -0.06086857 -0.025381053 0.035560403 0.024014842
0002d0 4a 05 21 bc 76 80 5f bc 6f 61 5b 3d 21 69 f0 3c
       -0.009827921 -0.013641467 0.053559717 0.029347004
0002e0 e0 5f 1b bd c5 6b 14 3d dd a5 62 bd a9 f6 d9 bc
       -0.03793323 0.03623559 -0.05533396 -0.026606875
0002f0 5c cf 13 bb 43 4e 88 3c 6c 00 26 3d e9 1a 9f bc
       -0.0022554016 0.01663888 0.040527746 -0.019422011
000300 0c 82 1f 3d 99 27 19 3d 27 76 63 bd a2 b0 99 bc
       0.03894238 0.03739128 -0.0555326 -0.018760983
000310 8c df 23 3d 58 a1 09 3d 40 cd 40 bc 08 ec 72 3d
       0.040008113 0.033601135 -0.011767685 0.05930713
000320 a0 41 e4 bc 32 ba f4 3b aa db 05 bc 90 79 70 3d
       -0.027863324 0.0074684853 -0.008170048 0.05870968
000330 f5 8d 24 bd 1b 16 13 3d 15 da ee bb 02 6e 3d bd
       -0.040174443 0.035909753 -0.007289181 -0.04624749
000340 e9 19 7d 3d 05 b8 86 bc 74 39 92 bc fd 6c b2 bc
       0.061792288 -0.01644517 -0.017849661 -0.021780485
000350 aa 8b 4e bd e0 e9 1d bd 3a 6f 29 3c 9f 1f 65 bd
       -0.050426163 -0.03855312 0.01034146 -0.05593836
000360 56 5d 60 3d 35 11 1a 3d 7a eb 50 3d e1 03 4d 3c
       0.054776512 0.037614066 0.051005818 0.012513132
000370 3e 25 2f bd eb 94 04 3d 8d db 09 3d 47 c3 c9 bc
       -0.042760126 0.03236858 0.033656646 -0.024629248
000380 4e dd 53 bd 0e 4a 12 3d 56 7d d3 bb f7 e0 57 3d
       -0.051724724 0.035715155 -0.00645415 0.052704778
000390 5e c1 7a 3d 78 3f 52 bd d7 15 67 3d ea 14 a4 3c
       0.061219566 -0.05133006 0.056417312 0.020029504
0003a0 b4 5e 72 3d ff 4c 73 bd 6c 16 5e 3d 97 29 78 3d
       0.059172347 -0.0593996 0.054220602 0.06058654
0003b0 df 22 5f 3d c0 89 5a bc 5f 5c a5 bc 56 98 e3 bc
       0.054476615 -0.013338506 -0.020185648 -0.0277826
0003c0 5e 97 d3 bc 3a 4b 69 bd 89 3c b2 bc 21 c4 c8 bc
       -0.025829013 -0.056956507 -0.021757381 -0.024507584
0003d0 a7 d0 07 3c ec 97 e0 3c cf 7c 03 bd 62 0c 18 3d
       0.008289493 0.027416192 -0.03210145 0.037121184
0003e0 59 7f 4a bd cb 8b da bc 04 f9 0b bd ff d3 fb ba
       -0.049437854 -0.026677987 -0.034173027 -0.001921296
0003f0 b7 d5 14 ba 11 ea cb 3b 64 42 ef bc 41 d2 42 bd
       -0.0005677598 0.0062229712 -0.029206462 -0.047563795

fc2.bias f4 [128]
000000 3c 3b 5c bd 5a d0 4a 3d bf 55 6b 3d 7e 81 10 3d
       -0.053767428 0.049515106 0.05745482 0.035279743
000010 39 8a 02 3d 3b fe 59 3d 9c f3 ab bc 13 3b 31 3c
       0.0318701 0.05322097 -0.020990185 0.010817307
000020 f3 87 96 bc bd 12 ba bc f8 60 6b bd 34 7e 30 bc
       -0.018375373 -0.022714013 -0.057465523 -0.010772277
000030 60 8d 20 3a eb 6b c7 bc b6 aa 20 bd e5 c7 c8 3c
       0.0006124582 -0.024343451 -0.039225303 0.02450938
000040 d1 9e e3 bb f7 a4 4c 3d 56 e3 76 bd ee ac 80 3d
       -0.0069464226 0.04996201 -0.0602754 0.06282984
000050 57 c9 19 bd 4c 80 97 3c f4 fb 11 3d 73 ad 61 3d
       -0.03754553 0.018493794 0.03564067 0.055097055
000060 31 01 25 bd ce ed 43 3d 32 88 6d bd 4e 23 05 3d
       -0.04028434 0.04783421 -0.057991214 0.032504372
000070 c7 4d ee 3c a2 7f 0a bd 14 bb de 3c f5 b9 fb bc
       0.029089822 -0.033813126 0.027188815 -0.03072832
000080 27 52 34 bd 16 b6 21 3c 60 47 a8 3c e6 76 2e 3d
       -0.04402366 0.009870073 0.020541847 0.04259386
000090 4a 8f 38 3d 16 9a c6 ba 2f 52 77 bd 89 5c 5c bd
       0.045058526 -0.0015152122 -0.06038111 -0.053799186
0000a0 95 70 61 3d f0 a6 3e 3c d4 c8 7c 3d 22 50 6a 3d
       0.055039007 0.011636481 0.061714962 0.057205327
0000b0 20 82 24 bd 78 39 f7 3c 01 a5 95 3c 25 93 e3 bc
       -0.04016316 0.03017877 0.018267157 -0.027780125
0000c0 cf 6b 56 bd ad 8f f4 bc 04 70 60 bd 54 8e 9b 3c
       -0.052348908 -0.029853666 -0.054794326 0.018988766
0000d0 5c ba 14 3b bf b6 09 3d 7d f4 7c 3d 33 fe c9 bb
       0.0022694087 0.033621546 0.0617566 -0.006164336
0000e0 72 04 5e bd cd 47 52 3d 45 89 0f 3c 5b 2a 55 3d
       -0.054203458 0.051338006 0.008760755 0.052042346
0000f0 23 a1 93 3d 2b c1 a6 3c ec 1a ef bc 03 4c 26 3d
       0.07208469 0.020355782 -0.029187642 0.040599834
000100 c3 e8 79 3d b8 17 53 3d 8f 6a 38 ba 73 e5 32 3d
       0.061012994 0.05153629 -0.00070349214 0.04367585
000110 ac de 46 3d f0 69 1f bd 9b 8c 09 3d fd 4c f6 3b
       0.0485522 -0.03891939 0.033581357 0.007516502
000120 31 18 37 bd 4f 4e 3d 3d c3 2e 6f bd 23 a3 50 bd
       -0.044700805 0.04621726 -0.058394205 -0.05093683
000130 0e f6 4d bd e8 bb de bc 7f 02 3a 3b 38 30 20 bd
       -0.050283484 -0.02718921 0.0028382835 -0.039108485
000140 30 0c 86 bd 9b 30 50 3d 43 77 ee bb 03 6f 56 3d
       -0.06545293 0.050827604 -0.0072774007 0.052351963
000150 a0 87 02 bd 6b f7 68 3c b8 56 02 3d d9 ca 07 bd
       -0.031867623 0.014219145 0.031820983 -0.033152435
000160 c1 27 6e 3d ae 10 4f bd 19 39 54 3d 23 a3 56 bd
       0.05814338 -0.050553016 0.051812265 -0.052401673
000170 4a e4 ac 3c d5 91 2b bd be fc bb 3c e1 56 d0 3b
       0.02110495 -0.041887123 0.022947665 0.006358013
000180 2f 86 6f bd dd 85 03 3c c8 95 ee bc 2a 84 38 bb
       -0.058477577 0.008027521 -0.029124156 -0.0028154948
000190 55 6c 42 bd 14 2b 1a 3d d1 7f 35 3d 7a 81 47 bc
       -0.047466595 0.03763874 0.04431135 -0.012176866
0001a0 a5 5d d9 3c a9 78 96 3c 34 46 91 bc 9a b5 9e bc
       0.026533911 0.018368082 -0.01773367 -0.019373704
0001b0 7d 3c 70 bd 31 bc 7e 39 7b 37 57 bb d6 07 bf 3b
       -0.058651436 0.00024293434 -0.0032839465 0.0058297915
0001c0 00 b2 23 bd de 36 54 3d ac 75 80 3d 2b d5 f4 3c
       -0.039964676 0.051810138 0.06272444 0.029886803
0001d0 74 a0 5d bc dc c2 82 bd fe 52 42 3b 02 8d 08 bd
       -0.013527025 -0.06384823 0.0029651518 -0.0333376
0001e0 9d e1 ea bc f4 50 cc bb 8e 73 09 bd 58 1b 02 bd
       -0.028672034 -0.0062352363 -0.033557467 -0.03176436
0001f0 32 84 2e 3b ab b1 82 3d 8d 3b 3a 3d fb 4c e8 3c
       0.0026629088 0.06381544 0.04546695 0.02835702

discrete.weight f4 [2, 128]
000000 69 ab a0 bd 63 14 ab 3d c6 67 4e bd 56 6f a3 bd
       -0.07845194 0.08353498 -0.050391935 -0.0798022
000010 0b bb 4b bd 3a 9d bc 3c 4b 5a 1a bd 81 57 40 bc
       -0.049738925 0.02302419 -0.037683766 -0.011739613
000020 ac 49 9f bd 16 48 55 3c f6 cb b9 3c 37 77 09 3d
       -0.07777724 0.013017675 0.022680264 0.033560958
000030 ee 8b 9f bd 7e a3 ea 3b 68 46 24 3d 2f 95 09 3d
       -0.07790361 0.007160603 0.040106207 0.03358954
000040 60 ea 81 3c e1 ca 44 3c b8 b5 20 bd 9f b8 2f bd
       0.015858829 0.012011261 -0.0392358 -0.042900678
000050 2a 85 7d bd be ff 46 3d 7d 40 b3 bd 01 1f 82 3d
       -0.061894573 0.04858374 -0.087525345 0.0635357
000060 9c 9a 2f bd 34 d4 84 bc 5a ae a9 3c 3f 2e 88 3b
       -0.042872056 -0.016214468 0.02071302 0.0041559036
000070 f0 16 d5 3c 1d 27 5b bd 26 3e 9f 3c 41 4e a6 3d
       0.026011914 -0.0535041 0.019438814 0.081203945
000080 f0 0b 85 ba 31 04 85 bd 5d a4 5d 3d 8a b7 40 3d
       -0.0010150652 -0.0649494 0.054111827 0.047050036
000090 47 b7 1c 3d 50 4e 3a bc 41 de 67 3d 49 bf 62 3d
       0.038260724 -0.01137121 0.056608442 0.055358205
0000a0 53 d3 ab 3d 93 13 d1 3c 80 7c 63 bd e6 b8 ed bc
       0.08389916 0.025522029 -0.055538654 -0.02901883
0000b0 eb 40 af 3d 1f 20 9b bd 96 96 49 3c 27 0d 79 bd
       0.08557304 -0.07574486 0.012303969 -0.06080356
0000c0 e8 a1 36 3b 07 10 02 bd 12 23 39 3d 07 17 14 3d
       0.00278675 -0.031753566 0.04519946 0.036154773
0000d0 84 7b 5b 3d bf 57 34 3d 6b f1 61 bd c5 d1 ab bd
       0.05358459 0.044028994 -0.055161875 -0.0838962
0000e0 b3 eb 86 3d f5 2e 49 bd 82 7a 3c 3d 7e 2d f6 bc
       0.06587925 -0.049117047 0.04601527 -0.03005099
0000f0 ab 74 a2 bc 0e 5a 1e bd bf 67 22 bd b2 14 03 3d
       -0.019831022 -0.0386601 -0.03964972 0.03200216
000100 03 b9 68 3c cd d3 1e 3d 34 cc 85 3d 57 de 74 3d
       0.0142042665 0.038776208 0.06533089 0.059782352
000110 bf 03 53 bb b1 d6 79 bc cc 2d ad bb b3 8e 93 bd
       -0.0032198278 -0.01524894 -0.0052850004 -0.07204952
000120 46 7d f6 3c 83 f3 8d bd b3 87 14 3d e6 15 dd 3c
       0.030089032 -0.06931212 0.036262225 0.026987981
000130 43 7f 56 bc 00 66 d0 bc ed b3 18 bd e5 c4 95 3d
       -0.013091865 -0.025439262 -0.037280966 0.07312945
000140 9f 14 f4 3c 93 8e e1 bb 35 8b b9 3c 38 4f b6 3c
       0.02979499 -0.0068834512 0.022649387 0.022254571
000150 9a cd 12 3d 8c 2b 1e 3d 30 19 7a bd 57 b4 a4 bd
       0.03584061 0.03861575 -0.061059177 -0.080422096
000160 b9 96 37 bd e5 8f 88 bd c7 58 84 bd 1f df 36 bd
       -0.044821475 -0.06668071 -0.064622454 -0.04464638
000170 44 ff 2c bd 1c 4f 53 3d 2c 98 8e bd fa 7a cd 3c
       -0.042235628 0.051589116 -0.06962618 0.025083054
000180 5c bc 7b 3c 96 ad 57 3d 89 35 38 3c c4 ef 7b 3d
       0.015364733 0.05265578 0.0112432325 0.061507955
000190 5b 18 5a bd 2a 77 2f 3d b1 d9 90 bd 27 7e f3 bc
       -0.053245883 0.042838253 -0.07072771 -0.02972324
0001a0 f2 3a 2a 3d 5b c3 fa 3c b4 80 4f 3c a2 50 84 3d
       0.04156012 0.03061073 0.012664963 0.06460692
0001b0 d1 13 94 bd 06 5d b2 3c 9b b2 84 bd 0c 39 10 3d
       -0.07230342 0.021772873 -0.06479379 0.035210654
0001c0 bf 9d 6f bd 6a 9b 95 bd d4 9d 90 3b e4 a8 fb bb
       -0.058500048 -0.073050335 0.004413346 -0.0076800454
0001d0 72 89 80 3d 02 10 99 3d 3f 86 98 bc aa 9e b6 3c
       0.062762156 0.074737564 -0.018618701 0.022292454
0001e0 54 c6 76 3d 31 d1 85 3d 48 85 2b bd 8a 44 b2 3c
       0.060247734 0.06534041 -0.041875154 0.021761198
0001f0 d3 1c 17 bd 84 14 23 3b 69 60 8e bd 7d 7f 02 bd
       -0.036892723 0.0024884054 -0.069519825 -0.031859864
000200 0a 94 29 3d bf 9b 79 3d 06 2d 66 bd 4f 79 11 bc
       0.041400947 0.060939547 -0.05619528 -0.00887902
000210 27 28 6e 3d 4c 1e 90 3d eb 7b a3 bc bf c2 36 3d
       0.05814376 0.07037029 -0.01995655 0.044619318
000220 15 91 a4 bc e0 4b 84 3d e9 b0 11 39 ae 42 96 3d
       -0.020088712 0.064597845 0.00013894182 0.07336937
000230 ab b4 ad 3d 25 fd 86 3d b4 97 dd bb 8d 45 85 bd
       0.08481725 0.06591252 -0.006762469 -0.065074064
000240 95 79 a9 bd ce 69 23 bd 05 46 3a 3d a7 b9 a7 bc
       -0.08275143 -0.039895825 0.045476932 -0.020474268
000250 3c cf 24 3d 78 d8 6a 3d 71 7d 92 3d 8d 50 8f 3d
       0.040236697 0.057335347 0.07152832 0.06997786
000260 ea ac 5a 3d 4e 1e d2 bc be ce c3 3c 18 cb 83 bc
       0.05338756 -0.025649216 0.023902293 -0.016088054
000270 6a 3e 98 bd ed a3 af 3b 9b 98 95 bc 1b 94 10 3d
       -0.074337795 0.0053601176 -0.018261245 0.035297494
000280 06 7e f8 bc 32 57 1a 3d f8 fa e9 39 06 f4 38 bd
       -0.03033353 0.037680812 0.0004462821 -0.045154594
000290 67 b5 87 bd 48 4e 5a bc e7 dc 21 bd 48 dd b9 bc
       -0.066263966 -0.013324328 -0.03951731 -0.022688523
0002a0 16 8e 2c bd 72 47 dd bc 6f 52 85 bd 46 f1 5d bd
       -0.04212769 -0.027011607 -0.065098636 -0.054185174
0002b0 c6 75 a6 bd 74 18 77 bd 9f 93 1d 3b f4 a5 81 bd
       -0.08127932 -0.060326055 0.0024044288 -0.06330481
0002c0 54 31 ec 3c 93 74 8a bd 60 80 90 bd 52 c0 9e 3d
       0.028832115 -0.06760516 -0.070557356 0.07751526
0002d0 a4 9f 73 3d 23 e1 52 bc 74 1d 4a 3d f4 0c 9a 3d
       0.059478417 -0.01287106 0.049344495 0.07522002
0002e0 b9 7e 81 bd 05 8d 58 3d 16 1a e8 3b 8e 0e 2a 3d
       -0.063229986 0.05286886 0.007083188 0.041517787
0002f0 6b 57 4a bd 16 71 8a bd 30 39 59 3d cf 68 b3 bc
       -0.049399775 -0.06759851 0.053033054 -0.021900563
000300 13 6b e9 bc c5 bd 8a bd 0b 61 83 ba 4c a2 aa bd
       -0.02849344 -0.06774477 -0.0010023428 -0.08331737
000310 b3 3c b2 3c ed 99 17 3c af 08 f5 3c f8 27 9a 3d
       0.02175746 0.009253007 0.029911367 0.07527155
000320 d2 c1 3e bd e5 b0 a5 3d 32 87 59 bc c3 02 2d bc
       -0.04657156 0.080903806 -0.013276862 -0.0105597405
000330 51 b4 37 bd f7 c5 c6 3c 2e d1 5e bd 54 46 80 3d
       -0.044849698 0.024264319 -0.054398708 0.06263414
000340 ba 2f 19 bd 3b 60 33 3c 73 10 15 bd 28 c1 ff bb
       -0.03739903 0.010948236 -0.03639264 -0.0078050084
000350 d7 3b c3 bc 9c 62 a8 bd ad e9 0b 3d 27 b3 aa bd
       -0.023832245 -0.08221933 0.034158397 -0.08334952
000360 70 27 44 3d f6 3b 4d 3d 68 43 e9 bc 77 cf 5c bc
       0.047889173 0.05010601 -0.028474525 -0.013477198
000370 98 5a b1 bd ea 0b 1d 3c 3b a2 a6 bc 19 4b 34 bd
       -0.086598575 0.00958536 -0.02034103 -0.04401693
000380 7c 3c f1 3c f8 16 d4 3c 55 ef 99 bd 5b e5 1f bd
       0.029447787 0.025889859 -0.07516352 -0.03903709
000390 41 45 86 3d c4 5d 77 bd 52 bb ef bc d0 56 57 3d
       0.06556178 -0.060392156 -0.029264126 0.052573025
0003a0 b9 dc b7 3b 1e ff 2c 3d fa cb 5a bd 03 ab 9a bd
       0.005611029 0.042235486 -0.053417183 -0.07552149
0003b0 47 75 91 bd f0 6d 9f bd eb 82 85 3d cd ef db 3c
       -0.07102447 -0.07784641 0.06519111 0.026847744
0003c0 be 90 bc 3d ae 04 ec bc 4d fd 8e bd 72 31 4c 3d
       0.09207295 -0.028810825 -0.06981907 0.049851842
0003d0 98 d0 ae bd c7 ad 6b 3c 98 b3 2b 3c ad 58 2b 3d
       -0.0853588 0.0143846935 0.01047983 0.041832615
0003e0 88 12 91 3c 85 9e 0a bd 89 c7 6c bd 7e c5 28 3d
       0.017709032 -0.033842582 -0.05780748 0.04120397
0003f0 37 27 9f 3d 32 0e 56 bd 6f 52 99 3d 08 19 62 bd
       0.077711515 -0.05225963 0.07486426 -0.055199653

discrete.bias f4 [2]
000000 98 9a b4 bd 46 56 a5 bd
       -0.08818549 -0.08073096
