s10lre4e3CCM_MADRL_MEC/model/PDQN/8-continue_actors.pth (torch, 147199 bytes, 10 tensors)

fc1.weight f4 [256, 7]
0	0xbd38c1a0	-0.04510653
1	0x3d813034	0.06308022
2	0x3eb98159	0.36231497
3	0xbea5fedf	-0.32421014
4	0xbdf7aa5c	-0.1209304
5	0xbd6dc730	-0.058051288
6	0xbe0db832	-0.13839796
7	0xbe83f8e1	-0.25775817
8	0x3eaa5cad	0.3327383
9	0xbebfb976	-0.37446183
10	0xba6fd400	-0.0009148717
11	0xbbfbb2c0	-0.007681221
12	0x3da64700	0.08119011
13	0x3e0cd31e	0.1375241
14	0xbe47c65c	-0.19509262
15	0x3e695f7e	0.22790334
16	0x3eb62db9	0.3558176
17	0xbdf447e0	-0.119277716
18	0x3eb862f5	0.36012998
19	0xbec1560f	-0.3776097
20	0x3c997ea0	0.018737137
21	0x3ebae11d	0.36499873
22	0x3e95c7bf	0.29253957
23	0xbb97fd80	-0.004638374
24	0x3ebabb91	0.36471227
25	0x3e73aeae	0.23797104
26	0xbd122d68	-0.035687834
27	0xbd9c5c54	-0.07634798
28	0xbeb133ac	-0.34609735
29	0xbda1a118	-0.07892054
30	0x3e2ab276	0.1666964
31	0x3e63329e	0.22187278
32	0xbea3ad06	-0.31967944
33	0xbd1d6380	-0.03842497
34	0xbebe7a42	-0.3720265
35	0x3e163052	0.1466687
36	0xbeb78e85	-0.3585092
37	0x3e41288e	0.18863127
38	0x3e262146	0.1622363
39	0x3e506596	0.20351252
40	0xbd2d3e20	-0.042295575
41	0x3eab0d4d	0.33408585
42	0xbe8dcf60	-0.27697277
43	0x3d97a0ac	0.074036926
44	0x3d287560	0.041127563
45	0x3e359b4e	0.17735025
46	0xbe78273a	-0.24233714
47	0x3e0fd242	0.1404505
48	0x3ea52929	0.32257965
49	0x3e485a02	0.19565585
50	0xbea19e6a	-0.31566173
51	0xbe51322d	-0.20429297
52	0xbcdd3f90	-0.027007848
53	0x3e51c89e	0.20486686
54	0x3d893b9c	0.06700823
55	0xbdf67ac4	-0.120351344
56	0xbe4af106	-0.19818506
57	0xbe07327a	-0.13202849
58	0xbde4f334	-0.111792
59	0x3e80942b	0.25113043
60	0x3d913a78	0.0709123
61	0xbe86075f	-0.261775
62	0x3e819303	0.25307474
63	0x3e9defd1	0.30847028
64	0xbe900c4e	-0.28134388
65	0x3ea6e755	0.32598367
66	0x3eab610d	0.3347248
67	0xbe7785df	-0.24172162
68	0x3e4c27c6	0.19937047
69	0xbe12f8a9	-0.14352669
70	0x3e00c5c2	0.12575439
71	0x3e8c4ded	0.27403203
72	0x3dd888fc	0.10573003
73	0x3e02ab1a	0.12760583
74	0x3e3df57a	0.18550673
75	0x3e46b44e	0.19404718
76	0xbea35740	-0.31902504
77	0x3eac247b	0.33621582
78	0xbe2247bd	-0.15847678
79	0xbdac485c	-0.08412239
80	0x3e6d3c72	0.2316759
81	0xbe53decf	-0.20690463
82	0x3e7f2aee	0.2491872
83	0x3e1ddca6	0.15416202
84	0x3e44735a	0.19184628
85	0xbe8eb948	-0.27875733
86	0x3dfcfa14	0.12352386
87	0xbe9fab14	-0.3118521
88	0xbdde2a08	-0.108478606
89	0xbe003ef0	-0.12524009
90	0x3d154cb8	0.036450118
91	0x3e553d06	0.2082406
92	0x3e940a39	0.2891405
93	0xbdfe6bec	-0.12422928
94	0xbeb9f640	-0.36320686
95	0x3de065f0	0.10956943
96	0xbdd9a380	-0.10626888
97	0xbe7170b5	-0.2357815
98	0xbe5a2137	-0.21301733
99	0xbe96f0c4	-0.29480565
100	0x3e8d10dd	0.27551928
101	0xbe4174cd	-0.18892212
102	0x3e80a25b	0.25123867
103	0x3d368ca8	0.044567734
104	0x3d3c0498	0.04590282
105	0x3e4c3ada	0.19944325
106	0x3e2a540a	0.16633621
107	0xbe06d27a	-0.13166228
108	0xbe4b950c	-0.19881076
109	0x3dff6ca4	0.124718934
110	0xbd4a99b0	-0.049462974
111	0xbe6359fb	-0.22202294
112	0x3b3b6e00	0.00285995
113	0xbd80f36c	-0.06296429
114	0x3e9931f1	0.29920915
115	0xbde34b90	-0.11098397
116	0xbe4c75ff	-0.19966887
117	0xbe66bc22	-0.22532704
118	0x3cdca150	0.026932389
119	0xbe30dfb2	-0.17272833
120	0xbeb935aa	-0.36173755
121	0xbe4ca605	-0.19985206
122	0xbdea8b58	-0.11452359
123	0x3e5da0aa	0.2164332
124	0xbea04b03	-0.3130723
125	0x3e92e09d	0.2868699
126	0xbeacf9be	-0.33784288
127	0xbdbdec98	-0.09273642
128	0x3e80cd71	0.2515674
129	0xbeb68b22	-0.35653025
130	0xbe931747	-0.28728697
131	0xbe2a0d77	-0.16606699
132	0x3d966e48	0.07345253
133	0xbea59dbf	-0.32346913
134	0x3ea30161	0.3183699
135	0xbe7d6148	-0.24744141
136	0xbabf5800	-0.001459837
137	0x3ebf4b11	0.3736196
138	0xbe0103be	-0.12599084
139	0xbe894eec	-0.26818025
140	0xbe49db41	-0.19712545
141	0xbd94ff10	-0.07275212
142	0x3e4595a2	0.19295362
143	0x3da61ae0	0.08110595
144	0xbe32b612	-0.17452267
145	0x3cf199d0	0.029492289
146	0x3e55523a	0.20832148
147	0xbdafe550	-0.0858866
148	0x3eba25fd	0.36357108
149	0x3e045316	0.1292232
150	0xbe6ced75	-0.23137458
151	0x3e81b61f	0.2533426
152	0x3cb91300	0.022592068
153	0xbd219c60	-0.03945577
154	0xbd8231a8	-0.063571274
155	0xba5fee00	-0.00085422397
156	0xbdeb1b9c	-0.114798754
157	0x3d27a9b0	0.04093331
158	0x3e928171	0.2861438
159	0x3e4ee936	0.2020615
160	0xbebc08ad	-0.3672537
161	0x3e849feb	0.25903258
162	0x3da4ff7c	0.08056542
163	0xbe1a8ef6	-0.15093598
164	0xbe365a88	-0.17807972
165	0xbddc4f5c	-0.10757324
166	0x3e7bb786	0.24581727
167	0xbe36c55e	-0.17848727
168	0xbe87bfc2	-0.26513487
169	0xbe399bfb	-0.18125908
170	0xbe0331aa	-0.12811914
171	0x3e91c6bd	0.28471938
172	0xbd0532b0	-0.032519042
173	0x3d56e908	0.05246833
174	0xbddd8c60	-0.1081779
175	0xbebb323a	-0.36561757
176	0x3e55fd56	0.20897421
177	0x3da0c238	0.07849544
178	0xbe62d3a9	-0.22151054
179	0x3ebe2145	0.37134758
180	0xbe654c87	-0.22392474
181	0x3dcec30c	0.10095796
182	0xbeb80caf	-0.35947177
183	0x3cd9e110	0.026596576
184	0x3e2cbaae	0.16868088
185	0x3e135b56	0.1439031
186	0x3cef7fa0	0.029235661
187	0xbdfa9f1c	-0.12237379
188	0x3e64258e	0.22279951
189	0x3e16ac76	0.14714226
190	0x3dacea94	0.0844318
191	0xbeb61c53	-0.35568485
192	0xbe0d80c1	-0.13818647
193	0xbe34c75a	-0.17654172
194	0xbcd4f630	-0.025996298
195	0xbd4039b0	-0.046930015
196	0x3e945e09	0.28977993
197	0xbe91f719	-0.28508833
198	0xbe394843	-0.18093972
199	0xbde3e970	-0.11128509
200	0xbca306a0	-0.01990062
201	0xbe478670	-0.19484878
202	0x3e48b73a	0.19601145
203	0xbeb8a75e	-0.3606519
204	0x3e25e236	0.16199574
205	0xbcc02b60	-0.023458183
206	0x3ead3f4f	0.33837363
207	0xbe67e9f9	-0.22647847
208	0xbe4e893d	-0.2016954
209	0xbeb7e346	-0.35915583
210	0x3e79845a	0.24366894
211	0xbd1ee6d0	-0.03879434
212	0xbea98f68	-0.33117223
213	0x3e0763be	0.13221642
214	0xbebe7b84	-0.3720361
215	0xbe4c0f8b	-0.19927804
216	0xbea5d5f8	-0.32389808
217	0x3ea693a3	0.32534513
218	0xbe1ef48a	-0.15522972
219	0xbe6b13fa	-0.22956839
220	0x3e1844d6	0.14870009
221	0x3dc412d0	0.09573901
222	0xbe891c40	-0.26779366
223	0xbe89fd3d	-0.26951018
224	0x39d3ec00	0.0004042089
225	0x3eb8c40f	0.3608708
226	0x3eba1ff7	0.36352512
227	0xbeb8d457	-0.36099502
228	0xbe99e543	-0.30057725
229	0xbe41ef34	-0.18938905
230	0xbeb35438	-0.3502519
231	0x3d4188c0	0.047249556
232	0x3e34dd92	0.17662647
233	0x3eaae47d	0.33377448
234	0x3d159500	0.03651905
235	0x3e4ddbce	0.2010338
236	0x3dab0864	0.0835121
237	0x3e5f2376	0.21790871
238	0x3e2583ee	0.16163608
239	0x3e6d7b5e	0.23191592
240	0xbe8e32fb	-0.2777327
241	0x3eb8d839	0.36102465
242	0x3eaa966d	0.3331789
243	0xbe35a311	-0.17737986
244	0x3da43680	0.080182076
245	0x3e2e1f02	0.17004016
246	0x3de2b788	0.11070162
247	0xbdc101d4	-0.09424177
248	0x3e888f73	0.26671943
249	0xbe10dc78	-0.14146602
250	0x3c744e00	0.014911175
251	0x3d930908	0.07179457
252	0xbe1d25f6	-0.15346512
253	0x3e58e176	0.21179757
254	0xbe774e59	-0.24150981
255	0x3d609a80	0.054834843

fc1.bias f4 [256]
0	0xbeb415ef	-0.35172984
1	0x3dac0a44	0.084003955
2	0xbe90771d	-0.28215876
3	0x3e8ba411	0.2727361
4	0xbe667672	-0.22506121
5	0xbe68001c	-0.22656292
6	0x3e19fea2	0.15038541
7	0xbd8f6b18	-0.070028484
8	0xbde8b2c4	-0.11362222
9	0x3e889e1f	0.26683137
10	0x3eb0ebd9	0.34554937
11	0xbeba3f0f	-0.36376235
12	0x3db84704	0.0899792
13	0xbeb6a932	-0.3567596
14	0x3e40b35a	0.18818417
15	0xbd3d5698	-0.04622516
16	0x3e8ef279	0.27919367
17	0x3e66670e	0.2250025
18	0xbd6dba60	-0.05803907
19	0x3e36aab2	0.17838553
20	0xbc332600	-0.010934353
21	0x3eba3709	0.36370113
22	0xbe911a42	-0.28340346
23	0x3e093b6a	0.13401571
24	0xbeb93802	-0.36175543
25	0xbe752544	-0.23939997
26	0x3e80aaa1	0.2513018
27	0x3e4f6e86	0.20257005
28	0xbe3f8e57	-0.18706642
29	0xbe27dcc1	-0.16392805
30	0xbe3021d4	-0.17200404
31	0x3d25ea98	0.04050693
32	0x3eadb0b5	0.3392388
33	0x3d630168	0.055421263
34	0xbe33b4b6	-0.17549405
35	0x3dfbab44	0.12288526
36	0xbe565988	-0.20932591
37	0x3d81648c	0.06318006
38	0xbea5773d	-0.32317534
39	0xbe4fcf32	-0.20293882
40	0x3ea82825	0.32843128
41	0xbebdb177	-0.37049457
42	0x3ebcaeb3	0.36852035
43	0x3da231b0	0.079196334
44	0x3ddca2e4	0.107732564
45	0x3e9f2713	0.310845
46	0x3d24f5e0	0.040273547
47	0xbe496545	-0.19667538
48	0xbe1a35f4	-0.15059644
49	0x3d675f10	0.056487143
50	0xbe9ad025	-0.30236927
51	0x3e19dc76	0.15025505
52	0xbeb04ab0	-0.34431982
53	0xbe921704	-0.28533185
54	0xbea8ab2b	-0.3294309
55	0xbd41c938	-0.047311038
56	0x3cae3c90	0.021269113
57	0xbd958b24	-0.073019296
58	0x3e37d4c6	0.1795226
59	0x3e3791d2	0.1792672
60	0xbeb3a291	-0.35084966
61	0x3e2c4586	0.16823396
62	0xbe853621	-0.2601786
63	0xbd86f220	-0.065891504
64	0x3e6d81f6	0.23194107
65	0xbe4836bc	-0.1955213
66	0xbeaf8e88	-0.3428843
67	0xbeb70c5c	-0.35751617
68	0xbe9bc6ff	-0.3042526
69	0x3dd41be4	0.10356882
70	0x3eb0b18b	0.34510455
71	0x3eb1c1c9	0.3471816
72	0x3ec14c3f	0.37753484
73	0x3daaadb0	0.083339095
74	0x3df823ec	0.121162266
75	0x3e2bd39e	0.16779944
76	0x3e504b7a	0.20341292
77	0xbea6f235	-0.32606664
78	0x3e07e39e	0.13270423
79	0x3e3bcd76	0.18340096
80	0xbe30e4a8	-0.17274725
81	0x3dad4178	0.08459753
82	0xbe25ff68	-0.16210711
83	0x3ec11a9d	0.37715617
84	0xbeab98f6	-0.33515137
85	0x3ebfe6c5	0.3748075
86	0xbbe1cd40	-0.006890923
87	0xbe45f053	-0.19329958
88	0x3ea42e8b	0.3206676
89	0x3eaecff7	0.3414304
90	0xbe834c3d	-0.25644103
91	0x3ebdfce9	0.37107018
92	0xbd838e50	-0.06423628
93	0xbb8e20c0	-0.0043374
94	0x3d118d48	0.035535127
95	0xbe6de8d4	-0.23233348
96	0x3e903771	0.28167298
97	0x3eb63dbf	0.35593984
98	0xbe8dcdcb	-0.2769607
99	0x3eb2396f	0.34809443
100	0xbeaf5090	-0.34241152
101	0xbeacf961	-0.3378401
102	0xbdc07558	-0.093973815
103	0x3d53f478	0.051746815
104	0x3eabd6ef	0.3356242
105	0xbe9b241b	-0.30300984
106	0x3ce985d0	0.02850619
107	0x3e1b1616	0.15145144
108	0xbe707cc4	-0.23485094
109	0x3d50cd00	0.050976753
110	0x3e17417e	0.14771077
111	0xbe9537e4	-0.29144204
112	0x3e25ebaa	0.1620318
113	0x3e713122	0.23553899
114	0xbe90c762	-0.28277117
115	0x3e1bb7a6	0.15206775
116	0xbdc28dd0	-0.09499705
117	0xbda83a2c	-0.082142204
118	0x3e8ed2d5	0.27895227
119	0x3de817cc	0.11332664
120	0xbeb5e357	-0.3552501
121	0xbeb58531	-0.3545318
122	0xbe86ac6a	-0.26303416
123	0xbe5a7553	-0.21333818
124	0x3eb4d855	0.35321298
125	0xbe1c5bad	-0.15269347
126	0xbea96e37	-0.330919
127	0x3d92d548	0.071695864
128	0x3e9649c9	0.2935317
129	0xbe5ae9b9	-0.2137822
130	0x3de17780	0.11009121
131	0xbcb93540	-0.0226084
132	0xbe29e5be	-0.16591546
133	0x3e62ccfa	0.22148505
134	0xbdb14f14	-0.08657661
135	0xbe3b071f	-0.18264435
136	0x3eb0add7	0.3450763
137	0x3e72d402	0.23713687
138	0x3e9e1853	0.30877933
139	0xbcd35b70	-0.025800437
140	0x3e99763d	0.2997302
141	0xbea4be76	-0.3217656
142	0xbdf02a88	-0.11726862
143	0x3e7f605e	0.24939105
144	0x3eb9b6ef	0.3627238
145	0x3c8ea030	0.017410368
146	0x3c520e00	0.012820721
147	0x3ea48237	0.32130596
148	0xbdb62090	-0.088929296
149	0x3e18a68a	0.1490728
150	0xbd0eba28	-0.0348455
151	0x3e40531a	0.187817
152	0x3e8fef21	0.28112128
153	0xbe476e51	-0.19475676
154	0x3e595a9a	0.21225968
155	0xbd379ad0	-0.044825375
156	0x3cd9ae40	0.026572347
157	0xbe04614c	-0.12927741
158	0xbe4364d5	-0.19081433
159	0xbea6a988	-0.32551217
160	0x3dc5ba94	0.096547276
161	0x3eac125f	0.33607766
162	0xbd60a110	-0.0548411
163	0x3d8e6968	0.069536984
164	0xbd27cf08	-0.040968925
165	0x3cad7d10	0.021177799
166	0xbdd23890	-0.10264695
167	0xbe65c87d	-0.22439761
168	0xbe34e591	-0.17665698
169	0x3e392532	0.18080595
170	0xbeb18bd7	-0.34677002
171	0xbe50e218	-0.20398748
172	0x3e935e57	0.28782913
173	0xbcb19590	-0.021677762
174	0x3e82178f	0.254086
175	0x3e3224f6	0.17396912
176	0xbe9502d0	-0.29103708
177	0xbd0b8300	-0.03406048
178	0x3e60a6f2	0.21938685
179	0x3ea2355d	0.31681338
180	0x3e53135e	0.20612857
181	0x3c410620	0.0117812455
182	0xbeb9c891	-0.36285833
183	0xbddddcd8	-0.10833138
184	0xbd677ea8	-0.056517273
185	0xbe96e401	-0.29470828
186	0x3e961737	0.29314587
187	0xbe5d0a65	-0.21585996
188	0xbe3a573a	-0.18197337
189	0xbe60e855	-0.21963628
190	0xbb976840	-0.004620582
191	0x3dd675b4	0.10471669
192	0xbc6e4720	-0.014543325
193	0x3daf3634	0.0855526
194	0xbd79da08	-0.060998946
195	0xbe21ca57	-0.15799843
196	0xbebb2f7e	-0.3655967
197	0xbd46d110	-0.04853922
198	0x3dc4fd80	0.09618664
199	0xbe802567	-0.25028536
200	0xbe8b0571	-0.2715259
201	0xbe7a4699	-0.24440993
202	0xbe53213a	-0.20618144
203	0xbe871373	-0.26382026
204	0xbebbab5c	-0.36654174
205	0xbe36834b	-0.17823522
206	0x3eb8ec2d	0.36117688
207	0x3d1de498	0.038548082
208	0xbe833d06	-0.25632495
209	0x3cfff630	0.031245321
210	0x3e8e72a7	0.27821848
211	0xbebd50e7	-0.36975786
212	0x3de3841c	0.11109182
213	0xbe925700	-0.28582
214	0x3e681d32	0.22667387
215	0x3e23f662	0.16011956
216	0x3eac92d7	0.3370578
217	0xbeac90da	-0.33704263
218	0x3e776e96	0.24163279
219	0x3e89ef03	0.26940164
220	0xbeae676b	-0.34063277
221	0xbe0c3170	-0.13690734
222	0x3ea690ab	0.32532248
223	0xbe50844d	-0.20362969
224	0x3cfbf780	0.030757666
225	0xbb8701c0	-0.0041200817
226	0x3d6e72b8	0.058214873
227	0xbdcbf23c	-0.09958312
228	0xbe6b825a	-0.22998944
229	0x3dca9c04	0.09893039
230	0xbe09677a	-0.1341838
231	0xbea614f4	-0.3243786
232	0x3eb621dd	0.3557271
233	0xbce9a8b0	-0.02852282
234	0xbe2168bb	-0.15762608
235	0x3e0defd2	0.13861015
236	0x3dfa65cc	0.122264475
237	0x3e866f1d	0.26256648
238	0x3ebe3f13	0.37157497
239	0x3ddde540	0.108347416
240	0xbd1a77e0	-0.037711978
241	0xbe5a1053	-0.2129529
242	0x3d936a98	0.071980655
243	0xb9c4d400	-0.00037541986
244	0xbe464c14	-0.19364959
245	0x3ebd7737	0.37005016
246	0xbdffab60	-0.12483859
247	0xbc81b520	-0.015833437
248	0x3ec05655	0.37565866
249	0x3af5db00	0.0018757284
250	0xbe766736	-0.2406281
251	0x3d9acae8	0.075582325
252	0x3d89c440	0.06726885
253	0xbe092ee0	-0.13396788
254	0x3e93e6a7	0.2888691
255	0x3e9afec5	0.302725

ln1.weight f4 [256]
0	0x3f800000	1.0
1	0x3f800000	1.0
2	0x3f800000	1.0
3	0x3f800000	1.0
4	0x3f800000	1.0
5	0x3f800000	1.0
6	0x3f800000	1.0
7	0x3f800000	1.0
8	0x3f800000	1.0
9	0x3f800000	1.0
10	0x3f800000	1.0
11	0x3f800000	1.0
12	0x3f800000	1.0
13	0x3f800000	1.0
14	0x3f800000	1.0
15	0x3f800000	1.0
16	0x3f800000	1.0
17	0x3f800000	1.0
18	0x3f800000	1.0
19	0x3f800000	1.0
20	0x3f800000	1.0
21	0x3f800000	1.0
22	0x3f800000	1.0
23	0x3f800000	1.0
24	0x3f800000	1.0
25	0x3f800000	1.0
26	0x3f800000	1.0
27	0x3f800000	1.0
28	0x3f800000	1.0
29	0x3f800000	1.0
30	0x3f800000	1.0
31	0x3f800000	1.0
32	0x3f800000	1.0
33	0x3f800000	1.0
34	0x3f800000	1.0
35	0x3f800000	1.0
36	0x3f800000	1.0
37	0x3f800000	1.0
38	0x3f800000	1.0
39	0x3f800000	1.0
40	0x3f800000	1.0
41	0x3f800000	1.0
42	0x3f800000	1.0
43	0x3f800000	1.0
44	0x3f800000	1.0
45	0x3f800000	1.0
46	0x3f800000	1.0
47	0x3f800000	1.0
48	0x3f800000	1.0
49	0x3f800000	1.0
50	0x3f800000	1.0
51	0x3f800000	1.0
52	0x3f800000	1.0
53	0x3f800000	1.0
54	0x3f800000	1.0
55	0x3f800000	1.0
56	0x3f800000	1.0
57	0x3f800000	1.0
58	0x3f800000	1.0
59	0x3f800000	1.0
60	0x3f800000	1.0
61	0x3f800000	1.0
62	0x3f800000	1.0
63	0x3f800000	1.0
64	0x3f800000	1.0
65	0x3f800000	1.0
66	0x3f800000	1.0
67	0x3f800000	1.0
68	0x3f800000	1.0
69	0x3f800000	1.0
70	0x3f800000	1.0
71	0x3f800000	1.0
72	0x3f800000	1.0
73	0x3f800000	1.0
74	0x3f800000	1.0
75	0x3f800000	1.0
76	0x3f800000	1.0
77	0x3f800000	1.0
78	0x3f800000	1.0
79	0x3f800000	1.0
80	0x3f800000	1.0
81	0x3f800000	1.0
82	0x3f800000	1.0
83	0x3f800000	1.0
84	0x3f800000	1.0
85	0x3f800000	1.0
86	0x3f800000	1.0
87	0x3f800000	1.0
88	0x3f800000	1.0
89	0x3f800000	1.0
90	0x3f800000	1.0
91	0x3f800000	1.0
92	0x3f800000	1.0
93	0x3f800000	1.0
94	0x3f800000	1.0
95	0x3f800000	1.0
96	0x3f800000	1.0
97	0x3f800000	1.0
98	0x3f800000	1.0
99	0x3f800000	1.0
100	0x3f800000	1.0
101	0x3f800000	1.0
102	0x3f800000	1.0
103	0x3f800000	1.0
104	0x3f800000	1.0
105	0x3f800000	1.0
106	0x3f800000	1.0
107	0x3f800000	1.0
108	0x3f800000	1.0
109	0x3f800000	1.0
110	0x3f800000	1.0
111	0x3f800000	1.0
112	0x3f800000	1.0
113	0x3f800000	1.0
114	0x3f800000	1.0
115	0x3f800000	1.0
116	0x3f800000	1.0
117	0x3f800000	1.0
118	0x3f800000	1.0
119	0x3f800000	1.0
120	0x3f800000	1.0
121	0x3f800000	1.0
122	0x3f800000	1.0
123	0x3f800000	1.0
124	0x3f800000	1.0
125	0x3f800000	1.0
126	0x3f800000	1.0
127	0x3f800000	1.0
128	0x3f800000	1.0
129	0x3f800000	1.0
130	0x3f800000	1.0
131	0x3f800000	1.0
132	0x3f800000	1.0
133	0x3f800000	1.0
134	0x3f800000	1.0
135	0x3f800000	1.0
136	0x3f800000	1.0
137	0x3f800000	1.0
138	0x3f800000	1.0
139	0x3f800000	1.0
140	0x3f800000	1.0
141	0x3f800000	1.0
142	0x3f800000	1.0
143	0x3f800000	1.0
144	0x3f800000	1.0
145	0x3f800000	1.0
146	0x3f800000	1.0
147	0x3f800000	1.0
148	0x3f800000	1.0
149	0x3f800000	1.0
150	0x3f800000	1.0
151	0x3f800000	1.0
152	0x3f800000	1.0
153	0x3f800000	1.0
154	0x3f800000	1.0
155	0x3f800000	1.0
156	0x3f800000	1.0
157	0x3f800000	1.0
158	0x3f800000	1.0
159	0x3f800000	1.0
160	0x3f800000	1.0
161	0x3f800000	1.0
162	0x3f800000	1.0
163	0x3f800000	1.0
164	0x3f800000	1.0
165	0x3f800000	1.0
166	0x3f800000	1.0
167	0x3f800000	1.0
168	0x3f800000	1.0
169	0x3f800000	1.0
170	0x3f800000	1.0
171	0x3f800000	1.0
172	0x3f800000	1.0
173	0x3f800000	1.0
174	0x3f800000	1.0
175	0x3f800000	1.0
176	0x3f800000	1.0
177	0x3f800000	1.0
178	0x3f800000	1.0
179	0x3f800000	1.0
180	0x3f800000	1.0
181	0x3f800000	1.0
182	0x3f800000	1.0
183	0x3f800000	1.0
184	0x3f800000	1.0
185	0x3f800000	1.0
186	0x3f800000	1.0
187	0x3f800000	1.0
188	0x3f800000	1.0
189	0x3f800000	1.0
190	0x3f800000	1.0
191	0x3f800000	1.0
192	0x3f800000	1.0
193	0x3f800000	1.0
194	0x3f800000	1.0
195	0x3f800000	1.0
196	0x3f800000	1.0
197	0x3f800000	1.0
198	0x3f800000	1.0
199	0x3f800000	1.0
200	0x3f800000	1.0
201	0x3f800000	1.0
202	0x3f800000	1.0
203	0x3f800000	1.0
204	0x3f800000	1.0
205	0x3f800000	1.0
206	0x3f800000	1.0
207	0x3f800000	1.0
208	0x3f800000	1.0
209	0x3f800000	1.0
210	0x3f800000	1.0
211	0x3f800000	1.0
212	0x3f800000	1.0
213	0x3f800000	1.0
214	0x3f800000	1.0
215	0x3f800000	1.0
216	0x3f800000	1.0
217	0x3f800000	1.0
218	0x3f800000	1.0
219	0x3f800000	1.0
220	0x3f800000	1.0
221	0x3f800000	1.0
222	0x3f800000	1.0
223	0x3f800000	1.0
224	0x3f800000	1.0
225	0x3f800000	1.0
226	0x3f800000	1.0
227	0x3f800000	1.0
228	0x3f800000	1.0
229	0x3f800000	1.0
230	0x3f800000	1.0
231	0x3f800000	1.0
232	0x3f800000	1.0
233	0x3f800000	1.0
234	0x3f800000	1.0
235	0x3f800000	1.0
236	0x3f800000	1.0
237	0x3f800000	1.0
238	0x3f800000	1.0
239	0x3f800000	1.0
240	0x3f800000	1.0
241	0x3f800000	1.0
242	0x3f800000	1.0
243	0x3f800000	1.0
244	0x3f800000	1.0
245	0x3f800000	1.0
246	0x3f800000	1.0
247	0x3f800000	1.0
248	0x3f800000	1.0
249	0x3f800000	1.0
250	0x3f800000	1.0
251	0x3f800000	1.0
252	0x3f800000	1.0
253	0x3f800000	1.0
254	0x3f800000	1.0
255	0x3f800000	1.0

ln1.bias f4 [256]
0	0x00000000	0.0
1	0x00000000	0.0
2	0x00000000	0.0
3	0x00000000	0.0
4	0x00000000	0.0
5	0x00000000	0.0
6	0x00000000	0.0
7	0x00000000	0.0
8	0x00000000	0.0
9	0x00000000	0.0
10	0x00000000	0.0
11	0x00000000	0.0
12	0x00000000	0.0
13	0x00000000	0.0
14	0x00000000	0.0
15	0x00000000	0.0
16	0x00000000	0.0
17	0x00000000	0.0
18	0x00000000	0.0
19	0x00000000	0.0
20	0x00000000	0.0
21	0x00000000	0.0
22	0x00000000	0.0
23	0x00000000	0.0
24	0x00000000	0.0
25	0x00000000	0.0
26	0x00000000	0.0
27	0x00000000	0.0
28	0x00000000	0.0
29	0x00000000	0.0
30	0x00000000	0.0
31	0x00000000	0.0
32	0x00000000	0.0
33	0x00000000	0.0
34	0x00000000	0.0
35	0x00000000	0.0
36	0x00000000	0.0
37	0x00000000	0.0
38	0x00000000	0.0
39	0x00000000	0.0
40	0x00000000	0.0
41	0x00000000	0.0
42	0x00000000	0.0
43	0x00000000	0.0
44	0x00000000	0.0
45	0x00000000	0.0
46	0x00000000	0.0
47	0x00000000	0.0
48	0x00000000	0.0
49	0x00000000	0.0
50	0x00000000	0.0
51	0x00000000	0.0
52	0x00000000	0.0
53	0x00000000	0.0
54	0x00000000	0.0
55	0x00000000	0.0
56	0x00000000	0.0
57	0x00000000	0.0
58	0x00000000	0.0
59	0x00000000	0.0
60	0x00000000	0.0
61	0x00000000	0.0
62	0x00000000	0.0
63	0x00000000	0.0
64	0x00000000	0.0
65	0x00000000	0.0
66	0x00000000	0.0
67	0x00000000	0.0
68	0x00000000	0.0
69	0x00000000	0.0
70	0x00000000	0.0
71	0x00000000	0.0
72	0x00000000	0.0
73	0x00000000	0.0
74	0x00000000	0.0
75	0x00000000	0.0
76	0x00000000	0.0
77	0x00000000	0.0
78	0x00000000	0.0
79	0x00000000	0.0
80	0x00000000	0.0
81	0x00000000	0.0
82	0x00000000	0.0
83	0x00000000	0.0
84	0x00000000	0.0
85	0x00000000	0.0
86	0x00000000	0.0
87	0x00000000	0.0
88	0x00000000	0.0
89	0x00000000	0.0
90	0x00000000	0.0
91	0x00000000	0.0
92	0x00000000	0.0
93	0x00000000	0.0
94	0x00000000	0.0
95	0x00000000	0.0
96	0x00000000	0.0
97	0x00000000	0.0
98	0x00000000	0.0
99	0x00000000	0.0
100	0x00000000	0.0
101	0x00000000	0.0
102	0x00000000	0.0
103	0x00000000	0.0
104	0x00000000	0.0
105	0x00000000	0.0
106	0x00000000	0.0
107	0x00000000	0.0
108	0x00000000	0.0
109	0x00000000	0.0
110	0x00000000	0.0
111	0x00000000	0.0
112	0x00000000	0.0
113	0x00000000	0.0
114	0x00000000	0.0
115	0x00000000	0.0
116	0x00000000	0.0
117	0x00000000	0.0
118	0x00000000	0.0
119	0x00000000	0.0
120	0x00000000	0.0
121	0x00000000	0.0
122	0x00000000	0.0
123	0x00000000	0.0
124	0x00000000	0.0
125	0x00000000	0.0
126	0x00000000	0.0
127	0x00000000	0.0
128	0x00000000	0.0
129	0x00000000	0.0
130	0x00000000	0.0
131	0x00000000	0.0
132	0x00000000	0.0
133	0x00000000	0.0
134	0x00000000	0.0
135	0x00000000	0.0
136	0x00000000	0.0
137	0x00000000	0.0
138	0x00000000	0.0
139	0x00000000	0.0
140	0x00000000	0.0
141	0x00000000	0.0
142	0x00000000	0.0
143	0x00000000	0.0
144	0x00000000	0.0
145	0x00000000	0.0
146	0x00000000	0.0
147	0x00000000	0.0
148	0x00000000	0.0
149	0x00000000	0.0
150	0x00000000	0.0
151	0x00000000	0.0
152	0x00000000	0.0
153	0x00000000	0.0
154	0x00000000	0.0
155	0x00000000	0.0
156	0x00000000	0.0
157	0x00000000	0.0
158	0x00000000	0.0
159	0x00000000	0.0
160	0x00000000	0.0
161	0x00000000	0.0
162	0x00000000	0.0
163	0x00000000	0.0
164	0x00000000	0.0
165	0x00000000	0.0
166	0x00000000	0.0
167	0x00000000	0.0
168	0x00000000	0.0
169	0x00000000	0.0
170	0x00000000	0.0
171	0x00000000	0.0
172	0x00000000	0.0
173	0x00000000	0.0
174	0x00000000	0.0
175	0x00000000	0.0
176	0x00000000	0.0
177	0x00000000	0.0
178	0x00000000	0.0
179	0x00000000	0.0
180	0x00000000	0.0
181	0x00000000	0.0
182	0x00000000	0.0
183	0x00000000	0.0
184	0x00000000	0.0
185	0x00000000	0.0
186	0x00000000	0.0
187	0x00000000	0.0
188	0x00000000	0.0
189	0x00000000	0.0
190	0x00000000	0.0
191	0x00000000	0.0
192	0x00000000	0.0
193	0x00000000	0.0
194	0x00000000	0.0
195	0x00000000	0.0
196	0x00000000	0.0
197	0x00000000	0.0
198	0x00000000	0.0
199	0x00000000	0.0
200	0x00000000	0.0
201	0x00000000	0.0
202	0x00000000	0.0
203	0x00000000	0.0
204	0x00000000	0.0
205	0x00000000	0.0
206	0x00000000	0.0
207	0x00000000	0.0
208	0x00000000	0.0
209	0x00000000	0.0
210	0x00000000	0.0
211	0x00000000	0.0
212	0x00000000	0.0
213	0x00000000	0.0
214	0x00000000	0.0
215	0x00000000	0.0
216	0x00000000	0.0
217	0x00000000	0.0
218	0x00000000	0.0
219	0x00000000	0.0
220	0x00000000	0.0
221	0x00000000	0.0
222	0x00000000	0.0
223	0x00000000	0.0
224	0x00000000	0.0
225	0x00000000	0.0
226	0x00000000	0.0
227	0x00000000	0.0
228	0x00000000	0.0
229	0x00000000	0.0
230	0x00000000	0.0
231	0x00000000	0.0
232	0x00000000	0.0
233	0x00000000	0.0
234	0x00000000	0.0
235	0x00000000	0.0
236	0x00000000	0.0
237	0x00000000	0.0
238	0x00000000	0.0
239	0x00000000	0.0
240	0x00000000	0.0
241	0x00000000	0.0
242	0x00000000	0.0
243	0x00000000	0.0
244	0x00000000	0.0
245	0x00000000	0.0
246	0x00000000	0.0
247	0x00000000	0.0
248	0x00000000	0.0
249	0x00000000	0.0
250	0x00000000	0.0
251	0x00000000	0.0
252	0x00000000	0.0
253	0x00000000	0.0
254	0x00000000	0.0
255	0x00000000	0.0

fc2.weight f4 [128, 256]
0	0x3d4fd1c6	0.050737165
1	0x3b4c4020	0.0031166151
2	0xbd216a50	-0.039408028
3	0xbd4c2666	-0.049841307
4	0xba1b2180	-0.00059177727
5	0xbd5f7610	-0.054555953
6	0x3d7c7f4e	0.061644845
7	0xbd6cb34a	-0.05778817
8	0xbcc58a50	-0.024113804
9	0x3d5e3d30	0.05425757
10	0xbd35c69a	-0.044378854
11	0xbd006f1c	-0.031355962
12	0x3d683500	0.05669117
13	0x3d73399c	0.059381112
14	0x3d547aa8	0.051874787
15	0x3cb42ccc	0.021994017
16	0x3d3cf1ec	0.046129152
17	0xbd173770	-0.036918104
18	0xbd0765ae	-0.033055954
19	0xbc9cf298	-0.019158646
20	0xbd38510e	-0.044999175
21	0xbd3cfe1c	-0.046140775
22	0x3cac97f8	0.021068558
23	0x3bca7790	0.0061788037
24	0x3d4a83d0	0.049442112
25	0x3c244300	0.01002574
26	0xbceb4278	-0.028718218
27	0xbd7a41cc	-0.061097905
28	0xbd339dd2	-0.04385168
29	0xbd3f2aa6	-0.046671532
30	0x3d3d0eec	0.04615681
31	0x3d005198	0.031327814
32	0x3cfce6e0	0.030871809
33	0x3cc56628	0.024096563
34	0x3c931984	0.017956503
35	0x3d140572	0.036138006
36	0xbd05f4c2	-0.032704122
37	0xbd126c78	-0.035747975
38	0x3bfe58f0	0.007762067
39	0x3c2f9ab8	0.01071804
40	0x3d3b37c6	0.045707487
41	0xbbdb9490	-0.0067010596
42	0x3d6bba7c	0.057550892
43	0xbcfb9e8c	-0.03071525
44	0xbb3ee040	-0.0029125363
45	0x3d27123c	0.040788874
46	0x3ca2ce74	0.019873835
47	0x3d5a9b14	0.05337055
48	0xbc399558	-0.01132711
49	0x3d2c8278	0.042116612
50	0x3c486cc0	0.012232959
51	0xbd505e30	-0.050871074
52	0xbc70f870	-0.01470767
53	0xbcefdf40	-0.029281259
54	0x3d0b61c8	0.0340288
55	0xbc9712a8	-0.018441513
56	0xbd27b6d2	-0.040945835
57	0xbc5fe178	-0.013664596
58	0x3d75db80	0.060023785
59	0xbd6d1f9c	-0.057891473
60	0x3d18ae12	0.03727538
61	0x3d1b1c08	0.03786853
62	0xbca888a4	-0.020572968
63	0x3bb85bc0	0.005626172
64	0xbd4be1fa	-0.049776055
65	0x3cf673d8	0.030084535
66	0xbbc63aa0	-0.006049469
67	0xbc673350	-0.014111355
68	0x3b58ca40	0.0033079535
69	0x3c7f5420	0.015584022
70	0xbd580b72	-0.05274529
71	0x3cc822a4	0.02443058
72	0x3c81ca34	0.015843488
73	0x3c5605c8	0.013062902
74	0xbd306418	-0.043064207
75	0x3bd01da0	0.006351188
76	0xbca4d6a0	-0.020121872
77	0x3bb1b690	0.0054233745
78	0xbc80fcfc	-0.015745632
79	0xbd77ffe8	-0.060546786
80	0xbc3c9d90	-0.011512175
81	0x3bad0d00	0.0052810907
82	0xbd7aefa0	-0.06126368
83	0x3c035cb0	0.008017704
84	0xbcb67958	-0.022274658
85	0x3d5333b4	0.05156298
86	0xbd030220	-0.03198445
87	0x3b899390	0.004198499
88	0xbcaca56c	-0.021074973
89	0xbd7de056	-0.06198152
90	0x3d1d719e	0.038438432
91	0x3d305bee	0.04305642
92	0x3cf6e46c	0.030138217
93	0xbc045978	-0.008077972
94	0x3ba3ae00	0.0049951077
95	0xbd747842	-0.059685
96	0xbd575db0	-0.05257958
97	0xbd0b59c4	-0.034021154
98	0x3d1a93e2	0.03773869
99	0x3ccac664	0.024752803
100	0xbd121282	-0.03566218
101	0xbd6da236	-0.058016025
102	0xbcbae62c	-0.022814833
103	0x3d445252	0.04793007
104	0x3d0e649a	0.03476391
105	0x3c979508	0.01850368
106	0xbd12f57c	-0.035878643
107	0xbd2a53fc	-0.041584
108	0xbb41cac0	-0.0029570311
109	0x3d04507e	0.032303326
110	0x3cdb2288	0.026749864
111	0x3cdb0194	0.026734151
112	0x3d05b0a8	0.032639176
113	0xbc2f0778	-0.010682933
114	0x3d7bc1bc	0.061464056
115	0xbc94f1a0	-0.018181622
116	0xbaf84380	-0.0018941015
117	0x3ca2857c	0.019839041
118	0x3ae5bd80	0.0017527789
119	0xbc531ad8	-0.012884818
120	0x3d1f292e	0.03885763
121	0x3d5e5af8	0.054285973
122	0x3d0e2ec4	0.034712568
123	0x3d053fd6	0.03253158
124	0x3c800bc8	0.015630618
125	0x3d61dbb8	0.05514118
126	0xbb29e2c0	-0.0025922507
127	0xbd4fabe8	-0.050701052
128	0xbd6022fa	-0.054720856
129	0xbd7f45ec	-0.062322542
130	0x3c93cf28	0.018043116
131	0x3c9e80b8	0.019348487
132	0xbd661af0	-0.056178033
133	0xbbcf8b60	-0.0063337535
134	0x3d28d2da	0.04121671
135	0xbbfc4a60	-0.007699296
136	0xbd403784	-0.046927944
137	0x3a01ff00	0.00049589574
138	0xbd40be94	-0.04705675
139	0xbcca5074	-0.024696566
140	0xbd62ff4c	-0.05541925
141	0x3cd393cc	0.025827311
142	0xbc7daae0	-0.015482634
143	0xbce4c9d0	-0.027928263
144	0x3c3417e8	0.010992028
145	0xbd64ea44	-0.055887476
146	0x3d210572	0.039311834
147	0xbd042a24	-0.03226675
148	0xbc780ea0	-0.015140206
149	0xbcde43b8	-0.0271319
150	0x3cf79714	0.030223407
151	0xbcf78f6c	-0.030219756
152	0xbcc9dc88	-0.02464129
153	0x3b8f0fb0	0.004365884
154	0x3d7dca12	0.061960287
155	0xbd5e7802	-0.054313667
156	0xbd0b298c	-0.03397517
157	0xbd0f230e	-0.03494554
158	0xbc9f8f84	-0.019477613
159	0x3c0cde90	0.008597985
160	0x3cbf1f58	0.023330376
161	0xbcfeda64	-0.031109996
162	0xbd2e881a	-0.042610265
163	0x3cbbd538	0.022928819
164	0xbd28f2f6	-0.04124733
165	0x3d02e9a6	0.031961106
166	0xbd357994	-0.0443054
167	0xbd3b1a12	-0.04567916
168	0xbb9ddef0	-0.004817836
169	0xbd76575c	-0.060141906
170	0xbcb3eee0	-0.02196449
171	0x3ca6d434	0.020364858
172	0x3c9b0278	0.018922076
173	0x3c9ce378	0.019151434
174	0xbd4fcbb2	-0.05073137
175	0x3d16992a	0.036767162
176	0xbc3cf0c0	-0.011532009
177	0x3b407d20	0.0029371455
178	0x3d51f33e	0.051257364
179	0xbcc0b3bc	-0.023523204
180	0xbd17bb20	-0.03704369
181	0x3c0adf60	0.008476108
182	0xbd7396d8	-0.059470028
183	0xbc48e520	-0.012261659
184	0xbca2af2c	-0.01985892
185	0x3c867da0	0.016417325
186	0x3d425a32	0.0474493
187	0xbc1ff108	-0.009762056
188	0xbd223332	-0.039599605
189	0xbd56673a	-0.05234454
190	0x3d69bf0c	0.057066962
191	0x3d4fa4a4	0.050694123
192	0xbbc7bd70	-0.0060955808
193	0xbd45f60c	-0.04833035
194	0x3d65c302	0.056094177
195	0x3d098e22	0.033582814
196	0x3d4b0d20	0.049573064
197	0xbc88400c	-0.016632102
198	0xbcdbbd98	-0.026823804
199	0x3bbabec0	0.0056990087
200	0xbd16058e	-0.03662639
201	0x3bf37850	0.007430114
202	0x3d52882e	0.051399402
203	0x3d552f6c	0.05204718
204	0xbd128dfc	-0.035779938
205	0x3ac75b00	0.0015209615
206	0x3d0d54dc	0.034504756
207	0xbd0d7f50	-0.034545243
208	0xbd42d84e	-0.047569565
209	0xbd7912c0	-0.060808897
210	0x39159a00	0.00014267117
211	0x3c8820bc	0.016617171
212	0xbd65e998	-0.056130975
213	0x3d00dd00	0.031460762
214	0x3d6a1ae0	0.057154536
215	0x3b3cd980	0.0028816164
216	0x3d292d90	0.041303217
217	0xbd7400b8	-0.059570998
218	0xbcfa18e8	-0.030529454
219	0xbd6aaf2c	-0.057295963
220	0x3d27e51e	0.040989988
221	0x3ca3de6c	0.02000352
222	0x3b180ca0	0.0023200884
223	0xbc74ddb8	-0.01494544
224	0xbd1c60d4	-0.03817828
225	0x3d6cc646	0.057806276
226	0xbd524d68	-0.05134335
227	0x3ba19e90	0.004932232
228	0xbb432260	-0.0029775128
229	0x3d61c598	0.05512008
230	0xbd33b6a6	-0.04387536
231	0xba8c8040	-0.0010719374
232	0x3cc43e78	0.023955569
233	0xbc68cbc8	-0.0142087415
234	0xbcd939cc	-0.026516818
235	0x3bd8c000	0.006614685
236	0xbd3c3cf4	-0.045956567
237	0xbd5186f2	-0.051154085
238	0xbd22e6d0	-0.0397709
239	0x3cdebef0	0.027190655
240	0xbc7bb1a0	-0.015362173
241	0x3d43c912	0.047799177
242	0x3c118a68	0.008883096
243	0x3c71b1c8	0.014751859
244	0xbcf7b4dc	-0.030237608
245	0x3d69a756	0.05704435
246	0xbb12df80	-0.0022411048
247	0x3d4c8494	0.049931124
248	0x3b30f380	0.0027000606
249	0x3c33e4b8	0.010979824
250	0xbd5c0520	-0.053715825
251	0x3b04a6e0	0.0020241067
252	0x3d74a410	0.059726775
253	0x3d3396ae	0.04384487
254	0x3d352f6a	0.04423467
255	0xbbdec050	-0.006797828

fc2.bias f4 [128]
0	0x3c5f1f80	0.01361835
1	0xbac77480	-0.0015217215
2	0x3d1371d4	0.035997227
3	0xbd1d1aca	-0.038355626
4	0xbd6da652	-0.058019944
5	0x3cead150	0.028664261
6	0xbc38a128	-0.011268891
7	0x3c8debfc	0.01732444
8	0xbcbf6dc8	-0.023367777
9	0xbc3fc0b8	-0.011703663
10	0x3c53b040	0.012920439
11	0xbcd10308	-0.02551414
12	0xbd23814c	-0.03991823
13	0x3d12ba5e	0.035822265
14	0xbcaaef30	-0.020866007
15	0xbd29217e	-0.041291706
16	0xbd7cafc8	-0.061691076
17	0xbd1b3308	-0.037890464
18	0x3cb36528	0.021898821
19	0x3d29d552	0.041463204
20	0xbcafa0b0	-0.021438926
21	0xbd20e216	-0.039278112
22	0x3d1d036e	0.03833335
23	0x3d5a04d8	0.053227276
24	0xbd076b08	-0.033061057
25	0xbce984b4	-0.02850566
26	0x3c66fd90	0.01409854
27	0x3d054538	0.032536715
28	0x3d3baecc	0.045820996
29	0x3d65c332	0.056094356
30	0x3d64021a	0.055666067
31	0xbd2d7128	-0.042344242
32	0xbc469cd8	-0.012122355
33	0xbd16e6e0	-0.036841273
34	0xbcc71d28	-0.024305895
35	0x3d602ce2	0.054730304
36	0xbc8601ec	-0.016358338
37	0xbd2ed3de	-0.04268252
38	0xbce67c98	-0.028135583
39	0x3bb5c8c0	0.005547613
40	0x3cc78300	0.024354458
41	0xbcc02ad4	-0.023457922
42	0xbd22cf0c	-0.039748237
43	0xbc285e10	-0.0102763325
44	0x3d2f7ad6	0.042841755
45	0x3d0b28d6	0.03397449
46	0xbd79e3d0	-0.061008275
47	0xbd1767ba	-0.036964156
48	0x3c2f1da0	0.0106882155
49	0x3b28ef00	0.002577722
50	0xbd341512	-0.043965407
51	0xbcc0d768	-0.023540214
52	0x3d1b956a	0.03798429
53	0xbc8e90b0	-0.017402977
54	0xbc0b58f0	-0.008505091
55	0x3bdf4af0	0.006814353
56	0x3d7a2fe0	0.061080813
57	0x3d41808c	0.047241732
58	0x3d45a044	0.048248544
59	0x3c4d9f20	0.012550145
60	0x3d7d4d9c	0.061841592
61	0x3d7db5ca	0.061940946
62	0xbc3e4d28	-0.011615075
63	0x3d161932	0.036645122
64	0xbd5b886a	-0.05359689
65	0xbd4b2c7e	-0.049602978
66	0x3d2444d6	0.04010471
67	0xbd74b252	-0.059740372
68	0xbd5e3e9c	-0.054258928
69	0xbc496b98	-0.012293719
70	0x3b72ce60	0.0037049279
71	0x3b742f80	0.0037259758
72	0x3d6d1efe	0.057890885
73	0x3d712ccc	0.058880612
74	0xbd2ba1dc	-0.041902408
75	0xbcf1aba8	-0.029500797
76	0xbd0ba9f2	-0.03409762
77	0xbcab9120	-0.020943224
78	0x3d3c5936	0.045983516
79	0xbd094746	-0.033515237
80	0xbcda6138	-0.026657686
81	0xbcf98230	-0.030457586
82	0xbd3a15de	-0.04543101
83	0xbd43e4cc	-0.04782562
84	0xbc9afae4	-0.018918462
85	0xbb13d3c0	-0.0022556633
86	0xbd10ccb8	-0.035351485
87	0x3bdfd100	0.0068303347
88	0x3cb7dbb0	0.022443622
89	0xbd621d38	-0.055203646
90	0xbd448628	-0.047979504
91	0x3d445a9c	0.047937974
92	0x3b2aeaa0	0.0026079789
93	0xbbf96f30	-0.0076121315
94	0x3b522ba0	0.003206946
95	0x3d331b26	0.043727063
96	0x3b128f40	0.0022363216
97	0xbd6d11e4	-0.05787839
98	0xbb9637f0	-0.004584305
99	0xb8550800	-5.0790608e-05
100	0x3d652acc	0.055949017
101	0xbd162830	-0.03665942
102	0x3c297a90	0.010344163
103	0xbd3f8e0c	-0.046766326
104	0xbd517c94	-0.051144198
105	0xbd22fa5c	-0.039789543
106	0xbd1b52b0	-0.037920654
107	0xbd5ab336	-0.053393565
108	0xbd0fea92	-0.035135813
109	0x3c98b3bc	0.018640392
110	0x3c1f7740	0.009733021
111	0xbcc6bb2c	-0.024259172
112	0x3cedc1f8	0.029023156
113	0xbd154d98	-0.036450952
114	0x3aeec2c0	0.0018215999
115	0xbc39b810	-0.011335388
116	0x3d501214	0.05079849
117	0xbac9d280	-0.0015397817
118	0x3b658d00	0.003502667
119	0xbc3d2d88	-0.0115465
120	0xbd370d38	-0.04469034
121	0x3d7ea7e8	0.062171847
122	0x3aa04880	0.0012228638
123	0x3d05cbe6	0.032665156
124	0x3d617a16	0.05504807
125	0x3d057232	0.03257961
126	0xbd18ac98	-0.037273973
127	0x3d3c3c62	0.045956023

ln2.weight f4 [128]
0	0x3f800000	1.0
1	0x3f800000	1.0
2	0x3f800000	1.0
3	0x3f800000	1.0
4	0x3f800000	1.0
5	0x3f800000	1.0
6	0x3f800000	1.0
7	0x3f800000	1.0
8	0x3f800000	1.0
9	0x3f800000	1.0
10	0x3f800000	1.0
11	0x3f800000	1.0
12	0x3f800000	1.0
13	0x3f800000	1.0
14	0x3f800000	1.0
15	0x3f800000	1.0
16	0x3f800000	1.0
17	0x3f800000	1.0
18	0x3f800000	1.0
19	0x3f800000	1.0
20	0x3f800000	1.0
21	0x3f800000	1.0
22	0x3f800000	1.0
23	0x3f800000	1.0
24	0x3f800000	1.0
25	0x3f800000	1.0
26	0x3f800000	1.0
27	0x3f800000	1.0
28	0x3f800000	1.0
29	0x3f800000	1.0
30	0x3f800000	1.0
31	0x3f800000	1.0
32	0x3f800000	1.0
33	0x3f800000	1.0
34	0x3f800000	1.0
35	0x3f800000	1.0
36	0x3f800000	1.0
37	0x3f800000	1.0
38	0x3f800000	1.0
39	0x3f800000	1.0
40	0x3f800000	1.0
41	0x3f800000	1.0
42	0x3f800000	1.0
43	0x3f800000	1.0
44	0x3f800000	1.0
45	0x3f800000	1.0
46	0x3f800000	1.0
47	0x3f800000	1.0
48	0x3f800000	1.0
49	0x3f800000	1.0
50	0x3f800000	1.0
51	0x3f800000	1.0
52	0x3f800000	1.0
53	0x3f800000	1.0
54	0x3f800000	1.0
55	0x3f800000	1.0
56	0x3f800000	1.0
57	0x3f800000	1.0
58	0x3f800000	1.0
59	0x3f800000	1.0
60	0x3f800000	1.0
61	0x3f800000	1.0
62	0x3f800000	1.0
63	0x3f800000	1.0
64	0x3f800000	1.0
65	0x3f800000	1.0
66	0x3f800000	1.0
67	0x3f800000	1.0
68	0x3f800000	1.0
69	0x3f800000	1.0
70	0x3f800000	1.0
71	0x3f800000	1.0
72	0x3f800000	1.0
73	0x3f800000	1.0
74	0x3f800000	1.0
75	0x3f800000	1.0
76	0x3f800000	1.0
77	0x3f800000	1.0
78	0x3f800000	1.0
79	0x3f800000	1.0
80	0x3f800000	1.0
81	0x3f800000	1.0
82	0x3f800000	1.0
83	0x3f800000	1.0
84	0x3f800000	1.0
85	0x3f800000	1.0
86	0x3f800000	1.0
87	0x3f800000	1.0
88	0x3f800000	1.0
89	0x3f800000	1.0
90	0x3f800000	1.0
91	0x3f800000	1.0
92	0x3f800000	1.0
93	0x3f800000	1.0
94	0x3f800000	1.0
95	0x3f800000	1.0
96	0x3f800000	1.0
97	0x3f800000	1.0
98	0x3f800000	1.0
99	0x3f800000	1.0
100	0x3f800000	1.0
101	0x3f800000	1.0
102	0x3f800000	1.0
103	0x3f800000	1.0
104	0x3f800000	1.0
105	0x3f800000	1.0
106	0x3f800000	1.0
107	0x3f800000	1.0
108	0x3f800000	1.0
109	0x3f800000	1.0
110	0x3f800000	1.0
111	0x3f800000	1.0
112	0x3f800000	1.0
113	0x3f800000	1.0
114	0x3f800000	1.0
115	0x3f800000	1.0
116	0x3f800000	1.0
117	0x3f800000	1.0
118	0x3f800000	1.0
119	0x3f800000	1.0
120	0x3f800000	1.0
121	0x3f800000	1.0
122	0x3f800000	1.0
123	0x3f800000	1.0
124	0x3f800000	1.0
125	0x3f800000	1.0
126	0x3f800000	1.0
127	0x3f800000	1.0

ln2.bias f4 [128]
0	0x00000000	0.0
1	0x00000000	0.0
2	0x00000000	0.0
3	0x00000000	0.0
4	0x00000000	0.0
5	0x00000000	0.0
6	0x00000000	0.0
7	0x00000000	0.0
8	0x00000000	0.0
9	0x00000000	0.0
10	0x00000000	0.0
11	0x00000000	0.0
12	0x00000000	0.0
13	0x00000000	0.0
14	0x00000000	0.0
15	0x00000000	0.0
16	0x00000000	0.0
17	0x00000000	0.0
18	0x00000000	0.0
19	0x00000000	0.0
20	0x00000000	0.0
21	0x00000000	0.0
22	0x00000000	0.0
23	0x00000000	0.0
24	0x00000000	0.0
25	0x00000000	0.0
26	0x00000000	0.0
27	0x00000000	0.0
28	0x00000000	0.0
29	0x00000000	0.0
30	0x00000000	0.0
31	0x00000000	0.0
32	0x00000000	0.0
33	0x00000000	0.0
34	0x00000000	0.0
35	0x00000000	0.0
36	0x00000000	0.0
37	0x00000000	0.0
38	0x00000000	0.0
39	0x00000000	0.0
40	0x00000000	0.0
41	0x00000000	0.0
42	0x00000000	0.0
43	0x00000000	0.0
44	0x00000000	0.0
45	0x00000000	0.0
46	0x00000000	0.0
47	0x00000000	0.0
48	0x00000000	0.0
49	0x00000000	0.0
50	0x00000000	0.0
51	0x00000000	0.0
52	0x00000000	0.0
53	0x00000000	0.0
54	0x00000000	0.0
55	0x00000000	0.0
56	0x00000000	0.0
57	0x00000000	0.0
58	0x00000000	0.0
59	0x00000000	0.0
60	0x00000000	0.0
61	0x00000000	0.0
62	0x00000000	0.0
63	0x00000000	0.0
64	0x00000000	0.0
65	0x00000000	0.0
66	0x00000000	0.0
67	0x00000000	0.0
68	0x00000000	0.0
69	0x00000000	0.0
70	0x00000000	0.0
71	0x00000000	0.0
72	0x00000000	0.0
73	0x00000000	0.0
74	0x00000000	0.0
75	0x00000000	0.0
76	0x00000000	0.0
77	0x00000000	0.0
78	0x00000000	0.0
79	0x00000000	0.0
80	0x00000000	0.0
81	0x00000000	0.0
82	0x00000000	0.0
83	0x00000000	0.0
84	0x00000000	0.0
85	0x00000000	0.0
86	0x00000000	0.0
87	0x00000000	0.0
88	0x00000000	0.0
89	0x00000000	0.0
90	0x00000000	0.0
91	0x00000000	0.0
92	0x00000000	0.0
93	0x00000000	0.0
94	0x00000000	0.0
95	0x00000000	0.0
96	0x00000000	0.0
97	0x00000000	0.0
98	0x00000000	0.0
99	0x00000000	0.0
100	0x00000000	0.0
101	0x00000000	0.0
102	0x00000000	0.0
103	0x00000000	0.0
104	0x00000000	0.0
105	0x00000000	0.0
106	0x00000000	0.0
107	0x00000000	0.0
108	0x00000000	0.0
109	0x00000000	0.0
110	0x00000000	0.0
111	0x00000000	0.0
112	0x00000000	0.0
113	0x00000000	0.0
114	0x00000000	0.0
115	0x00000000	0.0
116	0x00000000	0.0
117	0x00000000	0.0
118	0x00000000	0.0
119	0x00000000	0.0
120	0x00000000	0.0
121	0x00000000	0.0
122	0x00000000	0.0
123	0x00000000	0.0
124	0x00000000	0.0
125	0x00000000	0.0
126	0x00000000	0.0
127	0x00000000	0.0

action.weight f4 [2, 128]
0	0x3a7a4eb6	0.0009548472
1	0xba6354bf	-0.0008671991
2	0xba23f436	-0.0006254347
3	0xba4e1d7e	-0.0007862671
4	0xb9c88ac2	-0.00038250355
5	0x39f19d10	0.00046084123
6	0xb94732b8	-0.00018997013
7	0x3a0b85be	0.00053223583
8	0x391552a8	0.00014240539
9	0xba42f7c3	-0.0007437432
10	0x3a827733	0.0009953737
11	0xb8db2c38	-0.0001045097
12	0xba76c64f	-0.00094137056
13	0x3a3e6402	0.0007262827
14	0xb9f7c52c	-0.00047258416
15	0x399d111c	0.0002995812
16	0x3a3ff75c	0.0007322931
17	0xba0af723	-0.00053011085
18	0xb9d82310	-0.00041224854
19	0x3a4515da	0.000751821
20	0x39886d70	0.0002602148
21	0xb98eb0bc	-0.00027216028
22	0xba25dee2	-0.00063274626
23	0x39eb5d70	0.0004489231
24	0x3a5e2aa0	0.00084749795
25	0xba4fc9b9	-0.00079264824
26	0xba215513	-0.00061543396
27	0xba3553ca	-0.00069170876
28	0xba07ac30	-0.0005175499
29	0xb96244cc	-0.00021578668
30	0x3a41a09c	0.00073862984
31	0xb90a9a90	-0.00013218285
32	0x3a2bdf3e	0.0006556398
33	0x38978700	7.225387e-05
34	0x3a7c82c2	0.00096325215
35	0x39b32b90	0.00034173997
36	0x3a3c999c	0.00071945204
37	0xb9f7d098	-0.00047266926
38	0xba80eb46	-0.0009835742
39	0x39b25124	0.0003401126
40	0x3a805b41	0.0009792821
41	0xb9900c4a	-0.00027474976
42	0x39854700	0.00025420636
43	0x39e5b6e8	0.0004381456
44	0xba1bd5c1	-0.00059446326
45	0x3a49cef8	0.0007698382
46	0x3a25c95c	0.00063242554
47	0x3a16102a	0.00057244545
48	0x39db760c	0.00041858887
49	0xb9c60192	-0.00037766673
50	0x3a219684	0.0006164091
51	0xba587232	-0.00082567625
52	0x38c28030	9.274518e-05
53	0x3a5ecbf4	0.00084990193
54	0x383b5240	4.4660876e-05
55	0x3a43d96c	0.0007471058
56	0x39a1392c	0.0003075091
57	0xba52ed34	-0.000804621
58	0xb92254f8	-0.00015481177
59	0x3a3b9694	0.0007155922
60	0xba139c7e	-0.0005630924
61	0xba1f04e8	-0.00060661
62	0xb9941404	-0.00028243673
63	0x38d7ecb0	0.000102960854
64	0xba7f2b57	-0.0009733936
65	0x3a7e337a	0.00096970017
66	0xb9a53c2e	-0.0003151609
67	0x3a067b00	0.0005130023
68	0x39c16bd8	0.00036892178
69	0xba5cd1f4	-0.00084236194
70	0xba0b9796	-0.0005325017
71	0x3a726c1e	0.0009247678
72	0x3a0e2e42	0.0005423763
73	0x3a7bc686	0.00096044724
74	0x3a7d7886	0.00096691435
75	0xba7a8540	-0.0009556599
76	0x3a6af316	0.0008962614
77	0xba692138	-0.00088931946
78	0x3a237bb8	0.0006236392
79	0xb894d4b0	-7.096806e-05
80	0x39769670	0.0002351643
81	0x3996d830	0.00028771302
82	0x3a7b355e	0.00095828425
83	0x3a41acfc	0.00073881424
84	0x3a350564	0.00069054053
85	0xb9e48f9a	-0.0004359454
86	0xba45db17	-0.00075476005
87	0x3932d048	0.00017052994
88	0x3a524408	0.00080210017
89	0xb9a4d4bc	-0.00031439017
90	0x3a59b32a	0.00083045906
91	0x3a286596	0.0006423829
92	0xb8988b78	-7.273903e-05
93	0xb7fe92c0	-3.0347495e-05
94	0x37da1c40	2.600078e-05
95	0xb8d78790	-0.000102772494
96	0x39442f28	0.00018709584
97	0xba4e26e6	-0.00078640727
98	0xba81cb18	-0.0009902446
99	0x3a75e024	0.0009379408
100	0xba5b1b20	-0.0008358229
101	0xb9649b7c	-0.00021801697
102	0xba81440b	-0.0009862197
103	0x335f8000	5.203765e-08
104	0xb9a96a8c	-0.00032313576
105	0x3a4ab034	0.0007731945
106	0x3615f400	2.2344757e-06
107	0xba8020d5	-0.000977541
108	0xba2915d0	-0.00064500887
109	0x3a012628	0.0004926645
110	0x39c087b0	0.0003672219
111	0x38c46420	9.364658e-05
112	0xb94ae568	-0.00019349682
113	0x39492238	0.00019181601
114	0xba64385b	-0.00087059074
115	0xb9892fe4	-0.00026166358
116	0xba71f036	-0.00092292146
117	0x3a758f26	0.0009367339
118	0xba3cf138	-0.0007207575
119	0x3a722698	0.00092373183
120	0xba761fa0	-0.0009388868
121	0x3a2955fa	0.000645965
122	0x3a4e1fe6	0.00078630296
123	0x39f5ac74	0.0004685853
124	0x3a495114	0.0007679623
125	0x3a49b3f4	0.00076943566
126	0x39f11b1c	0.000459873
127	0x39e3bfa0	0.00043439586
128	0xb91073d8	-0.00013776065
129	0x3a58fd70	0.0008277511
130	0xba33aeae	-0.00068543374
131	0x38e52330	0.00010926125
132	0x3a6c74be	0.00090200815
133	0xba7702c5	-0.0009422715
134	0xba115c48	-0.0005545062
135	0x39b921c4	0.00035311107
136	0x3a5dc9f8	0.00084605766
137	0x389c1ac0	7.443642e-05
138	0xb8e21b20	-0.00010781572
139	0x39861db0	0.0002558059
140	0xba33b524	-0.00068553
141	0x3a096ef2	0.00052426674
142	0xba3bdc65	-0.0007166325
143	0xba09b1de	-0.00052526395
144	0x397aabd8	0.00023905875
145	0xb9b95954	-0.00035352504
146	0xb8e7dc28	-0.00011055946
147	0x37d139c0	2.4941633e-05
148	0xba622d42	-0.000862796
149	0x3905a538	0.00012745417
150	0x393e8dd0	0.00018172641
151	0x38f00bd0	0.00011446292
152	0xb86ae8f0	-5.6006887e-05
153	0x3a17a938	0.00057854084
154	0xb9f2c7f0	-0.00046306802
155	0xba80fba7	-0.0009840623
156	0xba70c388	-0.000918441
157	0xba756336	-0.0009360792
158	0x39c033ac	0.00036659592
159	0x3a4db0de	0.00078464847
160	0x3a2423ae	0.000626142
161	0xb97e52c0	-0.00024254154
162	0x3a6b4a60	0.00089756213
163	0xba642b11	-0.0008703927
164	0xba07baa6	-0.0005177654
165	0xb9b7621a	-0.0003497757
166	0xb88dcbc8	-6.761361e-05
167	0x3a2544b4	0.0006304488
168	0x3a1f2aae	0.00060717284
169	0xb8e55a00	-0.00010936335
170	0x3a4f46e2	0.00079069857
171	0x37ea2d40	2.7916045e-05
172	0xba44134a	-0.0007479681
173	0x39304f50	0.00016814214
174	0x39fa4508	0.00047735148
175	0x39d6906c	0.00040924863
176	0x3a0ec3b4	0.0005446032
177	0xba1c4a46	-0.00059619953
178	0x392301f8	0.00015545625
179	0x39d37194	0.00040329678
180	0x3a733352	0.00092773617
181	0xba49b686	-0.00076947396
182	0xba509e86	-0.0007958192
183	0x397865c0	0.00023689028
184	0x3861d360	5.384104e-05
185	0x3a0aa0dc	0.0005288252
186	0x3a3a39e8	0.00071039656
187	0xba3844da	-0.00070293027
188	0xba66a9ad	-0.00087990874
189	0xb8f61870	-0.00011734746
190	0x3934ad20	0.00017230632
191	0xb93ce168	-0.00018013048
192	0x3938eed8	0.00017636584
193	0xba12c8d4	-0.0005599384
194	0xb9ad8632	-0.00033097115
195	0xba1982fa	-0.0005856004
196	0x39a82a34	0.000320749
197	0xba678f20	-0.0008833278
198	0x38f0dbf0	0.00011485058
199	0x39e422fc	0.00043513614
200	0xba0c2d5c	-0.0005347335
201	0xba1d1b7e	-0.00059931714
202	0xb817fbe0	-3.6235782e-05
203	0x3a35ce84	0.0006935375
204	0xb9d94274	-0.00041438977
205	0xb9a545e0	-0.00031523313
206	0x39ba3d30	0.00035522273
207	0xba724e7c	-0.00092432625
208	0x39ab68fc	0.0003269388
209	0x3a431986	0.0007442463
210	0x39c4a008	0.00037503266
211	0x38e5da00	0.000109601766
212	0x3a00c2ee	0.0004911859
213	0x3a6445c2	0.00087079045
214	0x3a4a373e	0.000771392
215	0xb912b61c	-0.00013991486
216	0xb9ad65dc	-0.00033073022
217	0x3a00adec	0.0004908729
218	0xba4a2eec	-0.00077126804
219	0xba59ea20	-0.00083127804
220	0x3a30caee	0.0006744106
221	0xb833af80	-4.2840373e-05
222	0x3992d518	0.00028006057
223	0xb8956be8	-7.124973e-05
224	0x3a6e6bd4	0.0009095047
225	0xb98ea9fc	-0.00027211
226	0xba2b0d46	-0.000652511
227	0x393f3a98	0.00018237007
228	0xb7b73180	-2.183835e-05
229	0x387c3de0	6.0139108e-05
230	0x3a454392	0.00075250224
231	0xba199bee	-0.0005859722
232	0x39a4c4ac	0.0003142705
233	0xb99a19cc	-0.0002939239
234	0x39eca178	0.0004513373
235	0xb9c15724	-0.00036876753
236	0x3a3bc0ca	0.00071622117
237	0xb9bc3f7a	-0.00035905448
238	0xb9984088	-0.0002903978
239	0xb92f87a0	-0.00016739825
240	0x39977460	0.0002888767
241	0xb9ce4f6a	-0.0003935055
242	0xba801948	-0.0009773159
243	0x3a7d8252	0.00096706033
244	0xba7b3344	-0.00095825293
245	0xba220a28	-0.0006181323
246	0x39ef9280	0.00045694783
247	0xba66ac01	-0.0008799434
248	0xb9944c14	-0.00028285442
249	0xba5c3a09	-0.0008400982
250	0xb92cc864	-0.0001647785
251	0x3a574a0c	0.0008212633
252	0x3a74a830	0.0009332923
253	0x39f37404	0.0004643501
254	0xba2f8506	-0.0006695542
255	0x3a5181d0	0.0007992061

action.bias f4 [2]
0	0xba1124d8	-0.0005536801
1	0xb9f7ec00	-0.00047287345
