s10lre4e3CCM_MADRL_MEC/model/50-400-8-10-40/HYASP_RMAPPO_u/2-Actor.pth (torch, 161199 bytes, 18 tensors)

fc1.weight f4 [256, 7]
0	0xbe93fd0a	-0.2890399
1	0xbe18f9a4	-0.1493898
2	0xbe56d5e5	-0.20980032
3	0x3e3e9462	0.18611291
4	0xbeac3204	-0.3363191
5	0xbe2fb838	-0.17160118
6	0xbe976a94	-0.295735
7	0x3e549c42	0.20762733
8	0xbe5baa9e	-0.21451804
9	0xbe47a148	-0.19495118
10	0x3eb294c5	0.34879127
11	0x3ecb6f67	0.3973343
12	0x3e300b98	0.17191923
13	0x3ed7639a	0.42068177
14	0xbebae8dc	-0.36505783
15	0x3e82eed4	0.25572836
16	0x3e9da5e4	0.30790627
17	0x3e2c6b01	0.16837694
18	0x3dec659b	0.11542817
19	0x3e8c64c8	0.2742064
20	0x3e8e7e66	0.2783081
21	0xbea2ed09	-0.31821468
22	0x3e1cf668	0.15328372
23	0xbc168daf	-0.009189053
24	0xbe5cc8a4	-0.21560913
25	0xbe63024e	-0.22168848
26	0x3e40707f	0.18792914
27	0x3e8c6568	0.27421117
28	0x3eb5009c	0.35352027
29	0x3e351d32	0.17686918
30	0x3e5dd2e6	0.21662483
31	0xbe537d35	-0.20653231
32	0xbdc7f549	-0.09763581
33	0x3e775655	0.24154027
34	0xbebacf6e	-0.3648638
35	0x3eb5734e	0.35439533
36	0x3d7636d4	0.060110882
37	0xbe741159	-0.23834743
38	0x3dd70c5c	0.10500404
39	0xbeb1ca6f	-0.34724757
40	0xbe6c68a0	-0.23086786
41	0x3eec3db0	0.46140814
42	0xbf05b492	-0.52228653
43	0xbec56d91	-0.38560155
44	0x3e84f3e2	0.25967318
45	0x3e978bb8	0.29598784
46	0x3ee945f3	0.4556118
47	0xbe071ea6	-0.13195285
48	0x3eda3ae8	0.42623067
49	0xbe87037b	-0.26369843
50	0xbd7addea	-0.06124679
51	0xbe0222ce	-0.1270859
52	0x3e403ce0	0.18773222
53	0xbeb82809	-0.35968044
54	0x3e94a0ea	0.29029018
55	0x3d97608c	0.07391462
56	0x3e80026b	0.25001845
57	0x3ddae5aa	0.10688336
58	0x3d9cdc08	0.07659155
59	0xbc6b9251	-0.014378146
60	0x3dc5ba62	0.0965469
61	0x3e402c3e	0.18766877
62	0xbc636b00	-0.013880491
63	0xbe4f11ae	-0.20221588
64	0x3e406875	0.18789847
65	0x3dafe326	0.08588247
66	0xbe74fe2f	-0.23925088
67	0x3da1ebf3	0.07906332
68	0x3ec57922	0.3856898
69	0x3e6a41c0	0.22876644
70	0xbd66e200	-0.056367874
71	0xbe81dea0	-0.25365162
72	0x3eac81b0	0.33692694
73	0xbf08f10d	-0.53492814
74	0xbd70e25f	-0.058809634
75	0xbdd494ec	-0.10379967
76	0x3eaf87de	0.34283346
77	0x3ee2dc35	0.4430863
78	0x3d0f864f	0.035040196
79	0x3ea64b1b	0.32479176
80	0x3d3ffdb9	0.04687283
81	0x3e7414c2	0.23836043
82	0xbea1daa4	-0.31612122
83	0xbec84577	-0.39115497
84	0x3e73ca00	0.23807526
85	0x3eda52b8	0.42641234
86	0xbe98f428	-0.29873776
87	0xbe992649	-0.29912022
88	0xbba965ac	-0.005169591
89	0xbe9d6edc	-0.30748641
90	0x3ea422f3	0.32057914
91	0xbec2b263	-0.38026723
92	0x3e9104dc	0.2832402
93	0x3eb44d46	0.35215205
94	0xbebf937c	-0.3741721
95	0x3e2ebcbb	0.17064182
96	0x3d8767a2	0.06611563
97	0x3e237370	0.15962005
98	0xbed8dddd	-0.42356768
99	0x3e221b0f	0.15830635
100	0xbe24aa66	-0.16080627
101	0x3e3219f8	0.17392719
102	0xbee8de57	-0.45482132
103	0xbdbbf226	-0.091770455
104	0xbd34adb5	-0.044110972
105	0x3e18eba2	0.14933637
106	0x3e9d8034	0.30761874
107	0xba89d836	-0.0010516706
108	0xbe8c9c64	-0.27463067
109	0xbda612d5	-0.08109061
110	0x3d454e3c	0.048170313
111	0x3dafee6a	0.08590396
112	0x3dfad2af	0.12247216
113	0x3e086c0b	0.13322465
114	0xbe890d9e	-0.26768202
115	0x3d20231c	0.039095983
116	0x3e30fcf0	0.17283988
117	0xbe893794	-0.26800215
118	0xbecfa3f1	-0.40554765
119	0xbdc63df8	-0.09679788
120	0xbe826d75	-0.25474134
121	0xbec13c90	-0.37741518
122	0xbe5ddcce	-0.21666262
123	0x3e2d0d06	0.168995
124	0x3e6aae0d	0.22917958
125	0xbdd2cc1c	-0.10292837
126	0xbdcf8018	-0.10131854
127	0xbd317d23	-0.04333223
128	0xbda156aa	-0.07877858
129	0x3e87ee20	0.26548862
130	0x3ee03839	0.43792894
131	0x3dd6ec8c	0.104943365
132	0x3dfc32e2	0.123143926
133	0xbd7c224b	-0.06155614
134	0xbcb4a2d3	-0.022050297
135	0x3e4d9280	0.20075417
136	0xba04a1e0	-0.00050595216
137	0xbea0075b	-0.31255612
138	0x3d9c81d7	0.076419525
139	0xbea44483	-0.3208352
140	0x3de82a59	0.11336202
141	0x3e90dbdd	0.28292742
142	0x3e8d90e4	0.27649605
143	0xbe03ce5c	-0.12871689
144	0xbed20278	-0.41017509
145	0xbece7d12	-0.40329796
146	0xbe8cfe04	-0.2753755
147	0xbdf7bd84	-0.12096694
148	0xbcae37f5	-0.021266917
149	0x3e725e6c	0.23668832
150	0xbec67227	-0.38758966
151	0x3cfe3b92	0.031034265
152	0xbe9477e4	-0.2899772
153	0x3edc3a3f	0.43013188
154	0x3ee90d0b	0.45517763
155	0xbb706c02	-0.0036685471
156	0x3db67672	0.089093104
157	0xbdb8ceeb	-0.090238415
158	0x3e2503b5	0.16114695
159	0xbe96af23	-0.29430494
160	0xbe0dda9b	-0.13852923
161	0xbe6520cc	-0.22375792
162	0x3ea39469	0.31949165
163	0x3ea42ca5	0.3206531
164	0x3e5a95b6	0.21346173
165	0x3d442a70	0.047892034
166	0xbe83a01b	-0.25708088
167	0xbcfe87a7	-0.031070543
168	0x3e42d862	0.19027856
169	0x3e8edb4d	0.27901688
170	0xbd8d4754	-0.068983704
171	0x3eb28e0c	0.34873998
172	0x3da597d0	0.080855966
173	0xbe72d283	-0.23713116
174	0xbe4accbc	-0.19804662
175	0xbd312de0	-0.04325664
176	0xbdb247a4	-0.087050706
177	0x3ddb0c84	0.106957465
178	0x3e70190a	0.23447052
179	0xbd17c090	-0.037048876
180	0xbe7fc556	-0.24977621
181	0xbdb283a4	-0.08716515
182	0xbbe022ef	-0.006840102
183	0x3d29e4d6	0.041478
184	0x3e7a4b63	0.2444282
185	0x3ed295f6	0.41130036
186	0xbcaa80d4	-0.020813383
187	0x3e2c3e58	0.16820657
188	0x3e38f8f1	0.18063714
189	0x3e09d5b1	0.13460423
190	0x3e3ffb09	0.18748106
191	0xbe077a48	-0.1323024
192	0x3ed3451f	0.41263673
193	0x3c9b89d4	0.01898662
194	0x3df4dc45	0.119560756
195	0x3e721631	0.23641278
196	0xbdaccd12	-0.084375516
197	0xbe97815c	-0.2959088
198	0x3ecfcbac	0.40585077
199	0x3e81d0aa	0.2535451
200	0x3e989ec7	0.29808637
201	0x3dc2790a	0.094957426
202	0x3ecfcc6a	0.40585643
203	0xbe135e95	-0.14391549
204	0xbe6e3cab	-0.2326533
205	0x3e8ff43c	0.28116024
206	0xbdb61627	-0.08890944
207	0x3e28b770	0.16476226
208	0x3e0af9a6	0.13571796
209	0xbde96a71	-0.11397255
210	0x3ea71502	0.32633215
211	0xbecf1aa7	-0.40450022
212	0xbe3a8ce2	-0.18217805
213	0xbe959809	-0.29217556
214	0x3ee01418	0.4376533
215	0xbd874389	-0.06604678
216	0xbe8e8b03	-0.27840433
217	0xbdb6d5d4	-0.08927503
218	0xbe889a1c	-0.26680076
219	0x3c93eaa0	0.018056214
220	0x3ec08bc6	0.3760664
221	0xbe712b61	-0.23551704
222	0xbe2248b8	-0.15848053
223	0xbdf6459c	-0.12024996
224	0x3e92f80f	0.2870488
225	0xbdd6fcb9	-0.10497422
226	0x3d8be76f	0.06831252
227	0x3ed81022	0.42199808
228	0x3e99499d	0.29938975
229	0xbea9dbe0	-0.33175564
230	0x3e673f32	0.22582701
231	0xbe743d6c	-0.23851556
232	0x3e2bcbd0	0.16776967
233	0xbeb5c24f	-0.35499808
234	0xbe03f80c	-0.12887591
235	0xbeac6e54	-0.33677924
236	0xbe72766f	-0.23677991
237	0xbc0b2ae0	-0.008494109
238	0xbd09a776	-0.03360697
239	0x3e90364a	0.2816642
240	0x3dc20b6d	0.094748355
241	0xbe9c9e1d	-0.3058938
242	0x3e86b0da	0.26306802
243	0xbdb53bef	-0.08849322
244	0x3ee5b3e5	0.4486381
245	0xbe8ff3c9	-0.2811568
246	0xbe72a845	-0.23697002
247	0xbe8eb82f	-0.27874896
248	0x3e348dc4	0.17632204
249	0x3ec4ea20	0.38459873
250	0xbe4d7c4a	-0.20066944
251	0xbc0c6814	-0.008569736
252	0xbc757d6b	-0.014983515
253	0xbc6e2642	-0.014535489
254	0x3ec6dee4	0.38841927
255	0xbe18ae75	-0.149103

fc1.bias f4 [256]
0	0xbd484aa7	-0.04889932
1	0xbd9ecd88	-0.07754046
2	0x3e555e72	0.2083681
3	0xbe875eb1	-0.2643943
4	0x3cbeec6a	0.02330609
5	0xbe2feb3c	-0.17179579
6	0x3d0da6e7	0.034583
7	0x3e8750d7	0.26428863
8	0xbdc7d76f	-0.097578876
9	0x3d5877d6	0.05284866
10	0x3e34606e	0.1761491
11	0x3c123dd6	0.008925876
12	0x3d06ac01	0.03287888
13	0xbe4f8403	-0.20265202
14	0x3e557122	0.20843938
15	0xbcfa92b2	-0.030587528
16	0x3eab5a10	0.3346715
17	0xbe87c4f6	-0.26517457
18	0x3e854617	0.26030037
19	0x3e3edcdf	0.18638943
20	0x3ca55590	0.020182401
21	0x3e32362f	0.17403482
22	0xbc1757eb	-0.00923727
23	0x3e800592	0.2500425
24	0x3df7b69d	0.120953776
25	0xbe804768	-0.2505448
26	0x3ce910c4	0.028450377
27	0x3c3fcfc9	0.011707255
28	0xbd16f20d	-0.03685193
29	0x3e847b3d	0.25875273
30	0x3eb611ee	0.35560554
31	0xbeaa7252	-0.33290344
32	0xbdfb4ba3	-0.12270286
33	0xbea1b309	-0.31581905
34	0xbe967a4f	-0.2939019
35	0x3eaacd4e	0.3335976
36	0x3dc0055b	0.093760215
37	0xbe14ccf1	-0.14531304
38	0x3c94fd40	0.018187165
39	0x3d842492	0.06452288
40	0x3d17c230	0.037050426
41	0x3df112ce	0.11771165
42	0x3e8f9256	0.28041333
43	0xb86c8440	-5.6389952e-05
44	0x3d933a92	0.07188906
45	0xbebdb6f6	-0.3705365
46	0xbe4043ee	-0.18775913
47	0x3eaf59b0	0.34248114
48	0xbdde2a39	-0.10847897
49	0x3e5dbca4	0.21653992
50	0x3eb639cc	0.3559097
51	0xbb27c36c	-0.0025598658
52	0xbe58be49	-0.21166338
53	0x3dc0eb04	0.09419826
54	0xbe8d9815	-0.27655092
55	0xbd726cc8	-0.059185773
56	0x3eb24d8e	0.34824795
57	0x3c2ae1ec	0.010429841
58	0x3e87815c	0.2646588
59	0x3ec15521	0.3776026
60	0xbeb475a2	-0.35245997
61	0xbe5b4801	-0.21414186
62	0x3d91a19b	0.07110902
63	0xbea6b848	-0.3256247
64	0xbd3994be	-0.045307867
65	0x3d961113	0.073274754
66	0xbde47015	-0.111541905
67	0x3e4f0d38	0.20219886
68	0x3e911c8b	0.2834209
69	0x3e7aa49a	0.24476853
70	0x3e1e58b0	0.15463519
71	0xbde55fdd	-0.11199925
72	0x3e428f6e	0.19000027
73	0xbe07c17b	-0.132574
74	0xbe894e06	-0.2681734
75	0x3e654df0	0.22393012
76	0xbe6def1f	-0.23235749
77	0xbd43cabe	-0.047800772
78	0xbe5b048c	-0.21388453
79	0x3ed4f14f	0.41590354
80	0xbe085531	-0.13313748
81	0xbd7bdf98	-0.061492532
82	0x3d9c8a44	0.076435596
83	0x3e9e4281	0.30910113
84	0x3e6d3c87	0.2316762
85	0xbea5f6b0	-0.3241477
86	0x3d8d14c8	0.06888729
87	0x3e34e34d	0.17664833
88	0x3e982136	0.29712838
89	0x3db40aef	0.08791148
90	0x3e840f37	0.25792858
91	0x3ec07ae3	0.37593755
92	0xbd831d77	-0.06402104
93	0xbce8a300	-0.028398037
94	0x3cb6ed16	0.022329848
95	0x3ea634e4	0.32462227
96	0x3e9c1da7	0.30491373
97	0xbde97082	-0.11398412
98	0x3e82060d	0.2539524
99	0xbca0b1c7	-0.01961602
100	0xbe8eaf3f	-0.27868077
101	0xbe437dae	-0.19090912
102	0x3c6a5339	0.014302068
103	0x3e677624	0.22603661
104	0xbe9a57a0	-0.30144978
105	0x3eac4c23	0.33651838
106	0x3e82640b	0.25466952
107	0x3e4a824c	0.19776267
108	0x3cff9b6f	0.031202046
109	0xbde16adf	-0.11006712
110	0xbdcb8974	-0.099383265
111	0xbe189752	-0.14901474
112	0xbebee5d5	-0.37284723
113	0x3eaca717	0.3372123
114	0x3e84bc31	0.2592483
115	0x3d2421ab	0.04007117
116	0x3d937cce	0.07201539
117	0xbe09bf2f	-0.13451837
118	0x3e69f5c1	0.22847654
119	0x3cff2a9a	0.031148244
120	0xbe3e63af	-0.18592714
121	0x3eac076a	0.33599406
122	0x3eda8bbf	0.42684743
123	0x3edc7cf6	0.43064088
124	0xbe9b7b38	-0.30367446
125	0x3eaf2ce2	0.3421393
126	0xbe8bebe2	-0.27328402
127	0xbd9ace02	-0.07558824
128	0xbe60207f	-0.21887396
129	0xbd28196e	-0.041039877
130	0x3e66263d	0.22475524
131	0x3e20da4a	0.1570827
132	0x3deb220e	0.11481105
133	0xba1f7ff9	-0.0006084438
134	0x3e87b26c	0.26503313
135	0x3e865741	0.26238444
136	0x3b2dfb80	0.002654761
137	0xbe1091ec	-0.14118165
138	0x3ed48f15	0.41515413
139	0xbe5d2d54	-0.21599323
140	0x3e801f9c	0.25024116
141	0xbe54381a	-0.20724526
142	0x3d340986	0.043954395
143	0xbec504c6	-0.38480204
144	0xbdd224b9	-0.102609105
145	0x3e06000e	0.13085958
146	0xbdfa8cf4	-0.12233916
147	0xbe9eab9e	-0.3099031
148	0x3eab125a	0.3341244
149	0xbe8b375c	-0.27190673
150	0x3ea1043e	0.3144855
151	0x3ebeaf51	0.3724313
152	0x3e242bbb	0.16032307
153	0x3ec7755e	0.38956732
154	0x3e6b847d	0.22999759
155	0xbe1b13f7	-0.15144335
156	0xbea3d669	-0.3199952
157	0xbe39389a	-0.18087998
158	0x3ecbed04	0.39829266
159	0xbe53d740	-0.2068758
160	0xbe4d87ef	-0.20071386
161	0xbd8e400b	-0.06945809
162	0x3d1f765b	0.038931232
163	0x3ee5c1e8	0.448745
164	0x3e26e358	0.16297662
165	0x3e970a1c	0.294999
166	0x3cd24bf5	0.025670985
167	0x3e228628	0.15871489
168	0x3d7093e0	0.058734775
169	0xbcea1741	-0.028575541
170	0xbe6d15f4	-0.23152906
171	0x3cf84b99	0.030309485
172	0xbe704a4c	-0.23465842
173	0x3ed4503a	0.41467458
174	0xbd81a936	-0.063311026
175	0xbde89c6f	-0.11357962
176	0xbeadb6c6	-0.33928508
177	0x3e4f889f	0.2026696
178	0x3e482698	0.19545972
179	0x3e1afab0	0.15134692
180	0x3d22ae39	0.039716933
181	0x3e5794cc	0.21052855
182	0x3b933480	0.0044923425
183	0xbd8225e5	-0.06354884
184	0xbea7c368	-0.3276627
185	0xbe129ae4	-0.14316899
186	0xbe77fe7e	-0.24218175
187	0x3e181d0b	0.14854829
188	0x3e83e51e	0.2576074
189	0xbe21d686	-0.1580449
190	0xbe8783e0	-0.264678
191	0x3eb10673	0.34575233
192	0x3e72bdad	0.23705168
193	0x3ebc638d	0.367947
194	0xbe5a5385	-0.21320923
195	0xbe188276	-0.14893517
196	0x3e8a9dd6	0.27073544
197	0xbd9dd90e	-0.077074155
198	0xbea150cf	-0.31506965
199	0x3e421c8b	0.18956201
200	0x3ea37ea8	0.3193257
201	0xbe09f7b4	-0.13473397
202	0xbebb62ac	-0.36598718
203	0xbe9f7ee8	-0.3115151
204	0x3d416240	0.04721284
205	0x3d2b59e8	0.04183379
206	0x3da3c635	0.07996789
207	0x3ec4919c	0.3839234
208	0x3ec19b66	0.37813872
209	0x3e126dba	0.1429967
210	0x3e3bf618	0.18355596
211	0x3ebdae69	0.37047127
212	0xbebc12ed	-0.3673319
213	0x3e48489f	0.19558953
214	0xbdc7c128	-0.097536385
215	0xbe989bbf	-0.29806325
216	0x3e95725d	0.29188815
217	0xbeacb023	-0.33728132
218	0x3dccd810	0.10002148
219	0x3ed61c44	0.4181844
220	0x3ebdb60b	0.3705295
221	0x3e77d5bb	0.24202625
222	0x3e328256	0.17432532
223	0x3eb231ab	0.3480352
224	0x3ebf9a24	0.37422287
225	0xbeae7101	-0.3407059
226	0x3dcc584d	0.099777795
227	0x3eef0a32	0.46687466
228	0x3deffe23	0.117183946
229	0x3e612777	0.21987711
230	0xba157a00	-0.00057020783
231	0xbea9b3eb	-0.3314508
232	0x3dc89404	0.09793857
233	0xbe325ce3	-0.17418246
234	0xbeb24d48	-0.34824586
235	0x3e271f3e	0.16320512
236	0xbd53a5aa	-0.05167166
237	0x3eb30fc2	0.3497296
238	0x3ea80950	0.32819605
239	0x3d8bbe89	0.06823451
240	0xbd8ecc6c	-0.06972584
241	0x3d62b876	0.055351697
242	0xbe5aef55	-0.2138036
243	0x3ed6b04a	0.41931373
244	0xbe7c589b	-0.24643175
245	0x3dc13e1c	0.094356745
246	0xbd28489c	-0.04108487
247	0xbe66e1a1	-0.22547008
248	0x3df8e910	0.12153828
249	0xbe078716	-0.13235125
250	0xbeb3b3bc	-0.35098064
251	0xbeb4a4a3	-0.35281858
252	0xbe90ecad	-0.2830557
253	0x3e062ece	0.13103792
254	0xbe388c69	-0.18022312
255	0x3d922ae0	0.07137084

ln1.alpha f4 [256]
0	0x3f800000	1.0
1	0x3f800000	1.0
2	0x3f800000	1.0
3	0x3f800000	1.0
4	0x3f800000	1.0
5	0x3f800000	1.0
6	0x3f800000	1.0
7	0x3f800000	1.0
8	0x3f800000	1.0
9	0x3f800000	1.0
10	0x3f800000	1.0
11	0x3f800000	1.0
12	0x3f800000	1.0
13	0x3f800000	1.0
14	0x3f800000	1.0
15	0x3f800000	1.0
16	0x3f800000	1.0
17	0x3f800000	1.0
18	0x3f800000	1.0
19	0x3f800000	1.0
20	0x3f800000	1.0
21	0x3f800000	1.0
22	0x3f800000	1.0
23	0x3f800000	1.0
24	0x3f800000	1.0
25	0x3f800000	1.0
26	0x3f800000	1.0
27	0x3f800000	1.0
28	0x3f800000	1.0
29	0x3f800000	1.0
30	0x3f800000	1.0
31	0x3f800000	1.0
32	0x3f800000	1.0
33	0x3f800000	1.0
34	0x3f800000	1.0
35	0x3f800000	1.0
36	0x3f800000	1.0
37	0x3f800000	1.0
38	0x3f800000	1.0
39	0x3f800000	1.0
40	0x3f800000	1.0
41	0x3f800000	1.0
42	0x3f800000	1.0
43	0x3f800000	1.0
44	0x3f800000	1.0
45	0x3f800000	1.0
46	0x3f800000	1.0
47	0x3f800000	1.0
48	0x3f800000	1.0
49	0x3f800000	1.0
50	0x3f800000	1.0
51	0x3f800000	1.0
52	0x3f800000	1.0
53	0x3f800000	1.0
54	0x3f800000	1.0
55	0x3f800000	1.0
56	0x3f800000	1.0
57	0x3f800000	1.0
58	0x3f800000	1.0
59	0x3f800000	1.0
60	0x3f800000	1.0
61	0x3f800000	1.0
62	0x3f800000	1.0
63	0x3f800000	1.0
64	0x3f800000	1.0
65	0x3f800000	1.0
66	0x3f800000	1.0
67	0x3f800000	1.0
68	0x3f800000	1.0
69	0x3f800000	1.0
70	0x3f800000	1.0
71	0x3f800000	1.0
72	0x3f800000	1.0
73	0x3f800000	1.0
74	0x3f800000	1.0
75	0x3f800000	1.0
76	0x3f800000	1.0
77	0x3f800000	1.0
78	0x3f800000	1.0
79	0x3f800000	1.0
80	0x3f800000	1.0
81	0x3f800000	1.0
82	0x3f800000	1.0
83	0x3f800000	1.0
84	0x3f800000	1.0
85	0x3f800000	1.0
86	0x3f800000	1.0
87	0x3f800000	1.0
88	0x3f800000	1.0
89	0x3f800000	1.0
90	0x3f800000	1.0
91	0x3f800000	1.0
92	0x3f800000	1.0
93	0x3f800000	1.0
94	0x3f800000	1.0
95	0x3f800000	1.0
96	0x3f800000	1.0
97	0x3f800000	1.0
98	0x3f800000	1.0
99	0x3f800000	1.0
100	0x3f800000	1.0
101	0x3f800000	1.0
102	0x3f800000	1.0
103	0x3f800000	1.0
104	0x3f800000	1.0
105	0x3f800000	1.0
106	0x3f800000	1.0
107	0x3f800000	1.0
108	0x3f800000	1.0
109	0x3f800000	1.0
110	0x3f800000	1.0
111	0x3f800000	1.0
112	0x3f800000	1.0
113	0x3f800000	1.0
114	0x3f800000	1.0
115	0x3f800000	1.0
116	0x3f800000	1.0
117	0x3f800000	1.0
118	0x3f800000	1.0
119	0x3f800000	1.0
120	0x3f800000	1.0
121	0x3f800000	1.0
122	0x3f800000	1.0
123	0x3f800000	1.0
124	0x3f800000	1.0
125	0x3f800000	1.0
126	0x3f800000	1.0
127	0x3f800000	1.0
128	0x3f800000	1.0
129	0x3f800000	1.0
130	0x3f800000	1.0
131	0x3f800000	1.0
132	0x3f800000	1.0
133	0x3f800000	1.0
134	0x3f800000	1.0
135	0x3f800000	1.0
136	0x3f800000	1.0
137	0x3f800000	1.0
138	0x3f800000	1.0
139	0x3f800000	1.0
140	0x3f800000	1.0
141	0x3f800000	1.0
142	0x3f800000	1.0
143	0x3f800000	1.0
144	0x3f800000	1.0
145	0x3f800000	1.0
146	0x3f800000	1.0
147	0x3f800000	1.0
148	0x3f800000	1.0
149	0x3f800000	1.0
150	0x3f800000	1.0
151	0x3f800000	1.0
152	0x3f800000	1.0
153	0x3f800000	1.0
154	0x3f800000	1.0
155	0x3f800000	1.0
156	0x3f800000	1.0
157	0x3f800000	1.0
158	0x3f800000	1.0
159	0x3f800000	1.0
160	0x3f800000	1.0
161	0x3f800000	1.0
162	0x3f800000	1.0
163	0x3f800000	1.0
164	0x3f800000	1.0
165	0x3f800000	1.0
166	0x3f800000	1.0
167	0x3f800000	1.0
168	0x3f800000	1.0
169	0x3f800000	1.0
170	0x3f800000	1.0
171	0x3f800000	1.0
172	0x3f800000	1.0
173	0x3f800000	1.0
174	0x3f800000	1.0
175	0x3f800000	1.0
176	0x3f800000	1.0
177	0x3f800000	1.0
178	0x3f800000	1.0
179	0x3f800000	1.0
180	0x3f800000	1.0
181	0x3f800000	1.0
182	0x3f800000	1.0
183	0x3f800000	1.0
184	0x3f800000	1.0
185	0x3f800000	1.0
186	0x3f800000	1.0
187	0x3f800000	1.0
188	0x3f800000	1.0
189	0x3f800000	1.0
190	0x3f800000	1.0
191	0x3f800000	1.0
192	0x3f800000	1.0
193	0x3f800000	1.0
194	0x3f800000	1.0
195	0x3f800000	1.0
196	0x3f800000	1.0
197	0x3f800000	1.0
198	0x3f800000	1.0
199	0x3f800000	1.0
200	0x3f800000	1.0
201	0x3f800000	1.0
202	0x3f800000	1.0
203	0x3f800000	1.0
204	0x3f800000	1.0
205	0x3f800000	1.0
206	0x3f800000	1.0
207	0x3f800000	1.0
208	0x3f800000	1.0
209	0x3f800000	1.0
210	0x3f800000	1.0
211	0x3f800000	1.0
212	0x3f800000	1.0
213	0x3f800000	1.0
214	0x3f800000	1.0
215	0x3f800000	1.0
216	0x3f800000	1.0
217	0x3f800000	1.0
218	0x3f800000	1.0
219	0x3f800000	1.0
220	0x3f800000	1.0
221	0x3f800000	1.0
222	0x3f800000	1.0
223	0x3f800000	1.0
224	0x3f800000	1.0
225	0x3f800000	1.0
226	0x3f800000	1.0
227	0x3f800000	1.0
228	0x3f800000	1.0
229	0x3f800000	1.0
230	0x3f800000	1.0
231	0x3f800000	1.0
232	0x3f800000	1.0
233	0x3f800000	1.0
234	0x3f800000	1.0
235	0x3f800000	1.0
236	0x3f800000	1.0
237	0x3f800000	1.0
238	0x3f800000	1.0
239	0x3f800000	1.0
240	0x3f800000	1.0
241	0x3f800000	1.0
242	0x3f800000	1.0
243	0x3f800000	1.0
244	0x3f800000	1.0
245	0x3f800000	1.0
246	0x3f800000	1.0
247	0x3f800000	1.0
248	0x3f800000	1.0
249	0x3f800000	1.0
250	0x3f800000	1.0
251	0x3f800000	1.0
252	0x3f800000	1.0
253	0x3f800000	1.0
254	0x3f800000	1.0
255	0x3f800000	1.0

ln1.bias f4 [256]
0	0x00000000	0.0
1	0x00000000	0.0
2	0x00000000	0.0
3	0x00000000	0.0
4	0x00000000	0.0
5	0x00000000	0.0
6	0x00000000	0.0
7	0x00000000	0.0
8	0x00000000	0.0
9	0x00000000	0.0
10	0x00000000	0.0
11	0x00000000	0.0
12	0x00000000	0.0
13	0x00000000	0.0
14	0x00000000	0.0
15	0x00000000	0.0
16	0x00000000	0.0
17	0x00000000	0.0
18	0x00000000	0.0
19	0x00000000	0.0
20	0x00000000	0.0
21	0x00000000	0.0
22	0x00000000	0.0
23	0x00000000	0.0
24	0x00000000	0.0
25	0x00000000	0.0
26	0x00000000	0.0
27	0x00000000	0.0
28	0x00000000	0.0
29	0x00000000	0.0
30	0x00000000	0.0
31	0x00000000	0.0
32	0x00000000	0.0
33	0x00000000	0.0
34	0x00000000	0.0
35	0x00000000	0.0
36	0x00000000	0.0
37	0x00000000	0.0
38	0x00000000	0.0
39	0x00000000	0.0
40	0x00000000	0.0
41	0x00000000	0.0
42	0x00000000	0.0
43	0x00000000	0.0
44	0x00000000	0.0
45	0x00000000	0.0
46	0x00000000	0.0
47	0x00000000	0.0
48	0x00000000	0.0
49	0x00000000	0.0
50	0x00000000	0.0
51	0x00000000	0.0
52	0x00000000	0.0
53	0x00000000	0.0
54	0x00000000	0.0
55	0x00000000	0.0
56	0x00000000	0.0
57	0x00000000	0.0
58	0x00000000	0.0
59	0x00000000	0.0
60	0x00000000	0.0
61	0x00000000	0.0
62	0x00000000	0.0
63	0x00000000	0.0
64	0x00000000	0.0
65	0x00000000	0.0
66	0x00000000	0.0
67	0x00000000	0.0
68	0x00000000	0.0
69	0x00000000	0.0
70	0x00000000	0.0
71	0x00000000	0.0
72	0x00000000	0.0
73	0x00000000	0.0
74	0x00000000	0.0
75	0x00000000	0.0
76	0x00000000	0.0
77	0x00000000	0.0
78	0x00000000	0.0
79	0x00000000	0.0
80	0x00000000	0.0
81	0x00000000	0.0
82	0x00000000	0.0
83	0x00000000	0.0
84	0x00000000	0.0
85	0x00000000	0.0
86	0x00000000	0.0
87	0x00000000	0.0
88	0x00000000	0.0
89	0x00000000	0.0
90	0x00000000	0.0
91	0x00000000	0.0
92	0x00000000	0.0
93	0x00000000	0.0
94	0x00000000	0.0
95	0x00000000	0.0
96	0x00000000	0.0
97	0x00000000	0.0
98	0x00000000	0.0
99	0x00000000	0.0
100	0x00000000	0.0
101	0x00000000	0.0
102	0x00000000	0.0
103	0x00000000	0.0
104	0x00000000	0.0
105	0x00000000	0.0
106	0x00000000	0.0
107	0x00000000	0.0
108	0x00000000	0.0
109	0x00000000	0.0
110	0x00000000	0.0
111	0x00000000	0.0
112	0x00000000	0.0
113	0x00000000	0.0
114	0x00000000	0.0
115	0x00000000	0.0
116	0x00000000	0.0
117	0x00000000	0.0
118	0x00000000	0.0
119	0x00000000	0.0
120	0x00000000	0.0
121	0x00000000	0.0
122	0x00000000	0.0
123	0x00000000	0.0
124	0x00000000	0.0
125	0x00000000	0.0
126	0x00000000	0.0
127	0x00000000	0.0
128	0x00000000	0.0
129	0x00000000	0.0
130	0x00000000	0.0
131	0x00000000	0.0
132	0x00000000	0.0
133	0x00000000	0.0
134	0x00000000	0.0
135	0x00000000	0.0
136	0x00000000	0.0
137	0x00000000	0.0
138	0x00000000	0.0
139	0x00000000	0.0
140	0x00000000	0.0
141	0x00000000	0.0
142	0x00000000	0.0
143	0x00000000	0.0
144	0x00000000	0.0
145	0x00000000	0.0
146	0x00000000	0.0
147	0x00000000	0.0
148	0x00000000	0.0
149	0x00000000	0.0
150	0x00000000	0.0
151	0x00000000	0.0
152	0x00000000	0.0
153	0x00000000	0.0
154	0x00000000	0.0
155	0x00000000	0.0
156	0x00000000	0.0
157	0x00000000	0.0
158	0x00000000	0.0
159	0x00000000	0.0
160	0x00000000	0.0
161	0x00000000	0.0
162	0x00000000	0.0
163	0x00000000	0.0
164	0x00000000	0.0
165	0x00000000	0.0
166	0x00000000	0.0
167	0x00000000	0.0
168	0x00000000	0.0
169	0x00000000	0.0
170	0x00000000	0.0
171	0x00000000	0.0
172	0x00000000	0.0
173	0x00000000	0.0
174	0x00000000	0.0
175	0x00000000	0.0
176	0x00000000	0.0
177	0x00000000	0.0
178	0x00000000	0.0
179	0x00000000	0.0
180	0x00000000	0.0
181	0x00000000	0.0
182	0x00000000	0.0
183	0x00000000	0.0
184	0x00000000	0.0
185	0x00000000	0.0
186	0x00000000	0.0
187	0x00000000	0.0
188	0x00000000	0.0
189	0x00000000	0.0
190	0x00000000	0.0
191	0x00000000	0.0
192	0x00000000	0.0
193	0x00000000	0.0
194	0x00000000	0.0
195	0x00000000	0.0
196	0x00000000	0.0
197	0x00000000	0.0
198	0x00000000	0.0
199	0x00000000	0.0
200	0x00000000	0.0
201	0x00000000	0.0
202	0x00000000	0.0
203	0x00000000	0.0
204	0x00000000	0.0
205	0x00000000	0.0
206	0x00000000	0.0
207	0x00000000	0.0
208	0x00000000	0.0
209	0x00000000	0.0
210	0x00000000	0.0
211	0x00000000	0.0
212	0x00000000	0.0
213	0x00000000	0.0
214	0x00000000	0.0
215	0x00000000	0.0
216	0x00000000	0.0
217	0x00000000	0.0
218	0x00000000	0.0
219	0x00000000	0.0
220	0x00000000	0.0
221	0x00000000	0.0
222	0x00000000	0.0
223	0x00000000	0.0
224	0x00000000	0.0
225	0x00000000	0.0
226	0x00000000	0.0
227	0x00000000	0.0
228	0x00000000	0.0
229	0x00000000	0.0
230	0x00000000	0.0
231	0x00000000	0.0
232	0x00000000	0.0
233	0x00000000	0.0
234	0x00000000	0.0
235	0x00000000	0.0
236	0x00000000	0.0
237	0x00000000	0.0
238	0x00000000	0.0
239	0x00000000	0.0
240	0x00000000	0.0
241	0x00000000	0.0
242	0x00000000	0.0
243	0x00000000	0.0
244	0x00000000	0.0
245	0x00000000	0.0
246	0x00000000	0.0
247	0x00000000	0.0
248	0x00000000	0.0
249	0x00000000	0.0
250	0x00000000	0.0
251	0x00000000	0.0
252	0x00000000	0.0
253	0x00000000	0.0
254	0x00000000	0.0
255	0x00000000	0.0

fc2.weight f4 [128, 256]
0	0xbac82dbf	-0.0015272422
1	0xbc770661	-0.015077204
2	0x3b931740	0.0044888556
3	0x3d4fe63a	0.05075667
4	0x3d31ca63	0.0434059
5	0xbe9e6056	-0.30932873
6	0xbdb6e899	-0.08931083
7	0x3d4a7b3b	0.049433928
8	0x3c2c775c	0.010526504
9	0xbce2f488	-0.027704492
10	0x3e0d9516	0.13826403
11	0x3c195650	0.009358957
12	0x3da9ab3f	0.08284616
13	0x3da0c193	0.07849421
14	0x3e90416f	0.28174922
15	0x3e1c2db7	0.15251814
16	0x3e0d7f60	0.13818121
17	0x39823fb2	0.0002484299
18	0xbd52d55d	-0.05147301
19	0x3e113be7	0.14183007
20	0x3e603aae	0.21897385
21	0x3e0e61ba	0.13904467
22	0xbdb397cf	-0.087691896
23	0x3c8ea486	0.017412435
24	0xbce31bee	-0.027723279
25	0xbd6b6e79	-0.0574784
26	0xbd4ae5d2	-0.04953558
27	0xbc5e41e6	-0.013565516
28	0xbd77129a	-0.060320474
29	0x3d240a24	0.040048733
30	0x3e025071	0.12725998
31	0x3d7efc5c	0.062252387
32	0xbd6ccb14	-0.057810858
33	0xbd580ded	-0.052747656
34	0x3d9066c8	0.07050854
35	0x3d822e12	0.063564435
36	0x3d4b7ea0	0.049681306
37	0x3e5b3208	0.21405804
38	0x3dda625f	0.10663294
39	0xbe49f24b	-0.19721334
40	0xbd1d1a5f	-0.038355228
41	0x3d95e834	0.0731968
42	0xbd100b19	-0.035166834
43	0x3d9b0a60	0.07570338
44	0x3e39d92e	0.18149254
45	0xbd6811ca	-0.05665759
46	0xbc775bea	-0.015097598
47	0x3d5d81e3	0.054078948
48	0x3b3cd6be	0.002881452
49	0xbd40cc41	-0.04706979
50	0xbcc3a5a8	-0.023882702
51	0xbdd9c163	-0.10632589
52	0xbc9114dd	-0.017710144
53	0xbd416384	-0.047214046
54	0x3e8c6eaa	0.2742818
55	0x3e02e905	0.12784202
56	0xbe42ece2	-0.19035676
57	0xbe1e39cc	-0.15451735
58	0x3dab59ad	0.08366714
59	0x3d3e655d	0.046483386
60	0x3b52512a	0.0032091835
61	0xbbf221c3	-0.0073892786
62	0xbd4ebc03	-0.05047227
63	0xbc1654a8	-0.009175457
64	0xbdb6820c	-0.08911523
65	0xbc2e5d0d	-0.010642302
66	0xbe143830	-0.14474559
67	0x3ea60716	0.3242728
68	0x3e176bed	0.14787264
69	0x3cf0d2de	0.029397424
70	0x3e166516	0.14686999
71	0xbba0cd3b	-0.004907278
72	0x3d496ed8	0.049177974
73	0xbc752732	-0.014962958
74	0xbdddd9e8	-0.10832578
75	0xbb98e740	-0.004666239
76	0xbd8c6dee	-0.06856905
77	0x3cbac914	0.02280096
78	0xbdf489f3	-0.11940374
79	0x3da0b6f0	0.078473926
80	0x3ca5a0d8	0.020218298
81	0xbd5ef470	-0.054432333
82	0x3dcde109	0.10052688
83	0x3c529eb2	0.012855219
84	0x3ce2538e	0.027627733
85	0x3e9cb411	0.3060613
86	0x3e19b048	0.15008652
87	0xbd8ef082	-0.06979467
88	0xbd270630	-0.040777385
89	0x3dfdeb0f	0.123983495
90	0x3ddc9061	0.107697256
91	0xbbbfcfec	-0.0058536436
92	0x3ce1584b	0.027507922
93	0xbc016ff8	-0.007900231
94	0x3da86aba	0.082234815
95	0x3de1adf8	0.1101951
96	0x3c37ee81	0.011226297
97	0x3ce1e587	0.027575267
98	0x3d256a07	0.04038432
99	0xbc593a6b	-0.013258557
100	0xb9b69aa8	-0.00034828973
101	0x3dd3dcde	0.103448614
102	0x3d5079c0	0.05089736
103	0x3cddc10d	0.027069593
104	0xbc0a3f30	-0.008437917
105	0xbcd8b2e9	-0.026452499
106	0x3ca7f5df	0.020502983
107	0x3da3dbb6	0.08000891
108	0x3e9051b7	0.28187343
109	0xbd8e8df1	-0.06960667
110	0xbc728777	-0.014802805
111	0xbbbec09b	-0.0058213
112	0xbd1f3286	-0.038866542
113	0x3dbfa268	0.093571484
114	0x3d62dcb9	0.05538628
115	0x3e1e0374	0.15431005
116	0xb98de900	-0.00027067214
117	0x3d5e40a9	0.054260883
118	0x3d0d1e3b	0.03445266
119	0x3df5b967	0.11998253
120	0xbc69c3f4	-0.01426791
121	0x3e158bf4	0.14604169
122	0x3dced69a	0.10099526
123	0x3d9d292f	0.07673871
124	0x3ace6fe0	0.0015749894
125	0x3d1402cf	0.03613549
126	0xbe55ceb1	-0.20879628
127	0x3de8ad9f	0.113612406
128	0xbe0dd871	-0.13852097
129	0xbd4c7f0b	-0.049925845
130	0x3d8af021	0.06784082
131	0x3e056be9	0.13029446
132	0x3ca13351	0.01967779
133	0xbd12577d	-0.035727967
134	0xbbe52c1b	-0.006993783
135	0xbca80f7d	-0.020515198
136	0xbd68b69d	-0.05681478
137	0x3c8ab594	0.016932286
138	0x3d4bced9	0.049757812
139	0xbc8d51c6	-0.017250907
140	0x3eb3fee0	0.35155392
141	0xbe0422cc	-0.12903899
142	0x3e274f89	0.16338934
143	0xbd983323	-0.074316286
144	0xbc359c4d	-0.011084628
145	0xbf047408	-0.5173955
146	0xbc566dd4	-0.0130877085
147	0x3d73c9ae	0.05951851
148	0x3ca161a0	0.019699872
149	0x3e4ad2d3	0.19806986
150	0x3df06cb9	0.11739487
151	0x3d805997	0.06267088
152	0x3d38527d	0.045000542
153	0x3daf497a	0.085589364
154	0x3d9a833b	0.075445615
155	0xbc552458	-0.013009153
156	0xbd45b520	-0.048268437
157	0xbd898f73	-0.06716814
158	0x3dfc6a61	0.12324978
159	0xbd92ca7c	-0.07167527
160	0xbe39cadd	-0.18143792
161	0x3cffdb86	0.031232607
162	0xbdff7ef8	-0.12475389
163	0x3db88e84	0.09011558
164	0x3debe34a	0.11517961
165	0x3dab0eef	0.08352458
166	0x3c262716	0.010141155
167	0xbe52ea54	-0.20597202
168	0x3d270fa9	0.04078642
169	0xbd0c2a24	-0.034219876
170	0xbb0bfa3e	-0.0021358873
171	0xbea4b958	-0.32172656
172	0xbbae2d70	-0.005315475
173	0x3b9cbab8	0.004783001
174	0x3e2b5019	0.16729774
175	0xbde9840a	-0.114021376
176	0xbd3007f4	-0.042976335
177	0x3d5fb241	0.054613356
178	0x3daa70fe	0.08322333
179	0x3cced541	0.025248172
180	0x3d626e6e	0.055281095
181	0xbe8871fc	-0.26649463
182	0x3cac1644	0.02100671
183	0xbdb63539	-0.0889687
184	0xbe60895d	-0.219274
185	0x3cb459c0	0.022015452
186	0x3e34242a	0.1759192
187	0xbdc92a82	-0.09822561
188	0x3e1e9ec3	0.1549025
189	0xbca13df4	-0.019682862
190	0x3e6612ae	0.22468063
191	0xbc77bea7	-0.015121139
192	0x3d86e2bc	0.06586215
193	0xbb99bd59	-0.0046917615
194	0xbd2dae00	-0.042402267
195	0xbc575567	-0.01314292
196	0x3d90a68a	0.07063015
197	0xbcc5ce70	-0.024146289
198	0x3ec919e9	0.3927758
199	0xbc8b2960	-0.016987503
200	0x3d973060	0.07382274
201	0xbdf27222	-0.11838175
202	0x3ccf3c59	0.02529733
203	0xbe23f742	-0.1601229
204	0x3cf6b60d	0.030116105
205	0x3d23b5f2	0.03996844
206	0x3dc73a30	0.09727895
207	0xbcd129e0	-0.025532663
208	0xbce5ace2	-0.028036539
209	0xbc97d99c	-0.018536381
210	0x3e271bc7	0.1631919
211	0x3de9cc28	0.11415893
212	0xbd17ed18	-0.037091345
213	0x3b154972	0.0022779373
214	0xbd8a4bf0	-0.06752765
215	0xbd9ee1b3	-0.077578925
216	0x3e803172	0.25037724
217	0xbd7e5c52	-0.062099762
218	0x3d3c2d1b	0.045941453
219	0xbc3c75ee	-0.011502726
220	0x3e091401	0.13386537
221	0x3cee92c3	0.029122716
222	0x3d86c133	0.065798186
223	0x3d27705f	0.04087865
224	0x3daf23e8	0.085517704
225	0xbcb583a0	-0.02215749
226	0x3d12a36a	0.035800375
227	0xbbdf88d4	-0.006821731
228	0x3c9659fa	0.018353451
229	0x3d9f483a	0.07777448
230	0x3d21ae1e	0.03947269
231	0x3e0b215a	0.13586941
232	0x3b91a521	0.0044447337
233	0x3e9216f4	0.28533137
234	0x3d5a1b29	0.05324856
235	0x3e8e5474	0.27798808
236	0x3d4031ed	0.046922613
237	0x3e0624ac	0.13099927
238	0x3d236f50	0.039901078
239	0xbc1021e5	-0.008797144
240	0x3dbab5d1	0.0911671
241	0x3d4efb1e	0.050532453
242	0x3d833992	0.06407465
243	0x3dd4816f	0.1037625
244	0xbd8e3905	-0.06944469
245	0x3d2a6959	0.041604374
246	0xbe349c77	-0.17637812
247	0xbd8057d0	-0.06266749
248	0x3d877f6f	0.06616103
249	0x3e903f7a	0.2817343
250	0x3dcfdb7b	0.101492845
251	0x3ca2eaec	0.01988741
252	0x3d48f6c6	0.049063466
253	0xbbc3d926	-0.005976814
254	0x3e117605	0.14205177
255	0x3cac2b36	0.021016698

fc2.bias f4 [128]
0	0x3d89cd0c	0.06728563
1	0x3d77adb5	0.060468394
2	0x3d49b22f	0.049242195
3	0xbd34fd73	-0.04418702
4	0x3dd9847f	0.10620975
5	0x3d6bd765	0.057578463
6	0xbd1bebcf	-0.03806668
7	0x3d544d93	0.051831793
8	0x3c1f20e2	0.00971243
9	0x3bb0b727	0.005392927
10	0xbd4e0ad8	-0.05030331
11	0x3d564eda	0.052321292
12	0x3daf3605	0.08555225
13	0x3db50694	0.08839145
14	0x3bb0ec60	0.005399272
15	0xbc8965d6	-0.016772192
16	0x3da748ef	0.08168208
17	0x3c259790	0.010106936
18	0x3d272ab2	0.0408122
19	0x3d8535ec	0.065044254
20	0x3d862771	0.065504916
21	0x3d6360a3	0.05551208
22	0x3cbe24ba	0.023210872
23	0xbd7d898e	-0.06189876
24	0x3cccb2f2	0.024987672
25	0xbd1f1f0d	-0.03884797
26	0x3c4de7f5	0.01256751
27	0x3c82065c	0.015872173
28	0x3ca0fdd6	0.019652288
29	0xbd835122	-0.06411959
30	0xbc379c6c	-0.0112067275
31	0xbccf8b4d	-0.025334978
32	0xbc810c69	-0.015752988
33	0x3d8c2f8e	0.06845008
34	0xbd1c9c33	-0.0382349
35	0x3d2e861a	0.042608358
36	0x3cb78166	0.02240057
37	0x3c57521d	0.013142136
38	0x3bd9c925	0.0066462927
39	0xbd0acc04	-0.03388597
40	0xbcbec2b3	-0.0232862
41	0xbbe56cb0	-0.007001482
42	0xbcfe0198	-0.03100662
43	0x3a5424eb	0.00080926594
44	0xbc8732c3	-0.016503697
45	0x3d06a714	0.032874182
46	0xbd7e8226	-0.062135838
47	0x3d4f220c	0.05056958
48	0x3d833b9f	0.06407856
49	0x3d52fd58	0.05151114
50	0x3c08d703	0.008352044
51	0x3ca6f916	0.020382445
52	0x3d353c8d	0.0442472
53	0xbd09c369	-0.033633623
54	0xb79b352e	-1.8502204e-05
55	0x3da175f9	0.078838296
56	0xbd2606e4	-0.040533915
57	0xbd820dbc	-0.06350276
58	0xbd5de04c	-0.054168984
59	0xbd34462a	-0.044012226
60	0x3d786aad	0.06064861
61	0xbd7cf57c	-0.06175755
62	0x3d36b5cc	0.04460697
63	0xbc37d60d	-0.011220467
64	0x3cb0d956	0.021588009
65	0x3b6f7ea0	0.003654398
66	0x3cb27b1a	0.021787215
67	0x3d51be52	0.051206894
68	0x3c974f6a	0.018470485
69	0x3b3273bd	0.002722963
70	0x3c415156	0.011799177
71	0x3d23b8fa	0.03997133
72	0x3c8f5acd	0.017499352
73	0xbd54cefa	-0.0519552
74	0xbce2c3cc	-0.027681254
75	0x3d22c056	0.039734207
76	0xbd597242	-0.05308748
77	0x3d276568	0.040868193
78	0x3dd52dde	0.10409139
79	0xbd2e0031	-0.04248065
80	0xbd48583f	-0.048912283
81	0xbd3e3f8f	-0.046447333
82	0xbd5292e0	-0.051409602
83	0xbc8e614b	-0.017380377
84	0x3c880be0	0.016607225
85	0xbd3b96fa	-0.04579828
86	0xbc007b69	-0.007841923
87	0x3dba6515	0.09101311
88	0x3cd0c89b	0.025486281
89	0x3caeb01d	0.021324212
90	0x3da17dd6	0.078853294
91	0x3d18a00c	0.037262008
92	0x3d7b4d20	0.06135285
93	0xbcb541d7	-0.022126121
94	0x3d8e394d	0.06944523
95	0xbd22042f	-0.03955477
96	0x3d43793c	0.04772304
97	0x3c03d696	0.008046767
98	0x3d7169b7	0.05893871
99	0xbd1b02d3	-0.03784449
100	0xbabb4013	-0.0014286063
101	0xbc877ef5	-0.01654003
102	0xbc2399da	-0.009985412
103	0x3d8ad37c	0.06778619
104	0x3c613cc9	0.0137474025
105	0x3d2b23e2	0.041782267
106	0xbcfebe3f	-0.031096576
107	0xbc827924	-0.015926905
108	0x3ce0ad81	0.027426483
109	0xbd57c9b0	-0.05268258
110	0x3cff205a	0.031143356
111	0xbd1005be	-0.035161726
112	0x3d8fb242	0.07016422
113	0xbd0ef848	-0.03490475
114	0x3d23d2be	0.0399959
115	0x3dc405ec	0.09571442
116	0xbd6d2a4e	-0.057901673
117	0x3d7e013e	0.062012903
118	0x3c90004e	0.01757827
119	0x3d0a2fbd	0.033736933
120	0xbbd93dad	-0.006629667
121	0x3c8da157	0.017288847
122	0xbce797f0	-0.028270692
123	0xbc0f6441	-0.00875193
124	0xbcaab3bc	-0.020837657
125	0x3c8a20de	0.016861375
126	0x3d0c758a	0.03429178
127	0xbd66a192	-0.05630643

ln2.alpha f4 [128]
0	0x3f800000	1.0
1	0x3f800000	1.0
2	0x3f800000	1.0
3	0x3f800000	1.0
4	0x3f800000	1.0
5	0x3f800000	1.0
6	0x3f800000	1.0
7	0x3f800000	1.0
8	0x3f800000	1.0
9	0x3f800000	1.0
10	0x3f800000	1.0
11	0x3f800000	1.0
12	0x3f800000	1.0
13	0x3f800000	1.0
14	0x3f800000	1.0
15	0x3f800000	1.0
16	0x3f800000	1.0
17	0x3f800000	1.0
18	0x3f800000	1.0
19	0x3f800000	1.0
20	0x3f800000	1.0
21	0x3f800000	1.0
22	0x3f800000	1.0
23	0x3f800000	1.0
24	0x3f800000	1.0
25	0x3f800000	1.0
26	0x3f800000	1.0
27	0x3f800000	1.0
28	0x3f800000	1.0
29	0x3f800000	1.0
30	0x3f800000	1.0
31	0x3f800000	1.0
32	0x3f800000	1.0
33	0x3f800000	1.0
34	0x3f800000	1.0
35	0x3f800000	1.0
36	0x3f800000	1.0
37	0x3f800000	1.0
38	0x3f800000	1.0
39	0x3f800000	1.0
40	0x3f800000	1.0
41	0x3f800000	1.0
42	0x3f800000	1.0
43	0x3f800000	1.0
44	0x3f800000	1.0
45	0x3f800000	1.0
46	0x3f800000	1.0
47	0x3f800000	1.0
48	0x3f800000	1.0
49	0x3f800000	1.0
50	0x3f800000	1.0
51	0x3f800000	1.0
52	0x3f800000	1.0
53	0x3f800000	1.0
54	0x3f800000	1.0
55	0x3f800000	1.0
56	0x3f800000	1.0
57	0x3f800000	1.0
58	0x3f800000	1.0
59	0x3f800000	1.0
60	0x3f800000	1.0
61	0x3f800000	1.0
62	0x3f800000	1.0
63	0x3f800000	1.0
64	0x3f800000	1.0
65	0x3f800000	1.0
66	0x3f800000	1.0
67	0x3f800000	1.0
68	0x3f800000	1.0
69	0x3f800000	1.0
70	0x3f800000	1.0
71	0x3f800000	1.0
72	0x3f800000	1.0
73	0x3f800000	1.0
74	0x3f800000	1.0
75	0x3f800000	1.0
76	0x3f800000	1.0
77	0x3f800000	1.0
78	0x3f800000	1.0
79	0x3f800000	1.0
80	0x3f800000	1.0
81	0x3f800000	1.0
82	0x3f800000	1.0
83	0x3f800000	1.0
84	0x3f800000	1.0
85	0x3f800000	1.0
86	0x3f800000	1.0
87	0x3f800000	1.0
88	0x3f800000	1.0
89	0x3f800000	1.0
90	0x3f800000	1.0
91	0x3f800000	1.0
92	0x3f800000	1.0
93	0x3f800000	1.0
94	0x3f800000	1.0
95	0x3f800000	1.0
96	0x3f800000	1.0
97	0x3f800000	1.0
98	0x3f800000	1.0
99	0x3f800000	1.0
100	0x3f800000	1.0
101	0x3f800000	1.0
102	0x3f800000	1.0
103	0x3f800000	1.0
104	0x3f800000	1.0
105	0x3f800000	1.0
106	0x3f800000	1.0
107	0x3f800000	1.0
108	0x3f800000	1.0
109	0x3f800000	1.0
110	0x3f800000	1.0
111	0x3f800000	1.0
112	0x3f800000	1.0
113	0x3f800000	1.0
114	0x3f800000	1.0
115	0x3f800000	1.0
116	0x3f800000	1.0
117	0x3f800000	1.0
118	0x3f800000	1.0
119	0x3f800000	1.0
120	0x3f800000	1.0
121	0x3f800000	1.0
122	0x3f800000	1.0
123	0x3f800000	1.0
124	0x3f800000	1.0
125	0x3f800000	1.0
126	0x3f800000	1.0
127	0x3f800000	1.0

ln2.bias f4 [128]
0	0x00000000	0.0
1	0x00000000	0.0
2	0x00000000	0.0
3	0x00000000	0.0
4	0x00000000	0.0
5	0x00000000	0.0
6	0x00000000	0.0
7	0x00000000	0.0
8	0x00000000	0.0
9	0x00000000	0.0
10	0x00000000	0.0
11	0x00000000	0.0
12	0x00000000	0.0
13	0x00000000	0.0
14	0x00000000	0.0
15	0x00000000	0.0
16	0x00000000	0.0
17	0x00000000	0.0
18	0x00000000	0.0
19	0x00000000	0.0
20	0x00000000	0.0
21	0x00000000	0.0
22	0x00000000	0.0
23	0x00000000	0.0
24	0x00000000	0.0
25	0x00000000	0.0
26	0x00000000	0.0
27	0x00000000	0.0
28	0x00000000	0.0
29	0x00000000	0.0
30	0x00000000	0.0
31	0x00000000	0.0
32	0x00000000	0.0
33	0x00000000	0.0
34	0x00000000	0.0
35	0x00000000	0.0
36	0x00000000	0.0
37	0x00000000	0.0
38	0x00000000	0.0
39	0x00000000	0.0
40	0x00000000	0.0
41	0x00000000	0.0
42	0x00000000	0.0
43	0x00000000	0.0
44	0x00000000	0.0
45	0x00000000	0.0
46	0x00000000	0.0
47	0x00000000	0.0
48	0x00000000	0.0
49	0x00000000	0.0
50	0x00000000	0.0
51	0x00000000	0.0
52	0x00000000	0.0
53	0x00000000	0.0
54	0x00000000	0.0
55	0x00000000	0.0
56	0x00000000	0.0
57	0x00000000	0.0
58	0x00000000	0.0
59	0x00000000	0.0
60	0x00000000	0.0
61	0x00000000	0.0
62	0x00000000	0.0
63	0x00000000	0.0
64	0x00000000	0.0
65	0x00000000	0.0
66	0x00000000	0.0
67	0x00000000	0.0
68	0x00000000	0.0
69	0x00000000	0.0
70	0x00000000	0.0
71	0x00000000	0.0
72	0x00000000	0.0
73	0x00000000	0.0
74	0x00000000	0.0
75	0x00000000	0.0
76	0x00000000	0.0
77	0x00000000	0.0
78	0x00000000	0.0
79	0x00000000	0.0
80	0x00000000	0.0
81	0x00000000	0.0
82	0x00000000	0.0
83	0x00000000	0.0
84	0x00000000	0.0
85	0x00000000	0.0
86	0x00000000	0.0
87	0x00000000	0.0
88	0x00000000	0.0
89	0x00000000	0.0
90	0x00000000	0.0
91	0x00000000	0.0
92	0x00000000	0.0
93	0x00000000	0.0
94	0x00000000	0.0
95	0x00000000	0.0
96	0x00000000	0.0
97	0x00000000	0.0
98	0x00000000	0.0
99	0x00000000	0.0
100	0x00000000	0.0
101	0x00000000	0.0
102	0x00000000	0.0
103	0x00000000	0.0
104	0x00000000	0.0
105	0x00000000	0.0
106	0x00000000	0.0
107	0x00000000	0.0
108	0x00000000	0.0
109	0x00000000	0.0
110	0x00000000	0.0
111	0x00000000	0.0
112	0x00000000	0.0
113	0x00000000	0.0
114	0x00000000	0.0
115	0x00000000	0.0
116	0x00000000	0.0
117	0x00000000	0.0
118	0x00000000	0.0
119	0x00000000	0.0
120	0x00000000	0.0
121	0x00000000	0.0
122	0x00000000	0.0
123	0x00000000	0.0
124	0x00000000	0.0
125	0x00000000	0.0
126	0x00000000	0.0
127	0x00000000	0.0

discrete_action.weight f4 [2, 128]
0	0x3f0d1ec8	0.55125093
1	0x39747dc5	0.00023316506
2	0xb94e2e24	-0.0001966288
3	0x3ce3d854	0.027813114
4	0x3f01a840	0.50647354
5	0xbafcb734	-0.0019280673
6	0xbebdcada	-0.37068826
7	0x3a666113	0.0008788269
8	0xbc3f7249	-0.011684963
9	0x3eb4b0f7	0.35291263
10	0xbb073098	-0.002062833
11	0xbed6f296	-0.41981953
12	0x3f05ef40	0.5231819
13	0x3eff2db5	0.4983956
14	0x3a1c160a	0.0005954212
15	0xbec125a6	-0.37724036
16	0x3f0f2a33	0.55923766
17	0x3ed682bc	0.41896617
18	0xb8e07100	-0.000107022
19	0xbe83abe1	-0.2571707
20	0x3ef8622a	0.48512393
21	0xbc9145b2	-0.017733429
22	0x3b16705b	0.0022955153
23	0xbb30be6b	-0.0026968967
24	0xbe9ff009	-0.3123782
25	0x3b660c59	0.0035102575
26	0xbed33f5f	-0.41259286
27	0x3a261ace	0.00063363917
28	0xbadae26b	-0.0016699558
29	0xbecfe414	-0.40603697
30	0xbeb7be91	-0.35887578
31	0x3ed32726	0.41240805
32	0xbee4bda6	-0.4467594
33	0x3f07e4ad	0.53083307
34	0x3b1e26cf	0.0024132018
35	0xbed5e3f6	-0.41775483
36	0xbe46a114	-0.19397384
37	0x399785a4	0.00028900534
38	0xbedbded4	-0.42943442
39	0xbec57c64	-0.38571465
40	0x3eae402d	0.34033337
41	0xbebc3fe7	-0.36767504
42	0x3c43f046	0.011959141
43	0xbecfa4fc	-0.4055556
44	0x3f07665e	0.52890575
45	0x3edd552e	0.4322905
46	0xba68df6e	-0.0008883391
47	0xbee02be9	-0.437835
48	0x3f10d3ab	0.5657298
49	0xbea3453e	-0.31888765
50	0xbec5d510	-0.38639116
51	0xbb71ffec	-0.0036926223
52	0x3ee0d45f	0.43912026
53	0xbee1e9be	-0.44123644
54	0x3f075c50	0.5287523
55	0x3ed83d6e	0.42234367
56	0xbec5e355	-0.38650003
57	0xba80d2ee	-0.0009828487
58	0xb982b81e	-0.0002493271
59	0xb9f22902	-0.0004618839
60	0x3f064d1f	0.5246143
61	0xb8adc358	-8.2856684e-05
62	0x3c512c5e	0.012766926
63	0xbed98f5a	-0.4249218
64	0xbed5ee9e	-0.41783613
65	0x39fc49c8	0.00048120157
66	0x3d0e8ee5	0.034804244
67	0xbea4fb77	-0.32223102
68	0x3f096b84	0.5367968
69	0xbeb98427	-0.36233637
70	0x3efbadee	0.49156135
71	0x3cd6b9b2	0.026211593
72	0xbe8c47f2	-0.2739864
73	0x3e75082f	0.23928903
74	0xbeb0c51f	-0.3452539
75	0xbeb5871f	-0.35454652
76	0xbbce41f6	-0.0062944843
77	0x3a8112cc	0.0009847521
78	0x3df5a570	0.11994445
79	0x3aaf52dd	0.0013376136
80	0x3eb17682	0.34660727
81	0xbe9bb942	-0.30414778
82	0xbeb24c87	-0.3482401
83	0xbebfc871	-0.37457612
84	0xbeb15333	-0.34633788
85	0xba7db8a7	-0.00096786994
86	0xbeb7af81	-0.35876086
87	0x3f095045	0.53638107
88	0x3eff53f7	0.49868748
89	0x3e983868	0.29730535
90	0x3e0cc110	0.13745522
91	0x3ee033a9	0.43789414
92	0xbeabe494	-0.3357283
93	0xbe5765e1	-0.21034957
94	0xbdf6f4fe	-0.12058447
95	0x3b14ae65	0.0022686955
96	0xb9d6cb31	-0.0004096865
97	0x3a296ebc	0.0006463339
98	0xbe80f58e	-0.25187343
99	0xbb189e98	-0.0023287889
100	0xbeb90d4f	-0.36142966
101	0xbef59c4d	-0.4797081
102	0xbe8356d6	-0.25652188
103	0x3ef2caf8	0.47420478
104	0xbb3b1a22	-0.0028549512
105	0x3c3ab71d	0.011396197
106	0xbeb3a5e6	-0.35087508
107	0x3f081988	0.5316396
108	0xb9567c08	-0.00020454836
109	0x3a124aca	0.00055806024
110	0xbec65597	-0.38737175
111	0xbed63054	-0.41833746
112	0x3e02f60d	0.12789173
113	0x3890c2c0	6.90273e-05
114	0xbec08026	-0.3759777
115	0x3ef1d148	0.4722998
116	0x3b8ff090	0.004392691
117	0xbe8b43c4	-0.2720014
118	0x3bd091b7	0.006365027
119	0xbef15c93	-0.4714094
120	0xb99059c8	-0.00027532713
121	0xbeed85c8	-0.4639113
122	0xbc68704e	-0.014186932
123	0xbb1d0492	-0.0023959023
124	0x3a0ff638	0.00054917065
125	0xbeda1267	-0.42592165
126	0xbecc374a	-0.39885932
127	0x3a8a72e5	0.0010562806
128	0xbf0d2369	-0.55132157
129	0x3a84d105	0.0010133093
130	0xba5eedf7	-0.00085040875
131	0xbcec6190	-0.028855115
132	0xbf0186c2	-0.5059625
133	0x3a8e6eab	0.0010866722
134	0x3ebe130a	0.371239
135	0xba3e6dc6	-0.00072642823
136	0x3c36c013	0.0111541925
137	0xbeb4e577	-0.35331318
138	0x3b2f30f4	0.002673206
139	0x3ed78cec	0.42099702
140	0xbf05b7fa	-0.5223385
141	0xbeff938a	-0.4991725
142	0xba732565	-0.00092752866
143	0x3ec122f5	0.37721983
144	0xbf0ec3b1	-0.5576735
145	0xbed65e4a	-0.41868812
146	0x388cab1e	6.707593e-05
147	0x3e8474a8	0.25870252
148	0xbef828e9	-0.48468712
149	0x3c9cc2de	0.019135889
150	0xbb0ecde7	-0.0021790208
151	0x3b7a8da6	0.0038231402
152	0x3e9fcd14	0.3121115
153	0xbb861302	-0.0040916214
154	0x3ed36054	0.4128443
155	0xba4c7bdb	-0.00078004383
156	0x3a857bae	0.0010183954
157	0x3ed08258	0.40724444
158	0x3eb7af69	0.35876015
159	0xbed384ea	-0.41312343
160	0x3ee406ca	0.4453643
161	0xbf079868	-0.5296693
162	0xbb6041b2	-0.0034218845
163	0x3ed6577c	0.4186362
164	0x3e46040f	0.19337486
165	0x3a6d986a	0.0009063544
166	0x3edc8f30	0.43077993
167	0x3ec5e84a	0.38653785
168	0xbeadffc3	-0.33984193
169	0x3ebd0913	0.36920986
170	0xbc31b2d4	-0.010845859
171	0x3ecfd472	0.4059177
172	0xbf072243	-0.52786654
173	0xbedd1f0a	-0.43187743
174	0x3a7b5ab9	0.0009588409
175	0x3ee082e9	0.43849877
176	0xbf111dfa	-0.56686366
177	0x3ea28adb	0.31746563
178	0x3ec58902	0.3858109
179	0x3b3ab372	0.0028488305
180	0xbee08c42	-0.43857008
181	0x3ee29023	0.44250593
182	0xbf0790ae	-0.5295514
183	0xbed87dc3	-0.4228345
184	0x3ec61f36	0.38695687
185	0x3b247b3d	0.002509787
186	0xb99b7414	-0.0002965039
187	0x39699a38	0.00022278063
188	0xbf068d3a	-0.52559245
189	0xba6f9653	-0.00091395265
190	0xbc64ad6a	-0.013957361
191	0x3ed9b74d	0.4252266
192	0x3ed5c618	0.41752696
193	0x39d88980	0.00041301176
194	0xbd0af594	-0.033925608
195	0x3ea4b907	0.32172415
196	0xbf097e58	-0.5370841
197	0x3eb9f07c	0.36316288
198	0xbefadc98	-0.48996425
199	0xbcd565c6	-0.026049506
200	0x3e8c201d	0.2736825
201	0xbe7599e4	-0.23984486
202	0x3eb0e009	0.34545925
203	0x3eb59c2d	0.35470715
204	0x3bbc47e5	0.005745875
205	0xba77a690	-0.0009447122
206	0xbdf86095	-0.121277966
207	0xb9a3dd3b	-0.00031254612
208	0xbeb181e1	-0.34669402
209	0x3e9bc55b	0.30424008
210	0x3eb22123	0.34790906
211	0x3ebf5f83	0.37377557
212	0x3eb21601	0.34782413
213	0x3a10b61a	0.00055202993
214	0x3eb75f3d	0.3581485
215	0xbf095478	-0.53644514
216	0xbefefa52	-0.49800354
217	0xbe98cc75	-0.29843488
218	0xbe0d711b	-0.13812678
219	0xbee04155	-0.43799844
220	0x3eac0f8d	0.33605614
221	0x3e5862ce	0.21131441
222	0x3df76ec0	0.12081671
223	0xbb3b46f1	-0.002857622
224	0x39b4228a	0.0003435801
225	0xbadf3749	-0.0017030026
226	0x3e80f408	0.2518618
227	0x3b0a64f7	0.0021117309
228	0x3eb8e0a1	0.36108878
229	0x3ef56cf8	0.479347
230	0x3e82f374	0.25576365
231	0xbef327fa	-0.47491437
232	0x3b2b38fa	0.002612649
233	0xbc38c372	-0.011277067
234	0x3eb43f99	0.3520477
235	0xbf07e4e9	-0.53083664
236	0xba480971	-0.00076308014
237	0x3a555cfc	0.0008139161
238	0x3ec69378	0.38784385
239	0x3ed5f56a	0.417888
240	0xbe014254	-0.12622958
241	0xba16d9ae	-0.00057544827
242	0x3ebfc56d	0.3745531
243	0xbef23e9e	-0.47313398
244	0xbb4b5567	-0.0031026246
245	0x3e8ad748	0.27117372
246	0xbbd18441	-0.0063939397
247	0x3ef09534	0.46988833
248	0x3717c580	9.046285e-06
249	0x3eeda788	0.4641688
250	0x3c738164	0.014862392
251	0x3ad7ddf5	0.0016469347
252	0xb9f8f139	-0.0004748197
253	0x3eda1fb6	0.4260232
254	0x3ecc5626	0.39909476
255	0xba2db919	-0.0006627008

discrete_action.bias f4 [2]
0	0xbd8e3b59	-0.069449134
1	0x3d8d7273	0.06906595
